model/checkpoints/valitalo2016/chemeleon/model_000.onnx (onnx, 296487 bytes, 14 tensors)

lv_onnx::MatMul_4 f4 [1868, 28]
000000 00 00 00 00 00 00 00 00 00 00 00 00 00 00 00 00
       0.0 0.0 0.0 0.0
000010 00 00 00 00 00 00 00 00 00 00 00 00 00 00 00 00
       0.0 0.0 0.0 0.0
000020 00 00 00 00 00 00 00 00 00 00 00 00 00 00 00 00
       0.0 0.0 0.0 0.0
000030 00 00 00 00 00 00 00 00 00 00 00 00 00 00 00 00
       0.0 0.0 0.0 0.0
000040 00 00 00 00 00 00 00 00 00 00 00 00 00 00 00 00
       0.0 0.0 0.0 0.0
000050 00 00 00 00 00 00 00 00 00 00 00 00 00 00 00 00
       0.0 0.0 0.0 0.0
000060 00 00 00 00 00 00 00 00 00 00 00 00 00 00 00 00
       0.0 0.0 0.0 0.0
000070 00 00 00 00 00 00 00 00 00 00 00 00 00 00 00 00
       0.0 0.0 0.0 0.0
000080 00 00 00 00 00 00 00 00 00 00 00 00 00 00 00 00
       0.0 0.0 0.0 0.0
000090 00 00 00 00 00 00 00 00 00 00 00 00 00 00 00 00
       0.0 0.0 0.0 0.0
0000a0 00 00 00 00 00 00 00 00 00 00 00 00 00 00 00 00
       0.0 0.0 0.0 0.0
0000b0 00 00 00 00 00 00 00 00 00 00 00 00 00 00 00 00
       0.0 0.0 0.0 0.0
0000c0 00 00 00 00 00 00 00 00 00 00 00 00 00 00 00 00
       0.0 0.0 0.0 0.0
0000d0 00 00 00 00 00 00 00 00 00 00 00 00 00 00 00 00
       0.0 0.0 0.0 0.0
0000e0 00 00 00 00 00 00 00 00 00 00 00 00 00 00 00 00
       0.0 0.0 0.0 0.0
0000f0 00 00 00 00 00 00 00 00 00 00 00 00 00 00 00 00
       0.0 0.0 0.0 0.0
000100 00 00 00 00 00 00 00 00 00 00 00 00 00 00 00 00
       0.0 0.0 0.0 0.0
000110 00 00 00 00 00 00 00 00 00 00 00 00 00 00 00 00
       0.0 0.0 0.0 0.0
000120 00 00 00 00 00 00 00 00 00 00 00 00 00 00 00 00
       0.0 0.0 0.0 0.0
000130 00 00 00 00 00 00 00 00 00 00 00 00 00 00 00 00
       0.0 0.0 0.0 0.0
000140 00 00 00 00 00 00 00 00 00 00 00 00 00 00 00 00
       0.0 0.0 0.0 0.0
000150 00 00 00 00 00 00 00 00 00 00 00 00 00 00 00 00
       0.0 0.0 0.0 0.0
000160 00 00 00 00 00 00 00 00 00 00 00 00 00 00 00 00
       0.0 0.0 0.0 0.0
000170 00 00 00 00 00 00 00 00 00 00 00 00 00 00 00 00
       0.0 0.0 0.0 0.0
000180 00 00 00 00 00 00 00 00 00 00 00 00 00 00 00 00
       0.0 0.0 0.0 0.0
000190 00 00 00 00 00 00 00 00 00 00 00 00 00 00 00 00
       0.0 0.0 0.0 0.0
0001a0 00 00 00 00 00 00 00 00 00 00 00 00 00 00 00 00
       0.0 0.0 0.0 0.0
0001b0 00 00 00 00 00 00 00 00 00 00 00 00 00 00 00 00
       0.0 0.0 0.0 0.0
0001c0 00 00 00 00 00 00 00 00 00 00 00 00 00 00 00 00
       0.0 0.0 0.0 0.0
0001d0 51 07 9f 3f 00 00 00 00 00 00 00 00 00 00 00 00
       1.2424108 0.0 0.0 0.0
0001e0 00 00 00 00 00 00 00 00 00 00 00 00 00 00 00 00
       0.0 0.0 0.0 0.0
0001f0 00 00 00 00 00 00 00 00 00 00 00 00 00 00 00 00
       0.0 0.0 0.0 0.0
000200 00 00 00 00 00 00 00 00 00 00 00 00 00 00 00 00
       0.0 0.0 0.0 0.0
000210 00 00 00 00 00 00 00 00 00 00 00 00 00 00 00 00
       0.0 0.0 0.0 0.0
000220 00 00 00 00 00 00 00 00 00 00 00 00 00 00 00 00
       0.0 0.0 0.0 0.0
000230 00 00 00 00 00 00 00 00 00 00 00 00 00 00 00 00
       0.0 0.0 0.0 0.0
000240 00 00 00 00 00 00 00 00 00 00 00 00 00 00 00 00
       0.0 0.0 0.0 0.0
000250 00 00 00 00 00 00 00 00 00 00 00 00 00 00 00 00
       0.0 0.0 0.0 0.0
000260 00 00 00 00 00 00 00 00 00 00 00 00 00 00 00 00
       0.0 0.0 0.0 0.0
000270 00 00 00 00 00 00 00 00 00 00 00 00 00 00 00 00
       0.0 0.0 0.0 0.0
000280 00 00 00 00 00 00 00 00 00 00 00 00 00 00 00 00
       0.0 0.0 0.0 0.0
000290 00 00 00 00 00 00 00 00 00 00 00 00 51 07 9f bf
       0.0 0.0 0.0 -1.2424108
0002a0 00 00 00 00 00 00 00 00 00 00 00 00 00 00 00 00
       0.0 0.0 0.0 0.0
0002b0 00 00 00 00 00 00 00 00 00 00 00 00 00 00 00 00
       0.0 0.0 0.0 0.0
0002c0 00 00 00 00 00 00 00 00 00 00 00 00 00 00 00 00
       0.0 0.0 0.0 0.0
0002d0 00 00 00 00 00 00 00 00 00 00 00 00 00 00 00 00
       0.0 0.0 0.0 0.0
0002e0 00 00 00 00 00 00 00 00 00 00 00 00 00 00 00 00
       0.0 0.0 0.0 0.0
0002f0 00 00 00 00 00 00 00 00 00 00 00 00 00 00 00 00
       0.0 0.0 0.0 0.0
000300 00 00 00 00 00 00 00 00 00 00 00 00 00 00 00 00
       0.0 0.0 0.0 0.0
000310 00 00 00 00 00 00 00 00 00 00 00 00 00 00 00 00
       0.0 0.0 0.0 0.0
000320 00 00 00 00 00 00 00 00 00 00 00 00 00 00 00 00
       0.0 0.0 0.0 0.0
000330 00 00 00 00 00 00 00 00 00 00 00 00 00 00 00 00
       0.0 0.0 0.0 0.0
000340 00 00 00 00 00 00 00 00 00 00 00 00 00 00 00 00
       0.0 0.0 0.0 0.0
000350 00 00 00 00 00 00 00 00 00 00 00 00 00 00 00 00
       0.0 0.0 0.0 0.0
000360 00 00 00 00 00 00 00 00 00 00 00 00 00 00 00 00
       0.0 0.0 0.0 0.0
000370 00 00 00 00 00 00 00 00 00 00 00 00 00 00 00 00
       0.0 0.0 0.0 0.0
000380 00 00 00 00 00 00 00 00 00 00 00 00 00 00 00 00
       0.0 0.0 0.0 0.0
000390 00 00 00 00 00 00 00 00 51 07 9f 3f 00 00 00 00
       0.0 0.0 1.2424108 0.0
0003a0 00 00 00 00 00 00 00 00 00 00 00 00 00 00 00 00
       0.0 0.0 0.0 0.0
0003b0 00 00 00 00 00 00 00 00 00 00 00 00 00 00 00 00
       0.0 0.0 0.0 0.0
0003c0 00 00 00 00 00 00 00 00 00 00 00 00 00 00 00 00
       0.0 0.0 0.0 0.0
0003d0 00 00 00 00 00 00 00 00 00 00 00 00 00 00 00 00
       0.0 0.0 0.0 0.0
0003e0 00 00 00 00 00 00 00 00 00 00 00 00 00 00 00 00
       0.0 0.0 0.0 0.0
0003f0 00 00 00 00 00 00 00 00 00 00 00 00 00 00 00 00
       0.0 0.0 0.0 0.0

lr_lr_W f4 [1868, 1]
000000 92 07 9e 39 c0 4e cc 38 7d b5 97 ba 36 66 ac ba
       0.0003014175 9.742146e-05 -0.0011574473 -0.001315302
000010 c3 b5 2f b9 8d 8b 9b 39 3b e9 e8 3a 4b 1f 02 3a
       -0.00016757012 0.00029667877 0.0017769703 0.00049637695
000020 0e 48 c3 3a de f0 9e 3a ce d4 4f ba fd 7f d5 b9
       0.0014898793 0.0012126227 -0.0007928134 -0.00040721885
000030 29 3e f2 39 3c a1 45 3a c6 10 96 3a cd 5a 09 3a
       0.0004620415 0.00075389794 0.0011449091 0.00052396656
000040 08 e2 3c ba ae 75 6d ba 22 ce 70 ba e4 6f a8 3a
       -0.0007205312 -0.0009058368 -0.00091859896 0.0012850729
000050 97 a5 24 ba 41 da cb 3a 25 36 ca ba aa b9 bd b9
       -0.00062807783 0.0015552716 -0.0015427513 -0.0003618722
000060 75 15 24 3b 7a c3 8a ba b9 42 90 3a 9a 5a 85 ba
       0.0025037203 -0.0010586821 0.0011006213 -0.0010174096
000070 c7 d7 b7 3a b8 84 4d ba 9e b1 18 39 8c 44 83 3a
       0.0014026099 -0.0007839906 0.00014562017 0.0010014935
000080 b5 cf 83 ba b5 a3 c8 39 03 46 de 38 a8 f5 36 3b
       -0.0010056408 0.00038268944 0.000105988256 0.0027917419
000090 77 3d 2e 3a 3f f0 35 3b bc 5a 04 ba 85 a3 26 3a
       0.0006646732 0.0027761606 -0.0005048921 0.0006356764
0000a0 77 0c d6 3a 79 79 f6 38 84 e8 c1 b9 a2 b7 ba b9
       0.0016330619 0.0001175282 -0.00036985066 -0.00035613502
0000b0 7a a9 1e 3a ed 4a 63 ba cd ef 13 39 e0 52 b2 3a
       0.00060524757 -0.00086705276 0.00014108345 0.0013605021
0000c0 23 1a 78 3a 36 7d 1d bb 82 9a c7 3a 40 da 9e ba
       0.0009464344 -0.002403093 0.0015228542 -0.0012119487
0000d0 2d 0e a6 3a 9b 19 2c 39 8a cb e6 3a fd 98 be 3a
       0.001266902 0.00016412737 0.0017608267 0.0014541444
0000e0 41 d7 ba 3a 5e 53 af ba 97 5c 22 3a 89 db ad 38
       0.0014254824 -0.0013376286 0.00061936065 8.2901744e-05
0000f0 55 fe 61 3a 42 19 38 3a 4d 8e c2 39 ca e3 98 39
       0.0008620967 0.00070228067 0.00037108586 0.00029161415
000100 d3 a3 83 ba 9c 3d 30 3a 73 ad a2 ba a4 4a 62 ba
       -0.001004333 0.00067230477 -0.0012411311 -0.0008632338
000110 fd b0 09 38 a7 58 83 ba 9b 4b a8 3a 59 37 be b9
       3.282818e-05 -0.0010020927 0.0012839915 -0.0003628086
000120 21 0e ad ba ee fa 29 b8 d9 83 a5 39 74 ed 40 ba
       -0.0013203063 -4.0526436e-05 0.00031569487 -0.0007359602
000130 22 1b 10 b8 d5 e8 21 ba 45 47 6f ba ae 36 83 ba
       -3.4357545e-05 -0.0006176357 -0.00091277465 -0.0010010803
000140 63 cc 39 3a 6b 6b a5 39 0c a1 ea ba d5 0f b6 39
       0.0007087646 0.00031551285 -0.0017900779 0.0003472554
000150 80 9a 1a 37 24 e9 00 3a 56 88 84 ba 54 ec 17 39
       9.215088e-06 0.0004917553 -0.0010111432 0.00014488521
000160 06 01 ca ba 63 93 12 ba 62 e2 c5 39 94 3d ec 3a
       -0.0015411682 -0.00055914203 0.00037743436 0.0018023723
000170 f1 21 7e 3a ee ab 09 bb dd e6 b1 3a 86 76 7d 3a
       0.0009694389 -0.002100702 0.0013572831 0.00096688455
000180 c3 b6 62 ba 00 02 2e ba af 54 82 3a 29 d7 61 3a
       -0.00086484494 -0.0006637871 0.000994345 0.000861513
000190 24 a9 e0 3a 49 24 a8 ba bf 71 4f ba 0b 5d 94 3a
       0.0017140252 -0.0012828197 -0.0007913373 0.0011319233
0001a0 74 17 a6 38 d1 a9 e7 ba 22 e7 d6 ba dc 34 fd b9
       7.919865e-05 -0.0017674511 -0.0016395787 -0.00048295304
0001b0 a3 2c c6 3a 21 43 85 39 a4 da 10 bb e4 10 0a 3a
       0.0015119504 0.00025417752 -0.0022102976 0.0005266799
0001c0 93 fe 03 39 ce c6 3a ba 5d 91 47 3a 18 b9 f1 b9
       0.0001258797 -0.0007124961 0.00076129084 -0.00046105008
0001d0 8c 32 a3 3a 1f c4 15 39 c7 bf ab 3a ce e1 1a 3a
       0.0012450977 0.00014282808 0.0013103419 0.00059082813
0001e0 fc a2 18 ba 2b 47 76 ba 98 a1 14 ba 81 09 dd ba
       -0.00058226264 -0.000939476 -0.00056698313 -0.0016863794
0001f0 39 33 19 39 19 67 33 ba 08 51 c7 3a bd 12 8f 3a
       0.00014610299 -0.0006843671 0.0015206644 0.0010915619
000200 d0 13 8d 39 6a 0d b5 ba 48 31 dc ba 71 95 82 b9
       0.00026908377 -0.0013813202 -0.0016799355 -0.00024906875
000210 5a b3 82 b9 69 51 22 b8 ee 97 d7 3a b5 29 c5 ba
       -0.0002492916 -3.869963e-05 0.0016448477 -0.0015042337
000220 ba 77 90 ba d2 eb 66 ba ba 7b 9f 39 ae da 7c ba
       -0.001102201 -0.00088089437 0.00030419027 -0.0009645623
000230 1f 85 14 39 43 8f fa ba 89 f6 23 3a 87 8b 36 ba
       0.00014163971 -0.0019116182 0.0006254693 -0.000696354
000240 61 1a c8 ba 43 2a f8 3a 85 c4 90 39 aa 1c ff 3a
       -0.0015266651 0.0018933493 0.0002761224 0.0019463499
000250 e4 dd 51 b9 ee ff b3 3a 7a 49 12 3a 6f e4 74 ba
       -0.00020014454 0.0013732889 0.0005580407 -0.00093419006
000260 fc f9 08 3b ad 8f dc 3a 0c e5 25 39 6c 86 9b ba
       0.0020900955 0.0016827487 0.00015820953 -0.0011865622
000270 1a 48 46 ba 52 fb 01 3b e1 e4 09 3a 97 71 87 b9
       -0.00075638446 0.0019833636 0.0005260241 -0.00025833838
000280 64 d2 ad ba cd f6 2b bb d4 3c 4f 3a 25 10 ce b9
       -0.0013261554 -0.0026239634 0.00079054874 -0.0003930341
000290 19 96 e2 b8 c7 8d c3 3a fa c6 76 3a 4b 78 7f b9
       -0.00010804478 0.0014919572 0.0009413805 -0.00024363508
0002a0 ad 24 10 3a 67 60 7d ba 6b a7 af ba 3a 05 b0 b9
       0.0005498629 -0.0009665549 -0.0013401335 -0.0003357323
0002b0 3f 2e 8d b9 5b a0 73 ba e9 e2 90 b8 6b 67 6d b9
       -0.00026928072 -0.0009293609 -6.9087204e-05 -0.00022640607
0002c0 88 9d 35 3a 5d 52 7e 39 cc 4e 88 b9 dd 9f 42 ba
       0.0006928076 0.0002425401 -0.0002599865 -0.0007424334
0002d0 b0 2e 69 3a 09 6f ee 38 4e 4d 9f ba 70 d4 82 3a
       0.00088952016 0.00011369406 -0.0012153776 0.0009981524
0002e0 5b ec ac 3a b1 db e3 ba 69 58 b4 b9 48 de b4 ba
       0.0013192998 -0.0017384199 -0.00034398146 -0.0013799155
0002f0 ef df 47 ba f5 8d 35 ba ae 4d 98 ba 0d 92 85 3a
       -0.0007624616 -0.00069257553 -0.001161983 0.0010190621
000300 98 1f 04 bb 51 91 88 3a d4 94 e3 ba 73 20 da b9
       -0.0020160433 0.0010419284 -0.001736308 -0.00041604377
000310 40 5c b1 ba b2 5d 0c 3a fb ab d0 38 fc 89 62 3a
       -0.0013531521 0.0005354538 9.950247e-05 0.0008641777
000320 1b 44 8d 38 0c bb 45 ba 3e 00 e0 3a 0b 96 d2 ba
       6.7360896e-05 -0.0007542826 0.0017089916 -0.0016066445
000330 79 28 02 3b e6 e6 a6 b9 7c 09 30 39 5a 42 0d ba
       0.001986055 -0.0003183402 0.00016788201 -0.00053886103
000340 97 b6 82 b9 59 3e 8b ba a9 d7 8d ba 55 8f ad 38
       -0.00024931572 -0.001062344 -0.0010821718 8.2759805e-05
000350 4b 14 51 3a 3a 7a 4d 39 f0 69 c4 b9 91 49 d1 3a
       0.0007975741 0.00019595856 -0.00037462963 0.0015967359
000360 70 a0 a0 ba b5 52 86 3a 88 94 9c 3a 43 27 44 ba
       -0.0012254845 0.0010248037 0.0011946121 -0.0007482657
000370 84 a4 00 bb 42 9c 47 b8 54 71 36 3a 4c ef 04 bb
       -0.001962931 -4.7590824e-05 0.0006959636 -0.0020284234
000380 fe da b0 3a 40 07 f0 b9 30 26 1b ba 3a da e5 ba
       0.0013492999 -0.0004578177 -0.0005918471 -0.001753635
000390 5c c9 77 ba fb 5f 0f 38 c5 df a3 39 79 e7 bf ba
       -0.0009452307 3.4183246e-05 0.00031256504 -0.0014641128
0003a0 94 e4 f5 ba d0 32 f4 ba e9 cd 97 ba 73 62 78 39
       -0.0018760138 -0.0018630866 -0.0011581752 0.00023687798
0003b0 6b 33 b1 b9 c0 10 3d ba 7e fd 93 ba 8c 89 98 b9
       -0.0003379838 -0.0007212274 -0.0011290757 -0.0002909418
0003c0 6c 91 bf ba 45 d5 4e 3a ad 30 27 ba 44 1b 7a b8
       -0.0014615483 0.0007890056 -0.00063777977 -5.9630038e-05
0003d0 cf 42 3c 3a 8f e5 98 3a 8f b6 bc ba 9c 07 78 b9
       0.0007181586 0.0011665093 -0.0014397668 -0.00023653958
0003e0 0a b3 c9 b9 20 03 e7 3a f9 df f5 39 c2 07 3a ba
       -0.00038471102 0.0017624833 0.00046896914 -0.0007096493
0003f0 69 7e 49 3a 45 4d 01 bb da eb 71 39 92 2d 21 3a
       0.0007686378 -0.0019729894 0.00023071413 0.0006148453

svc_W2_svc f4 [1868, 1]
000000 fa 1f e9 36 bc 79 1f 37 39 76 ba b8 c2 50 98 b8
       6.9476637e-06 9.505482e-06 -8.891192e-05 -7.262967e-05
000010 fd c3 3b b7 4d 95 e1 37 5b 57 ee 38 46 ec 0a 38
       -1.1191701e-05 2.6891614e-05 0.000113649956 3.312181e-05
000020 47 f0 b0 38 b8 0f 86 38 1e c4 fa b7 ff 0a b8 b7
       8.437089e-05 6.392546e-05 -2.9893647e-05 -2.193963e-05
000030 86 96 1e 38 98 82 05 38 e3 ea a9 38 c3 cc e6 37
       3.781032e-05 3.1831296e-05 8.102299e-05 2.7513486e-05
000040 bb e7 0b b8 c9 71 37 b8 c9 30 35 b8 cd fa 8d 38
       -3.3356e-05 -4.373657e-05 -4.3199198e-05 6.770119e-05
000050 01 5e fa b7 df c4 d7 38 d3 36 df b8 6e 3b 18 b8
       -2.9846096e-05 0.00010288669 -0.000106436804 -3.6294972e-05
000060 dd 83 0c 39 29 00 a3 b8 05 30 67 38 35 15 77 b8
       0.00013400563 -7.7724755e-05 5.5119413e-05 -5.890914e-05
000070 a8 03 cc 38 37 83 4b b8 d1 40 14 37 56 7a 61 38
       9.728159e-05 -4.8521175e-05 8.836579e-06 5.3758115e-05
000080 29 7d ab b8 86 e4 9d 37 04 94 32 b7 0e 67 2f 39
       -8.177228e-05 1.8822273e-05 -1.0644089e-05 0.00016727691
000090 22 d8 4f 38 f2 e0 20 39 9f 0f 1a b8 88 c3 29 38
       4.9553935e-05 0.00015342588 -3.673101e-05 4.0474843e-05
0000a0 ae db a0 38 c0 7b 38 37 92 c6 ab b6 f0 6c b4 b7
       7.670313e-05 1.0996067e-05 -5.1193138e-06 -2.15084e-05
0000b0 ba 9a f7 37 86 98 9c b8 64 fc cc 36 0e 05 9b 38
       2.9516745e-05 -7.4670694e-05 6.109056e-06 7.3919175e-05
0000c0 0f 68 88 38 1d d4 27 b9 9d 8e d6 38 7a 6a 9e b8
       6.504368e-05 -0.0001600538 0.00010230879 -7.55386e-05
0000d0 d1 99 c2 38 e1 3e af 37 89 a2 d5 38 34 0f b2 38
       9.2792914e-05 2.0890906e-05 0.00010186906 8.490533e-05
0000e0 9c fd a5 38 ea 4d 68 b8 8c 15 09 38 50 1c 37 b7
       7.9150515e-05 -5.5385673e-05 3.2683412e-05 -1.0914242e-05
0000f0 a1 11 3a 38 40 7a 1f 38 c3 58 3b 37 b5 33 07 38
       4.4362274e-05 3.802241e-05 1.1166735e-05 3.2234664e-05
000100 27 5d ae b8 89 b3 1e 38 24 1c cc b8 a9 88 70 b8
       -8.3143175e-05 3.783734e-05 -9.7327196e-05 -5.7347734e-05
000110 59 0f c7 b7 c3 fe 62 b8 56 86 96 38 f2 e6 c5 b7
       -2.3729795e-05 -5.4119864e-05 7.1775794e-05 -2.3591772e-05
000120 aa 61 d0 b8 26 b5 3a b7 65 91 b7 37 41 75 38 b8
       -9.936404e-05 -1.1128641e-05 2.1883005e-05 -4.397822e-05
000130 49 7e 33 b7 56 64 5f b8 dc ce 78 b8 a3 32 75 b8
       -1.06986345e-05 -5.326079e-05 -5.932046e-05 -5.845971e-05
000140 09 4f 3b 38 d3 1c 3c 37 8c 08 e5 b8 9c d8 9c 37
       4.465788e-05 1.1212384e-05 -0.00010921163 1.8697516e-05
000150 de 41 27 b7 c7 ee ed 36 1a 04 a2 b8 ef 56 9e 35
       -9.969312e-06 7.0909477e-06 -7.725526e-05 1.1797218e-06
000160 3d bd e8 b8 a0 47 09 b8 79 b9 43 37 82 1d f5 38
       -0.000110978704 -3.273005e-05 1.1666089e-05 0.000116880066
000170 ef 33 63 38 59 f2 0b b9 48 f6 cb 38 e8 31 5b 38
       5.4169384e-05 -0.00013346355 9.725668e-05 5.2260148e-05
000180 e9 a3 58 b8 19 19 0b b8 e9 33 63 38 91 61 56 38
       -5.1651066e-05 -3.3163557e-05 5.4169363e-05 5.111244e-05
000190 af 40 cb 38 84 78 c4 b8 bc f2 02 b8 33 2b 8e 38
       9.6918426e-05 -9.368456e-05 -3.122048e-05 6.779134e-05
0001a0 04 10 5e 37 16 6d 08 b9 98 ef f0 b8 c8 f0 cc b7
       1.323596e-05 -0.00013010608 -0.000114887196 -2.4430818e-05
0001b0 cf 48 91 38 de 33 1d 38 de bc 13 b9 1b 5e b2 37
       6.9277005e-05 3.7480022e-05 -0.00014089371 2.1263075e-05
0001c0 aa f4 6e 37 5a b6 25 b8 0e 2b 11 38 e9 c7 0f b8
       1.4242871e-05 -3.9508894e-05 3.461079e-05 -3.4280038e-05
0001d0 a6 21 8e 38 a5 28 52 37 47 ff ca 38 63 62 9b 37
       6.777355e-05 1.2526439e-05 9.67966e-05 1.8523255e-05
0001e0 9f d7 85 b8 50 f6 9a b8 dc c4 09 b8 dc 1d d2 b8
       -6.382097e-05 -7.3891715e-05 -3.2846685e-05 -0.00010019142
0001f0 7c b7 e9 37 46 1e 74 b8 bd 48 db 38 9f 7d 80 38
       2.7861206e-05 -5.8202328e-05 0.00010456282 6.1269144e-05
000200 6e 79 c9 b6 7c d9 c6 b8 4d e7 c7 b8 3e 15 9c b7
       -6.004403e-06 -9.481885e-05 -9.5321426e-05 -1.860654e-05
000210 87 12 03 37 60 3f b7 36 96 ac ee 38 cc f4 f3 b8
       7.812522e-06 5.461203e-06 0.00011380871 -0.0001163274
000220 61 c6 b5 b8 5c a4 d0 b7 43 a8 45 37 e8 a7 97 b8
       -8.6677035e-05 -2.4872068e-05 1.17812915e-05 -7.231516e-05
000230 1d 96 b3 b6 78 22 01 b9 e6 d9 68 38 fd 87 4a b8
       -5.352091e-06 -0.0001231524 5.5516044e-05 -4.8287202e-05
000240 c1 63 d8 b8 e0 d2 fd 38 9b af 73 37 98 22 fc 38
       -0.00010318263 0.000121032586 1.4524815e-05 0.0001202274
000250 09 00 9d b7 56 57 87 38 c7 86 29 38 0b ed 33 b8
       -1.8715875e-05 6.453569e-05 4.041826e-05 -4.289769e-05
000260 23 06 11 39 de 11 e2 38 b1 c7 5a b6 9c be 88 b8
       0.00013830564 0.00010779848 -3.2600767e-06 -6.520489e-05
000270 17 17 42 b8 d1 f8 da 38 4b a3 63 38 32 6b ca b7
       -4.627471e-05 0.00010441396 5.4273096e-05 -2.4130193e-05
000280 a4 ad c7 b8 f8 36 2e b9 0c d0 2c 38 07 d6 e6 b7
       -9.5214025e-05 -0.0001661441 4.1201754e-05 -2.75178e-05
000290 0c bf e7 34 d0 cc b1 38 0a 64 5c 38 7b 45 9a b7
       4.3166108e-07 8.478167e-05 5.2545256e-05 -1.8390585e-05
0002a0 3e 3b 2f 38 dd 6f 67 b8 aa 30 c4 b8 57 19 32 b7
       4.1778425e-05 -5.5178873e-05 -9.355073e-05 -1.0615527e-05
0002b0 72 0a 28 b8 54 67 63 b8 f1 20 a5 b6 b5 9a 29 37
       -4.006405e-05 -5.421725e-05 -4.921218e-06 1.01092055e-05
0002c0 9d 0d 64 38 cf dd 01 38 1e a2 2c b8 00 7b 34 b8
       5.4372114e-05 3.0962572e-05 -4.115898e-05 -4.3029897e-05
0002d0 6f 8c a7 38 46 5c 99 37 af 8e c5 b8 fa b0 66 38
       7.989338e-05 1.828199e-05 -9.420269e-05 5.5001095e-05
0002e0 bc ec a7 38 d1 3a 01 b9 67 fc 3a b8 0a 42 90 b8
       8.007276e-05 -0.0001232431 -4.4580924e-05 -6.878756e-05
0002f0 5a 46 32 b8 a3 60 22 b8 37 ab 9e b8 ae 59 b0 38
       -4.2504027e-05 -3.871381e-05 -7.565918e-05 8.409038e-05
000300 c9 05 0b b9 9c 47 6f 38 bc 93 01 b9 2c d7 38 b8
       -0.00013258228 5.7048732e-05 -0.00012357434 -4.4069413e-05
000310 3f bd 69 b8 de 45 01 38 94 a2 c7 37 49 19 35 38
       -5.5727778e-05 3.0821066e-05 2.3798355e-05 4.317731e-05
000320 80 20 9c 37 9a 3c 7d b8 82 18 c6 38 01 10 dc b8
       1.8611783e-05 -6.037634e-05 9.445941e-05 -0.000104933984
000330 41 2e e3 38 5c 32 f8 b7 1e 4d 80 37 9a 3c 25 b8
       0.00010832819 -2.9587354e-05 1.52947e-05 -3.9395505e-05
000340 dc 65 1a b7 ca c6 b2 b8 c1 1f b4 b8 d4 92 e4 b6
       -9.202831e-06 -8.524729e-05 -8.5889835e-05 -6.8120225e-06
000350 11 55 5f 38 c5 4b 87 37 83 bb 0a b8 b5 25 d2 38
       5.3246567e-05 1.6128537e-05 -3.3076398e-05 0.00010020604
000360 ed 7a b8 b8 55 2a 3e 38 91 5c ae 38 04 c7 2f b8
       -8.7967004e-05 4.5338955e-05 8.3142084e-05 -4.19086e-05
000370 01 e3 0b b9 fa 09 2e 36 86 52 36 38 2e 7b 14 b9
       -0.00013340639 2.5933828e-06 4.3469037e-05 -0.00014160268
000380 ea 99 ae 38 1e 62 fd b7 b2 88 0e b8 35 13 e5 b8
       8.325635e-05 -3.020564e-05 -3.3982746e-05 -0.000109231485
000390 5a 99 67 b8 8e 6d ee 36 26 b5 08 38 05 3a dc b8
       -5.521751e-05 7.1057066e-06 3.2593634e-05 -0.000105012245
0003a0 aa 0b ee b8 f5 0a e4 b8 18 3b a8 b8 cb 11 7f 37
       -0.00011350897 -0.00010873928 -8.021871e-05 1.5203327e-05
0003b0 bc eb d0 b7 19 62 fd b7 42 1b 96 b8 5d e5 46 b7
       -2.4905305e-05 -3.020563e-05 -7.1576345e-05 -1.18551225e-05
0003c0 47 19 d3 b8 6a 78 35 38 b1 4e 6a b8 e6 a6 03 b7
       -0.00010065972 4.3265907e-05 -5.5863235e-05 -7.8470675e-06
0003d0 86 6a 5c 38 38 5d b1 38 36 78 c9 b8 3b 12 98 b7
       5.2551295e-05 8.457381e-05 -9.606818e-05 -1.8128301e-05
0003e0 9b 4e 3a b8 23 68 ec 38 2f 3c 01 38 07 70 4e b8
       -4.4419063e-05 0.00011272754 3.0812047e-05 -4.921856e-05
0003f0 de 60 1f 38 19 1b 0e b9 28 a4 fd 35 42 cd 5f 38
       3.799877e-05 -0.0001355227 1.8897745e-06 5.3358504e-05

fs_lr_fs_lr_W f4 [337, 1]
000000 f2 bd 13 3b 81 e7 06 3b 7c a5 06 bb e9 0f 4c 3b
       0.0022543636 0.0020584764 -0.0020545414 0.0031137413
000010 98 e7 fa 3a d5 9b 6b 3b 68 39 60 3b 49 35 50 bb
       0.0019142507 0.0035951037 0.0034213904 -0.0031770042
000020 a6 14 fa 3a 2e 18 0d 3b e2 7e db ba 0d f3 eb ba
       0.001907964 0.0021529305 -0.0016746188 -0.0018001512
000030 c0 8f 16 bb 3f 00 08 bb 26 bc 18 3b ec 76 36 bb
       -0.0022973865 -0.00207521 0.0023305505 -0.002784188
000040 48 2f e5 3a cf 28 12 3b 3c 52 e9 ba 06 b6 1e bb
       0.0017485404 0.0022302156 -0.0017800997 -0.002421738
000050 1c 1d 0e bb 3b 98 38 bb f6 d8 de 3a 00 37 0d bb
       -0.002168483 -0.0028166908 0.0017001915 -0.0021547675
000060 43 82 f8 3a 24 2c 0b 3b d1 32 04 bb d9 0f 23 bb
       0.001895972 0.0021236027 -0.002017189 -0.0024881272
000070 4e b6 04 bb 7e 79 1b 3b 82 27 24 3b a3 59 34 3b
       -0.0020250264 0.0023723538 0.0025047963 0.0027519248
000080 0b 20 15 3b 62 7b 22 3b fd 36 ec ba 33 f9 60 bb
       0.0022754695 0.002479278 -0.0018021759 -0.0034328222
000090 48 4d 18 bb 90 1d 2c bb 3e 89 1b bb 14 4e 07 bb
       -0.0023239423 -0.0026262738 -0.0023732926 -0.0020645903
0000a0 0f 65 2a 3b d6 e7 07 3b 0d a7 2b bb f2 80 32 bb
       0.0026000177 0.002073755 -0.00261921 -0.0027237502
0000b0 81 82 13 bb 11 46 02 bb 06 e2 1e bb dd 46 1d bb
       -0.0022508206 -0.0019878189 -0.0024243607 -0.0023998537
0000c0 d7 c9 02 bb 80 9a 16 3b a7 9f 2e bb 82 53 fb ba
       -0.0019956732 0.0022980273 -0.0026645453 -0.0019174668
0000d0 a3 df 27 3b 20 39 f1 3a 40 6b 45 3b ab 99 39 bb
       0.0025615476 0.0018403865 0.003012374 -0.0028320353
0000e0 77 e6 0c bb 37 fc 4e bb 52 63 05 3b db 83 f7 ba
       -0.0021499672 -0.0031583437 0.002035339 -0.00188839
0000f0 9f a2 0a bb 55 21 09 3b ac 42 0e bb 6f ed e0 3a
       -0.0021154059 0.0020924408 -0.002170722 0.0017160604
000100 33 27 fd ba ed 5a 30 bb b0 0c ff 3a 25 9f 03 bb
       -0.001931405 -0.0026909665 0.0019458737 -0.0020083871
000110 87 73 2a bb 33 b7 02 bb 8f ab 58 bb bc d9 27 3b
       -0.00260088 -0.001994562 -0.0033061241 0.0025611958
000120 5f e7 f6 ba 39 a0 23 bb 0d 7a fe ba 6f 94 15 bb
       -0.0018837265 -0.0024967326 -0.0019415036 -0.002282407
000130 20 3e 37 bb 60 01 5e bb 2a 4c 0c 3b 11 52 09 bb
       -0.0027960613 -0.0033875331 0.0021407702 -0.0020953456
000140 42 b5 27 3b 3b 37 2c 3b 12 2d 1a bb 79 62 15 bb
       0.0025590216 0.0026278037 -0.00235254 -0.002279429
000150 0d 3b 12 3b 99 6c 00 bb 7b 48 12 bb 54 68 13 3b
       0.002231303 -0.001959598 -0.0022321034 0.0022492604
000160 3a 7c 09 bb 3c c1 20 bb 42 e8 1a 3b 84 0d 40 bb
       -0.0020978586 -0.002452924 0.0023636972 -0.002930493
000170 31 96 10 bb 51 d9 e0 ba f8 ea 0a 3b 56 ca f6 3a
       -0.0022062177 -0.0017154609 0.0021197181 0.0018828611
000180 5a 90 34 3b 0f 46 eb 3a 52 00 e8 3a dd 46 f1 ba
       0.002755186 0.0017949956 0.0017700291 -0.001840796
000190 3e 5c 37 bb 41 5b f7 3a 8c 83 07 bb ef 72 0e 3b
       -0.0027978565 0.00188718 -0.0020677773 0.0021735986
0001a0 2d 40 0f 3b 01 2f 00 bb 41 7b fe ba 35 5b f8 ba
       0.002185832 -0.0019559267 -0.0019415395 -0.001894808
0001b0 7f b5 0b bb 61 21 3d bb fd f2 25 bb a7 a5 e8 ba
       -0.0021317897 -0.0028859007 -0.0025321834 -0.0017749564
0001c0 9e 78 07 bb ea 98 21 bb 40 cc 10 bb 9c 63 fc ba
       -0.0020671259 -0.0024657794 -0.0022094399 -0.001925576
0001d0 7b a3 05 bb 10 7c 01 bb ab fe 07 3b 19 28 2d bb
       -0.0020391631 -0.0019757785 0.002075116 -0.0026421605
0001e0 1b ca 16 3b 46 d4 20 3b f7 ac 3f 3b 85 de 3c bb
       0.0023008648 0.0024540587 0.0029247382 -0.0028819155
0001f0 b6 ed 0b bb 41 3b 15 3b a3 d7 33 bb 1b 67 56 bb
       -0.0021351404 0.0022770914 -0.0027441762 -0.0032715264
000200 15 62 56 3b 16 69 24 3b 19 5d 4f 3b 70 a5 1b 3b
       0.003271227 0.002508705 0.0031641184 0.0023749731
000210 48 ae 1d bb f9 91 07 bb 29 95 10 bb 8c b8 1e bb
       -0.0024060179 -0.0020686372 -0.0022061563 -0.0024218885
000220 c8 18 20 bb 54 fa 46 bb 96 8c 17 bb 0e 3c 09 bb
       -0.0024428833 -0.003036161 -0.0023124567 -0.0020940336
000230 76 d6 2f 3b d3 5f 03 bb fc f3 fd 3a a9 08 15 3b
       0.002683071 -0.002004613 0.0019375081 0.0022740758
000240 29 70 38 bb 42 0c 1a 3b bd 37 27 bb c0 44 11 bb
       -0.0028143025 0.0023505841 -0.00255154 -0.0022166222
000250 b1 4e e1 ba 17 29 18 3b 9b 2d 12 3b 97 4d 30 bb
       -0.001718959 0.002321785 0.0022305015 -0.0026901716
000260 c4 0c 44 3b 6b 95 16 bb 4c cf 02 3b ff fe 2f bb
       0.0029914835 -0.0022977244 0.0019959984 -0.002685487
000270 5f 2c 39 3b d4 2d 11 3b fc 26 03 bb 88 73 fb ba
       0.0028255207 0.002215256 -0.002001225 -0.0019184211
000280 c7 a3 1b bb d8 70 16 bb c4 5c eb ba 9f cf 80 bb
       -0.0023748742 -0.0022955444 -0.0017956723 -0.0039310004
000290 04 1d 31 bb 1a 21 4e bb c5 35 00 3b 40 a2 0a 3b
       -0.0027025351 -0.0031452836 0.00195633 0.0021153837
0002a0 8c a2 25 3b 21 33 13 bb 8a 93 f8 ba dd d0 09 bb
       0.0025273887 -0.0022460895 -0.0018964869 -0.0021029033
0002b0 0f 2f 2a bb 87 f0 13 bb c4 80 29 bb 0a 9f 27 bb
       -0.002596799 -0.0022573785 -0.0025864104 -0.0025576972
0002c0 f4 ff 38 3b 39 c0 2e 3b f9 f3 31 3b ab f1 31 bb
       0.0028228732 0.0026664867 0.0027153476 -0.0027152102
0002d0 1d 30 f0 ba 68 42 32 3b 89 54 26 bb 7a 2b fe ba
       -0.0018324886 0.0027200226 -0.0025379977 -0.0019391619
0002e0 fc 9c 32 3b d7 bc 2a bb ec 08 25 bb 58 7c 0d bb
       0.0027254215 -0.0026052499 -0.002518232 -0.0021589007
0002f0 c1 60 04 3b 46 95 4d bb 8e b4 4a bb 68 12 fa 3a
       0.0020199271 -0.0031369491 -0.0030930373 0.0019078972
000300 74 ae 06 bb 38 2a 08 bb f3 f8 06 3b f5 15 0e bb
       -0.002055076 -0.0020777117 0.0020595163 -0.0021680568
000310 a8 4e 63 3b 68 b7 56 3b ca ee 42 3b de 27 37 bb
       0.0034684334 0.0032763127 0.002974438 -0.0027947347
000320 31 85 d5 ba de 91 05 3b 4e 51 2b bb d6 2e 02 bb
       -0.0016290304 0.0020381133 -0.002614099 -0.0019864342
000330 fe a9 28 bb bf c1 1d bb c0 a7 41 bb 6c da 40 3b
       -0.002573609 -0.002407178 -0.002954945 0.0029427065
000340 24 d5 24 3b f9 c0 55 3b 90 f9 33 bb 5e e0 21 bb
       0.0025151456 0.0032616241 -0.0027461983 -0.0024700384
000350 e4 82 2b bb f6 07 f9 ba 6b 4a 0b 3b 3f e8 21 bb
       -0.0026170546 -0.0018999565 0.0021254073 -0.002470508
000360 80 71 21 3b c2 31 ec ba 15 07 09 bb 55 0b 2d bb
       0.0024634302 -0.00180202 -0.0020908762 -0.002640446
000370 ee 24 7c bb 0a 2f 25 bb 2a 24 38 3b a0 3b 0c bb
       -0.003847416 -0.002520504 0.0028097727 -0.0021397844
000380 27 b8 ef ba 8b ec 14 3b 7a 97 02 bb 32 01 64 bb
       -0.0018289135 0.0022723998 -0.0019926713 -0.0034790752
000390 f5 77 1c bb 2c 2a fd 3a 8a cd 2d bb cd 9d 16 3b
       -0.002387521 0.0019314936 -0.0026520216 0.002298224
0003a0 f5 d7 3c bb b7 eb 09 3b c2 f5 fe ba 0a 39 72 bb
       -0.0028815244 0.0021045038 -0.0019451904 -0.0036960267
0003b0 d3 f5 11 bb fc 03 0e 3b 6e 1a 11 3b ac 29 22 3b
       -0.0022271767 0.0021669855 0.0022140997 0.0024744077
0003c0 b5 81 40 bb 97 57 e2 3a 82 fd 04 bb f5 f9 05 bb
       -0.0029374186 0.0017268535 -0.0020292704 -0.0020443175
0003d0 7a 64 3a bb 9b d8 03 bb 1a 43 1e bb 8f 1e 1c 3b
       -0.0028441236 -0.002011812 -0.0024148882 0.0023821925
0003e0 4f 55 ef ba eb 6e 46 bb 71 9a 0d bb 4f 76 e9 ba
       -0.0018259677 -0.0030278515 -0.0021606947 -0.0017811748
0003f0 be 60 46 3b 0e ea 82 3b 66 17 1c bb 47 8d f6 ba
       0.0030270065 0.0039951866 -0.0023817657 -0.0018810414

fs_svc_W2_fs_svc f4 [337, 1]
000000 11 3e 47 3c df 6e 3e bd 5d 2e 0c ba e6 44 f5 3d
       0.012160794 -0.046492454 -0.0005347485 0.11976032
000010 60 71 51 3c 63 b0 73 3d 53 07 8e 3d ff 60 19 3c
       0.012783378 0.059494387 0.06934991 0.009361505
000020 34 e4 9b bb 9e 1b 76 3d 48 ec 13 3c e3 72 8d bb
       -0.0047574285 0.06008493 0.009028502 -0.004316674
000030 61 6a fe bc 8d b9 3b bc a2 9b bc ba 77 ff 0a 3c
       -0.031056585 -0.011457813 -0.0014389644 0.008483759
000040 8c b0 99 bc 52 77 ec 3c 3f 19 d0 3b e1 30 c3 bb
       -0.018760942 0.02886549 0.006350666 -0.0059567546
000050 97 12 15 bd c9 4d e5 bc d3 84 ad bc b1 70 bc bc
       -0.03639468 -0.027991192 -0.0211815 -0.023002954
000060 29 dc 61 3c ed 20 4d bc c5 50 b0 3c ac 0d e0 bb
       0.0137854 -0.012520057 0.021522889 -0.0068375673
000070 8e a8 cb bc cb 27 17 3d d9 65 58 3c 24 81 cd ba
       -0.024860647 0.036903184 0.013207876 -0.0015678746
000080 35 46 1a 3d a2 da 49 3d 2d 95 26 bb 01 3f 1e bd
       0.03766461 0.04928077 -0.0025418506 -0.038634304
000090 d8 4b e3 3c 0f df 07 bc 3d 60 2c 3a 64 a6 a9 bc
       0.027746126 -0.008292927 0.000657562 -0.020709224
0000a0 05 25 0d 3d 7e a6 a5 3c eb 61 08 ba 6d 2b c0 bc
       0.034459133 0.020220991 -0.0005202579 -0.023458207
0000b0 ec a0 e1 bc a1 c9 f5 39 7f 37 43 bc c8 d2 09 bd
       -0.027542554 0.00046880267 -0.011915087 -0.033648282
0000c0 9d 70 b5 3b 28 70 c8 3c 19 f6 3e 3b 58 49 9c 3a
       0.005537106 0.024467543 0.0029138385 0.0011923714
0000d0 8a 28 42 3d d1 ab 8b bc 79 a0 7d 3d b4 69 5e bd
       0.047401942 -0.017049702 0.061920617 -0.054300025
0000e0 65 18 28 bc ac 76 0b 3d 01 35 3f 3d b0 ca d4 3b
       -0.010259722 0.03404872 0.046681408 0.006493889
0000f0 45 20 b8 3b f5 23 6c bb 80 b2 d4 3c ce 80 aa bc
       0.005619081 -0.0036032174 0.025964022 -0.020813372
000100 95 19 f0 ba 9f 21 e6 ba 2c 1f f3 ba fa 40 89 ba
       -0.0018318171 -0.0017557627 -0.0018548719 -0.0010471635
000110 5d 1f c1 bc 04 84 66 3c d6 c3 d2 bc 36 38 d4 bb
       -0.023574525 0.014069561 -0.025728147 -0.0064764274
000120 6b 1d 55 bc 75 f3 d6 3b 74 87 df bc 95 af e1 3b
       -0.013007502 0.006559784 -0.027286269 0.006887386
000130 94 76 52 bc 39 49 de bb 1d 73 64 3a 6f 20 c2 bc
       -0.012845654 -0.006783631 0.0008714663 -0.023697106
000140 8b c3 ca 3d f5 f5 25 3d cf f1 86 bd 4b 49 26 bc
       0.09900578 0.040517766 -0.0658909 -0.01014931
000150 17 db af ba e3 2e 39 3d a2 70 a3 bc 8f ec 11 3c
       -0.0013416734 0.04521073 -0.019951168 0.008906498
000160 83 2d a8 3c 2a 0b fb 3b 68 81 bf 3c 0d 36 63 bc
       0.020529514 0.007661243 0.023377135 -0.013867867
000170 75 e1 35 3b 71 bc d4 3c 55 51 76 bc 13 c3 b2 bc
       0.002775279 0.025968762 -0.0150340395 -0.021821534
000180 28 a5 a2 3c 78 f5 0f bd 7e 63 cf bc d1 2b a8 3b
       0.019854143 -0.035146207 -0.025315996 0.0051321764
000190 a9 5b 6f bb d2 49 40 3d 1c d5 22 3d 9e 3f 5b 3d
       -0.003652314 0.0469454 0.03975402 0.053527467
0001a0 c4 cb c2 3a 72 a3 8b 3c fa 1e b4 bb c6 fe 22 3c
       0.0014861752 0.01704571 -0.0054968568 0.009948438
0001b0 9b ee 85 3a 7e 01 06 bd 6c a3 a4 3c 2f 93 fc 3c
       0.0010218205 -0.032716267 0.020097457 0.030831901
0001c0 44 82 10 bd 87 f3 9a bc dd 47 ba bb 38 e2 a8 3c
       -0.03528048 -0.018914951 -0.0056848363 0.020615682
0001d0 ee 4a 08 3c 0e 2f b2 bc fd 8f 89 3c 85 58 76 3c
       0.008318646 -0.021750953 0.016792292 0.015035753
0001e0 c5 11 8e bd 65 2d 0d bd c8 e5 e1 3c 17 82 69 bd
       -0.06936983 -0.03446712 0.027575389 -0.05700883
0001f0 ef 9c d1 3c 7e 4a ba 3c 77 dc b9 3a bf 8d ca bd
       0.025587527 0.022740599 0.0014180084 -0.09890317
000200 9d 35 34 3d c6 34 12 3d 0a 32 d0 3c a1 07 e6 3c
       0.043996442 0.03569486 0.025414485 0.02807981
000210 b0 6a 22 bc 9f 5f b2 3b 5e 8f a1 bc a0 f9 4a 3a
       -0.009913132 0.005443528 -0.019721683 0.00077428855
000220 5f 8c 62 bc 8f 8c 00 bd b3 33 d7 3c bf e9 bf 3c
       -0.013827412 -0.031384047 0.02626977 0.023426889
000230 a0 3d c1 3c 17 e2 70 bc 0d a0 9a bc 5e 82 66 3d
       0.023588955 -0.0147023415 -0.018875146 0.05627667
000240 4a 5f e3 bc c9 60 a4 3c db c2 08 bd 10 67 7e bc
       -0.027755398 0.020065682 -0.033388954 -0.015527502
000250 c4 65 69 3b 62 f4 c7 3c 86 ee 64 ba ce 02 10 bd
       0.0035613636 0.024408523 -0.00087330525 -0.035158925
000260 f6 11 6a 3d 4e a5 8a bc 4e 97 1e 3d 2c b6 01 3c
       0.057146035 -0.016924527 0.038718514 0.007916968
000270 ff c2 7d 3d 69 2f e0 bc e4 80 8d bc b3 91 88 3c
       0.06195354 -0.027366357 -0.017273374 0.016671037
000280 59 27 bc bc 4d 70 e8 3c 6d 4b 0c bc 5e ae ef bc
       -0.022967981 0.028373862 -0.008562905 -0.02925795
000290 2d ea 90 3b 5b 83 19 bd cf 1c d2 3c 82 f3 1d 3d
       0.004422447 -0.037478786 0.025648503 0.038562305
0002a0 28 00 33 bd 84 57 f0 bc c5 c8 1b 3d af 81 40 bd
       -0.04370132 -0.029338606 0.038033266 -0.046998676
0002b0 7e 17 74 bc a9 23 01 bc 9e 02 a6 bc bd 5a ac bc
       -0.014898179 -0.007882037 -0.02026492 -0.021039361
0002c0 5e c6 b9 3d 77 6e cc 3d be f8 23 3d 0e b6 ca 3b
       0.09071039 0.09982007 0.04003214 0.0061862534
0002d0 a4 29 14 bc 2f 09 15 3d da 56 3a 3d 0d c8 04 3d
       -0.009043131 0.03638571 0.045492984 0.032417346
0002e0 be d5 0f 3d b7 da 52 bd 44 ae a2 3b de 27 17 37
       0.03511595 -0.051478114 0.0049646217 9.009584e-06
0002f0 3e ac d9 bc 16 a6 3f bc 89 73 4f bc dd 2d b3 bb
       -0.02657139 -0.011697313 -0.012661823 -0.005468114
000300 58 53 5d bb 79 09 46 3c 94 7c 2a 3d ca d2 e2 bc
       -0.00337716 0.012087219 0.041622713 -0.027688403
000310 32 6c 90 3d db 04 84 3d 83 f3 92 3d cf 64 78 bd
       0.070518866 0.064462386 0.071753524 -0.060643014
000320 52 e1 2b 3d 4d ec 05 3d d3 2d 14 3c c0 2e 1e bc
       0.04196293 0.032696057 0.0090441285 -0.009654701
000330 db b0 46 bc 26 79 a2 bc 3d fb 03 3c 2f d3 98 3c
       -0.012127127 -0.019833159 0.008055505 0.018655388
000340 7a 78 97 3d d8 25 21 3d 2a 6d 1e bd 9d d2 36 bd
       0.07396026 0.03934273 -0.038678326 -0.04463445
000350 96 08 b3 bc 6e e3 3a 3c e2 67 c9 3c 57 30 30 bc
       -0.02185468 0.0114067625 0.024585668 -0.010753713
000360 b7 a1 c3 3c 85 8d 8e 3c 37 ea 0a 3d df f7 c9 bc
       0.023880823 0.017401466 0.03391477 -0.024654327
000370 93 ed 19 bd f4 24 08 bc f0 26 f2 3b cd cc d1 3b
       -0.037580084 -0.008309592 0.0073898956 0.006402588
000380 cb b1 82 bc 49 ee 19 3b 05 3c 05 bb 46 7d 4d bc
       -0.015953919 0.0023487976 -0.0020329964 -0.012542075
000390 24 bb 62 3c 6f 33 fc 3c db 65 c9 bc e2 92 0b 3b
       0.013838563 0.030786244 -0.024584701 0.0021297266
0003a0 ef 58 68 bc 8a b3 ae bc 66 72 5c 3b 88 1f 81 bc
       -0.01418136 -0.021325845 0.0033637523 -0.015762106
0003b0 77 a6 21 bd d8 f7 88 3c 7c 65 84 bc 8a 66 84 3c
       -0.039465394 0.016719744 -0.016161673 0.016162176
0003c0 3f f5 64 bd fc cc 06 bd 1d fd 13 bc cd 44 d0 3c
       -0.055897947 -0.032910332 -0.009032515 0.025423432
0003d0 db e4 bc 3b 2d eb 05 bd 30 31 74 3c 09 47 4b 3c
       0.0057645864 -0.032694984 0.014904305 0.012407073
0003e0 9e 69 00 3c ef 6e b5 bc e5 92 19 bc 6c 22 1a ba
       0.007837681 -0.022147624 -0.009373401 -0.0005879763
0003f0 f4 a1 86 3d 13 75 b4 3d 26 66 80 bb bc 29 13 3c
       0.06573859 0.08811393 -0.003918427 0.008982118

mfs_lr_mfs_lr_W f4 [263, 1]
000000 fd 38 f4 38 34 90 9c bb 78 c4 e9 3b e2 fb b4 3a
       0.000116454416 -0.0047779325 0.0071340166 0.0013807977
000010 3d 3a 1b b9 3f c5 03 3c 74 b7 f0 bb 7c 95 68 3b
       -0.00014803647 0.008042633 -0.007346088 0.003548949
000020 63 b6 1b 3b dd df a1 3b b0 05 82 bb 30 fc b9 bb
       0.0023759834 0.0049400167 -0.003967963 -0.005675815
000030 fe 3f ab bb bb 44 dd bb f2 f8 13 3b 77 b2 80 3a
       -0.0052261343 -0.006752578 0.0022578803 0.0009818812
000040 c4 3c a4 bb 8a b8 03 bb 99 df 96 bb a5 33 c9 3b
       -0.0050121266 -0.0020099008 -0.0046042916 0.0061401897
000050 1d 89 d6 3b 35 15 01 bc f5 a3 e8 3a 75 6f 74 bb
       0.006547107 -0.007878591 0.0017749058 -0.003729788
000060 59 fd b3 bb 7e 7c 63 bb 63 2f 22 3a 0e 1b 74 bb
       -0.005492848 -0.0034711654 0.0006186871 -0.003724757
000070 7a f9 37 3b 72 ce d1 bb fa 47 a7 3a b2 03 b8 bb
       0.0028072284 -0.006402784 0.001276254 -0.005615675
000080 cc 8f 65 bb 58 f0 56 bb 0c f6 0e 3b 13 69 b8 ba
       -0.0035028337 -0.0032797065 0.0021814136 -0.00140694
000090 56 f1 ac 3b 40 cb eb 39 21 93 54 bb 2d b0 b2 3b
       0.005277793 0.00044974126 -0.0032436328 0.0054531307
0000a0 ca b2 e0 3b 9d 87 dc bb 17 b9 42 bb e1 f3 5e bb
       0.006857251 -0.0067300336 -0.0029712373 -0.0034019875
0000b0 50 3c eb bb 73 63 9a bb 8b 4c c7 3a f7 36 42 bb
       -0.0071788207 -0.0047115623 0.0015205307 -0.0029634812
0000c0 41 bb f9 3a ef 3a 28 bb 77 47 15 bb ef 35 97 bb
       0.0019052998 -0.0025669893 -0.0022778192 -0.0046145837
0000d0 9b 3f 9c 3a b5 dc a4 3b 2b 3d 89 ba 0b 6b f3 bb
       0.0011920811 0.005031193 -0.00104705 -0.007428532
0000e0 2c 66 a1 bb ce 5a 09 ba 44 77 b7 bb a4 a2 d3 bb
       -0.00492551 -0.0005239666 -0.0055989344 -0.0064585973
0000f0 88 82 fd bb 6a 41 a9 3b ba 5a 9c 3a fc 70 c4 3b
       -0.007736508 0.0051652687 0.0011928894 0.005994914
000100 e5 21 60 3a c7 f3 b0 bb 2c 56 07 ba 1d c9 14 bb
       0.00085499726 -0.0054001543 -0.0005162682 -0.002270288
000110 fb 30 a9 bb 89 49 f3 39 fb 67 58 bb f4 3f e3 bb
       -0.0051633096 0.0004640336 -0.0033020962 -0.006935114
000120 bd 19 a8 bb 91 9c 1e 3a ee a2 82 39 f2 13 9f 3b
       -0.0051300214 0.0006050552 0.00024916924 0.0048546726
000130 49 04 37 bb 9d 2e 94 bb 8b 47 81 bb 28 c7 67 bb
       -0.0027926138 -0.0045221583 -0.003945296 -0.003536651
000140 50 be d3 bb 30 b2 3c bb 89 13 98 bb 63 bd 66 bb
       -0.006461896 -0.0028792731 -0.0046410006 -0.0035208098
000150 0f cc 24 bb c0 86 19 ba 90 4f 54 bb ad fe 78 b9
       -0.0025146042 -0.0005856566 -0.0032396056 -0.00023745997
000160 e5 16 88 3b 33 0d 1a ba 1c af fc 37 96 83 13 bb
       0.00415312 -0.00058766006 3.0122283e-05 -0.0022508851
000170 f6 0d 38 3b bf 64 13 bb 02 f7 84 bb a8 50 cb bb
       0.0028084493 -0.002249047 -0.004057766 -0.0062046833
000180 3d 32 87 3b d4 a8 54 b9 b9 87 08 ba be 6a b6 3b
       0.004125862 -0.00020280789 -0.00052082125 0.005566924
000190 bb 66 ca bb b1 3a f8 bb a5 a4 fe 3b db 67 b3 3a
       -0.006176797 -0.007575356 0.007771092 0.0013687568
0001a0 44 00 ed 3b 65 42 b0 3b 92 fd c6 39 6b cd 90 bb
       0.0072326977 0.0053790086 0.00037954428 -0.004419019
0001b0 07 0d 67 3a b1 bb 6d 3b a0 87 58 bb f7 ab 96 ba
       0.0008813892 0.0036275203 -0.0033039823 -0.0011495341
0001c0 11 9a 6e 3a 88 42 e9 bb e4 d1 7a bb 0a 30 32 3b
       0.0009101937 -0.007118527 -0.0038272077 0.0027189278
0001d0 5f 48 a0 bb 64 e6 4d 39 b4 57 7f bb 93 d2 a6 bb
       -0.00489144 0.0001963615 -0.0038962187 -0.0050910204
0001e0 82 02 53 3b d6 6f c8 ba e4 7b b6 bb 3e 41 57 3b
       0.003219754 -0.0015292119 -0.005568968 0.0032845284
0001f0 c2 f7 24 3b db b9 cd bb f7 da ce 3b 37 04 82 3b
       0.002517209 -0.006278259 0.0063127237 0.0039677876
000200 84 9e b1 3b 26 bb ba bb 84 a9 11 bc 69 fa 08 bb
       0.005420508 -0.0056985794 -0.008890513 -0.002090121
000210 7c d3 c8 bb 63 37 f3 bb 81 a8 a1 3b 84 be cd 3b
       -0.0061287265 -0.007422374 0.0049334173 0.0062788147
000220 1a c1 ab bb e3 3b 10 bb 96 fe 65 3b cd 02 c0 bb
       -0.0052415254 -0.0022008352 0.0035094372 -0.005859709
000230 34 76 c3 bb b8 ff d8 3b 0a f4 a0 ba f0 7f c7 bb
       -0.0059650186 0.006622281 -0.001227976 -0.0060882494
000240 8a 2e 92 bb 8b f6 a1 bb 24 65 60 3b de 72 4a 3b
       -0.0044611143 -0.0049427203 0.0034239972 0.003089122
000250 72 12 c5 bb a9 90 b8 bb a9 bd 8a bb e9 52 ed bb
       -0.0060141617 -0.005632479 -0.004234035 -0.0072425497
000260 a9 cf e0 bb 47 b9 99 bb 46 6f 07 3c f8 05 be 39
       -0.0068606925 -0.0046912762 0.008266276 0.0003624407
000270 60 1b ad bb 82 f7 19 bb 1c 54 ce 38 46 d8 ab bb
       -0.0052828044 -0.0023493473 9.838512e-05 -0.0052442877
000280 7d 82 65 3b 83 9d 05 3c 69 8b bb bb 8c 05 9f ba
       0.0035020404 0.0081552295 -0.005723406 -0.001213239
000290 c2 f3 b1 bb 30 6e ce 3b 1a 4a a2 bb 09 f7 cf bb
       -0.0054306695 0.0062997565 -0.0049526813 -0.0063465876
0002a0 f5 de 0e bc ea a2 c9 39 aa 26 7b bb 07 b2 a6 bb
       -0.008720149 0.00038459088 -0.0038322606 -0.0050871405
0002b0 58 11 93 bb ba 18 46 3b 19 4e fe bb 8f bc b0 bb
       -0.0044881515 0.003022714 -0.007760775 -0.0053935717
0002c0 56 82 26 3b c2 0e bd bb 24 9f f9 39 f1 67 d9 bb
       0.0025407276 -0.0057695815 0.0004761155 -0.0066347052
0002d0 ab 70 a7 3b b7 bf 0a bc 35 e6 a5 bb 65 1c 30 3b
       0.0051098666 -0.00846856 -0.005062843 0.0026872393
0002e0 1b 70 e2 bb 45 2f 78 3b 6d a6 35 3b ba 63 66 bb
       -0.0069103367 0.0037869972 0.0027717606 -0.0035154657
0002f0 07 3e b2 3b 20 a6 96 3b b7 4d e6 bb ea 7b a3 bb
       0.005439523 0.0045974404 -0.0070283073 -0.004989137
000300 98 5f 52 3b 19 e8 80 bb 5f 0a 6d 3b 6e 2e e1 3b
       0.0032100435 -0.003933918 0.0036169512 0.00687199
000310 62 3d 1b 3c e8 ed 1a bb e9 83 19 bb d4 57 cf 39
       0.009475084 -0.0023640338 -0.0023424572 0.00039547554
000320 b8 4a a6 ba 79 9d 7f ba 2c 20 af 3b 70 23 8a bb
       -0.0012687063 -0.0009750943 0.0053444114 -0.0042156503
000330 bd ce fd bb 0a 28 a4 bb f0 ca 2c 3b 90 92 c4 3b
       -0.0077455924 -0.005009656 0.0026366077 0.005998917
000340 e4 5b b8 bb f5 02 37 3b 4a 35 ab 3a 36 25 0c bb
       -0.0056261886 0.0027925347 0.0013062146 -0.0021384484
000350 a2 27 a5 bb 2e f7 d7 39 a9 4b 7f bb 31 84 8c 3b
       -0.005040125 0.0004119216 -0.003895501 0.0042882194
000360 7c 42 68 3b dd 02 19 b9 c5 0f ba bb a6 44 e7 3a
       0.0035440018 -0.00014592284 -0.0056781494 0.001764436
000370 28 8e 9b bb 56 8d b9 bb 46 0b a3 bb 6f 27 a4 bb
       -0.004747171 -0.0056626005 -0.004975709 -0.0050095837
000380 59 f7 a6 3b 89 6e 85 3b 9c 60 e0 bb 21 2c 21 ba
       0.005095404 0.0040720147 -0.0068474542 -0.00061482383
000390 41 3c 5b bb ac d0 e2 bb 05 32 ae 3b 06 4d 11 ba
       -0.0033452662 -0.0069218483 0.0053160214 -0.00055427884
0003a0 ff e6 b0 3b 88 59 a9 3a 55 5f 89 3b 2d 18 07 3b
       0.0053986306 0.0012920359 0.0041922727 0.0020613775
0003b0 19 3f 0e bb 47 55 17 bc b2 ae 3e 3b 77 30 dd bb
       -0.002170509 -0.00923664 0.0029095826 -0.006750162
0003c0 86 69 a4 bb 50 76 a7 3b 8d eb 94 ba aa 32 1a 3a
       -0.005017462 0.0051105395 -0.0011361704 0.00058821833
0003d0 78 32 b8 bb 5e 8d b6 bb 0c f9 a6 bb 46 20 84 3a
       -0.0056212507 -0.0055710515 -0.0050956067 0.0010080419
0003e0 7f d3 5e bb 34 e0 a5 ba 9c 8b 3e 3b fe e2 10 bb
       -0.0034000573 -0.0012655319 0.0029074913 -0.0022107954
0003f0 1a 89 f0 bb db 6d d6 ba 45 c6 cd 3a cb 66 eb bb
       -0.0073405625 -0.0016359644 0.0015699348 -0.0071838847

mfs_svc_W2_mfs_svc f4 [263, 1]
000000 cd ed a3 b8 f1 5f 10 bc e3 36 66 3c f5 54 3f 3b
       -7.8167395e-05 -0.008811937 0.014051172 0.0029194925
000010 02 88 e1 b8 ea 1a 81 3c d9 7c 62 bc a0 ce de 3b
       -0.000107541695 0.015759904 -0.013823711 0.006799534
000020 d8 c8 91 3b 7b 1c 1d 3c b0 f3 e7 bb 0d ae 2a bc
       0.0044489913 0.00958931 -0.0070786104 -0.0104174735
000030 1f 1e 21 bc 7d f0 53 bc 36 e5 98 3b b5 78 d7 3a
       -0.009833842 -0.012935755 0.004665996 0.0016439172
000040 3d d8 21 bc cd fb 8b bb a0 e6 0c bc 3a d5 43 3c
       -0.009878215 -0.0042719604 -0.008599907 0.011952693
000050 0b f8 4b 3c e5 87 74 bc 8a 8e 55 3b 63 92 f0 bb
       0.012449275 -0.014924978 0.003258618 -0.0073416694
000060 0c ac 25 bc db fa e8 bb 76 a5 8b 3a 67 0f e2 bb
       -0.01011182 -0.0071099824 0.001065417 -0.0068988088
000070 1d 65 c0 3b 8b 7f 44 bc f1 df 13 3b 06 47 31 bc
       0.0058714286 -0.011993299 0.00225639 -0.010820156
000080 de ff cf bb 2f 42 c6 bb c4 4d 89 3b d3 6c 0c bb
       -0.0063476404 -0.00605037 0.0041901786 -0.002142717
000090 04 db 22 3c 95 69 32 3a c7 3e c6 bb 66 e9 30 3c
       0.009939913 0.0006805894 -0.006049964 0.010797834
0000a0 62 85 59 3c 88 cc 54 bc ea 66 b3 bb df 58 cd bb
       0.01327643 -0.012988217 -0.005474915 -0.006266698
0000b0 dc d6 5f bc 3c 3b 0d bc 24 7e 58 3b 09 fc b1 bb
       -0.013662066 -0.00862008 0.003303417 -0.0054316563
0000c0 88 37 82 3b d9 0c 97 bb bd 26 8e bb 69 37 0b bc
       0.003973905 -0.004609686 -0.004338114 -0.0084970975
0000d0 44 95 0a 3b 58 1d 20 3c d9 6d e0 ba ba 2d 68 bc
       0.0021146098 0.009772621 -0.0017122581 -0.014171058
0000e0 e0 36 24 bc 30 63 23 ba 3a d9 31 bc 54 49 4b bc
       -0.010022849 -0.00062327366 -0.0108550135 -0.0124076195
0000f0 cc c1 6d bc 6a 72 24 3c fa 2e 18 3b f0 34 42 3c
       -0.014511537 0.010037044 0.002322136 0.011853442
000100 98 64 9e 3a 3e 26 23 bc 91 ad a7 ba 4e a1 8f bb
       0.0012084423 -0.009957848 -0.0012792816 -0.0043832427
000110 09 05 1f bc d2 24 96 3a dd 66 c1 bb 9e 93 58 bc
       -0.00970579 0.0011455065 -0.005902155 -0.013218788
000120 10 f0 1e bc 4a cb 82 3a 02 37 83 3a 41 ed 1c 3c
       -0.00970079 0.0009978798 0.00100109 0.00957805
000130 5e 69 a1 bb c3 8a 07 bc c8 b5 ea bb 0b e9 d4 bb
       -0.004925891 -0.008272829 -0.0071627833 -0.0064975074
000140 b5 38 53 bc d3 61 a5 bb 5a 9a 11 bc dd ae da bb
       -0.012891938 -0.005047062 -0.008886898 -0.0066736774
000150 2b f5 a3 bb f0 d2 96 ba f8 ea c4 bb c8 f5 0e ba
       -0.0050035915 -0.0011506956 -0.006009456 -0.00054534944
000160 da ac fe 3b ab c7 94 ba 8c 91 be 38 c2 69 85 bb
       0.0077720704 -0.001135101 9.087016e-05 -0.004071445
000170 19 52 ae 3b 2b 63 79 bb c0 37 05 bc 3e 8b 41 bc
       0.0053198454 -0.0038053493 -0.008130968 -0.011812983
000180 6d da 03 3c 24 a8 16 ba 30 8c a1 ba 29 8b 2f 3c
       0.008047682 -0.0005747101 -0.0012325104 0.010714331
000190 e7 f9 42 bc fe 2c 75 bc 98 4d 77 3c 92 cc 45 3b
       -0.011900402 -0.01496434 0.015094183 0.0030181748
0001a0 0a 42 67 3c 7d 18 2c 3c f4 d5 80 3a 87 d0 02 bc
       0.014114866 0.010503885 0.0009829388 -0.007984287
0001b0 4f e3 02 3b 4c db ee 3b 8c 83 e4 bb d2 3c 21 bb
       0.0019971912 0.007289326 -0.0069736894 -0.0024602902
0001c0 6b 50 f8 3a b6 fb 5c bc 44 94 e3 bb 2c 0f b3 3b
       0.0018944865 -0.013487747 -0.006945165 0.005464455
0001d0 3f 5d 13 bc 61 42 53 39 22 18 fe bb 1c fa 1a bc
       -0.0089944 0.00020147256 -0.0077543417 -0.009459045
0001e0 fa 5f cc 3b 0e 5a 60 bb d3 67 29 bc e4 fd ca 3b
       0.0062370272 -0.0034233364 -0.010339695 0.006194817
0001f0 e1 53 9c 3b fe 7e 40 bc 85 3f 49 3c cf 7d fd 3b
       0.0047707413 -0.011749027 0.012283211 0.007735945
000200 50 19 2e 3c 37 6c 30 bc c8 f0 8d bc d8 6e 86 bb
       0.010626152 -0.010767988 -0.017326728 -0.004102569
000210 3f 82 39 bc e2 9a 6a bc d3 bc 19 3c d5 3c 44 3c
       -0.011322557 -0.0143191535 0.009383398 0.011977394
000220 df 2f 21 bc 5b ca 91 bb dc 2e e6 3b 07 80 31 bc
       -0.0098380735 -0.0044491715 0.007024629 -0.010833747
000230 59 1e 39 bc d1 16 58 3c 24 58 1d bb c3 86 39 bc
       -0.011298739 0.013189034 -0.0024008835 -0.011323634
000240 3e 6f 07 bc 4d 16 1f bc 30 d5 d5 3b 06 95 bf 3b
       -0.008266268 -0.009709907 0.006525658 0.0058466224
000250 fa 4f 3f bc 1f 36 2a bc 67 8c 05 bc 93 4c 5e bc
       -0.011676783 -0.01038888 -0.00815115 -0.013568061
000260 1c 97 54 bc 0e e8 10 bc ef c9 84 3c 71 db 88 3a
       -0.01297548 -0.008844389 0.01620957 0.0010441375
000270 47 e5 2d bc bb 7d 85 bb de d1 4e 3a 02 34 25 bc
       -0.010613746 -0.004073826 0.0007889549 -0.0100832
000280 20 4f db 3b 38 4b 83 3c b3 e6 31 bc d5 79 0d bb
       0.006692782 0.016027078 -0.010858226 -0.002158751
000290 fb 59 2a bc cf 01 45 3c 1d b7 18 bc c1 db 47 bc
       -0.01039743 0.012024357 -0.009321001 -0.0121983895
0002a0 d5 88 8a bc fb 7d ad 39 50 7b f2 bb ca 29 1f bc
       -0.01691095 0.00033090994 -0.007399954 -0.009714553
0002b0 83 72 08 bc b0 47 c6 3b 36 46 76 bc 63 11 27 bc
       -0.008328083 0.0060510263 -0.015031388 -0.010197016
0002c0 35 7c a1 3b 2d e1 30 bc 99 9f 30 3a 9a 91 4e bc
       0.0049281367 -0.010795874 0.0006737649 -0.012607956
0002d0 65 24 20 3c 0c 3c 83 bc cc d3 1b bc e9 14 ac 3b
       0.009774302 -0.016019844 -0.0095109455 0.005251516
0002e0 d8 88 5c bc b3 68 eb 3b 5d 72 b6 3b 93 99 dd bb
       -0.0134603605 0.007184112 0.0055678324 -0.0067626922
0002f0 2c 92 29 3c d6 fc 11 3c 5c b3 57 bc 27 58 17 bc
       0.0103497915 0.008910378 -0.013165321 -0.009237326
000300 31 de c0 3b 43 9d fe bb ec 22 e6 3b 93 26 5e 3c
       0.0058858623 -0.007770212 0.007023206 0.0135590015
000310 ef 9e 98 3c 85 33 8e bb c3 17 a4 bb 88 c6 8b 3a
       0.018630473 -0.0043396377 -0.0050077154 0.0010664025
000320 89 98 21 bb 4a bc 12 bb 32 26 2c 3c d3 b1 f9 bb
       -0.0024657568 -0.002239006 0.010507153 -0.0076200753
000330 1a 92 6d bc 60 66 21 bc 84 01 a6 3b f2 25 41 3c
       -0.014500165 -0.009851068 0.0050660986 0.011788832
000340 63 76 2a bc 44 fe c1 3b a4 59 1e 3b b3 49 88 bb
       -0.010404202 0.0059202034 0.0024162317 -0.0041591763
000350 71 91 15 bc 3e f6 96 39 78 bf f4 bb 3e 88 07 3c
       -0.009128914 0.00028793694 -0.007469114 0.008272229
000360 d0 1a e4 3b 83 e6 89 b9 68 28 2f bc 71 03 78 3b
       0.006961204 -0.0002630242 -0.010690786 0.0037843848
000370 13 1b 0b bc 5e b7 2f bc ea bf 19 bc 26 7e 1c bc
       -0.008490342 -0.0107248705 -0.009384135 -0.0095515605
000380 98 b8 1f 3c c1 2f 03 3c e3 4b 56 bc 25 5e 85 ba
       0.0097486 0.008006991 -0.013079616 -0.0010175152
000390 13 bc c7 bb a5 69 58 bc 7b 08 27 3c 3a 09 86 ba
       -0.0060954182 -0.013208781 0.010194893 -0.0010226138
0003a0 05 ba 2c 3c 3b a7 41 3b ff 72 0a 3c 76 3d 95 3b
       0.010542397 0.002954914 0.008450269 0.004554446
0003b0 e6 31 8a bb cb dc 92 bc d6 81 c1 3b ef 95 58 bc
       -0.004217374 -0.017927548 0.00590537 -0.013219341
0003c0 a5 e8 1d bc 8e f1 19 3c bd 45 02 bb fa db 9a 3a
       -0.009637986 0.00939597 -0.0019877993 0.0011814826
0003d0 2f 6e 2f bc 25 b5 2b bc b2 0d 1f bc 2d 07 0a 3b
       -0.010707422 -0.0104802 -0.009707855 0.0021061406
0003e0 bf 26 cf bb b2 41 24 bb ac 6a bf 3b 6b 01 8a bb
       -0.0063217576 -0.0025063572 0.0058415737 -0.004211595
0003f0 17 77 61 bc f3 00 55 bb 4a 2a 55 3b 08 be 5c bc
       -0.013761303 -0.0032501786 0.0032526427 -0.013473041
