model/checkpoints/valitalo2016/chemeleon/model_000.onnx (onnx, 262795 bytes, 10 tensors)

lv_onnx::MatMul_4 f4 [1868, 24]
000000 00 00 00 00 00 00 00 00 00 00 00 00 00 00 00 00
       0.0 0.0 0.0 0.0
000010 00 00 00 00 00 00 00 00 00 00 00 00 00 00 00 00
       0.0 0.0 0.0 0.0
000020 00 00 00 00 00 00 00 00 00 00 00 00 00 00 00 00
       0.0 0.0 0.0 0.0
000030 00 00 00 00 00 00 00 00 00 00 00 00 00 00 00 00
       0.0 0.0 0.0 0.0
000040 00 00 00 00 00 00 00 00 00 00 00 00 00 00 00 00
       0.0 0.0 0.0 0.0
000050 00 00 00 00 00 00 00 00 00 00 00 00 00 00 00 00
       0.0 0.0 0.0 0.0
000060 00 00 00 00 00 00 00 00 00 00 00 00 00 00 00 00
       0.0 0.0 0.0 0.0
000070 00 00 00 00 00 00 00 00 00 00 00 00 00 00 00 00
       0.0 0.0 0.0 0.0
000080 00 00 00 00 00 00 00 00 00 00 00 00 00 00 00 00
       0.0 0.0 0.0 0.0
000090 00 00 00 00 00 00 00 00 00 00 00 00 00 00 00 00
       0.0 0.0 0.0 0.0
0000a0 00 00 00 00 00 00 00 00 00 00 00 00 00 00 00 00
       0.0 0.0 0.0 0.0
0000b0 00 00 00 00 00 00 00 00 00 00 00 00 00 00 00 00
       0.0 0.0 0.0 0.0
0000c0 00 00 00 00 00 00 00 00 00 00 00 00 00 00 00 00
       0.0 0.0 0.0 0.0
0000d0 00 00 00 00 00 00 00 00 00 00 00 00 00 00 00 00
       0.0 0.0 0.0 0.0
0000e0 00 00 00 00 00 00 00 00 00 00 00 00 00 00 00 00
       0.0 0.0 0.0 0.0
0000f0 00 00 00 00 00 00 00 00 00 00 00 00 00 00 00 00
       0.0 0.0 0.0 0.0
000100 00 00 00 00 00 00 00 00 00 00 00 00 00 00 00 00
       0.0 0.0 0.0 0.0
000110 00 00 00 00 00 00 00 00 00 00 00 00 00 00 00 00
       0.0 0.0 0.0 0.0
000120 00 00 00 00 00 00 00 00 00 00 00 00 00 00 00 00
       0.0 0.0 0.0 0.0
000130 00 00 00 00 00 00 00 00 00 00 00 00 00 00 00 00
       0.0 0.0 0.0 0.0
000140 00 00 00 00 00 00 00 00 00 00 00 00 00 00 00 00
       0.0 0.0 0.0 0.0
000150 00 00 00 00 00 00 00 00 00 00 00 00 00 00 00 00
       0.0 0.0 0.0 0.0
000160 00 00 00 00 00 00 00 00 00 00 00 00 00 00 00 00
       0.0 0.0 0.0 0.0
000170 00 00 00 00 00 00 00 00 00 00 00 00 00 00 00 00
       0.0 0.0 0.0 0.0
000180 00 00 00 00 00 00 00 00 00 00 00 00 00 00 00 00
       0.0 0.0 0.0 0.0
000190 3f c5 ab bf 00 00 00 00 00 00 00 00 00 00 00 00
       -1.341957 0.0 0.0 0.0
0001a0 00 00 00 00 00 00 00 00 00 00 00 00 00 00 00 00
       0.0 0.0 0.0 0.0
0001b0 00 00 00 00 00 00 00 00 00 00 00 00 00 00 00 00
       0.0 0.0 0.0 0.0
0001c0 00 00 00 00 00 00 00 00 00 00 00 00 00 00 00 00
       0.0 0.0 0.0 0.0
0001d0 00 00 00 00 00 00 00 00 00 00 00 00 00 00 00 00
       0.0 0.0 0.0 0.0
0001e0 00 00 00 00 00 00 00 00 00 00 00 00 00 00 00 00
       0.0 0.0 0.0 0.0
0001f0 00 00 00 00 00 00 00 00 00 00 00 00 00 00 00 00
       0.0 0.0 0.0 0.0
000200 00 00 00 00 00 00 00 00 00 00 00 00 00 00 00 00
       0.0 0.0 0.0 0.0
000210 00 00 00 00 00 00 00 00 00 00 00 00 00 00 00 00
       0.0 0.0 0.0 0.0
000220 00 00 00 00 00 00 00 00 00 00 00 00 00 00 00 00
       0.0 0.0 0.0 0.0
000230 00 00 00 00 00 00 00 00 00 00 00 00 00 00 00 00
       0.0 0.0 0.0 0.0
000240 00 00 00 00 00 00 00 00 00 00 00 00 00 00 00 00
       0.0 0.0 0.0 0.0
000250 00 00 00 00 00 00 00 00 00 00 00 00 00 00 00 00
       0.0 0.0 0.0 0.0
000260 00 00 00 00 00 00 00 00 00 00 00 00 00 00 00 00
       0.0 0.0 0.0 0.0
000270 00 00 00 00 00 00 00 00 00 00 00 00 00 00 00 00
       0.0 0.0 0.0 0.0
000280 00 00 00 00 00 00 00 00 00 00 00 00 00 00 00 00
       0.0 0.0 0.0 0.0
000290 00 00 00 00 00 00 00 00 00 00 00 00 00 00 00 00
       0.0 0.0 0.0 0.0
0002a0 00 00 00 00 00 00 00 00 00 00 00 00 00 00 00 00
       0.0 0.0 0.0 0.0
0002b0 00 00 00 00 00 00 00 00 00 00 00 00 00 00 00 00
       0.0 0.0 0.0 0.0
0002c0 00 00 00 00 00 00 00 00 00 00 00 00 00 00 00 00
       0.0 0.0 0.0 0.0
0002d0 00 00 00 00 00 00 00 00 00 00 00 00 00 00 00 00
       0.0 0.0 0.0 0.0
0002e0 00 00 00 00 00 00 00 00 00 00 00 00 00 00 00 00
       0.0 0.0 0.0 0.0
0002f0 00 00 00 00 00 00 00 00 00 00 00 00 00 00 00 00
       0.0 0.0 0.0 0.0
000300 00 00 00 00 00 00 00 00 00 00 00 00 00 00 00 00
       0.0 0.0 0.0 0.0
000310 00 00 00 00 00 00 00 00 3f c5 ab bf 00 00 00 00
       0.0 0.0 -1.341957 0.0
000320 00 00 00 00 00 00 00 00 00 00 00 00 00 00 00 00
       0.0 0.0 0.0 0.0
000330 00 00 00 00 00 00 00 00 00 00 00 00 00 00 00 00
       0.0 0.0 0.0 0.0
000340 00 00 00 00 00 00 00 00 00 00 00 00 00 00 00 00
       0.0 0.0 0.0 0.0
000350 00 00 00 00 00 00 00 00 00 00 00 00 00 00 00 00
       0.0 0.0 0.0 0.0
000360 00 00 00 00 00 00 00 00 00 00 00 00 00 00 00 00
       0.0 0.0 0.0 0.0
000370 00 00 00 00 00 00 00 00 00 00 00 00 00 00 00 00
       0.0 0.0 0.0 0.0
000380 00 00 00 00 00 00 00 00 00 00 00 00 00 00 00 00
       0.0 0.0 0.0 0.0
000390 00 00 00 00 00 00 00 00 00 00 00 00 00 00 00 00
       0.0 0.0 0.0 0.0
0003a0 00 00 00 00 00 00 00 00 00 00 00 00 00 00 00 00
       0.0 0.0 0.0 0.0
0003b0 00 00 00 00 00 00 00 00 00 00 00 00 00 00 00 00
       0.0 0.0 0.0 0.0
0003c0 00 00 00 00 00 00 00 00 00 00 00 00 00 00 00 00
       0.0 0.0 0.0 0.0
0003d0 00 00 00 00 00 00 00 00 00 00 00 00 3f c5 ab bf
       0.0 0.0 0.0 -1.341957
0003e0 00 00 00 00 3f c5 ab 3f 00 00 00 00 00 00 00 00
       0.0 1.341957 0.0 0.0
0003f0 00 00 00 00 00 00 00 00 00 00 00 00 00 00 00 00
       0.0 0.0 0.0 0.0

lr_lr_W f4 [1868, 1]
000000 04 fa 2b 3a 26 cd 1d b8 7b c3 d2 ba c0 a3 17 bb
       0.00065603876 -3.7622776e-05 -0.0016079986 -0.0023138374
000010 d2 e3 86 b9 7c 8a a3 39 f1 f1 3b 3b de 1f 32 3a
       -0.0002572821 0.00031192962 0.0028678144 0.000679491
000020 80 ff 1b 3b bb e2 0f 3b e8 33 c0 ba ad a8 2c ba
       0.0023803413 0.002195521 -0.0014663907 -0.0006586414
000030 66 1e 16 3a af 2e cb 3a 35 3c ee 3a 21 12 7b 3a
       0.00057265756 0.0015501584 0.0018175902 0.00095775916
000040 ee 88 bb ba 9a 90 e4 ba 26 8c e4 ba 15 2b 11 3b
       -0.0014307776 -0.0017438114 -0.0017436787 0.0022150923
000050 04 cd 8f ba 41 00 19 3b 21 73 16 bb 2e ca c4 b9
       -0.0010971134 0.0023346099 -0.0022956806 -0.0003753467
000060 62 37 91 3b 17 b7 be ba bb 5a ff 3a 49 2f e8 ba
       0.004431651 -0.0014550415 0.0019481996 -0.0017714287
000070 0f 06 0e 3b 04 c0 af ba 99 6a b7 39 28 3c f1 3a
       0.0021671092 -0.0013408666 0.000349839 0.0018404769
000080 aa 91 a9 ba d9 db 37 3a c6 f7 d6 39 95 cd 97 3b
       -0.0012937088 0.0007013656 0.00041001866 0.0046326616
000090 85 cf 84 3a 57 b8 9d 3b df b2 2d ba b7 c7 6c 3a
       0.0010132646 0.004813235 -0.000662608 0.00090324454
0000a0 23 fe 3f 3b 72 c9 88 38 e7 4d 51 ba 79 c3 15 ba
       0.0029295764 6.5225075e-05 -0.00079843256 -0.00057130266
0000b0 6a d3 92 3a 44 5a 8f ba 09 f8 a6 39 94 7e 16 3b
       0.0011201922 -0.0010936935 0.00031846788 0.002296363
0000c0 89 26 c4 3a bf 33 71 bb a0 37 1e 3b 0a b6 f5 ba
       0.0014965098 -0.0036804525 0.0024142042 -0.0018746268
0000d0 89 9d fd 3a b0 1c 08 39 26 02 44 3b 3f 39 1f 3b
       0.0019349317 0.00012980658 0.0029908507 0.0024295596
0000e0 41 33 1e 3b 22 e7 24 bb 47 1c 8e 3a 17 5b fd 39
       0.0024139436 -0.002516218 0.0010842168 0.00048323788
0000f0 bf 96 ce 3a b1 cf a9 3a f4 99 57 3a e3 0a c8 39
       0.0015761479 0.0012955574 0.000822454 0.00038155084
000100 ad fc b0 ba e6 6a 88 3a 2d 76 df ba bd e6 a4 ba
       -0.0013503038 0.0010407835 -0.0017048769 -0.0012580972
000110 b5 d2 d2 39 8d 96 e4 ba 48 ae 08 3b e4 fb 1f ba
       0.0004021131 -0.0017439887 0.0020855833 -0.0006102903
000120 d5 b6 f6 ba 8c 96 ed 38 b5 e7 0a 3a f3 72 93 ba
       -0.0018822799 0.00011329082 0.0005298809 -0.0011249467
000130 e1 a2 66 39 ac 55 43 ba 4f d9 b9 ba a7 bd d2 ba
       0.00021995186 -0.0007451426 -0.0014179143 -0.0016078249
000140 88 41 8c 3a 8c 8d 2e 3a 53 a1 3e bb d9 69 07 3a
       0.0010700682 0.00066586654 -0.0029087856 0.0005165614
000150 1c f2 31 39 63 49 93 3a 0c ff b8 ba 76 6c 82 39
       0.00016970228 0.0011237081 -0.0014114096 0.00024876342
000160 9f e7 11 bb d5 b5 6b ba d4 5c 49 3a de ac 3c 3b
       -0.00222633 -0.00089916337 0.0007681374 0.002878956
000170 37 92 d9 3a fe 4d 55 bb 91 b0 08 3b 81 58 dc 3a
       0.0016599362 -0.0032547708 0.0020857195 0.0016811044
000180 79 bd b6 ba 0c 71 a0 ba 0f 34 e4 3a 0d 85 a8 3a
       -0.0013941965 -0.0012240722 0.0017410534 0.0012857035
000190 9a f2 38 3b f0 01 ea ba a8 5b d4 ba 85 18 00 3b
       0.0028220774 -0.0017853361 -0.0016201632 0.0019545865
0001a0 eb c0 5b b8 4e c5 26 bb ba 16 24 bb 6f 64 68 ba
       -5.2393338e-05 -0.0025447193 -0.002503796 -0.00088650634
0001b0 0d 67 31 3b 39 a2 55 39 ef c4 67 bb 03 40 8c 3a
       0.002706948 0.00020373696 -0.0035365184 0.0010700229
0001c0 97 d3 43 38 c7 e0 98 ba db cd b6 3a 6d 4e 11 ba
       4.668868e-05 -0.0011663669 0.0013946848 -0.00055429974
0001d0 11 74 06 3b 8c a0 3f 39 ef 59 01 3b d6 38 a0 3a
       0.0020515958 0.00018274988 0.0019737442 0.001222397
0001e0 82 e5 f6 b9 cb 76 a1 ba e5 6f 70 ba 14 1d 32 bb
       -0.00047091773 -0.0012318728 -0.0009171947 -0.0027177976
0001f0 e8 d1 16 38 de 05 7b ba 98 cf 1d 3b db 1b e5 3a
       3.5958277e-05 -0.00095757644 0.0024080034 0.0017479615
000200 e4 a2 48 3a 32 a2 09 bb d5 81 3e bb ec 4b ba b9
       0.0007653667 -0.0021001217 -0.0029069085 -0.0003553325
000210 1e e1 26 ba e9 19 41 b9 87 a0 25 3b 79 f9 09 bb
       -0.00063659425 -0.00018415567 0.0025272684 -0.0021053238
000220 27 ea cc ba 75 4b e7 ba b0 ba 23 3a 9b e4 a6 ba
       -0.0015633748 -0.0017646389 0.0006245775 -0.0012732925
000230 e1 49 ad 39 f3 06 42 bb 58 94 65 3a 5f bb 86 ba
       0.00033052175 -0.0029606193 0.00087577617 -0.001027923
000240 f6 7e 17 bb 60 7b 48 3b 8d 2d fc 39 0e 45 50 3b
       -0.0023116446 0.0030591115 0.00048099124 0.003177944
000250 b8 f5 17 b9 be 86 2c 3b 4a 73 72 3a 51 97 df ba
       -0.0001449202 0.002632543 0.0009248747 -0.0017058646
000260 bc 44 55 3b eb 64 31 3b 3d ef dc 39 57 e7 07 bb
       0.003254219 0.0027068208 0.00042139916 -0.0020737255
000270 58 44 97 ba ad 17 61 3b 6a 09 e9 39 4c 14 ba b9
       -0.0011540754 0.0034346387 0.00044448237 -0.00035491807
000280 11 55 f7 ba e7 03 88 bb 1a 03 b8 3a 12 d2 ff b9
       -0.0018869956 -0.004150856 0.001403901 -0.00048793905
000290 d1 50 31 b9 37 1f 24 3b c2 9e d3 3a cb 2d a5 b9
       -0.00016910142 0.002504302 0.0016145336 -0.0003150537
0002a0 2a eb 35 3a 3a 91 d0 ba f7 1e 05 bb 5a a3 35 ba
       0.0006939644 -0.0015912422 -0.0020312646 -0.00069289433
0002b0 c1 ec fa b8 aa c8 cb ba fb 5b fb b8 b4 c1 26 ba
       -0.00011965028 -0.0015547473 -0.000119857454 -0.00063612615
0002c0 95 fe 88 3a 7b 80 40 38 d0 93 2a b7 2e 34 9f ba
       0.0010451848 4.5896024e-05 -1.0167205e-05 -0.0012146288
0002d0 3f 62 97 3a 5c 6d 3a b8 8a 68 e2 ba 58 77 d7 3a
       0.0011549665 -4.4447705e-05 -0.0017273587 0.0016438765
0002e0 87 d1 10 3b 2d aa 28 bb 55 57 98 b9 29 00 1b bb
       0.0022097544 -0.0025736198 -0.00029056767 -0.0023651219
0002f0 a9 d7 aa ba bf 2f 91 ba 4b 20 e2 ba d1 15 b2 3a
       -0.0013034242 -0.0011076852 -0.0017252056 0.0013586824
000300 8f 85 4b bb 31 52 ef 3a 4d 97 25 bb ee b2 de b9
       -0.003105495 0.0018258748 -0.0025267184 -0.00042476453
000310 7d fd 23 bb e7 95 7a 3a 11 24 fc b7 fe 6a c1 3a
       -0.0025022917 0.00095590804 -3.0057536e-05 0.0014756618
000320 b8 c7 1e b8 89 53 89 ba 98 07 42 3b e5 90 24 bb
       -3.7856138e-05 -0.0010477166 0.0029606577 -0.0025110778
000330 b8 2f 59 3b 8e 9e d7 b9 ed 57 11 39 c3 8f 54 ba
       0.0033140015 -0.00041126128 0.00013861032 -0.00081085804
000340 1f 25 c4 b9 4c 0e c0 ba 6a 2a c8 ba 14 8a 78 39
       -0.0003741169 -0.0014652698 -0.001527143 0.00023702561
000350 5c 31 a6 3a 15 af ce 39 5c 1c cc b9 72 2e 27 3b
       0.0012679505 0.00039421828 -0.00038931041 0.0025509861
000360 40 c5 e6 ba c4 06 fc 3a c7 26 f8 3a 27 67 ba ba
       -0.0017606393 0.001922809 0.0018932455 -0.0014221416
000370 bb 11 43 bb 89 9f ca b8 fb bc 9a 3a c0 99 47 bb
       -0.0029765207 -9.661826e-05 0.0011805588 -0.0030456632
000380 7f 7e 15 3b 8a 2a 40 ba cf 33 80 ba 94 05 3a bb
       0.0022810993 -0.00073305576 -0.0009781065 -0.0028384672
000390 e3 26 ca ba f4 c3 4f b9 3a fd 90 39 79 db 0c bb
       -0.0015422966 -0.00019814057 0.0002765449 -0.002149312
0003a0 f2 fd 47 bb eb 30 4a bb 03 d2 e4 ba a2 09 fe 39
       -0.0030516353 -0.0030851911 -0.0017457608 0.00048453832
0003b0 4d 79 02 ba 05 09 c5 ba 29 85 e6 ba 7a 93 2c ba
       -0.00049771817 -0.0015032595 -0.0017587292 -0.0006583255
0003c0 f1 d8 0f bb a4 11 a8 3a 89 5d 4b ba e0 bf 8e b6
       -0.0021949376 0.001282264 -0.0007757773 -4.254267e-06
0003d0 49 43 8c 3a b3 95 e6 3a 40 87 0f bb b3 c9 99 b9
       0.0010701205 0.0017592221 -0.0021900684 -0.00029332712
0003e0 37 63 99 b9 2a 41 35 3b 13 bf 46 3a c3 54 82 ba
       -0.00029256355 0.002765725 0.0007581573 -0.0009943474
0003f0 9b b1 b1 3a 82 fb 3f bb 1e 3e eb 39 9b 24 4f 3a
       0.0013556959 -0.0029294197 0.00044868974 0.0007901878

svc_W2_svc f4 [1868, 1]
000000 b4 ee fb 37 f9 40 36 38 4f 86 d0 b9 41 63 aa b9
       3.0032686e-05 4.3452692e-05 -0.0003977292 -0.00032498877
000010 cf 07 4f b8 ae 17 fe 38 e2 95 05 3a d8 05 1c 39
       -4.935992e-05 0.000121160745 0.00050958816 0.00014879496
000020 e1 88 c6 39 99 79 96 39 00 e7 0b b9 e8 ae cd b8
       0.00037867486 0.00028700827 -0.00013342127 -9.8077406e-05
000030 e0 19 31 39 59 fd 15 39 22 25 be 39 b3 69 01 39
       0.00016889675 0.00014304127 0.0003626729 0.00012341775
000040 65 5d 21 b9 b4 72 4c b9 0a c9 4a b9 b4 26 9f 39
       -0.00015388949 -0.00019497686 -0.00019339114 0.0003035568
000050 f7 5d 0b b9 36 f7 f1 39 ea 5c fb b9 a7 8d 2d b9
       -0.00013291078 0.0004615129 -0.00047943677 -0.00016551335
000060 83 80 1d 3a 37 26 b6 b9 99 98 81 39 54 99 8b b9
       0.00060082244 -0.00034742217 0.00024718491 -0.00026626384
000070 4e d3 e4 39 b6 bf 62 b9 b5 4c 19 38 65 66 7d 39
       0.00043644983 -0.00021624457 3.654948e-05 0.00024166105
000080 e4 c4 bf b9 bf bb b1 38 13 62 48 b8 04 ba 44 3a
       -0.00036577054 8.474988e-05 -4.7775055e-05 0.0007504525
000090 95 20 69 39 54 68 34 3a 5a 5d 31 b9 e9 ad 3e 39
       0.0002223275 0.0006882001 -0.00016914812 0.00018184599
0000a0 d0 90 b4 39 f4 cf 53 38 2a 6c bc b7 3b 1a cb b8
       0.0003444017 5.049999e-05 -2.2461714e-05 -9.68468e-05
0000b0 2a 44 0a 39 77 55 af b9 c9 c8 d7 37 5a db ad 39
       0.00013186099 -0.00033442277 2.5723495e-05 0.0003316056
0000c0 51 68 98 39 4e e4 3b ba 5f a7 f0 39 17 e1 b1 b9
       0.0002906942 -0.0007167504 0.00045901068 -0.00033927776
0000d0 45 30 da 39 3c ee c1 38 8b c4 ef 39 79 4d c7 39
       0.00041616164 9.247332e-05 0.00045732068 0.0003801396
0000e0 a7 16 ba 39 93 bf 81 b9 77 98 1a 39 7a fc 5a b8
       0.00035493562 -0.0002474753 0.00014743382 -5.2210387e-05
0000f0 6a f2 4e 39 cf 0c 34 39 fb 86 53 38 19 ca 17 39
       0.00019735997 0.00017170909 5.043203e-05 0.0001447577
000100 22 df c2 b9 13 48 32 39 79 7c e4 b9 0a 79 89 b9
       -0.0003716881 0.00017002253 -0.00043580288 -0.00026220857
000110 39 8e de b8 1c e3 7d b9 66 e1 a8 39 db 4b dd b8
       -0.00010612276 -0.00024212565 0.00032211392 -0.000105522304
000120 e4 33 e9 b9 69 1c 50 b8 0a 63 cf 38 30 2b 54 b9
       -0.00044479885 -4.9617523e-05 9.888977e-05 -0.00020233984
000130 81 40 56 b8 44 2d 7a b9 15 3b 8b b9 89 31 89 b9
       -5.108165e-05 -0.0002385872 -0.00026556166 -0.00026167583
000140 c6 93 50 39 7c 04 56 38 85 5e 00 ba 86 14 b0 38
       0.00019891476 5.1025752e-05 -0.0004896897 8.396157e-05
000150 72 8c 4a b8 83 54 06 38 a8 0b b6 b9 ae 52 ca 36
       -4.8291353e-05 3.2026797e-05 -0.0003472243 6.0296943e-06
000160 72 46 02 ba c4 95 19 b9 b9 a5 5a 38 c2 5d 09 3a
       -0.00049696036 -0.00014647009 5.212959e-05 0.0005240106
000170 fb 97 7e 39 88 1d 1d ba ff 7a e4 39 5c d3 75 39
       0.00024279945 -0.0005993475 0.00043579188 0.00023443758
000180 e4 72 72 b9 fb 8d 1c b9 f4 97 7e 39 0f e7 70 39
       -0.00023121719 -0.00014930211 0.00024279935 0.0002297426
000190 89 c9 e3 39 90 93 de b9 29 8e 12 b9 36 65 9f 39
       0.0004344697 -0.00042453082 -0.00013976604 0.0003040225
0001a0 3e 27 74 38 33 3b 19 ba 9b bf 06 ba 49 31 e7 b8
       5.821068e-05 -0.0005845308 -0.0005140246 -0.000110241184
0001b0 44 2f a3 39 78 c3 30 39 37 60 25 ba 76 1e c9 38
       0.00031124998 0.00016857486 -0.00063085876 9.590101e-05
0001c0 ec 7b 86 38 bc 60 39 b9 ec b5 23 39 6e 00 23 b9
       6.4127e-05 -0.00017679011 0.00015612663 -0.00015545051
0001d0 47 b6 9f 39 04 b3 6e 38 4a 89 e3 39 df 3f ae 38
       0.0003046265 5.6910343e-05 0.00043399102 8.3088635e-05
0001e0 3d 3f 96 b9 16 7e ae b9 3c 30 1a b9 0a 25 ec b9
       -0.00028657346 -0.00033281808 -0.00014704553 -0.00045041024
0001f0 22 bc 03 39 64 06 89 b9 d6 df f5 39 95 32 90 39
       0.00012563218 -0.00026135438 0.00046896812 0.00027503507
000200 5c fc ea b7 fc 54 de b9 9d 3c e0 b9 cd c1 ad b8
       -2.8012488e-05 -0.00042406458 -0.0004276977 -8.285381e-05
000210 93 25 15 38 8a 32 d4 37 65 c2 05 3a 9e 97 08 ba
       3.5559362e-05 2.5295903e-05 0.00051025144 -0.0005210581
000220 74 96 cb b9 9a 37 eb b8 c5 56 5e 38 fa eb ab b9
       -0.00038831274 -0.0001121603 5.3009735e-05 -0.00032791478
000230 af b8 c7 b7 e2 71 11 ba 8e cb 82 39 c9 11 63 b9
       -2.3808649e-05 -0.0005548281 0.00024947192 -0.00021655032
000240 31 d2 f1 b9 34 54 0e 3a 2a 16 8b 38 8e 55 0d 3a
       -0.00046123707 0.00054294174 6.632165e-05 0.0005391472
000250 91 d2 b3 b8 9e a8 97 39 b7 50 3e 39 a7 5e 49 b9
       -8.574606e-05 0.00028926594 0.0001814988 -0.00019204115
000260 ed 76 22 3a 53 68 fd 39 b5 5e 6c b7 2d 16 99 b9
       0.0006197531 0.00048333648 -1.4088747e-05 -0.00029198956
000270 ee ce 58 b9 f1 6a f5 39 57 5a 7f 39 ab ab e1 b8
       -0.00020676453 0.0004680972 0.0002435235 -0.00010760812
000280 29 4d e0 b9 d7 be 43 ba 69 d7 41 39 ae 00 09 b9
       -0.00042782098 -0.0007467097 0.00018486161 -0.00013065591
000290 59 4c 46 b6 a4 61 c7 39 49 f8 76 39 f3 85 ad b8
       -2.954874e-06 0.00038028986 0.00023552882 -8.274233e-05
0002a0 b6 ff 42 39 6b 81 81 b9 93 47 dc b9 b9 ab 46 b8
       0.00018596541 -0.0002470122 -0.00042014997 -4.7366808e-05
0002b0 1e dc 3b b9 1b c1 7f b9 08 68 b3 b7 d3 49 40 38
       -0.0001791571 -0.00024390632 -2.1386906e-05 4.584512e-05
0002c0 2d 31 80 39 9f b2 12 39 b7 5d 40 b9 60 fd 49 b9
       0.000244507 0.00013990187 -0.00018345458 -0.00019263243
0002d0 16 e0 bb 39 c0 ee ac 38 27 c0 dc b9 e2 7a 81 39
       0.00035834376 8.24607e-05 -0.00042104835 0.00024696352
0002e0 c0 eb ba 39 5d ed 10 ba 6e ba 50 b9 49 db a1 b9
       0.00035652332 -0.0005528534 -0.00019905876 -0.00030871693
0002f0 dd 5c 47 b9 e9 16 39 b9 19 04 b4 b9 7e e0 c5 39
       -0.00019012713 -0.0001765151 -0.00034335328 0.00037742028
000300 82 c8 1b ba 35 10 86 39 ed b6 11 ba e4 f1 4d b9
       -0.0005942659 0.00025570547 -0.0005558569 -0.00019640435
000310 b4 98 82 b9 87 49 0d 39 32 79 e0 38 29 6e 4b 39
       -0.00024909305 0.00013474199 0.00010703727 0.00019400626
000320 ae ad af 38 27 b7 8d b9 39 14 de 39 d8 8d f8 b9
       8.3770006e-05 -0.00027030075 0.00042358207 -0.00047407928
000330 7c e2 fe 39 e3 86 0d b9 a0 a7 92 38 7c e1 39 b9
       0.000486154 -0.00013497057 6.993045e-05 -0.00017726974
000340 7c a6 29 b8 7a 48 c8 b9 e1 66 c9 b9 2b c9 f8 b7
       -4.044779e-05 -0.00038200972 -0.00038414358 -2.965758e-05
000350 7c 44 7a 39 5f b0 89 38 0d 29 1b b9 26 bd eb 39
       0.0002386737 6.565521e-05 -0.00014797245 0.0004496362
000360 aa 4e ce b9 e7 7f 52 39 a2 ad c3 39 78 8c 44 b9
       -0.0003934999 0.00020074808 0.00037322665 -0.00018744345
000370 7f b2 1c ba 30 b6 4a 37 eb 30 4d 39 a7 1d 26 ba
       -0.0005977526 1.2082557e-05 0.00019568547 -0.0006336816
000380 27 fe c3 39 6a ca 0d b9 42 85 1f b9 66 78 00 ba
       0.00037382657 -0.00013522213 -0.00015213064 -0.0004900753
000390 d9 94 81 b9 a8 a7 07 38 db 65 19 39 30 77 f6 b9
       -0.00024715698 3.234265e-05 0.00014629161 -0.00047009578
0003a0 f1 9a 05 ba ef 04 00 ba b9 63 be b9 25 29 87 38
       -0.00050966354 -0.00048835477 -0.00036313923 6.4449654e-05
0003b0 c2 9b e8 b8 66 ca 0d b9 e0 4f aa b9 fa 2a 5c b8
       -0.00011091634 -0.00013522207 -0.00032484438 -5.2492112e-05
0003c0 7d 00 ed b9 60 84 4b 39 51 48 83 b9 42 3b 13 b8
       -0.00045204526 0.00019408902 -0.00025040147 -3.510272e-05
0003d0 44 2f 77 39 0c b0 c6 39 72 37 e1 b9 41 e9 a9 b8
       0.00023573363 0.00037896668 -0.00042956654 -8.101995e-05
0003e0 68 a3 53 b9 10 02 05 3a da 03 11 39 1b 84 66 b9
       -0.00020183402 0.00050738547 0.00013829712 -0.00021983722
0003f0 30 55 32 39 fe 5b 1f ba 27 53 10 37 45 83 7b 39
       0.00017007138 -0.00060790766 8.602429e-06 0.00023986127

fs_lr_fs_lr_W f4 [472, 1]
000000 b7 bd 78 b9 25 b1 fa 3b 37 13 2b 3c f2 6b a8 3b
       -0.00023721797 0.007650512 0.010441593 0.005139821
000010 d0 b3 c7 bb 38 c3 a5 3c d4 ec b2 3b 5a 3e 89 3c
       -0.0060944334 0.02023469 0.005460361 0.016753364
000020 37 51 a4 3c af f9 1f bc 9e 5d 93 3b e8 65 06 3b
       0.020058258 -0.009764119 0.004497244 0.0020507518
000030 a8 91 2e 3c 17 ca 0f 3c e7 88 ce 3a 82 dc 2d bb
       0.010654844 0.008776209 0.0015757353 -0.0026529138
000040 4d 16 83 bb 1d 4e 38 bc 84 f9 a9 bb a4 7d dc 3b
       -0.004000461 -0.011249092 -0.0051872153 0.0067288447
000050 9f b5 12 bc 88 2c 3b 3b ab 75 43 3c 08 a3 83 bb
       -0.008954435 0.0028560478 0.01192991 -0.0040172376
000060 ea b6 bc bb db 19 e2 bb 15 05 28 bc e3 63 d6 3a
       -0.0057591097 -0.006900055 -0.010255118 0.0016356673
000070 01 36 1b bc da 9c 8a 3b 36 43 c9 bb 49 82 41 bc
       -0.009473325 0.004230124 -0.0061420454 -0.011810848
000080 e6 4d 87 3b 96 f0 f4 ba f1 b6 68 bb a4 40 fc bb
       0.0041291593 -0.0018687423 -0.0035509432 -0.0076981355
000090 b4 9e eb bb 54 0f 12 3c 68 a8 2a 3c 19 f7 fb 3b
       -0.0071905497 0.008914787 0.010416128 0.0076893684
0000a0 3c 15 22 3c f5 64 83 3c 9e d6 76 bb dd db 65 bc
       0.009892758 0.016039351 -0.0037664543 -0.01402947
0000b0 e3 6b 24 3c b1 cd 6d bb 2a 2a b0 ba e8 9d c3 bb
       0.010035488 -0.0036285932 -0.00134403 -0.0059697516
0000c0 2c 6f fd ba 30 4b 0a bc 3a 0b c5 bb b6 55 5f 3c
       -0.00193355 -0.008440778 -0.006013301 0.013631275
0000d0 03 00 e5 bb f3 fe 83 3c 35 2a 69 3a 28 9a a6 ba
       -0.006988527 0.01611278 0.0008894534 -0.0012710737
0000e0 d2 34 02 3c f8 9c 5a bb f0 26 4b 3b 3d 71 16 bc
       0.007947164 -0.003335772 0.003099855 -0.009182272
0000f0 22 5d 0a bc 1f 96 da 3b 8f db 19 bc 49 e1 b8 bb
       -0.008445056 0.006670728 -0.009390726 -0.0056420905
000100 bb b0 22 bc bc 1c 3f bc 44 97 95 bb 0d 1f b6 bb
       -0.009929831 -0.011664566 -0.0045651514 -0.0055579008
000110 db e4 c3 3a a9 40 ea bb 15 b7 0e 3c 79 8f 08 bc
       0.0014945524 -0.0071488214 0.008710642 -0.008334988
000120 84 20 9a bb d4 77 7d bb f1 ac 91 3c 70 0e 67 3b
       -0.004703583 -0.003867616 0.01778266 0.0035256408
000130 ed 23 82 3c 1c 67 93 bb 96 74 66 3c c5 c7 62 bc
       0.015886271 -0.0044983756 0.014065882 -0.013841574
000140 f1 90 02 3b 0b 86 b0 bb 46 7c 2f bc ad d6 1e 3c
       0.0019922818 -0.005387073 -0.010710781 0.009694737
000150 eb c3 60 bb de 2a c2 bb 67 c8 a3 bb af 07 c1 3b
       -0.0034296464 -0.0059255203 -0.004998255 0.0058908085
000160 37 04 13 3c a3 92 5c bb fb 91 f9 3a 0f 18 97 bb
       0.008973173 -0.0033656738 0.0019040698 -0.0046110223
000170 da d0 60 3c 53 7b 07 bc df fd b9 3b 21 93 a1 bb
       0.013721669 -0.008269149 0.0056760157 -0.004930869
000180 f3 cf 5d bc 6c c7 5b bb bb 7a 61 bc bf 37 bb 3b
       -0.0135383485 -0.0033535613 -0.013762171 0.0057134326
000190 d8 75 b9 bb 1e b8 52 bc fb e4 cd bb a8 42 85 bb
       -0.0056598 -0.01286128 -0.0062834 -0.004066784
0001a0 7d a2 3a bc 92 22 36 bc 80 87 09 3c e7 c6 a6 3b
       -0.011391279 -0.011116641 0.008394122 0.005089629
0001b0 24 5a b3 bb a1 10 3e bc a8 e0 13 bc d1 3a 94 3c
       -0.005473392 -0.011600644 -0.00902573 0.018094452
0001c0 4e 76 10 3c 33 ef 68 bc 53 5c f3 3b 7a 7f 9a bb
       0.008817269 -0.014217186 0.0074267774 -0.0047149034
0001d0 14 45 76 3b 11 22 09 3c d6 f9 d3 ba e0 f9 01 bc
       0.0037577795 0.0083699385 -0.0016172479 -0.00793311
0001e0 10 70 3f 3c b1 1a 92 bb ca 40 ac bb 07 4c 9f bb
       0.011684433 -0.0044587483 -0.005256747 -0.004861358
0001f0 d7 f1 e0 3b 6c 41 54 ba ef de 31 bc dd 03 f6 bb
       0.006864767 -0.0008096907 -0.010856374 -0.0075077848
000200 5a 6b 1c bb e3 98 61 3b e3 5f 70 3b 04 1c 41 3c
       -0.0023867697 0.0034423403 0.0036678247 0.011786465
000210 3c 63 84 3a 90 74 8c bb b6 bb f9 3b 55 cc 62 3a
       0.0010100375 -0.0042863563 0.007621254 0.00086516637
000220 fd ee 88 3a 2c e0 9b bb bb 99 f2 bb 8b 38 03 3c
       0.0010447201 -0.004756948 -0.00740358 0.008009086
000230 5c d5 6c bb f0 d9 12 3c 50 ff f5 3b 00 80 24 bb
       -0.0036137914 0.008963093 0.0075072423 -0.0025100708
000240 d5 a2 b7 bb 56 01 88 3c 75 49 6e bb cc 1f 51 bb
       -0.005604128 0.0166022 -0.0036359702 -0.0031909822
000250 e3 e9 49 3c 05 47 ad bb 54 f1 a9 bb a0 08 9a bc
       0.012323829 -0.005288007 -0.0051862393 -0.01880294
000260 78 b4 a9 bb 89 65 85 ba e0 27 27 bc b1 42 1f bc
       -0.0051789843 -0.0010177355 -0.010202378 -0.00972049
000270 08 d8 90 bb a7 0c 49 bc b3 7b 10 3b 45 2d b6 bb
       -0.004420284 -0.012271083 0.0022046387 -0.005559596
000280 92 39 2b bb a9 8b d3 bb 5f 12 f9 bb 93 b4 fe 3a
       -0.0026126844 -0.006455858 -0.007601067 0.0019432477
000290 51 2b 2b 3a 15 d4 e5 3b 93 d0 56 b9 16 94 e1 3b
       0.0006529587 0.0070138075 -0.0002048633 0.0068841083
0002a0 7c 30 11 bc cd 91 c1 bb 94 83 b4 ba 22 60 95 3b
       -0.008861657 -0.0059072734 -0.0013772123 0.004558579
0002b0 f6 38 e3 3b d5 c9 57 3c ab 6b 8d bc 95 93 79 bb
       0.0069342805 0.013170679 -0.017263254 -0.003808235
0002c0 a8 35 08 3c 73 20 51 bc 78 4a ad bc f6 9f 75 3c
       0.008313574 -0.012764084 -0.021153674 0.014991751
0002d0 16 f1 6f 3c c2 7f 8a 3c d6 ea 5b 3c 3b 30 03 bc
       0.014644882 0.016906623 0.0134226885 -0.0080071045
0002e0 df 7d a2 bb 49 f5 12 bc ba 12 8a 3b 48 cb 06 bc
       -0.0049588527 -0.008969613 0.004213658 -0.008227177
0002f0 44 e0 8f bb 16 dc 0f bc 40 19 71 bc ab c3 2a bc
       -0.004390748 -0.0087805 -0.014715493 -0.010422627
000300 39 9c 8c bb 6c 9f 92 bb 30 f4 88 bb d4 75 3a 3c
       -0.004291084 -0.004474571 -0.0041795 0.0113806315
000310 40 db a8 ba de 76 0b bc d1 78 2e 3b 27 4c f8 3b
       -0.0012882724 -0.008512227 0.0026622305 0.0075774374
000320 15 eb 8d bb 4c 58 6c 3b 3c bc 34 bc 7c 63 70 3c
       -0.0043310025 0.0036063371 -0.011031207 0.014672156
000330 b2 ac 35 bc dd be f6 bb 22 48 8a ba dc e0 10 3c
       -0.011088537 -0.007530077 -0.0010550062 0.008842673
000340 71 89 e4 3b 65 fb 3b bc 7e c7 30 bc f0 8f 66 3c
       0.006974392 -0.011473511 -0.01078975 0.014072403
000350 90 49 c1 bb ac 4b 09 3c 4c d5 f6 3b 7d ea dd 3b
       -0.005898662 0.008379858 0.007532751 0.006772338
000360 b8 99 c8 3a bc ab 81 ba 00 9b f6 bb 00 4e 87 3c
       0.0015304601 -0.00098931 -0.0075258017 0.016516685
000370 5b 20 1c 3c 17 43 66 bb 1b c9 8c bb cb 99 3d bb
       0.0095291985 -0.0035135204 -0.0042964346 -0.002893078
000380 99 70 08 bc 75 cc eb bb 6f 36 7c bb 7b aa 9a bc
       -0.008327627 -0.007196004 -0.0038484593 -0.01888012
000390 49 30 ca bb a5 48 dd 39 95 c8 e9 bb f3 22 00 b9
       -0.006170307 0.0004220653 -0.007134507 -0.00012220051
0003a0 a0 3e 5f bc 2e f5 da 3b 57 5a a6 3b 24 96 a7 3b
       -0.013625771 0.0066820597 0.0050766873 0.0051143337
0003b0 f9 d3 f9 bb 2e 16 d3 ba e9 4c 09 bc 29 70 f3 3a
       -0.007624146 -0.0016104633 -0.008380153 0.0018572855
0003c0 ce 0f 41 bc 92 3d 99 bb 02 19 0b bc d0 89 11 bc
       -0.011783553 -0.004676529 -0.008489849 -0.008882955
0003d0 57 1f a1 ba e1 81 f6 ba e1 90 55 ba 6f 76 a2 3c
       -0.0012292665 -0.0018807017 -0.0008146894 0.019831864
0003e0 ca 34 a1 3c d8 a0 3b 3c 6c 6f 0a bc a7 fd 52 bb
       0.019678492 0.011451922 -0.008449417 -0.0032194646
0003f0 82 58 2b bc 43 c8 56 3c d8 2e 89 bb 18 e5 12 bb
       -0.010458114 0.01310927 -0.0041864924 -0.0022414383

fs_svc_W2_fs_svc f4 [472, 1]
000000 a9 f3 bd b9 13 50 11 3c 40 88 3f 3c 93 55 cb 3b
       -0.0003623043 0.008869189 0.011690199 0.0062052696
000010 a9 d9 a8 bb 88 cd b2 3c f2 94 bb 3b 51 ca 9a 3c
       -0.0051529002 0.02182652 0.005724543 0.0188953
000020 ba 50 b1 3c 90 2e 29 bc b6 00 9a 3b 27 c0 12 3b
       0.021644939 -0.010326043 0.004699792 0.0022392364
000030 9d 1e 3b 3c c6 30 22 3c b3 c9 fa 3a 76 10 81 ba
       0.011420873 0.009899324 0.0019133597 -0.0009846825
000040 61 8b 2e bb 76 97 45 bc 9f 68 ae bb bd cf ff 3b
       -0.002663337 -0.012060037 -0.0053225304 0.0078067468
000050 37 8b 34 bc 4d dd 4f 3b 6a d9 59 3c 6f 55 4b bb
       -0.0110195195 0.00317176 0.013296464 -0.0031026264
000060 a6 89 9f bb 45 ab cc bb ef 87 3b bc 4b dc 05 3b
       -0.004868704 -0.006246003 -0.011445983 0.0020425494
000070 97 ff 29 bc b2 64 8b 3b bc bd c3 bb 1c 9e 5e bc
       -0.010375879 0.004253947 -0.005973546 -0.013587501
000080 30 98 a0 3b 7a c4 7b ba a3 00 0a bb cd 4a 0d bc
       0.0049009547 -0.00096041674 -0.0021057508 -0.008623791
000090 1c d6 e5 bb 1a 90 14 3c ca d3 32 3c 58 0e 11 3c
       -0.007014049 0.00906756 0.010914752 0.0088535175
0000a0 42 42 37 3c b9 7e 91 3c 3a 92 79 bb 53 1d 6b bc
       0.011185231 0.017760621 -0.0038081543 -0.014350253
0000b0 9e 03 28 3c 9e 64 59 bb 85 3d 9d ba 33 5e a7 bb
       0.010254769 -0.0033171545 -0.0011996484 -0.005107665
0000c0 10 95 fa ba 62 19 15 bc 56 0b ae bb 3d 77 75 3c
       -0.001911791 -0.00910029 -0.00531141 0.014982042
0000d0 d4 87 d8 bb 8e c3 8e 3c ba d8 b8 3a 03 65 39 ba
       -0.006607989 0.017427232 0.0014102675 -0.0007072242
0000e0 1a 89 13 3c 9d e7 7c bb 37 a5 49 3b 61 60 0b bc
       0.0090048555 -0.00385902 0.0030768642 -0.008506865
0000f0 59 3d 02 bc f2 40 e7 3b cd a7 25 bc d2 cf a3 bb
       -0.007949197 0.0070573026 -0.010110808 -0.0049991393
000100 00 07 3b bc 1f ef 4e bc f5 ea 84 bb 11 71 ba bb
       -0.011415243 -0.012630253 -0.0040563294 -0.005689748
000110 56 45 f5 3a 41 8a 06 bc a2 44 19 3c c2 6c ff bb
       0.001871268 -0.008211673 0.009354742 -0.0077949474
000120 86 93 7c bb 80 de 4a bb 73 e7 a3 3c 44 d7 8f 3b
       -0.003854008 -0.0030955374 0.020007825 0.0043896753
000130 8d 04 8d 3c 2a c8 94 bb b2 95 7d 3c 0e 3a 63 bc
       0.017214084 -0.004540463 0.015477585 -0.013868822
000140 60 19 c1 3a 0a 77 9d bb 69 c5 4b bc 51 39 28 3c
       0.0014732294 -0.0048054503 -0.012437203 0.010267572
000150 99 24 2b bb 1d f3 c2 bb 7f 91 a7 bb 11 6d d6 3b
       -0.0026114343 -0.0059493915 -0.00511378 0.0065437634
000160 4b b0 18 3c 99 48 1c bb e8 11 08 3b 69 19 61 bb
       0.009319375 -0.0023846983 0.0020762626 -0.003434742
000170 0b 36 73 3c 48 2f 11 bc 58 cc d4 3b 36 e3 7c bb
       0.014844428 -0.00886137 0.0064940862 -0.0038587577
000180 79 c0 7d bc fd e8 f3 ba 9f 98 7e bc 98 18 d8 3b
       -0.015487784 -0.0018608865 -0.015539317 0.0065947287
000190 d5 26 a9 bb 0c 2f 61 bc cb 26 a6 bb b5 32 87 bb
       -0.0051621 -0.013744127 -0.0050705425 -0.004125918
0001a0 8c 91 55 bc 1c 6a 44 bc be ca 25 3c da 85 a7 3b
       -0.013035189 -0.011988189 0.010119138 0.005112392
0001b0 0d b7 9f bb 76 01 66 bc 08 b3 12 bc d9 fd 98 3c
       -0.0048741163 -0.014038434 -0.008953817 0.018675731
0001c0 41 f1 20 3c 43 74 72 bc 8c 26 05 3c 87 55 99 bb
       0.009823144 -0.014798227 0.008126866 -0.004679385
0001d0 fa 78 8b 3b 69 92 0d 3c f0 b6 73 ba 12 a4 07 bc
       0.004256365 0.008640864 -0.0009296974 -0.0082788635
0001e0 34 c1 53 3c df b8 99 bb dc 92 b9 bb 29 8f 78 bb
       0.012924481 -0.004691228 -0.005663259 -0.0037927127
0001f0 0b 11 01 3c d4 01 f6 b9 67 cc 39 bc c2 17 f8 bb
       0.0078775985 -0.00046922138 -0.011340237 -0.0075711915
000200 99 2d 02 bb 6d 16 78 3b 87 ce 9a 3b 56 9d 55 3c
       -0.0019863604 0.0037855164 0.004724327 0.013038
000210 a1 c2 b8 3a 2d 07 89 bb d2 89 02 3c c4 42 53 3a
       0.001409609 -0.0041817636 0.007967429 0.000805896
000220 27 07 b2 3a 37 4f 9e bb 47 17 f2 bb ee 39 0b 3c
       0.0013582454 -0.0048312205 -0.007388029 0.008497698
000230 e6 6a 98 bb 00 43 18 3c f2 84 07 3c bb 22 09 bb
       -0.004651415 0.009293318 0.008271443 -0.0020925242
000240 bd 00 bb bb f3 1e 96 3c ce 47 35 bb f3 3f 2a bb
       -0.005706875 0.018325305 -0.0027661207 -0.0025978058
000250 b0 4b 54 3c ac 8a b4 bb 2c 93 a9 bb 1d 03 ae bc
       0.012957498 -0.005509695 -0.005175015 -0.021241719
000260 7e b4 96 bb 07 c9 68 ba dd 50 2b bc 38 d7 2a bc
       -0.004599153 -0.0008880053 -0.010456291 -0.010427289
000270 45 97 89 bb e6 3f 60 bc d5 27 09 3b fd ec bb bb
       -0.004198941 -0.01368711 0.0020928283 -0.0057350383
000280 54 14 0a bb a4 13 ba bb c6 9f 02 bc 29 9e f1 3a
       -0.0021069245 -0.005678611 -0.007972663 0.0018433976
000290 90 57 7b 3a 57 40 03 3c b1 73 da 3a fd 51 e0 3b
       0.0009587938 0.008010945 0.0016666559 0.0068457113
0002a0 62 47 1e bc a3 cd a7 bb f8 84 56 b9 2e df bf 3b
       -0.009660574 -0.0051209494 -0.00020458165 0.0058554625
0002b0 e4 fe 00 3c 78 70 68 3c 1c 42 9d bc e4 cf 6f bb
       0.007873271 0.014186971 -0.019196562 -0.0036592418
0002c0 ce 58 13 3c 38 fc 64 bc a9 eb ba bc 31 14 87 3c
       0.008993341 -0.013976149 -0.02281745 0.01648912
0002d0 ac 71 84 3c 17 cf 96 3c 24 2d 6d 3c 80 f4 14 bc
       0.016167484 0.018409295 0.014476094 -0.0090914965
0002e0 4d 21 aa bb c9 84 2e bc 14 b0 a9 3b 7b 48 05 bc
       -0.005191958 -0.010651776 0.005178461 -0.0081349565
0002f0 a2 21 ad bb 68 c5 1f bc e8 f5 8c bc cb 12 39 bc
       -0.0052835504 -0.009751655 -0.017207101 -0.0112959845
000300 ba ec 78 bb 37 ab 8f bb 24 38 8b bb d5 ca 43 3c
       -0.0037982897 -0.004384424 -0.004248636 0.011950214
000310 1a 0c 83 ba 64 54 19 bc 30 48 4b 3b 16 52 08 3c
       -0.0009998113 -0.009358499 0.003101837 0.008320352
000320 1d b7 a3 bb bd a5 8c 3b 25 92 3f bc 24 23 7f 3c
       -0.004996194 0.0042922185 -0.011692558 0.015572343
000330 b7 f6 42 bc ef 9f ec bb d9 56 9e b9 5d 66 16 3c
       -0.011899642 -0.007221214 -0.00030200815 0.009179679
000340 20 19 02 3c 5e d5 59 bc 0b e7 4f bc 4a 9f 7f 3c
       0.007940561 -0.0132955 -0.012689362 0.015601942
000350 2f 7e a1 bb 11 9e 12 3c e6 5f 0d 3c 96 59 e1 3b
       -0.0049283723 0.008948819 0.008628821 0.0068771346
000360 4a 39 1b 3b 39 bf 02 3a 70 80 f2 bb 6f 58 93 3c
       0.002368527 0.0004987601 -0.007400565 0.017986504
000370 9c 02 32 3c 5a dd 73 bb c7 fa 7a bb 8b 7f 2d bb
       0.01086488 -0.0037210793 -0.0038296448 -0.0026473727
000380 88 4a 02 bc d9 66 f2 bb 36 02 57 bb aa 7a b6 bc
       -0.00795234 -0.0073975143 -0.0032807714 -0.022275288
000390 2f 56 d8 bb 20 0f e8 3a 09 4e f6 bb 95 25 d5 b9
       -0.0066020708 0.0017704703 -0.0075166267 -0.00040654527
0003a0 2f a8 6d bc 4b b8 cc 3b 9c ee ac 3b 41 a2 cb 3b
       -0.01450543 0.0062475554 0.005277468 0.0062144105
0003b0 d4 93 f8 bb 68 e0 99 ba a3 2e fa bb 36 e3 4a 3b
       -0.007585982 -0.0011739852 -0.007634954 0.0030958182
0003c0 1b f3 49 bc e0 9b 8a bb 38 a1 06 bc 9d a4 19 bc
       -0.012326027 -0.0042300075 -0.0082171485 -0.009377626
0003d0 5b 4f 1b ba 9e e7 c2 ba 45 0d c6 ba 7e ec ae 3c
       -0.00059246056 -0.0014870053 -0.0015110156 0.021353003
0003e0 bf 23 b0 3c 6d dc 4c 3c 1c 8f 1a bc 53 a7 3c bb
       0.02150142 0.0125037255 -0.009433534 -0.0028786256
0003f0 73 8f 45 bc 4f e5 67 3c 6b bd 8a bb 8f 68 f8 ba
       -0.012058127 0.0141537925 -0.004234006 -0.0018952059

mfs_lr_mfs_lr_W f4 [263, 1]
000000 13 7a 3c 39 f4 1c 5f bb dc f9 9c 3b a5 11 5f 3a
       0.00017974553 -0.0034044357 0.0047905277 0.0008509404
000010 2b 61 3f b9 da d1 b1 3b 27 a4 a9 bb 71 4a 20 3b
       -0.00018251377 0.0054266276 -0.005177039 0.0024458433
000020 f2 13 dc 3a 0c dc 5c 3b 53 41 3e bb e1 81 85 bb
       0.0016790612 0.0033700494 -0.0029030635 -0.0040743207
000030 9e 65 71 bb 4c 7d 99 bb 39 eb bc 3a 67 d3 47 3a
       -0.003683425 -0.004684126 0.0014413364 0.0007622749
000040 fa 6f 5d bb e8 bd 9f ba 0c 09 56 bb f5 06 89 3b
       -0.0033788667 -0.0012187334 -0.00326592 0.0041817375
000050 47 d3 95 3b bf 34 b4 bb 9e f0 a8 3a 16 51 24 bb
       0.0045723054 -0.005499452 0.0012889092 -0.0025072745
000060 06 a6 80 bb 28 52 12 bb 1b 7b f2 39 d5 97 2e bb
       -0.0039260415 -0.00223268 0.00046249558 -0.0026640792
000070 5b 4e eb 3a 73 58 94 bb 2e 2d 7b 3a 05 88 7d bb
       0.0017952429 -0.0045271455 0.00095816224 -0.003868581
000080 7a ff 25 bb 22 2e 19 bb b1 ee c3 3a ca ba 97 ba
       -0.0025329278 -0.0023373445 0.0014948455 -0.0011576053
000090 1c 00 73 3b 58 5c c2 39 d3 76 15 bb 4c 5f 6e 3b
       0.0037078923 0.00037071365 -0.002280642 0.003637272
0000a0 d8 dd 99 3b 5c e4 96 bb 0f fc 0c bb 25 3b 1f bb
       0.0046956353 -0.0046048593 -0.0021512543 -0.0024296727
0000b0 99 7b a3 bb 33 8b 5e bb 10 c4 6f 3a 06 ac 0a bb
       -0.004989099 -0.003395748 0.0009146342 -0.0021159663
0000c0 c1 9e 9d 3a 4d dd f5 ba 93 b1 d2 ba e8 b6 58 bb
       0.0012025462 -0.0018757969 -0.001607465 -0.0033068005
0000d0 36 21 6a 3a 88 75 61 3b 32 2a 5d ba e8 7a a9 bb
       0.00089313404 0.003440233 -0.00084367685 -0.0051721223
0000e0 bb 29 50 bb f6 c8 04 ba 37 38 7a bb 7f 2a 92 bb
       -0.0031763155 -0.0005065346 -0.003818048 -0.0044606323
0000f0 7e dd b2 bb ec d7 67 3b c8 13 5a 3a 4d 3f 83 3b
       -0.005458533 0.0035376502 0.00083189877 0.004005349
000100 35 84 46 3a 7c a9 7d bb 5d 57 82 b9 7f c9 cb ba
       0.0007572801 -0.0038705757 -0.00024860623 -0.0015547721
000110 c8 2f 6f bb 30 fb 5d 39 bc f7 1e bb bb 27 9e bb
       -0.0036496986 0.00021169777 -0.0024256548 -0.0048265136
000120 aa 87 6b bb 50 a1 02 3a aa b6 20 b6 fe 9f 55 3b
       -0.0035939016 0.0004983144 -2.3948182e-06 0.0032596583
000130 54 bf 06 bb 82 cb 55 bb bf d5 3a bb f2 26 26 bb
       -0.0020560818 -0.003262252 -0.002850875 -0.0025352803
000140 df 1b 8c bb ea 1a 0d bb 7f 98 52 bb 1f 60 22 bb
       -0.0042757834 -0.0021530935 -0.0032134352 -0.002477653
000150 16 04 db ba 79 78 ca b9 72 0f 17 bb e3 e9 15 b9
       -0.0016709592 -0.00038618202 -0.0023049978 -0.00014296877
000160 1e c3 41 3b 26 c8 d9 b9 0f a1 90 37 98 5d d4 ba
       0.0029565762 -0.00041538588 1.7241136e-05 -0.001620221
000170 0f 0e 00 3b 85 a5 e3 ba 19 69 30 bb 2e 8f 8d bb
       0.001953963 -0.0017368054 -0.0026918112 -0.004320047
000180 c1 7e 37 3b eb 68 9b b8 9c c5 91 b9 06 19 7b 3b
       0.0027999135 -7.4105184e-05 -0.00027803786 0.0038314476
000190 71 16 8b bb b0 74 a6 bb a5 a4 ad 3b 9f cd 58 3a
       -0.0042446186 -0.005079828 0.005299168 0.0008270386
0001a0 d9 7a a0 3b 81 c0 6e 3b 20 b8 27 39 37 e5 53 bb
       0.004897457 0.003643066 0.00015994953 -0.0032332668
0001b0 b7 10 01 3a a9 98 1b 3b d4 6a 06 bb 4c 26 37 ba
       0.000492345 0.0023742116 -0.0020510452 -0.00069866027
0001c0 e3 09 14 3a 9f 84 a3 bb 89 35 35 bb 3d c6 e8 3a
       0.0005647225 -0.004990175 -0.0027650318 0.0017759275
0001d0 44 10 66 bb 67 13 44 39 c5 f8 28 bb 90 ef 6c bb
       -0.003510491 0.00018699245 -0.0025783044 -0.0036153533
0001e0 22 fd 0f 3b 36 f7 62 ba 13 e5 81 bb 43 6c 17 3b
       0.0021970947 -0.0008658053 -0.0039640754 0.00231053
0001f0 e9 2a e7 3a ac c5 91 bb 20 a0 8c 3b 00 8d 2f 3b
       0.001763669 -0.004448613 0.0042915493 0.0026786923
000200 a7 93 6f 3b d2 c0 82 bb 68 6a c6 bb f9 9f ba ba
       0.0036556514 -0.003990271 -0.006055165 -0.0014238349
000210 55 a3 8f bb 35 07 a7 bb 51 52 61 3b 74 52 8f 3b
       -0.0043834844 -0.0050972947 0.003438134 0.004373843
000220 20 14 72 bb 03 e6 ba ba 97 40 17 3b 3d c1 88 bb
       -0.0036938265 -0.0014259223 0.002307927 -0.0041734264
000230 bc f4 88 bb c2 f7 8f 3b 9f ba 56 ba f2 da 8d bb
       -0.0041795652 0.0043935487 -0.0008191261 -0.004329079
000240 54 76 51 bb 9c 2f 5b bb 3b 03 1c 3b 3d f2 0d 3b
       -0.0031961398 -0.0033445125 0.0023805636 0.0021659278
000250 4c a4 85 bb cc bb 83 bb ed 41 3e bb d6 c0 a7 bb
       -0.0040784236 -0.00402019 -0.0029030994 -0.0051194234
000260 fa 4b 9d bb 59 be 58 bb 17 e4 b6 3b b6 5a f3 38
       -0.004800317 -0.003307244 0.0055813896 0.00011604039
000270 62 81 62 bb 00 eb e6 ba 52 c7 21 b9 7e 81 6d bb
       -0.0034561981 -0.0017617643 -0.00015428409 -0.0036240513
000280 4d 01 20 3b 36 24 b4 3b 6d f3 82 bb ae e1 69 ba
       0.0024414838 0.0054974807 -0.003996304 -0.00089218735
000290 14 79 75 bb 32 8f 8f 3b bc fe 64 bb 4b 9a 8f bb
       -0.0037456201 0.004381084 -0.0034941873 -0.004382407
0002a0 dd 18 c3 bb b7 00 dc 39 e2 10 2d bb b4 54 68 bb
       -0.0059538917 0.00041962203 -0.0026407768 -0.0035450878
0002b0 5a fc 51 bb f8 26 04 3b 3c 65 ad bb 19 a1 77 bb
       -0.0032041282 0.0020164829 -0.005291609 -0.003778523
0002c0 f8 cd e2 3a f0 11 85 bb c5 68 e1 39 8c ba 97 bb
       0.0017303815 -0.004060976 0.00042993404 -0.0046303924
0002d0 e0 5d 68 3b 8c 22 c2 bb c3 60 68 bb f1 6c ed 3a
       0.0035456344 -0.0059245285 -0.0035458065 0.0018114132
0002e0 10 e2 99 bb cc fa 2c 3b 2d 12 ed 3a 24 01 1e bb
       -0.004696138 0.0026394604 0.0018087082 -0.0024109567
0002f0 bb 44 79 3b ba 03 4e 3b 63 6f a2 bb bb 11 69 bb
       0.0038035351 0.0031435327 -0.004957126 -0.0035563547
000300 59 9e 18 3b 8a 34 2c bb d1 01 22 3b 1f e9 96 3b
       0.0023287742 -0.0026276433 0.002472032 0.004605427
000310 a3 eb d0 3b 20 af db ba 31 a5 ba ba 80 6a 1e 39
       0.0063757463 -0.0016760565 -0.0014239905 0.00015107729
000320 21 14 67 ba c0 63 0f ba 23 78 6b 3b ac d7 48 bb
       -0.000881495 -0.0005469881 0.0035929761 -0.0030646129
000330 d3 26 b3 bb 17 c4 5c bb dd d0 ee 3a 33 98 84 3b
       -0.0054672747 -0.0033686215 0.0018220205 0.004046464
000340 26 69 83 bb 4b 5b e2 3a 02 03 71 3a a7 b6 bf ba
       -0.0040103374 0.0017269639 0.00091938686 -0.0014626578
000350 37 1c 6f bb f0 3e f3 39 42 33 30 bb 8e 40 41 3b
       -0.0036485323 0.00046395464 -0.002688602 0.002948794
000360 58 48 1c 3b 12 90 e2 b8 6c f7 82 bb f9 df 8b 3a
       0.0023846831 -0.00010803355 -0.00399678 0.0010671607
000370 57 f8 64 bb f6 04 82 bb d8 74 65 bb a7 fc 63 bb
       -0.003493806 -0.0039678765 -0.0035012271 -0.0034788044
000380 4a a5 67 3b 17 f9 34 3b a8 50 9b bb 11 16 fc b9
       0.0035346323 0.002761429 -0.0047398396 -0.00048081626
000390 74 a9 1f bb bc 3e 9d bb bb 4f 71 3b 48 f6 c6 b9
       -0.0024362477 -0.0047987383 0.0036821205 -0.00037948997
0003a0 03 e0 6f 3b d5 87 38 3a 4d 15 33 3b fa 92 9e 3a
       0.0036602027 0.00070392835 0.0027325929 0.0012098246
0003b0 27 c3 c1 ba 02 ab ce bb 0a 8c f6 3a 56 02 95 bb
       -0.0014782891 -0.006307007 0.0018810045 -0.0045473976
0003c0 08 92 62 bb 09 a5 71 3b 90 de 5f ba 41 1e ca 39
       -0.0034571905 0.003687205 -0.00085399393 0.00038550983
0003d0 5f 6c 80 bb 51 f9 80 bb 41 d0 69 bb 25 99 21 3a
       -0.003919169 -0.003935971 -0.0035677108 0.0006164483
0003e0 eb 9a 1e bb 3f d6 5d ba a6 04 fa 3a 44 a0 c7 ba
       -0.0024201225 -0.0008462406 0.0019074872 -0.0015230258
0003f0 5a 7a a9 bb 35 bc 8e ba 0b 27 81 3a f0 23 a6 bb
       -0.005172056 -0.001088983 0.0009853555 -0.005070202

mfs_svc_W2_mfs_svc f4 [263, 1]
000000 3f 81 ca b9 63 5f 24 bc 9c 29 89 3c 42 07 6f 3b
       -0.00038624738 -0.010032508 0.016743474 0.0036472832
000010 16 3f d2 37 94 59 99 3c 7d 4d 82 bc 89 0d 02 3c
       2.5063327e-05 0.018719472 -0.01590609 0.007937797
000020 b8 b3 a6 3b 72 db 38 3c 34 da 00 bc 67 70 41 bc
       0.005087342 0.011282789 -0.007864524 -0.011806584
000030 82 bb 39 bc f4 3e 77 bc 7c 86 bb 3b 9d 88 e3 3a
       -0.011336209 -0.015090693 0.005722819 0.001735944
000040 b7 d3 40 bc 34 3e af bb 18 74 21 bc cf 93 67 3c
       -0.011769227 -0.0053479914 -0.009854339 0.014134361
000050 d0 43 6c 3c ae cc 8d bc 32 0f 6e 3b 86 8b 0e bc
       0.014420465 -0.017309513 0.0036324975 -0.008700257
000060 14 11 3c bc 24 f5 0d bc 8a e6 97 3a f9 f2 00 bc
       -0.011478681 -0.008664403 0.0011589092 -0.007870429
000070 c1 9b ec 3b 31 99 61 bc 91 bb 20 3b 7d a1 4f bc
       0.0072207158 -0.013769434 0.002452586 -0.012672779
000080 cb bb e9 bb 89 e9 e1 bb 24 8a a0 3b 7a 16 07 bb
       -0.0071329824 -0.0068942946 0.00489928 -0.0020612762
000090 bf e4 3b 3c fa c9 27 3a 6b 51 e4 bb 76 5e 53 3c
       0.011468112 0.0006400641 -0.0069677136 0.012900939
0000a0 1d f6 7f 3c 3b 2a 7a bc 0a 89 ca bb 35 75 e9 bb
       0.015622643 -0.015268858 -0.006180887 -0.007124568
0000b0 99 bf 81 bc a4 69 1f bc 63 cb 88 3b cf 5c c9 bb
       -0.015838431 -0.0097297765 0.004174636 -0.006145097
0000c0 c3 7e a0 3b 4f d1 a8 bb 9a 74 a3 bb f5 10 1e bc
       0.0048979237 -0.0051519047 -0.004988265 -0.009647598
0000d0 ae c3 15 3b 24 b9 3c 3c c3 da e4 ba a0 f6 86 bc
       0.002285223 0.01151875 -0.0017460216 -0.016475022
0000e0 1f 00 48 bc 32 95 d8 b9 be 3a 51 bc 23 55 6d bc
       -0.01220706 -0.0004130989 -0.012770353 -0.01448563
0000f0 b4 a6 88 bc 0d 88 41 3c 72 6a 31 3b b8 87 68 3c
       -0.016681053 0.011812222 0.0027071503 0.014192514
000100 5c 24 8a 3a 52 54 39 bc ce 35 df ba 9c 43 a9 bb
       0.00105394 -0.011311607 -0.0017029585 -0.0051655304
000110 b0 f9 36 bc 81 6f cf 3a 22 ba d6 bb e9 cb 7b bc
       -0.011167929 0.0015826077 -0.0065529505 -0.01536844
000120 36 a8 37 bc 36 67 86 3a 64 b2 d1 3a 8f ff 3a 3c
       -0.011209538 0.0010254148 0.0015998599 0.011413469
000130 38 fe b1 bb 8c 22 19 bc 00 01 04 bc 0f f8 f0 bb
       -0.0054319166 -0.0093466155 -0.008056879 -0.0073537896
000140 97 4f 7d bc 13 0e b4 bb 85 03 2a bc 1c ec fc bb
       -0.01546087 -0.005494842 -0.010376816 -0.007718576
000150 a6 83 c3 bb b4 b0 b6 ba 6e 91 e0 bb 4f 3d 36 ba
       -0.0059666215 -0.001393816 -0.006853274 -0.0006951885
000160 1b f6 11 3c 7f dd aa ba c0 0b 00 39 8f 65 96 bb
       0.008908774 -0.0013035982 0.00012211408 -0.0045897434
000170 4e 74 ca 3b 63 9e 83 bb 4d a7 20 bc 94 b2 60 bc
       0.0061784154 -0.004016684 -0.009805513 -0.013714451
000180 c9 b4 1b 3c c0 b5 5b ba 03 50 d7 ba b3 e8 4d 3c
       0.009503552 -0.000838127 -0.0016427044 0.012567687
000190 fd 29 64 bc 59 5d 92 bc 27 d2 91 3c ac 66 7b 3b
       -0.013926026 -0.017866777 0.017800404 0.0038360758
0001a0 de db 88 3c f8 b4 4b 3c e7 ed b2 3a a3 cd 11 bc
       0.016706403 0.012433283 0.0013651223 -0.008899125
0001b0 3d 9f 2a 3b 03 98 10 3c 3a e9 0e bc 2a 64 48 bb
       0.0026034855 0.008825305 -0.008722598 -0.003057728
0001c0 76 9a 1a 3b 02 f2 7f bc 35 e3 ff bb 6e 55 d9 3b
       0.00235906 -0.015621664 -0.0078090676 0.0066324985
0001d0 88 c7 26 bc 3e 92 07 39 e6 2f 18 bc 1a 43 31 bc
       -0.010179408 0.00012929083 -0.009288764 -0.010819221
0001e0 aa 1e f0 3b f5 d1 90 bb 1a aa 41 bc 2b c7 e8 3b
       0.007327874 -0.00441956 -0.0118203405 0.007103821
0001f0 39 61 b4 3b 37 bd 5c bc a6 6b 6d 3c 11 18 16 3c
       0.005504754 -0.013472847 0.014490997 0.009161011
000200 c3 60 4e 3c 7e ef 4b bc 25 61 a7 bc a0 c2 9e bb
       0.012596312 -0.012447236 -0.020432064 -0.0048449785
000210 ff c8 52 bc 83 a4 89 bc 7a f8 32 3c 69 07 64 3c
       -0.012865304 -0.016802078 0.010923499 0.013917782
000220 27 91 39 bc f6 f9 b0 bb b4 c0 0a 3c 12 60 4a bc
       -0.011326111 -0.0054008914 0.008468796 -0.0123520065
000230 08 46 56 bc c4 b5 81 3c 08 18 3c bb 5f dc 53 bc
       -0.01307822 0.015833743 -0.0028700847 -0.0129309585
000240 65 4b 1a bc 54 e9 3c bc 23 2c f8 3b e4 42 dd 3b
       -0.0094173895 -0.011530239 0.007573621 0.0067523587
000250 64 3b 62 bc e4 92 41 bc d0 d3 1c bc 73 62 7f bc
       -0.013808105 -0.011814807 -0.009571984 -0.015587437
000260 a0 dc 75 bc 76 ed 26 bc 79 d0 9d 3c 1d 49 c3 3a
       -0.015006214 -0.010188451 0.019264447 0.0014899109
000270 6b fc 51 bc be c7 90 bb b9 e7 bd 3a ec 17 41 bc
       -0.012816529 -0.0044183424 0.0014488614 -0.011785489
000280 a6 bd fe 3b bf 27 9c 3c 03 50 4e bc 79 c0 1b bb
       0.0077740727 0.019061921 -0.0125923185 -0.0023765846
000290 cb cf 46 bc 07 8c 65 3c b2 65 2f bc 8c 07 6a bc
       -0.012134503 0.014010436 -0.010705398 -0.014284026
0002a0 b8 fe a2 bc 21 95 2a 38 5d 36 0e bc 6a f7 38 bc
       -0.01989685 4.0670046e-05 -0.008679953 -0.011289457
0002b0 d9 a4 1b bc 2f b7 ed 3b dd d5 90 bc 06 cd 40 bc
       -0.009499752 0.007254503 -0.017680103 -0.011767631
0002c0 75 59 bf 3b de 52 4b bc 49 10 10 3a 44 b2 6f bc
       0.0058395215 -0.012409894 0.0005495591 -0.014629904
0002d0 c4 54 3a 3c e8 c0 97 bc 9e c5 33 bc 7a b8 cc 3b
       0.011372749 -0.018524602 -0.010972409 0.0062475773
0002e0 74 76 82 bc 7a 13 08 3c 4b 25 dd 3b 7a 10 02 bc
       -0.015925623 0.008305425 0.0067488304 -0.007938499
0002f0 da 7e 44 3c fc cf 2b 3c 5e 03 78 bc 6c 97 2c bc
       0.011993134 0.010486599 -0.015137522 -0.010534149
000300 6b 6b d8 3b 51 16 18 bc 87 75 07 3c 27 7f 84 3c
       0.006604602 -0.009282664 0.008267767 0.016173912
000310 61 bd b5 3c ca 09 a2 bb 13 c7 ce bb 1f e3 c4 3a
       0.02218503 -0.0049450146 -0.0063103526 0.0015021301
000320 ab 57 3e bb 50 34 3e bb 14 b9 4c 3c 7d d3 0b bc
       -0.0029043953 -0.002902288 0.012495298 -0.008534309
000330 01 61 88 bc 3f cf 40 bc 8e 2b c2 3b 5b 1f 66 3c
       -0.016647818 -0.011768161 0.0059256023 0.014045562
000340 f6 3f 42 bc 4c 56 f2 3b 22 d9 34 3b 69 61 a0 bb
       -0.01185607 0.0073955413 0.0027595242 -0.0048944247
000350 41 c3 27 bc 5c d8 b8 b8 d8 08 0f bc bf dd 1e 3c
       -0.010239423 -8.814104e-05 -0.008730136 0.009696423
000360 85 ff 07 3c 10 c9 98 b9 01 a5 49 bc b9 1e 9c 3b
       0.008300667 -0.00029141502 -0.012307406 0.0047644046
000370 97 27 1a bc d6 27 4b bc b9 9b 31 bc a2 42 36 bc
       -0.009408853 -0.012399634 -0.01084035 -0.011124285
000380 94 e0 39 3c f3 2d 1b 3c be 3e 7a bc 94 8e 8b ba
       0.0113450475 0.009471404 -0.015273748 -0.001064735
000390 7a 22 e0 bb fa a7 7b bc ee 37 43 3c e9 c9 9d ba
       -0.0068400474 -0.015359873 0.01191519 -0.0012038323
0003a0 05 cb 4c 3c 6b 48 7e 3b 76 26 28 3c 40 40 bf 3b
       0.0124995755 0.0038800489 0.010263076 0.0058365166
0003b0 29 b0 a3 bb 77 06 ad bc 96 48 ec 3b ca 5e 80 bc
       -0.004995365 -0.021121247 0.0072108014 -0.015670199
0003c0 8d 95 38 bc eb 26 2e 3c 84 ea 0c bb 98 87 b8 3a
       -0.011266124 0.010629396 -0.0021502087 0.0014078496
0003d0 c2 e0 4b bc 4c a8 45 bc 08 76 38 bc bd 95 2c 3b
       -0.012443723 -0.012064051 -0.01125861 0.0026334368
0003e0 6d a6 ec bb 86 e4 44 bb fb e0 e6 3b 4c 22 a2 bb
       -0.007221988 -0.0030043437 0.0070458627 -0.004947936
0003f0 90 a5 81 bc d0 99 7f bb 9f 38 84 3b 21 b0 7d bc
       -0.015826017 -0.0039001592 0.00403507 -0.015483887

lv_lr_lv_lr_W f4 [24, 1]
000000 04 ba 47 bd c2 fe 07 bd 83 c4 56 3d eb 0f bd bc
       -0.048761383 -0.03320194 0.052433502 -0.02307888
000010 32 d1 9e bc b6 a3 63 bd 31 4e ba 3c f8 18 ce 3a
       -0.019386861 -0.05557605 0.022742363 0.0015723994
000020 e9 f5 ce bd 0c 06 23 3d e2 4f 78 bd 36 ad 78 3c
       -0.101054974 0.03980069 -0.060623057 0.015178015
000030 4a 5a a2 3c 0b 91 72 bd 1b f5 90 3c 66 97 98 3d
       0.019818444 -0.059220355 0.017695 0.07450752
000040 fd e5 5d 3d 31 a4 b9 bc df 53 8d 3d 38 bd 91 bb
       0.054174412 -0.0226613 0.06900763 -0.0044476055
000050 9a cc c3 3a 73 14 95 3d 6e 06 18 3c 98 39 29 bd
       0.0014938295 0.07279291 0.009278877 -0.04131469
