model/checkpoints/lepori2025_msm/cddd/model_000.onnx (onnx, 245832 bytes, 14 tensors)

lv_onnx::MatMul_4 f4 [512, 79]
00000000: 0000 0000 0000 0000 0000 0000 0000 0000
00000010: 0000 0000 0000 0000 0000 0000 0000 0000
00000020: 0000 0000 0000 0000 0000 0000 0000 0000
00000030: 0000 0000 0000 0000 0000 0000 0000 0000
00000040: 0000 0000 0000 0000 0000 0000 0000 0000
00000050: 0000 0000 0000 0000 0000 0000 0000 0000
00000060: 0000 0000 0000 0000 0000 0000 0000 0000
00000070: e301 09bf 0000 0000 0000 0000 0000 0000
00000080: 0000 0000 0000 0000 0000 0000 0000 0000
00000090: 0000 0000 0000 0000 0000 0000 0000 0000
000000a0: 0000 0000 0000 0000 0000 0000 e301 093f
000000b0: 0000 0000 0000 0000 0000 0000 e301 093f
000000c0: 0000 0000 0000 0000 0000 0000 0000 0000
000000d0: 0000 0000 0000 0000 0000 0000 0000 0000
000000e0: 0000 0000 0000 0000 0000 0000 0000 0000
000000f0: 0000 0000 0000 0000 0000 0000 0000 0000
00000100: 0000 0000 0000 0000 0000 0000 0000 0000
00000110: 0000 0000 0000 0000 e301 09bf 0000 0000
00000120: 0000 0000 0000 0000 0000 0000 0000 0000
00000130: 0000 0000 e301 093f 0000 0000 0000 0000
00000140: 0000 0000 0000 0000 0000 0000 0000 0000
00000150: 0000 0000 0000 0000 0000 0000 0000 0000
00000160: 0000 0000 0000 0000 e301 09bf 0000 0000
00000170: 0000 0000 0000 0000 0000 0000 0000 0000
00000180: 0000 0000 0000 0000 0000 0000 0000 0000
00000190: 0000 0000 0000 0000 e301 09bf 0000 0000
000001a0: 0000 0000 0000 0000 0000 0000 0000 0000
000001b0: 0000 0000 0000 0000 0000 0000 0000 0000
000001c0: 0000 0000 0000 0000 0000 0000 0000 0000
000001d0: 0000 0000 0000 0000 0000 0000 0000 0000
000001e0: 0000 0000 0000 0000 0000 0000 0000 0000
000001f0: 0000 0000 0000 0000 0000 0000 0000 0000
00000200: 0000 0000 0000 0000 0000 0000 0000 0000
00000210: 0000 0000 0000 0000 0000 0000 0000 0000
00000220: 0000 0000 0000 0000 0000 0000 0000 0000
00000230: 0000 0000 e301 09bf 0000 0000 0000 0000
00000240: 0000 0000 0000 0000 0000 0000 0000 0000
00000250: 0000 0000 0000 0000 0000 0000 0000 0000
00000260: 0000 0000 0000 0000 0000 0000 0000 0000
00000270: 0000 0000 0000 0000 0000 0000 0000 0000
00000280: 0000 0000 0000 0000 0000 0000 0000 0000
00000290: 0000 0000 0000 0000 0000 0000 0000 0000
000002a0: 0000 0000 0000 0000 0000 0000 0000 0000
000002b0: 0000 0000 0000 0000 0000 0000 0000 0000
000002c0: 0000 0000 0000 0000 0000 0000 0000 0000
000002d0: 0000 0000 0000 0000 e301 09bf 0000 0000
000002e0: 0000 0000 0000 0000 0000 0000 0000 0000
000002f0: 0000 0000 0000 0000 0000 0000 0000 0000
00000300: 0000 0000 0000 0000 0000 0000 0000 0000
00000310: 0000 0000 0000 0000 0000 0000 0000 0000
00000320: e301 093f 0000 0000 0000 0000 0000 0000
00000330: 0000 0000 0000 0000 0000 0000 0000 0000
00000340: 0000 0000 0000 0000 0000 0000 0000 0000
00000350: 0000 0000 0000 0000 e301 093f 0000 0000
00000360: 0000 0000 0000 0000 0000 0000 0000 0000
00000370: 0000 0000 0000 0000 e301 09bf 0000 0000
00000380: 0000 0000 0000 0000 0000 0000 0000 0000
00000390: 0000 0000 0000 0000 0000 0000 0000 0000
000003a0: 0000 0000 0000 0000 0000 0000 0000 0000
000003b0: 0000 0000 0000 0000 0000 0000 0000 0000
000003c0: 0000 0000 0000 0000 0000 0000 0000 0000
000003d0: 0000 0000 0000 0000 0000 0000 0000 0000
000003e0: 0000 0000 0000 0000 0000 0000 0000 0000
000003f0: 0000 0000 0000 0000 0000 0000 0000 0000
0.0 0.0 0.0 0.0 0.0 0.0 0.0 0.0
0.0 0.0 0.0 0.0 0.0 0.0 0.0 0.0
0.0 0.0 0.0 0.0 0.0 0.0 0.0 0.0
0.0 0.0 0.0 0.0 -0.53518504 0.0 0.0 0.0
0.0 0.0 0.0 0.0 0.0 0.0 0.0 0.0
0.0 0.0 0.0 0.53518504 0.0 0.0 0.0 0.53518504
0.0 0.0 0.0 0.0 0.0 0.0 0.0 0.0
0.0 0.0 0.0 0.0 0.0 0.0 0.0 0.0
0.0 0.0 0.0 0.0 0.0 0.0 -0.53518504 0.0
0.0 0.0 0.0 0.0 0.0 0.53518504 0.0 0.0
0.0 0.0 0.0 0.0 0.0 0.0 0.0 0.0
0.0 0.0 -0.53518504 0.0 0.0 0.0 0.0 0.0
0.0 0.0 0.0 0.0 0.0 0.0 -0.53518504 0.0
0.0 0.0 0.0 0.0 0.0 0.0 0.0 0.0
0.0 0.0 0.0 0.0 0.0 0.0 0.0 0.0
0.0 0.0 0.0 0.0 0.0 0.0 0.0 0.0
0.0 0.0 0.0 0.0 0.0 0.0 0.0 0.0
0.0 0.0 0.0 0.0 0.0 -0.53518504 0.0 0.0
0.0 0.0 0.0 0.0 0.0 0.0 0.0 0.0
0.0 0.0 0.0 0.0 0.0 0.0 0.0 0.0
0.0 0.0 0.0 0.0 0.0 0.0 0.0 0.0
0.0 0.0 0.0 0.0 0.0 0.0 0.0 0.0
0.0 0.0 0.0 0.0 0.0 0.0 -0.53518504 0.0
0.0 0.0 0.0 0.0 0.0 0.0 0.0 0.0
0.0 0.0 0.0 0.0 0.0 0.0 0.0 0.0
0.53518504 0.0 0.0 0.0 0.0 0.0 0.0 0.0
0.0 0.0 0.0 0.0 0.0 0.0 0.53518504 0.0
0.0 0.0 0.0 0.0 0.0 0.0 -0.53518504 0.0
0.0 0.0 0.0 0.0 0.0 0.0 0.0 0.0
0.0 0.0 0.0 0.0 0.0 0.0 0.0 0.0
0.0 0.0 0.0 0.0 0.0 0.0 0.0 0.0
0.0 0.0 0.0 0.0 0.0 0.0 0.0 0.0

lr_lr_W f4 [512, 1]
00000000: 08cc 74bd 8a1d d23c e636 c43d 4293 1fbd
00000010: 328c e1bc 95a3 883d ab3b 0bbd d5fd 5a3c
00000020: c30a ec3c cd37 31bd 8046 47bd fd36 5abd
00000030: 343e 843d 42ae bdbd ee7c bcbc e7c5 693d
00000040: 9f48 f8ba 298c d2bc 2da8 9e3c f9aa d53d
00000050: fcc5 dd3c 34d0 393d 3a4b 013d 7db1 7d3d
00000060: 27cb 1cbd 5382 e43d 5661 9c3d 982b 5dbb
00000070: 4f72 133d 4c9e 11bd 46ff 2c3d 5010 76bc
00000080: 1edd 903d ccfb 1c3d c29c bbbd c919 003d
00000090: 9a27 f63c ad0d 753c 18cc 603d b8e5 b8bc
000000a0: 08df 6e3c f47a 03bd a49e a9bc 33ed 81bd
000000b0: b6ab d8bd 44ae c2bc 0af8 743d 36e2 fabc
000000c0: 531f 093e 0816 a8bd 943c 893c 7bbc 72bd
000000d0: 6ae4 7b3c 5e9d b43c b747 99bd 2615 773c
000000e0: 4222 d43b 31e4 1fbc e12b 053d dbdf 883d
000000f0: ea6e 83bb ddfb 88bc 469e 2fbe 2e0e 7a3d
00000100: e779 16bd 9081 b8bd cb43 923d 921c 8dbc
00000110: a1ae a53c 9dc3 2d3e 881a e9bd dd69 95bd
00000120: 7799 3f3c 4487 b0bd 95d5 f33c e651 9bbc
00000130: 71f3 66bd a344 763d b4a3 f7bc 0b14 633d
00000140: 355c 92bc e0c7 d83c 8baf 90bc fe18 993d
00000150: 125a 47bd dabe f3bc 7231 84bd 4b20 4c3d
00000160: 2f00 d7bb aa03 14bc 24e0 2f3d 4f70 0abd
00000170: 3514 16be 280d 113d fbc7 213e c86d 543d
00000180: 07a8 b0bd efdf 973c 00fd a1bd 43ff d7bc
00000190: 91b0 11bd 53fb b23c 14a9 f1bc e747 693d
000001a0: 427a b1bd 8d8e bbbb 6362 403d 1c69 243d
000001b0: 9acd f3bd 6932 8c3d ee48 95bd 9fc6 eebb
000001c0: 4426 883d 06dd db3d 763c 4abd e8cc 8fbd
000001d0: ce64 833c c4a9 09be 2dd8 38bc d0c5 b13d
000001e0: 331e 48bd b258 243c 422e 763d 0b85 babc
000001f0: 98b9 c3bd cebc 683c 262b 4ebc e716 2bbd
00000200: 596d 4bbd 5202 0a3e dfd5 153d 3394 8f3d
00000210: 3494 a4bd 43a3 18bd 3574 5a3b 5bd7 7d3c
00000220: e613 133d 260d 3e3d 4147 d13c 102a 21be
00000230: a26e 0c3a f313 923d f3a5 163e 3a0f bf3b
00000240: f6f9 54bc 1f26 edbd 95b7 6c3b a715 c4bb
00000250: b26b 82bc 3512 7d3d 89e8 9bbc b4e4 073e
00000260: 02f4 db3c d38e de3d 7fe3 383d 2df4 cc3c
00000270: ae13 33bd 1b04 3b3c 9af5 d5b8 9ac5 163e
00000280: a112 fabc cad7 bc3b ea7b c1bc abcb c5bd
00000290: 4cc0 b03c 1b70 ff3c 09d4 2bbd 1499 01bd
000002a0: 694f a5bd b158 c4bd 5db3 bf3d 41cf 663d
000002b0: 7f53 25bd b340 fdbb acbb 4b3d 56aa 18bd
000002c0: 8719 07bd 8d38 5d3d e1c4 8b3c 067e ea3c
000002d0: 2db9 21bd d2f1 8ebe 42c2 c73d 0bb1 363c
000002e0: 2b42 80bd 9315 163d 14fc 1fbd 4473 fa3b
000002f0: 134b c5bd 8fdc bcbd dd46 b339 37f6 993d
00000300: 04fb 4cbd a9bc a43d 9b21 11bd b3fa d4bc
00000310: dc37 5c3d 2588 403c 79b6 d33d 61c7 8f3b
00000320: 7703 b03b 3c77 703d 9210 4d3d ec99 67bd
00000330: e2cc bb3c 72ba 97bd 86c4 033d da93 2b3c
00000340: 2f2b fdbc 85ab 67bd 4f80 d13b fdb6 8c3d
00000350: 1f0f 8cbc 7e74 5bbd d9d9 0fbd 49a5 91bd
00000360: d29e 4e3d 6c05 e53c 3b95 2bbb 5aa3 ab3c
00000370: 6a96 c9bd 9e97 b63c e84b adbc 39ec 40bd
00000380: 3c6f 953d 255d 34bd ba83 573c ff90 3cbd
00000390: 22a5 903c 5cbf 933d f433 2ebc be56 2dbd
000003a0: b199 023d bbd0 973d f6dc 36bd b5e1 b2bc
000003b0: 1ac7 443d 9274 30bb 35fb 293d 3feb e03d
000003c0: 06a2 26bd 12a4 87bd 5876 a73d 2227 d13c
000003d0: e0c6 863d fa9c 203d d3be f73c 81e5 cfbd
000003e0: e230 b23c 7c90 cf3c af98 97bd 8298 5b3d
000003f0: 0879 0f3d 3dfb 71bd bf2f 41bd 4d2c 5b3b
-0.059764892 0.025648851 0.095807835 -0.038958795 -0.02753267 0.06671826 -0.03399245 0.013366182
0.028813725 -0.043266106 -0.04865122 -0.053275097 0.06457177 -0.09261753 -0.02300879 0.0570735
-0.0018942541 -0.0257016 0.019367302 0.10433001 0.027071945 0.045364574 0.031565882 0.061936844
-0.03827968 0.1115767 0.07635753 -0.0033747908 0.035997685 -0.035551354 0.042235635 -0.015018538
0.07073425 0.03832607 -0.091607586 0.03127459 0.03004818 0.014956874 0.05488214 -0.022570476
0.014579542 -0.03209968 -0.020705529 -0.0634407 -0.10579626 -0.023764737 0.05980686 -0.030625444
0.13390855 -0.08207327 0.016752519 -0.05926178 0.015374282 0.022047695 -0.07484382 0.015080726
0.0064738104 -0.009758995 0.03251255 0.06683322 -0.0040110247 -0.01672166 -0.1715022 0.06104868
-0.03673735 -0.09009087 0.07141837 -0.017225537 0.020224871 0.16969152 -0.113820136 -0.072955824
0.011694304 -0.0861955 0.02976493 -0.01895995 -0.056384508 0.06012405 -0.030229427 0.055439036
-0.017866233 0.026462495 -0.01766183 0.0747547 -0.048669882 -0.029754091 -0.064547434 0.049835484
-0.006561301 -0.009034077 0.042938367 -0.033798512 -0.14656146 0.035412937 0.15798943 0.051862508
-0.08625799 0.018539397 -0.07909584 -0.026366835 -0.035568777 0.021848356 -0.029499568 0.056953337
-0.08665897 -0.0057237805 0.04696883 0.040139303 -0.1190445 0.068455525 -0.07289301 -0.007286861
0.066479236 0.10735516 -0.049374066 -0.07021505 0.016039278 -0.13443667 -0.011282009 0.08680308
-0.048856925 0.010030912 0.06010271 -0.022768518 -0.095568836 0.014205171 -0.01258353 -0.04176989
-0.04966483 0.13477448 0.036580916 0.07010689 -0.0803608 -0.037265074 0.0033333425 0.015493239
0.03590765 0.046399258 0.025546672 -0.15738702 0.0005357062 0.07132711 0.14711742 0.0058306726
-0.012999048 -0.11579537 0.0036120166 -0.0059840265 -0.015920494 0.06178494 -0.01903178 0.13270837
0.02684975 0.10867085 0.045138832 0.025018776 -0.04371994 0.011414553 -0.00010202378 0.14723817
-0.030526461 0.0057630287 -0.023618657 -0.09657987 0.02157607 0.031181386 -0.04195026 -0.031640127
-0.08071787 -0.09587229 0.09360383 0.056349996 -0.04036283 -0.00772866 0.049739525 -0.03727182
-0.03298333 0.05400901 0.017061653 0.028624546 -0.039483238 -0.2791887 0.097538486 0.011150609
-0.062626205 0.03664167 -0.03905876 0.0076431353 -0.0963346 -0.09221756 0.00034194338 0.07517665
-0.050044075 0.080437966 -0.03543244 -0.025998449 0.05376421 0.011751209 0.10337538 0.0043877815
0.005371507 0.05870746 0.05006463 -0.056543276 0.022924844 -0.074086085 0.03216984 0.010472262
-0.03090438 -0.05656006 0.0063934694 0.0687084 -0.017097054 -0.053577892 -0.035119865 -0.07111604
0.05044443 0.027956687 -0.0026181478 0.020951916 -0.09843142 0.022289094 -0.021154359 -0.04710028
0.07296607 -0.044034142 0.013153965 -0.046036717 0.017656866 0.07214233 -0.010632504 -0.042319052
0.031884853 0.07412859 -0.04464432 -0.021836141 0.04804144 -0.002692495 0.041499335 0.1098237
-0.04068186 -0.06623091 0.08176869 0.025531355 0.06580901 0.039212205 0.03024236 -0.10151196
0.021751825 0.02533745 -0.07402169 0.05361224 0.035027534 -0.05907749 -0.047164675 0.0033443153

svc_W2_svc f4 [512, 1]
00000000: 0950 66bd 303e 463d c475 853d 2555 c0bc
00000010: 63cb edbc 2dc1 a03d 2c92 1bbd da19 5c3c
00000020: 50a4 dd3c 45bc 37bd 43f6 71bd e5b2 5cbd
00000030: 98a0 8f3d 20ac 94bd f067 f9bc d16f 6c3d
00000040: 3f82 23bc dade 17bd 9db3 eb3b 1ef0 c63d
00000050: c968 1c3d 6ae2 3d3d 1894 143d 2dac 7a3d
00000060: 3548 09bd f7a6 df3d 1556 c53d f8c3 d23a
00000070: 4ad5 6d3d 49c1 fdbc 461b ff3c 9fda 82bc
00000080: f632 893d 5118 123d c31e 9abd 4e2a 413d
00000090: ebba 303c 6ed1 363c f341 473d ee3b 15bc
000000a0: cc80 223d 16f9 0bbd c81f e7bc de52 84bd
000000b0: 615a f1bd e882 efbc 4b6d 853d ee2c 31bd
000000c0: 4846 013e c662 c5bd d31a 873c 3f7d 24bd
000000d0: 51b7 273c 313a d03c 7020 b2bd fdb8 8f3c
000000e0: e414 1f3c 3cb3 8fbc c851 f23c c3f0 8e3d
000000f0: 6d9c 32bc 7e0b 01bd f469 2abe e6a0 473d
00000100: c6a3 edbc e2b3 cabd fd2f 9e3d 508e ebbc
00000110: 5652 f33c 02c5 2f3e 947d c7bd 43da 9bbd
00000120: 5d6e 453c 6df1 9cbd 617b 173d 4c7f b3bc
00000130: b13a 61bd add3 923d 1df1 ffbc 313b 9d3d
00000140: 306d a8bc b488 c13c 0e06 dfbb ba4f 9f3d
00000150: d332 4fbd 1209 e5bc 0e03 73bd 4daa 7c3d
00000160: 6e27 97bc a8bd eabb 4e0a 303d a83c 81bc
00000170: ff12 1ebe 65ae f93c b710 233e ee9a 553d
00000180: ef7e b4bd 8b75 eb3c 56dd 8cbd 90a6 aabc
00000190: 8cf6 2cbd 3b35 e93c 65b8 1dbd 70ac 4a3d
000001a0: 0b49 a9bd 5c91 853c 853a 513d f55d 493d
000001b0: c14e c8bd c40b 903d 5fdc 91bd a24f bdbc
000001c0: f561 813d c867 cb3d 6a63 13bd a4d3 8cbd
000001d0: 6bbd e43c 345a 0cbe df63 a8bc 305a a73d
000001e0: 0374 74bd 97dc 1a3a 5cd4 663d e349 a2bc
000001f0: 2146 c1bd b763 423c 1211 a5bc 5671 33bd
00000200: 05a6 41bd 6177 013e c80a 1c3d 1355 853d
00000210: b804 a3bd 8a36 07bd bbb4 2b3c 50d4 0a3b
00000220: d16a 063d ac71 553d a598 053d 80b1 1ebe
00000230: 6577 a23b 73f0 443d 1229 1d3e 4ed1 a0bb
00000240: 1dcf 70bc b869 eabd 0166 be3b 4431 5bbc
00000250: ce8e 8ebc 8c22 aa3d 5542 d7bc 2c1b 063e
00000260: 8385 a63c 691b f13d c123 2f3d a1d7 263d
00000270: 07e0 36bd 11fc 413c 5e14 35bc 81f2 1d3e
00000280: 991c 14bd 92a2 53ba e8c4 13bd e3cf c2bd
00000290: 754a 093d 9274 343d 5adc 1fbd 18f9 35bc
000002a0: 9123 babd 3601 c6bd 3e88 a63d b39d 483d
000002b0: c0e4 fdbc 7da1 fbbb 552c 743d 752f 52bd
000002c0: ce6c a9bc 316b 703d d6d9 263c a972 0b3d
000002d0: 00cc 3dbd 8889 8dbe 0d0d b33d 8c5d 87bb
000002e0: 305c b3bd 6f5b 9d3c b13c 46bd 65d0 243c
000002f0: 05f6 c7bd 80cf cebd 6258 47bc dab4 9e3d
00000300: 7fe2 48bd b89d 863d 7f3c f9bc 60e2 71bc
00000310: 586e 913d b420 f83b 27c8 df3d 4667 b43c
00000320: 818a 02bc 3de7 1f3d 82ce 5c3d c071 86bd
00000330: 70d4 d13c 81f5 83bd e5cc 0d3d f9c3 ae3c
00000340: f7e9 e7bc d5f9 6dbd 105d 9fbb 3476 833d
00000350: c936 29bc fde4 82bd 510d 2dbd 80ee 8dbd
00000360: 71d1 873d b24b 933c 580a 4fbc 4bf3 b03c
00000370: 1181 d1bd 442f 8b3c 2883 a0bc b31c 0cbd
00000380: 181c 833d 66dd 38bd 7651 073d ff97 84bd
00000390: 2ef7 ef3c 2e10 a33d 7f48 f1bb 98e2 4dbd
000003a0: 2212 1f3d 0dab 943d 9dbb 37bd fb28 70bb
000003b0: fdda 5d3d 7fb7 273c f22d 3c3d 640c ea3d
000003c0: aee8 52bd 8702 8ebd bc98 913d 10d7 073d
000003d0: 5e2f 8c3d 6069 e13c f9d6 fb3c 81aa c4bd
000003e0: 8931 2c3c 9954 073d 467c 99bd 69f0 633d
000003f0: c05c 163d a90a 35bd 75cd 33bd 1271 303c
-0.05622867 0.04839915 0.06516603 -0.0234781 -0.029027646 0.07849345 -0.037981197 0.013433898
0.02705589 -0.044857282 -0.059072744 -0.053881545 0.07013053 -0.07259393 -0.03044507 0.057723824
-0.009979784 -0.037077762 0.0071930424 0.097137675 0.03818587 0.046358503 0.036274046 0.061199356
-0.033516128 0.10920518 0.096355595 0.0016080132 0.058064736 -0.030975955 0.031140935 -0.015973387
0.06699173 0.03566772 -0.075253986 0.047159486 0.010786752 0.01115833 0.04864688 -0.009108527
0.03967361 -0.034173094 -0.028213397 -0.06461118 -0.117848165 -0.029237226 0.065149866 -0.04325574
0.12624466 -0.0963798 0.016492283 -0.040158506 0.010236577 0.025418373 -0.08697593 0.017544264
0.009709571 -0.01754152 0.029580012 0.069795154 -0.010901553 -0.0315051 -0.1664198 0.04873743
-0.029008757 -0.09897591 0.07723997 -0.028754383 0.029702347 0.17164996 -0.09740749 -0.076099895
0.012050238 -0.07663236 0.036982898 -0.021911286 -0.054987613 0.0716928 -0.031242901 0.076773055
-0.020559877 0.023624755 -0.0068061417 0.077788785 -0.05058558 -0.027958427 -0.059329085 0.06168585
-0.018451419 -0.007163722 0.042978577 -0.015775993 -0.15436934 0.030478666 0.15924345 0.052149706
-0.08813273 0.028742572 -0.06878154 -0.020831376 -0.042227313 0.028467765 -0.03850593 0.049480855
-0.08265885 0.016304664 0.0510812 0.04916187 -0.09780646 0.07033494 -0.071221106 -0.023109261
0.06317512 0.09931904 -0.03598348 -0.06876305 0.027922353 -0.13706285 -0.020555435 0.08171499
-0.05968095 0.0005907504 0.056354865 -0.019810623 -0.09437204 0.011864594 -0.020149741 -0.043809257
-0.04727747 0.12643196 0.03809622 0.06510367 -0.079598844 -0.033010997 0.010480101 0.0021183677
0.03281671 0.05211036 0.032616276 -0.15497398 0.0049580806 0.048080873 0.15347698 -0.0049077636
-0.014697817 -0.114459455 0.0058104997 -0.013378445 -0.017402079 0.083073705 -0.026276747 0.13096303
0.020327335 0.11772806 0.042758707 0.040732983 -0.044647243 0.0118398825 -0.011052219 0.15424539
-0.036160085 -0.0008073236 -0.036076456 -0.095123075 0.033518273 0.044056483 -0.039028503 -0.011106752
-0.09088815 -0.096682 0.08131455 0.04897852 -0.030992866 -0.007679163 0.05961259 -0.05131479
-0.020681765 0.058695976 0.010183772 0.034044895 -0.046337128 -0.2764399 0.087427236 -0.0041310247
-0.08757818 0.019208638 -0.048397724 0.010059451 -0.097637214 -0.10098171 -0.012167068 0.077493384
-0.04904413 0.06573051 -0.030424355 -0.014763445 0.071011245 0.007572258 0.10926848 0.0220219
-0.007967592 0.039038885 0.05390788 -0.06564665 0.025613993 -0.064433105 0.03461923 0.021333681
-0.028309805 -0.058099587 -0.004863389 0.0641903 -0.010328003 -0.06391332 -0.042249028 -0.06930256
0.06631745 0.01798043 -0.0126367435 0.021600386 -0.102296956 0.016990311 -0.01959379 -0.034207057
0.06401843 -0.045133017 0.03303667 -0.064743035 0.02929267 0.079620704 -0.0073633785 -0.050264925
0.038835652 0.07259188 -0.044856656 -0.003664552 0.05416392 0.01023662 0.045942254 0.114281446
-0.051491432 -0.06934076 0.0710921 0.033164084 0.06844972 0.027516067 0.030742155 -0.096028335
0.010509857 0.033039663 -0.074944064 0.055649195 0.036709547 -0.04419962 -0.04389711 0.010769146

fs_lr_fs_lr_W f4 [180, 1]
00000000: 9f40 2e3e 9f94 44be defb ba3c 02e5 4b3d
00000010: 0554 9d3d cda3 c83c d77b 773d 8c4d be3c
00000020: 8c9c 0f3c 19eb 563c 2f03 07be 86e8 843c
00000030: 0858 88bd 413f 33be a28d 663e 1e32 63be
00000040: 1aee c2bd c39d a5bd f587 05be bff5 d8be
00000050: 62d3 bbbd a984 3e3d 2554 dd3d 7fd1 c4be
00000060: 0c93 d93d 6d4e edbd 112b b3bd 7295 e63e
00000070: 77a0 d9bd c59b 21be ad00 b4bd 4861 4dbe
00000080: 1bf9 9ebd 9523 2f3c df51 c0be 6813 fd3d
00000090: ccef 21be 9b0f a4bc 46b8 d2bd dc15 fc3d
000000a0: cfb8 63be 4534 4f3e 3312 1b3d 33e0 3a3e
000000b0: 3a1d a6be aeab a53d 6a43 13be aaae fe3e
000000c0: 765b 97bc a6be c2be 72e7 093e 5feb bd3c
000000d0: d466 883c c4a4 9d3e ad7b 663e b446 f43c
000000e0: 59c6 d63c b84b 5e3e ea8d 65be bfa4 953d
000000f0: ccc2 1dbe 2e33 f0bd 87f7 c3bd 1884 a63e
00000100: 713b f53d 6d86 2bbf 7ab5 4d3e 52ce aebe
00000110: bd65 1c3e f644 1dbe 2ae6 d83e 751e 10bd
00000120: 191e a1bd d816 5abe 9af7 a4bd 0224 e3bd
00000130: 4eee fabc 381b bfbd fe93 90bd 4a25 57bd
00000140: bb8a 58be 1528 26be 6868 c03d 5a70 073e
00000150: 3a69 a53d 20f2 8c3d 0714 543c a973 30bd
00000160: 51f2 513e 3555 6abd c811 4cbd c7d4 3b3d
00000170: aed1 ea3d 50b2 08be cbba 4cbd be26 56be
00000180: c047 c13e 6de6 313e d636 313e a380 16be
00000190: 597b d1bd c352 40be 9687 ed3b 65c3 5fbd
000001a0: 81d2 513e 7ec2 813e 4899 1ebd 291a 0bbe
000001b0: 65b6 ab3d e7d5 d4bb aa0d 2cbe 9e1c 473d
000001c0: bb2a 3f3e 147a 92be 686e a93a 4637 7abd
000001d0: aad8 3ebc 77c2 3fbc 8b65 38be 2be2 a6bd
000001e0: 8bb8 203e 7976 023c ebf1 06be ae93 1ebe
000001f0: 045d 0d3e 02cf 88bd 1a3c 96bc 921a fa3b
00000200: 37b1 b2bc 7658 a0bc 18e5 f53c d609 123d
00000210: 3b7b e1bd 2851 fdbd 1b82 6f3d 73fa 22bd
00000220: cfd1 c43d e461 afbd 9e14 6c3d 9490 22be
00000230: 320b 63be a874 063e 518b afbd 7529 f73d
00000240: 015e c9bd 2110 913d e1d3 1a3e 505e e8bb
00000250: ae02 cdbd b0d8 dc3c d9bc 9dbc c243 1dbd
00000260: 4d00 773e 1c4c 3d3e a7c6 eebd c721 453d
00000270: 2ae5 83bd 631e 013e aa93 6abd 87b9 9a3d
00000280: ee14 91be 61b3 2d3e 3b15 8abe 16cf 6c3d
00000290: c0a2 3a3c d0d7 223e 95a2 a03c df27 f0bd
000002a0: 3b0a c8bd 203c a13d c5c2 b33d 26bb e83d
000002b0: e17f 3ebe 659b 383e 8132 053e 5f61 e23c
000002c0: d366 d8bc 87c5 973d 7712 1fbe 9874 a1bd
0.17016838 -0.1919732 0.022825178 0.049778946 0.07682041 0.024492169 0.060420837 0.023230337
0.008765351 0.013117575 -0.13184808 0.016224157 -0.06657416 -0.17504598 0.22514966 -0.22187087
-0.095180705 -0.08086731 -0.13040145 -0.4237499 -0.091711774 0.046513233 0.10807065 -0.38441083
0.1062375 -0.11587224 -0.08748449 0.45035893 -0.10626309 -0.15782078 -0.087891914 -0.20056641
-0.07762357 0.010689636 -0.37562463 0.12357217 -0.15814131 -0.020026973 -0.102890536 0.12308857
-0.22238468 0.20234783 0.037859153 0.18249588 -0.32444173 0.08089386 -0.14381185 0.49742633
-0.01847623 -0.38036078 0.13467196 0.023183523 0.016650595 0.3078977 0.22508116 0.02981887
0.026217626 0.21708572 -0.22417417 0.073068134 -0.1540634 -0.11728512 -0.095686965 0.32522655
0.11974228 -0.6700199 0.20088759 -0.34141785 0.15273185 -0.15358338 0.423631 -0.035185296
-0.07867069 -0.21297777 -0.08055039 -0.11090852 -0.03063121 -0.093313634 -0.07059477 -0.052525796
-0.21146671 -0.16226228 0.09394914 0.13226452 0.08076711 0.06882119 0.012944228 -0.043079052
0.20502593 -0.057210166 -0.049821645 0.045857217 0.114657745 -0.13349271 -0.049982827 -0.20913216
0.37750053 0.17373057 0.17306075 -0.14697509 -0.10228605 -0.18781571 0.007248829 -0.054629702
0.20490457 0.25343698 -0.0387204 -0.13584198 0.08384398 -0.0064952257 -0.16802087 0.048611276
0.18668644 -0.28608763 0.001292658 -0.06108787 -0.011648336 -0.011704079 -0.18007486 -0.08148607
0.15695398 0.007962816 -0.13178222 -0.15486023 0.13805014 -0.066801086 -0.018339206 0.007632562
-0.021813018 -0.019573431 0.030016467 0.03565391 -0.110098325 -0.12368995 0.058473688 -0.03978963
0.0961033 -0.08563593 0.05763685 -0.15875465 -0.2217224 0.13130438 -0.08571494 0.12068454
-0.09832383 0.070831545 0.15119888 -0.007091321 -0.10010277 0.026958793 -0.019255089 -0.038394697
0.24121208 0.18486065 -0.11658984 0.048127916 -0.06440194 0.12609248 -0.05726973 0.07554918
-0.2833628 0.16962959 -0.26969323 0.05781468 0.011391342 0.15902638 0.019608775 -0.11726355
-0.09767576 0.07872796 0.08777384 0.11363821 -0.1860347 0.18028028 0.13007547 0.02763432
-0.026416218 0.07410722 -0.15534388 -0.078835666

fs_svc_W2_fs_svc f4 [180, 1]
00000000: b448 153e 5ecf 19be f4a8 0d3b 7086 da3c
00000010: 3e00 523d 04f9 3bbc a609 303d 8431 353b
00000020: c034 523b ce48 6a3c 598f c9bd 4451 fd3b
00000030: c41c 09bd d1be 0ebe 62e7 353e 1076 2bbe
00000040: cfd6 85bd 583f 33bd 4c09 c2bd 36e7 98be
00000050: 18e9 9bbd 5823 0d3d aac9 ca3d 1a3c 93be
00000060: ce98 863d 92a4 90bd 4525 72bd fbb5 b43e
00000070: 028b bebd 2c91 eebd 2caf 73bd 17d2 fabd
00000080: 647e 77bd 8574 05bb 5602 90be b458 033e
00000090: 64ea fabd 8ed7 43bc c9be 9dbd 3cbe 903d
000000a0: 8779 2bbe 53bd 183e afa8 dd3c 11fa 103e
000000b0: 5dcf 74be 11ea a73d 1583 ebbd 4bce b83e
000000c0: 2ffc 1e3b ac7c 96be 8f90 c03d a05e 6a3c
000000d0: 62e2 8b3c 325d 6c3e 2e42 323e 26df df3c
000000e0: de41 ca3c 5dcd 213e 953d 43be 200a 643d
000000f0: c7ea c8bd a385 9bbd 719e 94bd fbf8 713e
00000100: 8123 aa3d 1786 f2be 8ece 0f3e 5aec 7ebe
00000110: 9912 e13d 9317 e6bd 8a1e a13e 256d 96bc
00000120: df83 5bbd a7e0 17be b825 7cbd efaa a5bd
00000130: 18bf dfbc a4fe a7bd a8b4 3abd c147 54bd
00000140: 20a9 20be 8366 10be c352 513d 0b00 c33d
00000150: a326 813d 67f8 1d3d b142 433c 5cb4 a7bc
00000160: 2bd2 2c3e f749 34bd b70f 09bd 569d d53c
00000170: e254 a23d 4765 d1bd c7db cdbc f1c9 0abe
00000180: 9a00 843e 7921 073e 7a69 f33d 793f cfbd
00000190: 248a 9cbd 545a f7bd 4fe4 a03c 3cd6 06bd
000001a0: 76c9 273e e143 413e 80a4 b0bc 37f4 c1bd
000001b0: 3a11 933d be6e 4d3b 8422 ffbd d382 1d3d
000001c0: ec08 023e 91cf 53be 953c 743c c62d 39bd
000001d0: 1fb4 7cbc c7ce efbc 384e 0cbe 600c 74bd
000001e0: d532 ff3d d6d0 b2bb fdcf c4bd 112a eabd
000001f0: ecfb d93d 333e 53bd 908f 96bc 0f6a b33a
00000200: d16d e8bc 0ccd efbc 5de0 8c3c 9b9f 133d
00000210: fb11 b4bd bac7 83bd 9664 c03c ee3a 32bd
00000220: 71ca 9a3d 13e8 4cbd 106c d53c 979c cfbd
00000230: 6e1c 1ebe eec6 b43d f31f 89bd f56e b63d
00000240: 5b18 6abd 0c36 8d3d a5f4 f93d 1e15 6cba
00000250: 5ffe 96bd 28b3 d33c 2f9b 34bc 59e0 b6bc
00000260: 63ca 353e d994 0b3e 8f79 94bd 3fd9 763d
00000270: 044e 49bd 32f2 c93d adf3 43bd 3a56 343d
00000280: 3f93 54be a98a fa3d 44fa 61be 5763 163d
00000290: b0b0 873c 62e6 b73d 61e9 2a3c c777 94bd
000002a0: bc4a b5bd a9f3 723d 1025 423d 1125 8f3d
000002b0: 3e21 17be 92c5 ff3d ae56 b73d 1e7f c23c
000002c0: f259 cdbc 33d9 483d 2ba8 ddbd e208 8dbd
0.14578515 -0.1502051 0.0021615596 0.026675433 0.051269762 -0.011472944 0.04297795 0.0027647922
0.0032074898 0.014299585 -0.098417945 0.007730635 -0.0334747 -0.13939978 0.17764047 -0.16744256
-0.06535112 -0.04376158 -0.094744295 -0.298639 -0.076128185 0.034457535 0.099017456 -0.2875679
0.06572114 -0.07062639 -0.059117574 0.3529509 -0.093038574 -0.11648783 -0.05949323 -0.12247103
-0.06042327 -0.002036364 -0.28126782 0.12826806 -0.12251738 -0.011953248 -0.07702405 0.07067534
-0.16745578 0.14915971 0.027057974 0.14157893 -0.23907228 0.081989415 -0.11499611 0.3609489
0.00242592 -0.29391992 0.09402572 0.014304787 0.017075721 0.23082426 0.17408058 0.027328085
0.024689611 0.15800996 -0.1906646 0.05567372 -0.09810405 -0.075938486 -0.07256783 0.23630135
0.08307553 -0.47367927 0.14043638 -0.24894848 0.10989875 -0.11234965 0.31468612 -0.018362591
-0.05359256 -0.14831792 -0.06155941 -0.080892436 -0.0273128 -0.08202866 -0.045582443 -0.051826242
-0.15689516 -0.14101605 0.05110432 0.095214926 0.063061975 0.038566973 0.011917756 -0.020471744
0.16877048 -0.04401585 -0.033462252 0.026076 0.07926346 -0.10224395 -0.025129212 -0.13553597
0.2578171 0.13196363 0.118853524 -0.10119528 -0.07643536 -0.120777756 0.019640116 -0.032919154
0.16385445 0.1887355 -0.021562815 -0.094704084 0.0718102 0.0031346525 -0.12457755 0.03845484
0.12698716 -0.20684649 0.014907022 -0.04520967 -0.015423804 -0.029273404 -0.13701713 -0.059582114
0.12460867 -0.005457024 -0.09609983 -0.11433805 0.106437534 -0.05157299 -0.018379003 0.0013688224
-0.028372677 -0.029272579 0.017196828 0.036040884 -0.08792492 -0.06434579 0.023485463 -0.04351323
0.07558144 -0.05002601 0.026052505 -0.10137289 -0.15440533 0.08827005 -0.06695547 0.08907882
-0.057152133 0.06895074 0.12204865 -0.0009005832 -0.07372736 0.025842264 -0.011023327 -0.022323774
0.17752986 0.13631 -0.07249748 0.060265776 -0.049146667 0.09860648 -0.04783981 0.044027545
-0.20759295 0.122334786 -0.22068125 0.03671583 0.016563743 0.08979489 0.010431618 -0.07249408
-0.08852145 0.059314404 0.047398627 0.06989492 -0.14758775 0.124888554 0.0895208 0.023742255
-0.025067303 0.049035262 -0.10823091 -0.0688646

mfs_lr_mfs_lr_W f4 [61, 1]
00000000: 207d 7a3e 7ea5 7d3e 358a 763e 3418 84be
00000010: 2f20 fa3d 4d0b 8a3c c929 cf3e 336f a1be
00000020: ff1a c7be 9a6f ebbd ae2b 2bbf 1b9d fe3d
00000030: fc4f c5bc 6301 d2bd c23b 0c3e 7b47 063e
00000040: 4aa5 313c 617b 43be 283e 683e 6c19 d6be
00000050: f7a5 c83e 6255 213f f4e5 e2be 08bb f33e
00000060: d432 8b3d 8476 9dbf 8c19 983e 1296 0cbe
00000070: 8099 763e ce65 833c faad 6abe 0745 0a3e
00000080: ea2d 633e b711 a5be 0672 27bf 2205 93be
00000090: 70a4 a73e 222d e6be 3ac1 87be cdc8 bb3e
000000a0: 0b1b a2bd c503 d9bc a01e 63be 81c6 b5be
000000b0: 3e52 203e 21c1 cabe 2412 b03d 1c42 82bd
000000c0: c496 8d3c 0a9f 23bf dc9f 9f3e db7a 823e
000000d0: 7046 363e d1a1 06bf 63a2 133f ee37 253e
000000e0: f923 24bd 3562 d23d cbfa b03d b204 ab3d
000000f0: a3f3 0dbe
0.24461794 0.24770162 0.2407616 -0.25799716 0.1221317 0.016851092 0.40461567 -0.3153015
-0.38887784 -0.11495896 -0.66863525 0.12432309 -0.024085991 -0.10254171 0.13694671 0.13113205
0.010842631 -0.19090034 0.2267996 -0.4181627 0.3918912 0.6302091 -0.44316065 0.4760363
0.06796804 -1.2301793 0.2970699 -0.13729122 0.24081993 0.016039755 -0.2291793 0.13502894
0.22185484 -0.32240078 -0.6540836 -0.28714854 0.32742643 -0.4495631 -0.26514608 0.36676636
-0.07915314 -0.026491055 -0.22179651 -0.3550301 0.15656373 -0.3960047 0.0859721 -0.063602656
0.017283805 -0.6391455 0.3117665 0.25484356 0.17800307 -0.5259066 0.5766966 0.16134617
-0.04007337 0.10272638 0.08641585 0.08350505 -0.13862471

mfs_svc_W2_mfs_svc f4 [61, 1]
00000000: 3ba8 4e3e 3329 383e 6a16 3a3e 5292 45be
00000010: 6f92 283d cb81 323c 5711 993e 7359 81be
00000020: 6069 92be 8998 cabd 71ff e0be 545d c63d
00000030: f84e 0abd 39d0 d3bd 03c4 063e 45e8 da3d
00000040: 6faf 883b 5618 05be 0e14 483e 7aa7 a2be
00000050: 639d 883e c5f7 f03e aca5 7dbe 5110 b23e
00000060: 8613 493d e435 5cbf b79e 5c3e 5a37 d4bd
00000070: e610 283e 8cec 2d3c f96d 22be 7fea b83d
00000080: d512 193e 7056 6cbe 622f f1be 0345 35be
00000090: b0f9 683e 5fce a9be 807f 38be 4ee9 733e
000000a0: 9d64 afbd 94c3 92bc 27a4 2abe fe67 72be
000000b0: 12a1 e13d 1258 8dbe 5b59 a43d 966d eebc
000000c0: 695a 1fbb 3431 d0be 3dc3 2e3e e1f2 543e
000000d0: 3886 d13d 6183 c7be 8f69 de3e afd8 da3d
000000e0: 8cb3 9fbc 5904 b33d 6f58 8c3d 3b15 953c
000000f0: bf17 f5bd
0.20181362 0.17984466 0.18172613 -0.19294098 0.041155275 0.010895203 0.29896042 -0.25263557
-0.2859602 -0.09892375 -0.43944886 0.0968577 -0.033766717 -0.1034245 0.1316071 0.10688833
0.004171304 -0.12997565 0.195389 -0.317684 0.26682577 0.47064033 -0.2477023 0.34778073
0.049090885 -0.8601973 0.2154492 -0.1036212 0.16412696 0.010615479 -0.15862264 0.090291016
0.1494859 -0.23079848 -0.47106463 -0.17702107 0.22751498 -0.3316526 -0.18017387 0.23819467
-0.08564112 -0.017915525 -0.16664182 -0.23672482 0.1101705 -0.27606255 0.08024856 -0.029104989
-0.0024315363 -0.4066254 0.17066665 0.20795776 0.10230678 -0.38967422 0.4343991 0.1068586
-0.019494794 0.087410636 0.06852805 0.0181986 -0.1196742

lv_lr_lv_lr_W f4 [79, 1]
00000000: 0ca4 7cbd c546 253e 2f84 abbb f61f cdbd
00000010: 1eee d9bc b133 413d cc8e dc3c 115a 213d
00000020: 7924 5dbb c3cd 9c3d d43d 6d3d 9969 26bd
00000030: 95aa bbbd cfd9 a5bb 2223 1b3e 532e a5bd
00000040: 19e2 2d3d 7493 fc3d 9e4a 283e 3db6 163e
00000050: da3d ed3b 9a58 803b 78fd 16bd ca2d 28be
00000060: 10f7 ecbd 1e24 803d 4890 07bc 7aa8 56bd
00000070: 1130 f93c da98 aa3c 2d87 6fbc b920 c63d
00000080: 5c0f a2bd d39a f3bc cfc6 14bd 35b8 18bb
00000090: a472 9dbd 210e 0d3e b78a 1c3d 3b82 5c3d
000000a0: 570e 1d3e 4f2b 193d 41f0 8ebc e3c8 8ebc
000000b0: c732 b4bd 199a 6f3d cce2 d2bd 35f2 80bd
000000c0: d75c de39 069a 1c3e 6fd4 aa3d 6a35 093e
000000d0: 004a 093e 8eaa a73c c3ad 9fbd e52e 3bbc
000000e0: d599 293e 2b41 c93a 72a2 053c 79c1 0bbd
000000f0: 42a6 6b3d 3b9e dfbd dcf5 1c3e d9d1 58bd
00000100: 3f14 d0bd d735 48bc 1d0d 843d 1ade 87bc
00000110: 908d a0bd 589c 1cbe aa9f 473d a1ba 5cbd
00000120: 83f7 17bd 3d82 a0bd 2e9e c03d aab3 25be
00000130: 9b77 f93c bc33 13bc 8aec 753b
-0.061679885 0.16140278 -0.0052342634 -0.10015862 -0.026602801 0.047168437 0.02692356 0.039392535
-0.0033743663 0.076564334 0.057920292 -0.04062805 -0.09163395 -0.005061365 0.15150121 -0.08065476
0.04245195 0.12332812 0.16434714 0.14717956 0.0072400393 0.003916812 -0.03686282 -0.16423717
-0.11570561 0.06256889 -0.008274145 -0.052406766 0.030418428 0.020824838 -0.014619631 0.0967421
-0.07913086 -0.029736912 -0.03632241 -0.0023303155 -0.076878816 0.13774921 0.038218226 0.053835135
0.15337501 0.037394818 -0.017448546 -0.017429775 -0.087987475 0.05849657 -0.10297164 -0.06296197
0.0004241231 0.1529313 0.083413 0.13399282 0.13407135 0.020467069 -0.07796814 -0.011424755
0.16562589 0.0015354505 0.008156406 -0.034120057 0.057531603 -0.10918852 0.15328163 -0.0529345
-0.10160112 -0.012219868 0.06447814 -0.016585398 -0.07839501 -0.15294015 0.048736252 -0.05388892
-0.03710128 -0.07837341 0.094051704 -0.16181818 0.03045254 -0.008984502 0.0037525021

lv_svc_W2_lv_svc f4 [79, 1]
00000000: 84d8 99bd 9c86 e93d 994b c0bc 0895 95bd
00000010: 7231 39bc 87fc 4c3d c7a3 013d da73 dc39
00000020: a466 923b caec 993d b1f7 d33c 9d27 88bd
00000030: efe4 b9bd b976 cd3c a77f f43d b648 63bd
00000040: 1251 e03c 6813 d63d 2a8c 1b3e c6ad 063e
00000050: ca29 903c c0cf 753b d03e f8bc a16f 26be
00000060: 5065 c7bd 09b1 aa3d ba41 873c 5fe0 8ebd
00000070: 1994 813c 56d2 a33c 58df 36bc dc44 bd3d
00000080: 9fc0 a6bd 8800 d6bc 2b99 d4bc ebfe 95bc
00000090: a326 76bd 5e2a 103e d916 413d 9fd0 6d3d
000000a0: 3bfe 1f3e ad95 d83c 77c2 c6bc f651 a1bc
000000b0: bb91 53bd a231 423d 3e8b a5bd a7a9 89bd
000000c0: 07c8 023c 3634 1c3e d9c9 513d eebb ec3d
000000d0: 76e5 e73d f972 46bc 5d0d 8cbd 1d3e 3cbc
000000e0: 2628 dd3d a762 573c 1722 783c 08c2 23bd
000000f0: 5dae 533c 2d17 a2bd ef35 033e bb0a 57bd
00000100: 1786 b7bd 2d5c 84bc b5f2 473d 6c37 f2bc
00000110: ee1b d0bd 5c5c 06be 6819 043d fbd8 6cbd
00000120: 36d0 19bd 58f2 4bbd 6889 b03d 228c 03be
00000130: a83e 8a3c 21d9 0e3d 6fb0 343c
-0.07512 0.11402628 -0.023473548 -0.07303816 -0.011303293 0.050045516 0.03165033 0.00042047986
0.004467802 0.07515867 0.025874944 -0.06648181 -0.09076869 0.025081025 0.1193841 -0.055489264
0.027382407 0.1045292 0.15190187 0.13152227 0.017598052 0.0037507862 -0.030303389 -0.1625352
-0.09736121 0.08334548 0.016510833 -0.06976389 0.015817689 0.019997757 -0.011161648 0.092416495
-0.08142208 -0.0261233 -0.025951942 -0.01831003 -0.06009544 0.14078662 0.04714093 0.058060285
0.15624325 0.026438558 -0.02426265 -0.019692402 -0.05165265 0.047410615 -0.08083199 -0.06721812
0.007982261 0.15254292 0.051217888 0.11559282 0.11323063 -0.012112373 -0.06838486 -0.011489418
0.10798673 0.013146079 0.015144846 -0.039979964 0.012919989 -0.07914577 0.12813543 -0.052500468
-0.089611225 -0.016157234 0.048815448 -0.029567443 -0.10161577 -0.1312117 0.03225079 -0.057824116
-0.03755208 -0.049791664 0.08619958 -0.12846425 0.01687558 0.03487504 0.011028393

lv_mlp_net.0.weight f4 [37, 79]
00000000: 0c89 333d 9b94 0bbe b317 a1bd c7f9 cb3d
00000010: fcf5 a1bd d70c c23d cd34 fa3c 6697 023c
00000020: 6ff6 a2bd ebf2 c8bd 87a6 dabd 635f a23d
00000030: c1be 563d 0c29 59bd fd2a d5bd 614f 7c3d
00000040: 7c3a 4cbd 00c4 a5bc fb76 e4bd 6789 17be
00000050: 9202 a2bd 9db5 8dbd 170e 933d d672 4e3d
00000060: 06b8 c1bb e2e7 9c3b c4c9 b33d 7651 213c
00000070: 5f64 ab3d 46b5 a5bb eb96 bf3c 1446 32bd
00000080: daac a63d c8de 8b3d 9267 593d a144 663d
00000090: 173a 313d ff22 09bd ef33 c9bd 7348 953d
000000a0: a632 953d bf0e bb3d 9fd9 99bc 33d7 ca3d
000000b0: 1cd6 d43a d0cb b9bd fd92 d23c ae48 cc3c
000000c0: e67d 12bd 4157 85bd 38c4 ef3c ab34 1fbe
000000d0: 29df b7bd ea1e e33d 93ae dcbd 608b ae3d
000000e0: 1506 03be 0ea7 cbbd 53f7 383d 6b37 993d
000000f0: a436 073c 49f1 f2bd 90e0 6f3d b161 263d
00000100: 4997 943c 296b 5bbd d4cd 81be 7d35 dd3d
00000110: ab14 013d add0 e73c 08d3 cabb d17a bcbd
00000120: c922 4b3d 0afb 823b 344b 033e 4742 fabc
00000130: 580e aebd 7187 5abd eb9c e2bd d06d b43c
00000140: 60b9 fabd 13db 933d 6666 0b3e 6d4b c13d
00000150: 7b6b 69bd e87c 19bd 6c8d 623d ba14 e93d
00000160: 9fa8 aa3a 7582 a6bd 54bc ea3d 9a8a 2b3d
00000170: 0c4b a2bd ccd7 21be 3748 c53d eba5 febc
00000180: 247f 4abd 0356 a3bd 4505 9d3d 5609 a03b
00000190: 0dff 903d ecd9 05bd e9ff 963d fc43 7a3e
000001a0: 6a93 dabd 97ae 373d c2e2 f33c 299c 1e3e
000001b0: 6f1f febb efe4 cebb 2cb8 a23d f05b 5a3d
000001c0: d8de 80bd b961 453c 2041 e73c 3a68 c83d
000001d0: f505 bbbc f2c1 abbc 3112 a9bb 4042 90bd
000001e0: 10ba 073c 88d0 4fbc 27ff 38be fc89 033e
000001f0: 8809 ecbd 237d be3d 77a7 a93c 34ef edbc
00000200: 7483 dabd ce0d 48bd d7f7 21bd 0a09 2dbe
00000210: 3cb6 01be 3db2 6dbc 5c7e c63d 3481 1ebe
00000220: ac4b 683d d5c3 ca3d d869 543d af93 d5bc
00000230: 83e7 123e d61d 4dbc 81f4 773d d084 2c3e
00000240: 18b3 28bd 9ce1 7cbd 1a83 203d 3703 793d
00000250: ea17 0b3c 1b7e 1dbb b83b d93c c678 043d
00000260: a814 d73d 70f0 9bbd 9ea7 bd3d 9b9a 68bd
00000270: 4478 97bb 0a08 91bd 6584 ab3c b6ad 123e
00000280: 40f0 e53b b595 ef3c cc32 f1bb 7d04 063d
00000290: 6aa0 a93d 36a2 83bc 437e ad3d 9471 6c3d
000002a0: 52fb c73d 4c70 3f3d c04e fbbd 307f 3c3a
000002b0: c1b3 333d 787d 3d3d 6e92 d5bd 28a6 443d
000002c0: 3191 cb3d 28d1 86bd 7f1c d7bc a12d 68bc
000002d0: a377 b1bd 06e6 bb3d f393 4e3d 7092 e6bc
000002e0: 8898 fe3d 6fde 223d 836d 543d f08a ca3c
000002f0: 90ef 873c 73f0 463e 9a52 51be 3c62 353d
00000300: a6ad 1fbd 6fea f1bd 0ab0 78bd 3cc7 073d
00000310: ebc7 f63d 18d5 cf3c 6930 413e ba4b 0cbd
00000320: 54c0 533c 033b 4dbd 643d 88bd 7133 ce3d
00000330: 7398 2dbe b92a 113e 9a1f 4bbc 566f 7c3d
00000340: e4fc 033e 64ae f4bb 6f7e 0fbe 2240 f1bd
00000350: 3500 c3bd cd5d e23d 29c7 353e 7cb1 493c
00000360: 169b 5d3d b3d3 a2bd 9ae7 c0bc b4bb a1bd
00000370: da7f f8bc 53a3 3a3d 45b3 84bd 37c0 ee3c
00000380: 8824 b43d 741b c03d bbf3 333e 84b6 b8bb
00000390: 3852 283d 966f e03c 6f91 85bd f3c3 c8bd
000003a0: 1eec 83bd 1755 b0bd 5be2 9c3d 142f 8d3d
000003b0: 03e5 49be 03da 04bb 9036 d9ba 8f0f 60ba
000003c0: f386 d0bc 650b 013e 66bb fc3d 99d0 93bd
000003d0: ba66 b73c 6bc3 813d fae0 4e3d 5ada 053e
000003e0: b4dc 97bd f5dd 71bd 2071 05bc e1ff 0f3d
000003f0: 90f9 6b3d adb1 33bd 3d1f ac3d 7a09 63bc
0.04383187 -0.13630907 -0.078658484 0.099597506 -0.07908246 0.09475105 0.030542755 0.0079706665
-0.0795716 -0.09811958 -0.10676294 0.0792835 0.05242801 -0.05301766 -0.1040859 0.06159914
-0.049860463 -0.020235062 -0.11155506 -0.14798509 -0.079106465 -0.069194056 0.07180422 0.050402485
-0.00591183 0.004788385 0.08778718 0.009846082 0.08368754 -0.00505701 0.023387393 -0.043523863
0.081384376 0.068296015 0.053077288 0.056217793 0.04326829 -0.03348064 -0.09824359 0.07289209
0.07285051 0.09133672 -0.018780528 0.09904327 0.0016238126 -0.09072077 0.025704855 0.024937
-0.035764597 -0.06510783 0.02926837 -0.15547435 -0.08978111 0.11089881 -0.10775485 0.085226774
-0.12795289 -0.099439725 0.04515774 0.07481273 0.008252773 -0.11862428 0.05856377 0.04062051
0.018138545 -0.053568993 -0.25352347 0.10801218 0.03151385 0.028297747 -0.0061897077 -0.09203113
0.04959372 0.0039972113 0.12821656 -0.030549182 -0.084988296 -0.053351823 -0.11065086 0.022025019
-0.12242389 0.072195195 0.1361328 0.094382145 -0.056987267 -0.037472636 0.05531065 0.113809064
0.0013020224 -0.081303515 0.11461702 0.041880228 -0.0792447 -0.15804976 0.096329145 -0.031084975
-0.049437657 -0.0797539 0.07667021 0.0048839254 0.07079897 -0.03267853 0.0737303 0.24439996
-0.10672648 0.044844236 0.029771212 0.15489258 -0.007755212 -0.006313912 0.07945284 0.053310335
-0.06292504 0.012047225 0.028229296 0.09785505 -0.022829989 -0.020966504 -0.0051596393 -0.07043886
0.008284107 -0.012683995 -0.18066083 0.12845606 -0.115252554 0.09301212 0.020709736 -0.029044725
-0.10669604 -0.04884129 -0.039543 -0.1689798 -0.12667173 -0.014507827 0.0969207 -0.15478975
0.05671279 0.09900633 0.051858753 -0.026071398 0.14346127 -0.0125193205 0.06053591 0.16847539
-0.041186422 -0.061738595 0.03918753 0.06079408 0.008489588 -0.0024031464 0.026517734 0.03234174
0.10501987 -0.07614219 0.09260486 -0.05678807 -0.004622491 -0.070816115 0.020937154 0.14324078
0.0070171654 0.02924619 -0.007360792 0.032719124 0.0828255 -0.01606856 0.08471348 0.057725504
0.097647324 0.046737954 -0.1227088 0.0007190583 0.0438726 0.046262234 -0.1042832 0.04801002
0.099398024 -0.06582862 -0.026258705 -0.014171035 -0.08665397 0.09174733 0.050434064 -0.028145999
0.12431437 0.03976291 0.05186225 0.024724454 0.016593724 0.19427662 -0.20441666 0.044283137
-0.038983963 -0.11812293 -0.06071476 0.03314899 0.1204985 0.025370166 0.18866123 -0.034251906
0.012924273 -0.050105106 -0.06652334 0.100684054 -0.16952686 0.14176454 -0.012397671 0.061629616
0.12889439 -0.007467078 -0.14013074 -0.117798105 -0.09521524 0.11053047 0.17751755 0.012310382
0.05410298 -0.07950535 -0.023547936 -0.0789713 -0.030334402 0.045565914 -0.064795054 0.02914439
0.0879603 0.09380236 0.17573445 -0.005636992 0.041094035 0.027396958 -0.0652188 -0.09802999
-0.0644152 -0.086099796 0.076603614 0.06893745 -0.19716267 -0.0020271547 -0.0016572047 -0.000854724
-0.025454974 0.12602003 0.12340431 -0.07217521 0.022387851 0.06336101 0.050507523 0.13071576
-0.07415143 -0.059049565 -0.008144647 0.035156135 0.05761105 -0.043870617 0.08404396 -0.01385724

lv_mlp_net.0.bias f4 [37]
00000000: 0056 79be ee21 ddbd e64a 12be 6884 60be
00000010: 4c77 e6bd cc32 d7bd 2d01 4bbe 07e0 57be
00000020: 3aa1 22be 8ed7 5dbe 1c35 2ebe 0752 2bbe
00000030: da8b e2bd e35d 01be cc23 d1bd 8304 0bbe
00000040: a9dc 30be 86b1 0cbe 3ae5 ecbd 4993 86bd
00000050: 507d 39be d996 e1bd 0525 35be 7abc 9cbd
00000060: a168 4dbe 0531 85bd 5366 1cbe 3628 a1be
00000070: d80a e3bd 943c 0ebe 8aa1 0bbe 6f33 163d
00000080: 8cd5 7bbd e494 76bd 14d8 8bbe 6ee2 44bd
00000090: 90f2 8ebd
-0.24349213 -0.10797487 -0.14286384 -0.21925509 -0.11253223 -0.105077356 -0.19824667 -0.21081553
-0.15881816 -0.21664259 -0.17012447 -0.1673051 -0.11061831 -0.12633471 -0.10211906 -0.1357594
-0.17271675 -0.13739595 -0.11567159 -0.06571061 -0.18114209 -0.110151 -0.17689903 -0.076531366
-0.20059444 -0.0650349 -0.15273409 -0.3147599 -0.11086053 -0.13890296 -0.13635841 0.036670145
-0.06148295 -0.060200587 -0.27313292 -0.048067503 -0.06979859

lv_mlp_net.3.weight f4 [16, 37]
00000000: 39a8 2ebe c77d 96be c045 463e e349 5a3e
00000010: 9443 0a3e 0332 a4bd f607 553e 7b0a 3b3e
00000020: 1a36 a63d 8d1d 2f3e 636e 4fbe e6fe 54be
00000030: a3e2 33be 32ca 6dbe c664 093d 77b6 93be
00000040: 7b43 43be e5ed 7abe 18d3 3cbe 39bd e13c
00000050: 6788 f0bc 949f 0ebe fb65 bc3d 44ce b03d
00000060: 149d 6c3e 8afa 21bd 4793 1e3e 05da 9bbd
00000070: 0982 69be 7991 1a3b 1f47 5abe b5a2 403d
00000080: ca2f 19bd 8ea6 6d3e 6262 1cbd 456b c83d
00000090: 37d3 e23c 4a81 eb3d e79c 3e3e a43f 82bd
000000a0: ff55 1ebe 0d76 80be 57ba ac3d de08 06be
000000b0: fefb c8bd 9bf8 283e 45eb 06bd 5504 1b3e
000000c0: db3d 093e ce30 303e 3a01 3c3e 4ab3 51be
000000d0: a11d febc a345 2a3e e59d 683b 2d3a fe3d
000000e0: 791d 31bd 6347 0f3d 71f2 c53d dd92 e7bd
000000f0: 3770 cabd 2bd7 a23d d13d 0e3e ab4f 5b3d
00000100: 9ce5 483e 8cd7 653c 24d6 3dbe f852 8c3d
00000110: 98c4 dd3c 3d28 833d cdaf a8bc c537 333e
00000120: 6447 60bc 7440 6ebe 514f 693d 8636 3abe
00000130: 0343 b43b 7b7c 503d b0ac 853c 8069 2cbe
00000140: 3046 693e c113 6f3e 1cea 363b 6338 503e
00000150: a148 d9bd a25e 58be bf04 23bd c8ac 55be
00000160: a1eb 453d f394 4fbe fb81 03bd 272f bcbd
00000170: 4e30 0cbe 30c6 693e 9188 41bd eab6 eabb
00000180: a03f cdbc 06b3 f33c 24ca 6e3d 0c40 f53d
00000190: 9ff3 1bbd 7919 5dbe 2ff3 4fbe ebb8 9fbc
000001a0: 8503 3ebd 476c 9c3d feee 113c 9aa0 f53d
000001b0: 587a 98bd 1fd5 0e3e 462d ab3d cf16 bb3c
000001c0: 4ff3 b0bd cf7f 123c 60d9 3e3e 82c0 d23d
000001d0: 9156 00be 2ddb da3c 96b9 0d3e 2891 0dbe
000001e0: 80c9 933d 8f7d 30be 7b49 b9bd 7d32 bcbc
000001f0: fe1f 86bd 74f9 e53d 1505 27be 71b2 aebc
00000200: 76ac cebd 0335 9abd f754 a63d 87f8 2abe
00000210: 64a8 9ebc 0242 093e 1828 85bd be73 2f3d
00000220: ba9a 0f3e 1b1e 423e 02d8 56bd 4e6c 42be
00000230: 2685 cbbc 53a3 10be 7710 a83d c2fa adbd
00000240: d2b1 f23d e3a4 15be da6b edbd 7bde 2f3e
00000250: b5f5 1c3e 4fe6 eebd 77d9 a4bd 86e4 ecbd
00000260: 4ae0 bb3c 2d33 d93c 2caa 92bd c891 90bc
00000270: cac5 143e 293d aebd 0e73 ddbd c4d0 69bb
00000280: 0236 05be 5576 153e 1285 05be 5590 003d
00000290: b7b5 5b3e 85b2 643e 7215 00be ceb5 07be
000002a0: 02d5 86bc 2755 e43d d8bd 80bb ac6b 4cbe
000002b0: e713 873c 21af aabb f684 08bb 29c1 9e3d
000002c0: 645c 1a3e 9193 d8bd 0ca0 243e 3d90 253c
000002d0: a9d8 813e d403 8cbc 9bb0 0b3e c6b7 d2bd
000002e0: c738 4abe 7f73 343e 3517 8b3d 0b8e 22bd
000002f0: 06cd 09be 99af 4abe 035e 113d a682 a6bd
00000300: f9c3 a9bc 13aa 333e 9802 a7bc 0733 283d
00000310: 78d8 703e 283c 8f3e a41c a43d 479e d1bd
00000320: 13eb 2c3e 6194 183e a2a1 7d3d 95ce 623e
00000330: 0810 d5bd dda0 1a3e 5a6f 07bd 62b4 94bc
00000340: fb2b 3dbd 7ca4 2c3d 7077 e63d a772 3f3d
00000350: c4a2 753e b6e7 8abc 7f81 04be d8df ed3d
00000360: d617 6bbd d915 c43d f246 94bd 8a36 593e
00000370: 91fb 50bd 35ca 2dbd 4a27 2cbe 825d 74bd
00000380: a9a0 583e 4ae3 e33d 2de3 bdbd a51c fbbd
00000390: a08a 103e ccf1 243e cec0 4ebd 77f0 a93d
000003a0: 4ca4 36be 3bed 05be c518 4cbd 4939 64be
000003b0: 89f0 203e 1f9e 3bbe 2294 58be 81a2 fcbd
000003c0: e823 3ebe ac6d 123d 392d 0fbe 890c e4bc
000003d0: 8a4f 1b3e 4fdc 853d 986a 2d3d 7743 f73d
000003e0: 92d1 143e 1c56 80bd a975 cd3c 5579 ac3d
000003f0: 8155 eebd 8119 3d3e 3151 cfbd 0923 4f3e
-0.1705636 -0.29392835 0.19362545 0.21317248 0.13502342 -0.080173515 0.20803818 0.18265717
0.08115788 0.17101116 -0.20256953 -0.20800361 -0.17566924 -0.23221663 0.03354337 -0.28850147
-0.1906871 -0.24504812 -0.18439901 0.027556049 -0.029361917 -0.13928062 0.09199139 0.08633092
0.23106796 -0.039545573 0.1548587 -0.07609943 -0.2280351 0.0023585244 -0.21316193 0.04703017
-0.03739909 0.23208067 -0.038179763 0.09786085 0.027688606 0.11499269 0.18614541 -0.06359795
-0.15462492 -0.25090066 0.08433979 -0.1308932 -0.09813689 0.16501085 -0.032939214 0.15138371
0.13402502 0.17206118 0.18359843 -0.2047855 -0.031019988 0.16628127 0.0035494503 0.1241344
-0.043240998 0.03498019 0.09665383 -0.11307309 -0.098846845 0.07951196 0.13890769 0.053542774
0.19618839 0.014028441 -0.1853872 0.068517625 0.027071282 0.06404159 -0.02059164 0.17501743
-0.013688896 -0.23266774 0.056960408 -0.18184862 0.0055011525 0.050899964 0.016317695 -0.1683712
0.2278068 0.2334738 0.0027910536 0.2033401 -0.10609556 -0.2112985 -0.039799448 -0.20866692
0.048320416 -0.20271663 -0.03210638 -0.09188681 -0.13690302 0.22829509 -0.04724938 -0.0071629183
-0.025054753 0.029748451 0.058298245 0.119751066 -0.038074132 -0.21591748 -0.20307611 -0.019497355
-0.046390075 0.0763784 0.008907078 0.11993523 -0.0744521 0.13948487 0.083582446 0.022838024
-0.086401574 0.008941605 0.1863761 0.10290624 -0.12533022 0.02671584 0.13840327 -0.13824904
0.072161674 -0.17235397 -0.090472184 -0.022973293 -0.06549071 0.1122922 -0.16310532 -0.021325322
-0.10091488 -0.075296424 0.081216745 -0.16696368 -0.019367404 0.13404086 -0.06501788 0.04283499
0.14023867 0.18956797 -0.052452095 -0.18986627 -0.024843764 -0.14124803 0.082062654 -0.08495094
0.11850323 -0.1461368 -0.11592837 0.17174713 0.15328105 -0.11665022 -0.080492906 -0.11567025
0.022934098 0.02651366 -0.07161364 -0.017647639 0.14528576 -0.08507759 -0.108129606 -0.0035677413
-0.13008884 0.14595921 -0.13039044 0.031387646 0.21456037 0.22333725 -0.1250818 -0.13252947
-0.016458992 0.11149054 -0.003928881 -0.19962949 0.016488982 -0.0052088653 -0.0020831204 0.07751686
0.15074307 -0.10575021 0.16076678 0.01010519 0.2536061 -0.01709167 0.13641588 -0.10288958
-0.19748221 0.17622183 0.06791536 -0.039686244 -0.13457116 -0.19793548 0.035490047 -0.08130388
-0.02072333 0.17545347 -0.020386979 0.04106429 0.23520076 0.27975583 0.08013275 -0.10235267
0.16886549 0.14900352 0.061921723 0.22149117 -0.10403448 0.15100427 -0.033065178 -0.01815242
-0.04618452 0.042149052 0.1125325 0.0467402 0.23987871 -0.016956192 -0.12940024 0.116149604
-0.05739578 0.095744796 -0.07240094 0.21212211 -0.051021162 -0.042429168 -0.16811863 -0.05965949
0.21155037 0.11127336 -0.09271846 -0.12261323 0.14115381 0.16107863 -0.05047684 0.08297818
-0.17836112 -0.13078777 -0.04982831 -0.22287478 0.15716757 -0.18322037 -0.21150258 -0.12335683
-0.18568385 0.035749123 -0.13982095 -0.027838008 0.1516706 0.06536161 0.042337984 0.12073415
0.1453307 -0.06266424 0.025080519 0.0842158 -0.11637402 0.1846676 -0.10122908 0.20228209

lv_mlp_net.3.bias f4 [16]
00000000: 9856 5d3e b9ed 083e 024e 1f3d d464 513e
00000010: af6b a33c 31f6 073b 41d1 4f3e 444e 0bbe
00000020: ac69 223e d5a3 d53d b416 ce3d c10b f7bd
00000030: c815 a23d ba27 d73d 48d6 b9bd 85d6 163e
0.21615064 0.13371934 0.038892753 0.20448619 0.019948808 0.0020746107 0.20294668 -0.13604075
0.15860623 0.10431639 0.10062924 -0.12062789 0.07914311 0.10505624 -0.09074074 0.1473027

lv_mlp_net.6.weight f4 [1, 16]
00000000: 8e5e 313e 5f24 5abe b1bb 7d3e 8967 793e
00000010: d459 98be 7b59 33be f23f 8a3e 47da 553e
00000020: d197 423e 412e 52be e95c 45be a72f 373e
00000030: 9311 093e 8aa4 223e 24b3 8a3e 5510 69be
0.17321226 -0.21302937 0.2477863 0.24355902 -0.29756033 -0.17514603 0.2700191 0.20884047
0.19003226 -0.20525457 -0.19273724 0.17889272 0.1338561 0.15883079 0.27089798 -0.22760136
