model/checkpoints/sarathy2016/cddd/model_000.onnx (onnx, 159427 bytes, 12 tensors)

lv_onnx::MatMul_4 f4 [512, 51]
000000 00 00 00 00 00 00 00 00 00 00 00 00 00 00 00 00
       0.0 0.0 0.0 0.0
000010 00 00 00 00 00 00 00 00 00 00 00 00 00 00 00 00
       0.0 0.0 0.0 0.0
000020 00 00 00 00 00 00 00 00 00 00 00 00 00 00 00 00
       0.0 0.0 0.0 0.0
000030 00 00 00 00 00 00 00 00 00 00 00 00 00 00 00 00
       0.0 0.0 0.0 0.0
000040 00 00 00 00 00 00 00 00 00 00 00 00 00 00 00 00
       0.0 0.0 0.0 0.0
000050 00 00 00 00 00 00 00 00 00 00 00 00 00 00 00 00
       0.0 0.0 0.0 0.0
000060 00 00 00 00 00 00 00 00 00 00 00 00 00 00 00 00
       0.0 0.0 0.0 0.0
000070 d3 84 2a bf 00 00 00 00 00 00 00 00 00 00 00 00
       -0.66608924 0.0 0.0 0.0
000080 00 00 00 00 00 00 00 00 00 00 00 00 00 00 00 00
       0.0 0.0 0.0 0.0
000090 00 00 00 00 00 00 00 00 00 00 00 00 00 00 00 00
       0.0 0.0 0.0 0.0
0000a0 00 00 00 00 00 00 00 00 00 00 00 00 d3 84 2a 3f
       0.0 0.0 0.0 0.66608924
0000b0 00 00 00 00 00 00 00 00 00 00 00 00 d3 84 2a 3f
       0.0 0.0 0.0 0.66608924
0000c0 00 00 00 00 00 00 00 00 00 00 00 00 00 00 00 00
       0.0 0.0 0.0 0.0
0000d0 00 00 00 00 00 00 00 00 00 00 00 00 00 00 00 00
       0.0 0.0 0.0 0.0
0000e0 00 00 00 00 00 00 00 00 00 00 00 00 00 00 00 00
       0.0 0.0 0.0 0.0
0000f0 00 00 00 00 00 00 00 00 d3 84 2a bf 00 00 00 00
       0.0 0.0 -0.66608924 0.0
000100 00 00 00 00 00 00 00 00 00 00 00 00 00 00 00 00
       0.0 0.0 0.0 0.0
000110 00 00 00 00 00 00 00 00 00 00 00 00 00 00 00 00
       0.0 0.0 0.0 0.0
000120 00 00 00 00 00 00 00 00 d3 84 2a 3f 00 00 00 00
       0.0 0.0 0.66608924 0.0
000130 00 00 00 00 00 00 00 00 00 00 00 00 00 00 00 00
       0.0 0.0 0.0 0.0
000140 00 00 00 00 00 00 00 00 00 00 00 00 00 00 00 00
       0.0 0.0 0.0 0.0
000150 00 00 00 00 00 00 00 00 00 00 00 00 00 00 00 00
       0.0 0.0 0.0 0.0
000160 00 00 00 00 00 00 00 00 00 00 00 00 00 00 00 00
       0.0 0.0 0.0 0.0
000170 00 00 00 00 00 00 00 00 00 00 00 00 00 00 00 00
       0.0 0.0 0.0 0.0
000180 00 00 00 00 00 00 00 00 00 00 00 00 00 00 00 00
       0.0 0.0 0.0 0.0
000190 00 00 00 00 00 00 00 00 00 00 00 00 00 00 00 00
       0.0 0.0 0.0 0.0
0001a0 00 00 00 00 00 00 00 00 00 00 00 00 00 00 00 00
       0.0 0.0 0.0 0.0
0001b0 00 00 00 00 00 00 00 00 00 00 00 00 00 00 00 00
       0.0 0.0 0.0 0.0
0001c0 00 00 00 00 00 00 00 00 00 00 00 00 00 00 00 00
       0.0 0.0 0.0 0.0
0001d0 00 00 00 00 00 00 00 00 00 00 00 00 00 00 00 00
       0.0 0.0 0.0 0.0
0001e0 00 00 00 00 00 00 00 00 00 00 00 00 00 00 00 00
       0.0 0.0 0.0 0.0
0001f0 00 00 00 00 00 00 00 00 d3 84 2a bf 00 00 00 00
       0.0 0.0 -0.66608924 0.0
000200 00 00 00 00 00 00 00 00 00 00 00 00 00 00 00 00
       0.0 0.0 0.0 0.0
000210 00 00 00 00 00 00 00 00 00 00 00 00 00 00 00 00
       0.0 0.0 0.0 0.0
000220 00 00 00 00 00 00 00 00 00 00 00 00 00 00 00 00
       0.0 0.0 0.0 0.0
000230 00 00 00 00 00 00 00 00 00 00 00 00 00 00 00 00
       0.0 0.0 0.0 0.0
000240 d3 84 2a 3f 00 00 00 00 00 00 00 00 00 00 00 00
       0.66608924 0.0 0.0 0.0
000250 00 00 00 00 00 00 00 00 00 00 00 00 00 00 00 00
       0.0 0.0 0.0 0.0
000260 00 00 00 00 00 00 00 00 00 00 00 00 00 00 00 00
       0.0 0.0 0.0 0.0
000270 00 00 00 00 00 00 00 00 00 00 00 00 00 00 00 00
       0.0 0.0 0.0 0.0
000280 00 00 00 00 00 00 00 00 00 00 00 00 00 00 00 00
       0.0 0.0 0.0 0.0
000290 00 00 00 00 00 00 00 00 00 00 00 00 00 00 00 00
       0.0 0.0 0.0 0.0
0002a0 00 00 00 00 00 00 00 00 00 00 00 00 00 00 00 00
       0.0 0.0 0.0 0.0
0002b0 00 00 00 00 00 00 00 00 00 00 00 00 00 00 00 00
       0.0 0.0 0.0 0.0
0002c0 00 00 00 00 00 00 00 00 00 00 00 00 00 00 00 00
       0.0 0.0 0.0 0.0
0002d0 00 00 00 00 00 00 00 00 00 00 00 00 00 00 00 00
       0.0 0.0 0.0 0.0
0002e0 00 00 00 00 00 00 00 00 00 00 00 00 00 00 00 00
       0.0 0.0 0.0 0.0
0002f0 00 00 00 00 00 00 00 00 00 00 00 00 00 00 00 00
       0.0 0.0 0.0 0.0
000300 00 00 00 00 00 00 00 00 00 00 00 00 00 00 00 00
       0.0 0.0 0.0 0.0
000310 00 00 00 00 00 00 00 00 00 00 00 00 00 00 00 00
       0.0 0.0 0.0 0.0
000320 00 00 00 00 00 00 00 00 00 00 00 00 00 00 00 00
       0.0 0.0 0.0 0.0
000330 00 00 00 00 00 00 00 00 00 00 00 00 00 00 00 00
       0.0 0.0 0.0 0.0
000340 00 00 00 00 00 00 00 00 00 00 00 00 00 00 00 00
       0.0 0.0 0.0 0.0
000350 00 00 00 00 00 00 00 00 00 00 00 00 00 00 00 00
       0.0 0.0 0.0 0.0
000360 00 00 00 00 d3 84 2a 3f 00 00 00 00 00 00 00 00
       0.0 0.66608924 0.0 0.0
000370 00 00 00 00 00 00 00 00 00 00 00 00 00 00 00 00
       0.0 0.0 0.0 0.0
000380 d3 84 2a bf 00 00 00 00 00 00 00 00 00 00 00 00
       -0.66608924 0.0 0.0 0.0
000390 00 00 00 00 00 00 00 00 00 00 00 00 00 00 00 00
       0.0 0.0 0.0 0.0
0003a0 d3 84 2a bf 00 00 00 00 00 00 00 00 00 00 00 00
       -0.66608924 0.0 0.0 0.0
0003b0 00 00 00 00 00 00 00 00 00 00 00 00 00 00 00 00
       0.0 0.0 0.0 0.0
0003c0 00 00 00 00 00 00 00 00 00 00 00 00 00 00 00 00
       0.0 0.0 0.0 0.0
0003d0 00 00 00 00 00 00 00 00 00 00 00 00 00 00 00 00
       0.0 0.0 0.0 0.0
0003e0 00 00 00 00 00 00 00 00 00 00 00 00 00 00 00 00
       0.0 0.0 0.0 0.0
0003f0 00 00 00 00 00 00 00 00 00 00 00 00 00 00 00 00
       0.0 0.0 0.0 0.0

lr_lr_W f4 [512, 1]
000000 8c ce 39 bc 03 7c ec bc 04 db 79 bc 30 dd fd bb
       -0.0113407485 -0.028867727 -0.015249971 -0.007747315
000010 91 a4 f4 bc 5d 74 66 3c 36 e6 08 bd ef 79 15 bc
       -0.029863628 0.014065829 -0.03342267 -0.0091233095
000020 b0 fc cb bb fd 01 41 3b 84 30 a1 bb be 59 e8 bc
       -0.006225191 0.0029450648 -0.0049191136 -0.028363105
000030 5c ad eb 3c 5d 75 a0 3c 25 c0 57 bc 2a 40 e9 39
       0.028769188 0.019587213 -0.013168369 0.0004448903
000040 ed 3e c1 ba 68 f0 5b bc 88 5c 46 3c b5 2b 35 bc
       -0.0014743485 -0.013424017 0.012107022 -0.011057784
000050 d3 cf 79 3b 39 e2 a0 bc b9 07 b3 3c 52 6e 16 bc
       0.0038118258 -0.019639121 0.021854268 -0.009181576
000060 5a 93 d9 3b 89 29 40 3c a8 53 72 3c 7d c5 62 3b
       0.00663988 0.011728653 0.014790453 0.0034602575
000070 ed dc 5b bc 25 39 a0 bc 82 72 45 3c 03 39 c7 3c
       -0.013419372 -0.019558499 0.012051227 0.024319177
000080 fd 3c a2 bc 73 3f 01 bc af b6 bf 3a d6 1a 0f 3c
       -0.019804472 -0.007888663 0.0014626588 0.0087344255
000090 74 a8 96 bb 15 18 2e bc 21 d0 ad bc bf e6 52 3c
       -0.004597718 -0.010625859 -0.021217408 0.012872397
0000a0 5e 2d 8c bc 1c b8 11 bd 2b 17 9c 3a af d7 7d bc
       -0.017111477 -0.03557597 0.001190876 -0.0154933175
0000b0 75 2c a5 bc 53 f2 fa bc 41 32 89 bc c1 3d 31 3c
       -0.0201628 -0.030633127 -0.016747596 0.010817946
0000c0 50 ed 15 bb a2 50 f8 b8 96 a8 44 bc 35 5e d5 bc
       -0.0022877045 -0.000118405806 -0.012003085 -0.026045898
0000d0 58 c0 be bc d7 ab 68 3c 86 f3 79 ba 7a ea 42 3c
       -0.023285076 0.014201126 -0.0009534884 0.011896724
0000e0 88 f8 08 3b eb f2 ec 3c 0a 79 17 3c 2b 4f 1e 3c
       0.002090009 0.028924426 0.009245167 0.00966243
0000f0 d1 ae bc 3b 2d ba 32 bc ad c5 8f bc 35 f4 62 ba
       0.0057581444 -0.010908646 -0.017550314 -0.00086576055
000100 37 28 91 bc 45 fe 33 3c 39 12 07 3c 3c a8 50 bc
       -0.017719371 0.010985916 0.008244091 -0.012735423
000110 95 19 65 bc d6 c1 37 3b ef ac 72 3c 9f 2d 86 bc
       -0.01398315 0.002803912 0.014811738 -0.016379176
000120 f0 c0 52 3b 59 34 dc 3c 41 28 94 bc cf 03 f1 3c
       0.0032158457 0.02688043 -0.0180856 0.029420761
000130 db ba b6 bb 50 83 ec bb d8 35 11 bb 82 66 1b bc
       -0.005576474 -0.007217802 -0.0022157338 -0.009484889
000140 6d 33 8f bb 4a 0e a3 3c cf 8a f5 3c 28 e3 31 bb
       -0.004370144 0.019904274 0.029973416 -0.0027143452
000150 2a 83 1f 3c e9 5b 3c 3d f2 84 4c 3c 68 35 4e bc
       0.009735862 0.04598609 0.0124828685 -0.012585975
000160 60 27 21 bb 7b 49 45 3c ce 21 8e ba a6 92 c5 bb
       -0.002459012 0.012041445 -0.0010843815 -0.0060294447
000170 92 2a 40 3b fb 7a d7 bc 67 c1 b2 3b 62 d8 74 ba
       0.002932225 -0.026303759 0.0054551843 -0.0009340105
000180 84 6e 1a bd dc 12 c6 3a 8f bf 23 3c e2 84 a8 bc
       -0.037703052 0.0015111822 0.009994402 -0.020571176
000190 42 55 93 3c f8 59 4e bc b6 a1 36 bc 9d 3a 28 bd
       0.01798499 -0.012594692 -0.011146953 -0.041071523
0001a0 4a ed f4 3c 82 0a a7 3c ba 0b f7 bb 41 1e 49 3b
       0.029898304 0.020390753 -0.0075392397 0.0030688199
0001b0 1e b7 85 3a a1 a3 d1 3a ca 81 af 3b d5 42 bf 3a
       0.0010201668 0.00159942 0.0053560482 0.0014592061
0001c0 d9 13 41 bc 09 65 65 bc 27 1b 25 39 79 87 40 bc
       -0.011784517 -0.014001139 0.00015745741 -0.011751049
0001d0 4d 7d d7 3a b5 49 ba ba 84 e7 8e 3c b7 98 72 3c
       0.0016440541 -0.001421264 0.01744438 0.014806918
0001e0 63 c6 2b bc 1b cf 1a bc 68 bd 1b bc a0 ec 0f bc
       -0.010484311 -0.009448792 -0.009505607 -0.008784443
0001f0 5c 65 a6 3c a4 b4 27 bc 2c 29 ee bb 45 6d 05 bc
       0.020312004 -0.010235939 -0.0072680917 -0.008143728
000200 3f 3a 54 3c d5 b8 bf ba 93 1e d4 bb 40 50 26 3c
       0.01295334 -0.0014627228 -0.0064733713 0.010150969
000210 f9 ca e2 bc 6d 5f 44 bc 12 a3 09 3c 23 73 9e 3c
       -0.027684676 -0.011985642 0.008400695 0.01934201
000220 80 55 80 3c 7f d4 92 bc 7a fe 73 bc ca 17 00 3c
       0.01566577 -0.017923592 -0.014892215 0.007818172
000230 02 3d 3b 3c 52 55 c2 3c c0 19 37 3c 54 6f 06 3d
       0.01142812 0.023722325 0.011175573 0.032821015
000240 e8 ba 19 bb 32 6b fa bc 68 30 78 3c 6c 48 18 bb
       -0.0023457352 -0.030568693 0.01514826 -0.0023236526
000250 de 8b f8 3c fb ea 6f bc ab e4 db 39 52 7b dc ba
       0.030340131 -0.014643426 0.00041941306 -0.001682142
000260 26 a6 a9 bb 05 da fa 3b 45 6b 1e 39 11 0f cf 3b
       -0.005177277 0.0076553845 0.00015108015 0.0063189347
000270 19 14 5d 3c 47 01 08 3d 07 ac 40 3c f8 70 fd 3b
       0.013493561 0.033204343 0.0117597645 0.007734414
000280 82 da cd bc b9 2a 3d bb b7 7c 28 bb da 4f 1b 3c
       -0.025128607 -0.0028864576 -0.0025709101 0.009479487
000290 ab 57 b8 3b 86 3f c7 bc c8 90 d0 3c fa 82 0a 3c
       0.005625685 -0.024322283 0.025459662 0.008454079
0002a0 c5 19 1b bb 05 1c 74 3c c9 ad 8c bc 53 27 c4 bc
       -0.0023666483 0.0148992585 -0.017172711 -0.023944532
0002b0 a9 a8 7d 3c 49 a5 2b bc 84 2c 73 bc 37 00 af bc
       0.015482106 -0.010476419 -0.014842156 -0.021362407
0002c0 5d cd 25 3c 54 f6 38 3b e6 2a 77 bb 72 97 29 bb
       0.010119763 0.0028222995 -0.0037714778 -0.0025877622
0002d0 ce 63 93 3c 2f 6e a7 bc 1e 50 df bb f7 d5 43 bc
       0.017991927 -0.020438282 -0.0068149706 -0.011952869
0002e0 54 a9 3c bc 1f dd 8c bc ad b9 55 bc 44 eb 91 bb
       -0.01151498 -0.017195283 -0.013044757 -0.0044530947
0002f0 0d ae 33 3c 16 cc 0c bb f1 99 d2 3c da df 28 3c
       0.01096679 -0.002148395 0.02570817 0.010307277
000300 a8 6d 24 3c f0 f4 42 bc bc 24 8a bb 17 14 7e 3c
       0.01003591 -0.011899218 -0.004215805 0.0155077195
000310 a4 d7 2f bc b1 aa b7 3c 61 b2 0d bc 1b 48 3f bc
       -0.010732565 0.02242026 -0.008648486 -0.011674906
000320 b4 3d c3 bc 14 b0 57 bc b8 af ad bb ca fe 95 bc
       -0.023833133 -0.013164539 -0.0053004883 -0.01830997
000330 d7 a0 80 3a 7e 7b b2 bb 04 7a 77 3c 91 db 58 3c
       0.0009813559 -0.0054468503 0.015104774 0.013235942
000340 a9 74 d3 3a 23 ad 37 3c 66 69 93 3c bd f6 ba bb
       0.001613279 0.011210713 0.017994594 -0.005705683
000350 d4 c1 ae bb c0 cb 16 bb f4 0d c3 3c 4a 79 e0 ba
       -0.0053331647 -0.0023009628 0.023810364 -0.0017125991
000360 86 3a 53 3c 11 cc af 3c b3 63 fa 3c 75 f2 df bb
       0.012892371 0.021459611 0.030565118 -0.006834323
000370 4b 07 78 ba 87 e5 bd ba fe 37 1c 3b e7 db 71 ba
       -0.0009461536 -0.001448796 0.0023837085 -0.00092261884
000380 58 5c c2 3a 40 8e 04 3c 42 07 a5 bc 2c 75 51 3b
       0.0014828546 0.008090556 -0.020145062 0.003196071
000390 dc 84 95 bc b7 6f 26 bb 83 48 6b 3c d3 22 03 3d
       -0.018251829 -0.0025396177 0.01436055 0.032015633
0003a0 27 12 53 bc 56 f6 db 3c 01 84 91 bc fe fe 64 bc
       -0.012882746 0.02685086 -0.01776314 -0.0139768105
0003b0 6f 64 37 3c e6 8e 0d 3b 9a b4 98 b9 79 2c e0 bc
       0.011193379 0.0021600067 -0.00029126258 -0.027364956
0003c0 8b 05 3b 3c 5d ad f5 bb a6 3b 61 3b 05 51 8b bc
       0.011414896 -0.007497473 0.0034367829 -0.017006407
0003d0 9f e4 4f bc 4c 0f a9 bc 95 cc 42 bc 45 84 bf bb
       -0.012688785 -0.020637177 -0.0118895965 -0.005844625
0003e0 84 c7 77 bb 8d bd 8d bc e3 ed ba ba f3 bb f0 bc
       -0.003780813 -0.017302299 -0.001426157 -0.029386496
0003f0 c3 dd 98 bc 22 29 d6 3b 0a a5 6c 38 11 fa 8d 3b
       -0.018660432 0.006535665 5.642049e-05 0.0043327888

svc_W2_svc f4 [512, 1]
000000 fa 95 8d bc 79 65 2f bd 2b 07 f2 bc 63 b8 1b bc
       -0.017283428 -0.04282138 -0.029544434 -0.00950441
000010 60 20 7c bd 9c 30 90 3c f0 1a 90 bd 0a c7 32 bb
       -0.061554313 0.017601304 -0.07036388 -0.002727928
000020 e0 ae 61 bb 5b 1a 23 3c 3d c3 db bc c7 90 3d bd
       -0.003443651 0.009955014 -0.026826495 -0.04628065
000030 54 2e 37 3d e6 40 0f 3d 56 31 15 bd bc 3b 17 bc
       0.044721916 0.034974 -0.036424004 -0.00923055
000040 10 bd 42 bc 87 38 bb bc 83 86 6c 3c 31 09 ef bc
       -0.011885896 -0.022854103 0.014436367 -0.029179187
000050 5d f9 da bb 3a d6 f1 bc a1 cd 15 3d d4 2a 96 bc
       -0.0066825585 -0.029521096 0.036573056 -0.018330969
000060 fa c9 25 3d e0 8b cb 3c 8d e4 27 3d 1f bb e5 bb
       0.040475823 0.024846971 0.040989447 -0.007010832
000070 ab 1e 51 bc 01 fc 58 bd 72 92 c3 3c f9 3a 2e 3d
       -0.0127636595 -0.052974705 0.023873542 0.04253671
000080 ed 32 10 bd 70 2e 06 bb 16 9e a1 3b ac 14 dc 3c
       -0.035204817 -0.0020474456 0.0049321754 0.026865326
000090 c7 f4 99 bb 74 a2 d3 bc ae 0f d2 bc b5 10 9f 3c
       -0.004698369 -0.0258343 -0.025642242 0.019417146
0000a0 53 05 16 bd bd 89 8a bd e7 6a e1 3b 3d cf b1 bc
       -0.03662617 -0.06764553 0.006879199 -0.021705264
0000b0 a3 93 47 bd 14 d5 19 bd 33 1d 0c bd bb f3 88 3b
       -0.04872478 -0.037556723 -0.034207534 0.0041794456
0000c0 61 35 8d 3b f5 c5 f4 ba 2d 60 5d bc 0a e6 5c bd
       0.004309342 -0.0018674718 -0.0135117 -0.05393032
0000d0 77 58 5d bd 96 14 bd 3c 42 78 56 3c be ef ab 3c
       -0.054039445 0.023081105 0.013090195 0.020988341
0000e0 68 d3 c5 bb 22 6c 04 3d 14 5f ae 3c 4e 91 f9 3c
       -0.0060371645 0.032329686 0.021285571 0.030464794
0000f0 b7 99 cc 3c 6d cd de bc bc 36 e1 bc 97 fd 2e 3b
       0.02497564 -0.027197564 -0.02749192 0.0026701444
000100 de d5 40 bd b6 83 af 3c f0 e4 2b 3c d6 12 95 bc
       -0.04707896 0.02142511 0.010491595 -0.018197458
000110 d4 c9 f6 bc c6 22 43 3c 48 d8 9f 3c 28 29 02 3b
       -0.030125536 0.011910146 0.01951231 0.0019860957
000120 1b d4 a5 ba 87 79 02 3d 30 20 e9 bb a1 62 28 3d
       -0.0012651713 0.03185418 -0.0071144328 0.041109685
000130 b6 c2 9a bc d6 c5 fa bb 22 63 52 bc a1 a5 dc bc
       -0.018891674 -0.0076529784 -0.012841018 -0.026934447
000140 5c fe 0f 3c 29 17 53 3d 3c 72 51 3d ea 91 f6 bb
       0.008788671 0.05153576 0.051134333 -0.0075247185
000150 8b 12 0e 3d 6b f2 94 3d e7 2e b8 3b de a6 9d bc
       0.034685653 0.072728 0.0056208256 -0.019244608
000160 8c 93 47 bc ac e4 97 3c 89 10 74 3b 20 74 d1 ba
       -0.012181174 0.018541656 0.00372413 -0.0015980043
000170 5f c5 8e 39 77 ac 33 bd 75 3b 04 3d 7c 71 54 bc
       0.00027231404 -0.043865647 0.032283265 -0.01296651
000180 66 f9 68 bd 87 0b f8 3b 39 47 19 3c 1b 26 46 bd
       -0.05687847 0.0075697335 0.00935536 -0.048376184
000190 28 5b 47 3d 5c d2 99 bc 96 72 32 bc 7e 6e a7 bd
       0.048670918 -0.018777065 -0.010891577 -0.081753716
0001a0 db d1 32 3d 73 09 19 3d 12 7a 9e bc e7 8a f7 3a
       0.043657165 0.037362527 -0.019345317 0.0018886001
0001b0 a1 78 b6 3c e6 e0 64 bb 59 58 d8 3b dc 78 61 3b
       0.022274317 -0.003492409 0.0066023287 0.0034404313
0001c0 47 56 e4 ba 4d f0 06 bc 8c 94 c0 3b f8 4b 78 bc
       -0.0017420732 -0.008236003 0.005877083 -0.015154831
0001d0 f1 ea 2e bc 1e 8b da 3b 6c 4d 59 3c de c0 25 3d
       -0.010676132 0.006669416 0.013263088 0.040467136
0001e0 b3 c4 6e bc 64 50 d8 bc 5e 74 c5 bc 00 b3 01 bd
       -0.014573264 -0.02640552 -0.02410334 -0.03166485
0001f0 95 c4 06 3d 49 75 c0 bc 2a c9 83 bc fc 7b 9b bc
       0.03290232 -0.023493426 -0.016087133 -0.018980019
000200 a6 a2 6b 3c b9 a9 b4 3c 85 90 b8 bc ed c2 c2 3c
       0.01438204 0.022053586 -0.02252985 0.023774588
000210 d9 96 43 bd 80 6e ec bc 04 22 b6 3c 81 97 a5 3c
       -0.04775128 -0.028861284 0.022233017 0.020213844
000220 72 bf 12 3d 3c 73 0a bd b5 71 4c bc b9 52 6b 3b
       0.035827108 -0.033801302 -0.012478282 0.003590746
000230 43 b8 20 3d 59 74 64 3d 05 2e 00 3d fb 60 7c 3d
       0.039238226 0.05577502 0.031293888 0.061615925
000240 2b 2c 17 3c bc d2 8f bd 88 ed f3 3c 41 cc ec b9
       0.009226839 -0.07022616 0.02977635 -0.0004516561
000250 06 71 04 3d d2 42 b7 bc 84 23 4f 3b e6 e7 99 ba
       0.03233435 -0.02237073 0.0031606862 -0.0011742085
000260 56 18 70 bb 0a 65 9f 3c 3c bf 47 bb 56 ee 34 3c
       -0.00366356 0.019457359 -0.0030478975 0.011043152
000270 24 9b df 3c 92 af 32 3d 2a 7c b5 3c cc 3c 5f 3c
       0.027295657 0.04362447 0.022153933 0.013625335
000280 28 78 cf bc 9f 9f fc bb b0 55 0e bb 78 c0 a4 3c
       -0.02532585 -0.007709458 -0.0021718554 0.020111308
000290 4b ba 72 3c 8f 64 68 bd b9 d5 2e 3d 88 ea 4a 3c
       0.0148149235 -0.056736525 0.04268429 0.012385018
0002a0 0c ea b6 39 25 48 04 3d 41 78 07 bd 55 14 47 bd
       0.00034888124 0.032295365 -0.033073667 -0.048603375
0002b0 f6 89 ae 3c ba b9 da ba 67 d7 1f bd df e2 35 bd
       0.02130602 -0.0016687431 -0.039023783 -0.044405814
0002c0 b6 7b 94 3c de 74 36 3c 11 29 09 bc e9 d3 4e bc
       0.018125396 0.011136262 -0.008371607 -0.0126237655
0002d0 1d 12 1e 3d 3a 4a 11 bd dd 13 b6 bc 32 03 2f bc
       0.038591493 -0.03547118 -0.022226268 -0.010681914
0002e0 e8 45 11 bc 0d 3f 3b bd bb e9 d7 bc 97 53 70 3c
       -0.008866765 -0.045714427 -0.026356569 0.014668367
0002f0 16 11 7c 3c 1d 9f fe 3a 90 ce 22 3d b1 66 14 3d
       0.015384933 0.0019426082 0.039747775 0.036230747
000300 8e d0 83 3c 1d 6a 81 bc ec cd a7 bb 23 5a fb 3c
       0.016090658 -0.015797669 -0.0051209833 0.030682629
000310 96 70 b4 bc d9 1e 29 3d 41 4c c5 ba e6 4e bf bc
       -0.022026341 0.041289184 -0.0015052633 -0.023353051
000320 4e a2 20 bd 33 07 17 bd 4d 22 b1 bc 21 59 b1 bc
       -0.039217286 -0.0368721 -0.021622801 -0.021648945
000330 5f cf aa 3c 15 67 9e bc c8 b8 0a 3d 59 1b d7 3b
       0.020850835 -0.019336263 0.033867627 0.0065645394
000340 09 fb 6f bb 9f 7e 4c 3c 29 06 cf 3c 04 5f 6b bb
       -0.0036618134 0.012481361 0.025271492 -0.0035914788
000350 bc 23 10 bc 68 74 81 bc d9 66 56 3d 61 ba 37 bb
       -0.008797582 -0.015802577 0.052344177 -0.0028034674
000360 d7 29 87 3c 95 e4 73 3d 3c 65 58 3d fe a5 0b bc
       0.016499443 0.059544165 0.05283092 -0.008523462
000370 4a dd 1d bb 24 bf 23 bb 54 19 e3 b8 4f cc c1 ba
       -0.0024088197 -0.0024985755 -0.00010828921 -0.001478562
000380 4c 96 c3 bc 34 01 8d bb bb da 4e bd 25 a0 9e 3c
       -0.023875378 -0.004303122 -0.050501566 0.019363472
000390 f8 b0 1c bd b6 81 07 bb 2a 70 e0 3c d5 f9 94 3d
       -0.038254708 -0.002067668 0.027397234 0.07274214
0003a0 92 12 45 bc 3b 4a 56 3d fb 34 75 bc f4 67 d9 bc
       -0.012028353 0.052316885 -0.014966245 -0.026538827
0003b0 ba af ce 3c ec a7 07 b9 87 4a 73 3b 09 0d 8f bd
       0.025230277 -0.00012937159 0.003712328 -0.06984908
0003c0 e2 98 aa 3c 9d b6 5a 3b b3 10 14 3c 75 1e 34 bd
       0.020824853 0.0033373006 0.0090371845 -0.04397436
0003d0 8c 89 1f bc 55 a1 59 bd dd 44 cd bc 42 8c da bc
       -0.009737384 -0.053132374 -0.02505725 -0.026678208
0003e0 ef 37 93 bb ee 72 c4 bc 4e 93 89 bb cb e3 e8 bc
       -0.004492752 -0.023980584 -0.0041984683 -0.028428933
0003f0 ad 9a 6c bd b6 f2 44 3c 42 d6 35 3c 26 df 43 3c
       -0.057764698 0.012020757 0.011098446 0.011955058

fs_lr_fs_lr_W f4 [89, 1]
000000 24 5f 0c be 1a d4 60 bd 32 ce f9 3d bd e7 8e 3c
       -0.13708168 -0.054889776 0.12197532 0.017444486
000010 50 85 68 be 15 83 91 bd f3 62 de 3d ef 94 ba 3c
       -0.22707105 -0.0710508 0.10858717 0.022776095
000020 82 4f 7c 3c 15 3a 34 bd 44 38 60 3d ad 50 4a 3d
       0.0153998155 -0.044000704 0.05474116 0.049393345
000030 2c 78 c3 3d db 96 b1 3d 38 77 b7 3d 2b 1f 7e bd
       0.09544405 0.086713515 0.08958286 -0.062041443
000040 bc 47 db bd 44 c2 a1 bb 7f 6a fc bd ed 6e 8d b8
       -0.107070416 -0.0049364883 -0.12325 -6.7440655e-05
000050 e9 d8 6c bc 93 1c 79 3d 30 f8 16 bd 26 ce ad 3c
       -0.014456012 0.060818266 -0.036857784 0.021216463
000060 81 1b 18 3e 02 19 06 3d b8 ca 61 3c d9 26 ae 3d
       0.14854242 0.032738693 0.013781242 0.08503503
000070 e4 c9 99 bd 9b 8f a9 bd 54 d1 ad bd 15 db bc 3c
       -0.07509211 -0.08279344 -0.08487192 0.023053685
000080 9f 4a a7 3d 10 4b a0 3d 20 03 af 3b a8 53 44 bd
       0.0816853 0.07826817 0.0053409487 -0.047931343
000090 93 1f 2a bd ed 93 51 bc e3 93 b4 3d ea 33 41 3e
       -0.041534018 -0.012791616 0.0881727 0.1886746
0000a0 76 13 bd bd ef f4 8f bc 18 b9 a2 bd c7 90 48 bc
       -0.092322275 -0.017572848 -0.0794546 -0.012241549
0000b0 d3 15 4d 3d d3 53 87 bd 7a 52 4e 3d f3 1a 19 3e
       0.05006964 -0.06607785 0.050371625 0.14951687
0000c0 36 fc 52 3e e8 e6 e0 bd 0e 9c be bc ca 46 0f 3d
       0.20604023 -0.10981542 -0.023267772 0.03497962
0000d0 69 db cb 3d 85 8f 31 39 9c 13 4a 3c 52 d1 b4 bd
       0.099539585 0.000169335 0.012333777 -0.08828987
0000e0 e2 28 fe bc ba 51 f7 bd bd 8b 0d be ee aa c3 bd
       -0.031025354 -0.12076135 -0.13822837 -0.095540866
0000f0 5e 1c f8 3c 35 27 cc 3d dd f2 37 3d f1 d7 24 3e
       0.030286964 0.09968416 0.044909347 0.16098
000100 98 f0 79 3d 3f 03 d1 3d 17 20 24 be 77 31 12 3d
       0.061020464 0.10205697 -0.16027866 0.035691705
000110 7f 24 fa b8 61 e8 24 3e e5 0f 83 bc 7b ea e6 3d
       -0.00011927727 0.1610427 -0.01599879 0.11275192
000120 e9 39 9d bc b6 8c 2e be f1 2b 7f 3d a8 8e 10 be
       -0.019192653 -0.17045864 0.062297765 -0.14116919
000130 11 39 0b 3e b3 ad c0 bd 8b 5c 69 bd dd 25 58 bd
       0.13595988 -0.094081305 -0.05697302 -0.052770484
000140 03 75 89 3e f9 df b5 bd 59 8f 9f bd c5 c5 88 3d
       0.26847085 -0.0888061 -0.07791013 0.066783465
000150 46 1e 9a 3c 8b ee a8 bc 21 85 3e bd 96 a6 8d bb
       0.018813264 -0.020621559 -0.04651368 -0.004322837
000160 96 a1 f5 bd
       -0.11993711

fs_svc_W2_fs_svc f4 [89, 1]
000000 ff 31 c1 bd 16 47 ab bc 4e f2 69 3d a9 2c 27 3b
       -0.09433364 -0.02090792 0.057115845 0.0025508797
000010 0d f6 00 be a9 7c 5f bd cd db 44 3d 6c d2 fb 3c
       -0.12593861 -0.054562245 0.04806118 0.030739985
000020 78 43 2e 3c 18 41 5c 3b c4 e8 5b 3d 47 5b 01 bb
       0.010636203 0.0033608135 0.05368878 -0.0019738243
000030 87 69 90 3d 53 c3 85 3d 27 08 c0 3d 51 4a 6b 3a
       0.07051378 0.06531396 0.09376555 0.00089756126
000040 87 78 a0 bd a5 50 6e 3b 05 de b8 bd 3a 2a c8 3c
       -0.07835489 0.0036363986 -0.09026722 0.024434198
000050 43 72 0b bd c3 a0 58 3c 2a e2 cf bb fd 13 f7 3c
       -0.034044515 0.013221922 -0.0063440995 0.030160898
000060 fd da cf 3d 56 bf c9 3c 29 ea 22 3d 7c a6 81 3d
       0.101491906 0.024627369 0.039774094 0.063305825
000070 49 1c 20 bd 04 d1 1d bd 64 34 85 bd 2d 98 2a 3c
       -0.039089475 -0.03852941 -0.06504133 0.010412258
000080 ba b4 72 3d 7f ef 4b 3d c3 ff 7f bb b4 4e 63 bd
       0.059254386 0.04978895 -0.0039062358 -0.05549498
000090 2a 53 e2 bb ab f5 8b bc 7f 0c 55 3d 4c 6d e7 3d
       -0.0069068866 -0.017084917 0.05201387 0.113001436
0000a0 85 6d 19 bd 41 31 15 bd f3 ca 79 bd bf 18 12 bd
       -0.03745796 -0.036423925 -0.060984563 -0.03566813
0000b0 05 48 a4 3c 00 1d 78 bd 96 23 e3 3c cf 41 b8 3d
       0.020053873 -0.06057453 0.02772693 0.08996927
0000c0 fe 98 11 3e a5 2c 95 bd c5 a6 fe bc a6 b9 67 3d
       0.14218518 -0.07283906 -0.031085381 0.056573533
0000d0 21 73 8e 3d 27 b5 fd 3c 57 6a 7f bb 06 0f 98 bd
       0.06955553 0.03097017 -0.0038973296 -0.074247405
0000e0 f0 df 6e 3c 10 fd a8 bd 20 08 be bd c0 5d c6 bc
       0.014579758 -0.08251393 -0.092788935 -0.024214625
0000f0 62 25 21 3d 29 68 50 3d 50 c9 a8 3c 92 82 0a 3e
       0.03934229 0.050880585 0.020603806 0.13526371
000100 a5 b1 49 3d 12 83 df 3d 4f 37 10 be f1 21 04 3c
       0.04924168 0.109136716 -0.14083599 0.008064733
000110 ad e2 1b bd d1 6e c9 3d 48 4c 7e bc b3 ab ad 3d
       -0.03805797 0.0983559 -0.015521117 0.08480015
000120 9c d4 a0 ba 0b f1 eb bd b9 a5 68 3d 51 20 e9 bd
       -0.0012270394 -0.11520585 0.05679867 -0.11383117
000130 99 bc ba 3d 5c c7 94 bd b2 0f 5d bd e8 da 81 bd
       0.091180034 -0.07264587 -0.053970046 -0.06340581
000140 0d 8e 2e 3e 72 46 7a bd 96 3e 6d bd c4 3c 99 3d
       0.17046376 -0.061102338 -0.057921015 0.07482293
000150 1b f7 2a 3d f8 3e 06 bd 75 db 22 bd 55 58 0a 3b
       0.041739564 -0.032774895 -0.03976007 0.002110978
000160 f5 9d cf bd
       -0.1013755

mfs_lr_mfs_lr_W f4 [82, 1]
000000 c7 f5 d9 bd fd 19 c2 bd 0e 2e 58 3d 51 76 c5 bc
       -0.106425814 -0.09477613 0.052778296 -0.02410427
000010 31 9b 86 bc d3 b0 d3 bd 1e 4e 76 bd da 6c ac bd
       -0.016431423 -0.10336461 -0.060133092 -0.08419199
000020 91 1c ff bc 82 45 b4 bc 63 a0 86 3d 81 00 a9 3d
       -0.031141551 -0.0220058 0.0657356 0.08252049
000030 ff 60 f9 bc d8 75 5b 3c 1a dd a9 bd 4d fd 96 bd
       -0.03044176 0.013394795 -0.08294125 -0.07372532
000040 5d 27 dc 3c 3c b8 0e 3d cf fd 0c bd 57 3e ae bc
       0.026874239 0.03484367 -0.03442174 -0.02126996
000050 1c cd 33 3c 47 82 6a 3c 52 54 cb 3d 24 a5 9d bd
       0.010974195 0.014313287 0.09928192 -0.07697514
000060 10 86 1c 3d 8c c4 3c bd 9d f5 27 bd ae 19 8e 3c
       0.03821379 -0.04608588 -0.04100572 0.01734623
000070 06 b8 49 bd c2 77 1a bc 38 c8 f9 3c 7d 00 a8 bc
       -0.049247764 -0.009427967 0.03049098 -0.020508045
000080 40 ca 8d 3d 22 66 93 bd a9 bf 4d bd db 70 71 bd
       0.06923342 -0.07197215 -0.05023161 -0.058945518
000090 f0 45 e6 bc 1d 24 c6 bb 2a e0 ed 3c 91 2d 8b bd
       -0.02810952 -0.0060467855 0.029037554 -0.067958005
0000a0 91 fd 12 3d 4e 12 a7 3d f8 75 03 3e 18 2d 74 bc
       0.03588635 0.08157788 0.1283797 -0.014903329
0000b0 9a bb 47 3d cc 1c 86 3d 46 15 e5 3c 66 80 2c bd
       0.048762895 0.06548461 0.027964246 -0.042114638
0000c0 40 b9 5e 3d d6 93 0e 3d bc e8 b4 bd c7 ee 5a bd
       0.054375887 0.034808956 -0.08833453 -0.053450372
0000d0 67 eb 18 3d e7 c3 71 bc 13 79 eb 3d b8 99 35 3d
       0.037333872 -0.014756179 0.114977024 0.04433605
0000e0 94 f8 77 3d e5 82 b0 3d b9 c6 d5 bd ca 02 06 bc
       0.060539797 0.08618716 -0.10438294 -0.008179376
0000f0 6e 78 30 bd 74 54 b5 3d 7c c4 35 bc 8c fe ae 3d
       -0.0430836 0.08853999 -0.011094209 0.08544645
000100 65 96 50 bd 83 14 72 3d 28 3f c1 3d 0d f9 46 3b
       -0.050924677 0.059101593 0.09435874 0.0030360848
000110 c6 60 9c bd 84 36 7a bd 8a a4 59 3d 8b 06 7a bd
       -0.076356456 -0.061087146 0.053135432 -0.061041396
000120 07 7b cc bc a0 08 fc 3a 7c ee 8c bd 20 51 0f bd
       -0.024961008 0.0019228645 -0.06881425 -0.034989476
000130 27 ef 98 bd 1b 25 2c 3d c6 ba 29 bc 41 91 10 bd
       -0.0746749 0.042027574 -0.010359472 -0.035294775
000140 82 87 14 bd 8e 44 b6 3c
       -0.036262043 0.022249486

mfs_svc_W2_mfs_svc f4 [82, 1]
000000 35 52 92 be 45 e0 5a be 3c c8 b4 3d f3 e5 b3 bc
       -0.28578344 -0.21374615 0.08827254 -0.021960234
000010 1b ea 42 3d 4c 3d 8b be 7f cb c4 bd 12 2d 94 be
       0.04758654 -0.27195203 -0.09609126 -0.28940636
000020 1c c1 9d 3d 13 74 8d 3d 07 bd 07 3e b9 5f 05 3e
       0.07702848 0.06906905 0.13255702 0.13024797
000030 18 f9 ac bd ea 77 51 3d 5e a6 0a be 3e d6 48 be
       -0.08445948 0.05113975 -0.13540027 -0.19612977
000040 27 e8 a2 3c ed 9d 5c bc b9 e8 81 bd 8c 94 91 bd
       0.01988609 -0.013465387 -0.063432164 -0.07108411
000050 29 98 15 3e 81 69 9b 3d 2d 30 76 3e 17 02 47 be
       0.14608826 0.07588483 0.24041815 -0.19434391
000060 67 8b 9a 3c 54 64 8b bc 72 bd e6 bd 01 ba 64 3d
       0.0188653 -0.017015614 -0.112666026 0.05584145
000070 80 02 54 bd 79 9c 0f 3d d9 81 50 3d 5f fc 6d bd
       -0.051760197 0.035061333 0.050905082 -0.058102008
000080 72 8f 25 3e 4d 4f 5e be 79 0e 3a bd 25 11 b1 bc
       0.16168001 -0.21709938 -0.04542396 -0.02161462
000090 ef 4d 98 3d cc 92 04 bc a5 86 03 3d fd 7b c1 bd
       0.0743674 -0.00809164 0.03211083 -0.09447477
0000a0 c6 b7 88 3c a8 97 17 3e b2 68 9f 3e f2 c8 a2 bd
       0.016689193 0.14803946 0.31134564 -0.079484835
0000b0 c1 5c 71 3b 64 8d bd 3d 1f 46 77 bc 4d dd b3 bd
       0.0036828967 0.09255484 -0.015092402 -0.08782444
0000c0 ad de 0e 3e 7c 12 f3 bb 73 c1 98 bd 5d 9e e2 bd
       0.13952132 -0.007417975 -0.074587725 -0.11065362
0000d0 90 e4 09 3d ee 4c 12 3d d4 fe 70 3e 5c f2 cb 3d
       0.03366524 0.035717897 0.23534709 0.09958336
0000e0 d9 96 34 3e 64 27 0c 3e b0 de 30 be ae 5e 45 3d
       0.17635669 0.13686901 -0.17272449 0.048185997
0000f0 ef b0 5a 3d 38 d2 2d 3e 16 72 7b bd 83 54 da 3d
       0.053391393 0.16974723 -0.061388098 0.106606506
000100 a7 e7 f8 bd c0 a8 09 3e 8a 1e 09 3e 24 ac da 3c
       -0.12153559 0.1344328 0.13390556 0.026693411
000110 bc 0d 0d be 51 4a 9f bd 3b be 0f 3e 4e f8 cc bd
       -0.1377477 -0.077778466 0.14037411 -0.10008298
000120 ec ef 15 bd 62 83 88 bd f9 37 39 be a2 d0 fb bd
       -0.03660576 -0.06665684 -0.18087758 -0.12295653
000130 31 e5 19 be 5a 94 86 bd 50 c2 76 3c 08 97 3d bd
       -0.15028836 -0.065712646 0.015060976 -0.046286613
000140 68 6b 83 bc e3 21 76 3c
       -0.016042426 0.015022728

lv_lr_lv_lr_W f4 [51, 1]
000000 86 74 48 3d 1c 69 cf 3d 92 e4 a7 bc 6a 22 40 3c
       0.04893925 0.1012747 -0.020494733 0.011726955
000010 38 df 21 3d 35 d6 a6 3c a0 ee a2 3d 5b 3d 4d bd
       0.03951952 0.020365814 0.0795567 -0.05010734
000020 23 10 a6 bb 13 d4 cd bc 96 90 ad bc 3d 67 ac 3d
       -0.0050678416 -0.025125539 -0.021187108 0.08418129
000030 0f 7a 49 3d d3 35 30 3d 79 29 8a bd f3 75 6c bc
       0.04918867 0.04302008 -0.067461915 -0.014432418
000040 0f 08 50 3d 9f 84 16 bc 91 c3 4f 3d 0d 78 7a bd
       0.050788935 -0.009186893 0.050723616 -0.061149646
000050 ef 44 90 3d 90 77 65 3d 1e 55 29 b8 66 ed 4d 3d
       0.07044398 0.056022227 -4.037201e-05 0.05027523
000060 6a e1 94 bc 72 7c f9 3c 33 a3 93 bc 62 67 cf bd
       -0.018173892 0.030454848 -0.018022155 -0.101271406
000070 e6 a9 02 3e d4 42 e3 3d 39 90 ca bd 42 9a e5 bd
       0.12760124 0.11096731 -0.098907895 -0.11211063
000080 a3 b5 6e bb ab 45 37 bd f9 f3 fd bd 1f 39 c9 3d
       -0.0036424182 -0.044744175 -0.1240005 0.09825348
000090 57 7b 35 3d ba 51 4c 3d 03 77 c3 3c 58 95 0f bd
       0.04430708 0.049882628 0.02386046 -0.035054535
0000a0 f0 59 9c 3c 97 a4 c9 3d 3f 9e ed 3b 31 3c 4a bd
       0.019085854 0.09845846 0.0072515304 -0.04937381
0000b0 fb c6 84 3d 83 f8 8f bc 38 93 f2 3d e5 19 89 bd
       0.06483265 -0.017574554 0.11844486 -0.06694392
0000c0 26 91 d1 bd 2a 38 5a 3c 05 64 d9 bd
       -0.10232763 0.013319055 -0.1061478

lv_svc_W2_lv_svc f4 [51, 1]
000000 72 d3 98 3c 35 08 84 3d 48 53 24 bc be 52 34 3c
       0.018655512 0.06446878 -0.010029621 0.011006055
000010 4f 6f 5c 3c 9f 87 a9 3b c4 66 48 3d 22 f2 a0 bc
       0.013454272 0.005173638 0.04892613 -0.019646708
000020 a1 a7 87 bc 41 15 c0 bb 6e e4 8b ba 07 09 47 3d
       -0.016559424 -0.0058619087 -0.0010672936 0.048592594
000030 1c f2 c7 3c 38 15 ed 3c af 10 b0 bc 78 d5 a4 bb
       0.024407439 0.028940782 -0.02149233 -0.0050303303
000040 5f 28 07 3d 74 07 82 3a ed fd 4c 3c c3 b7 ff bc
       0.032997485 0.0009920434 0.0125117125 -0.031215554
000050 de 8f 09 3d 5e 5a a1 3c 3b a5 a7 bc fd e7 09 3d
       0.033584468 0.01969641 -0.02046453 0.033668507
000060 2c 08 bf bc 4f e4 80 3a a3 e1 84 bc 7b 10 5f bd
       -0.023319326 0.0009833666 -0.016220873 -0.054459076
000070 be 84 b2 3d 4a bb 92 3d 59 f6 5a bd ef ba 55 bd
       0.08716725 0.07164629 -0.05345759 -0.052180227
000080 f7 8f dc bb a0 12 d9 bc f5 4c 92 bd e1 76 2e 3d
       -0.006731029 -0.026498139 -0.07143585 0.04259384
000090 7b 9a 20 3d fa db d4 3c f9 4d 93 3c 11 09 70 bc
       0.039209824 0.0259838 0.017981516 -0.014650599
0000a0 53 c9 22 bc da 3b 38 3d 13 5d cf bb c1 8a bd bc
       -0.009935695 0.044978954 -0.006328234 -0.023137452
0000b0 04 14 31 3d 91 c3 be bb 50 5c 34 3d 50 fd 4f bd
       0.04323198 -0.005821653 0.04403335 -0.050778687
0000c0 7c ba 3f bd bb d2 41 3c 23 9c 49 bd
       -0.046808705 0.011830027 -0.04922117

lv_mlp_net.0.weight f4 [19, 51]
000000 91 aa 88 be 5a a9 b0 be 87 98 02 be 1c 43 77 be
       -0.26692632 -0.34504205 -0.12753497 -0.24146694
000010 25 3d 7b 3d 8e 62 1b be 11 1f 42 bc 2d d0 96 3e
       0.06133761 -0.15174314 -0.011848227 0.294557
000020 e9 a7 58 bd de 94 cc 3c 3c 32 cd 3d 3f 6d 78 be
       -0.052894507 0.02497333 0.10019347 -0.24260424
000030 01 7f 21 3e 5e f8 75 3c b2 72 9e 3d a2 4b 3f be
       0.15771104 0.015012829 0.0773672 -0.18681195
000040 88 45 6a be 30 88 93 3e fc e1 97 be 39 73 46 3d
       -0.22878087 0.2881484 -0.296646 0.04844973
000050 3b 48 a2 bc 7e 86 05 be 96 c5 b4 3e 74 fc 63 3e
       -0.019809833 -0.13039586 0.35306996 0.22264272
000060 ca fb ba 3d c6 ec 20 3e b0 60 8c 3d 0f b9 84 3d
       0.09130056 0.15715322 0.06854379 0.064806096
000070 39 51 53 be 73 10 23 bd d6 65 c1 3d b7 67 da 3e
       -0.20636453 -0.03981061 0.09443252 0.42657253
000080 ac 17 04 3d 05 df 89 bd 15 6c 3a be 19 4b 1b 3e
       0.032249138 -0.06731991 -0.18205293 0.15165366
000090 05 c1 11 be 7c 77 9a be be e4 d5 be fc a3 8d 3d
       -0.14233787 -0.30169284 -0.4177608 0.06916043
0000a0 8f dc 8d 3d 3a bf b3 be 77 b1 7e 3e e9 e0 b3 3d
       0.06926834 -0.35106832 0.24872385 0.087831326
0000b0 bc 2b 88 3d a1 a6 6b be 92 95 23 3d e4 3f c8 3c
       0.06648967 -0.23012783 0.039937563 0.024444528
0000c0 7c c9 cb 3d 98 cc 96 bd d2 79 3c 3e 21 c3 9b 3d
       0.099505395 -0.07363242 0.18405846 0.07605577
0000d0 94 3d ec bd c8 04 37 3e d9 36 0b 3c b8 f4 1c 3e
       -0.115351826 0.17872918 0.008496963 0.15327728
0000e0 ab d5 b3 bd 35 33 28 3b 44 d9 17 be 44 ae 46 3d
       -0.08780988 0.0025665287 -0.14828974 0.048506036
0000f0 20 f5 d4 bd 98 9e 1e be bf bc 5e bd 9b e3 af bd
       -0.103983164 -0.15490186 -0.05437922 -0.08588334
000100 2c d1 64 be 3b b8 9d 3d 03 72 1e bd 5a e1 ca bd
       -0.22345418 0.07701155 -0.03868295 -0.09906264
000110 1c 12 b6 3d 14 4d 81 bd f1 5b 4b 3e 75 ae 85 3e
       0.08890173 -0.063135296 0.19859292 0.26109663
000120 55 99 c3 3d 50 58 ac 3d 82 bf 07 be 51 31 c7 3e
       0.0955073 0.08415282 -0.13256648 0.38904813
000130 be 6a 2e be eb 86 aa 3c 7d 13 a5 3d c0 6c d3 bd
       -0.17032906 0.020816287 0.08060358 -0.10323477
000140 78 1c 0a 3c 3e b7 3a 3c 15 89 bf bc c5 3c 4d 3e
       0.008429639 0.011396227 -0.023380795 0.20042713
000150 46 3f a6 bd 79 6d 68 bd d4 23 23 bd 0d f9 a9 3d
       -0.08117537 -0.056745026 -0.03982909 0.08299456
000160 a9 ac 04 3d 7f d7 40 3e 5b 9d 1f 3e 56 e0 57 3d
       0.032391224 0.18832205 0.1558737 0.052704178
000170 4a 5c 3f be 76 e5 4f 3d 22 4d b6 bc 9f 04 c8 bd
       -0.18687549 0.05075594 -0.022253577 -0.097665064
000180 ad 17 9b bd 25 77 5d be 4d 04 ab 3e b6 dc 74 3e
       -0.07572875 -0.21627481 0.3340172 0.2391232
000190 43 2e e5 3d de 93 87 3e f2 43 30 bc 81 86 c8 3c
       0.11190464 0.2648 -0.010758387 0.024478199
0001a0 bf dc 69 bd 60 26 0c 3d a6 1e 4f 3d bc 36 c9 bb
       -0.057095286 0.034216285 0.050566338 -0.006140558
0001b0 90 07 44 3c 5e ea 24 3d 7f c5 d8 bd 75 6c 18 3d
       0.011964694 0.040262572 -0.105845444 0.037212808
0001c0 03 08 a8 bc 97 c2 81 bc 30 a5 b6 3d 11 82 ee bc
       -0.020511633 -0.015839858 0.08918226 -0.029114755
0001d0 e8 53 94 bc 31 03 be bd 5c 05 9c 3e d8 4e ff bd
       -0.018106416 -0.092779525 0.3047284 -0.1246621
0001e0 e5 4d b7 3d 99 0e 36 be 8f ad ef 3d 17 86 cc 3d
       0.08950404 -0.17779006 0.117030255 0.09986513
0001f0 d8 1d 82 3d 95 a7 00 be 4d 6f 7e bd 57 b2 a4 3d
       0.063533485 -0.12563927 -0.062117863 0.08041828
000200 a0 0c 89 bd a5 de 2d be 32 e5 a9 3d be bb 38 3d
       -0.06691861 -0.16979463 0.08295669 0.04510092
000210 51 00 f0 bd e2 52 d8 bc 4b 86 8e bd a1 35 6d bd
       -0.1171881 -0.02640671 -0.06959208 -0.057912473
000220 62 b8 5e bd c2 c5 01 3e 3e fd f5 bb ab 4b bf 3b
       -0.05437506 0.12673095 -0.0075069955 0.0058378777
000230 6e c2 c0 bd eb 90 d1 3d bd 8c a5 bd aa 98 1b 3e
       -0.094120845 0.10232719 -0.08083484 0.15194955
000240 e0 ea 10 3d ae e5 e4 bc 5b 73 a2 bd 9e 29 0a 3c
       0.035380244 -0.027941551 -0.079321586 0.008432774
000250 99 d6 9f 3d 11 a2 be 3d 31 d5 08 be 72 73 1e 3e
       0.07804603 0.093082555 -0.13362576 0.15473726
000260 13 79 2d be d9 c3 fe 3d 75 69 eb bd 8c 15 f8 bd
       -0.16940717 0.12439699 -0.11494724 -0.12113485
000270 71 3b 24 3e 43 1c 10 3e 47 3d 0a be db 57 82 be
       0.160383 0.14073281 -0.13499938 -0.25457653
000280 39 08 37 3e b8 81 bf 3d 27 dd a1 3c ba 20 e3 3d
       0.1787423 0.09350914 0.019758774 0.110902265
000290 45 d2 60 bc f3 54 01 be 15 6b 08 bc b6 ad 67 3c
       -0.013722007 -0.12630062 -0.008326312 0.014140537
0002a0 93 84 6d 3e 08 19 99 3d af 68 14 3e f4 01 98 3d
       0.23195104 0.074754775 0.14493059 0.074222475
0002b0 4d 64 31 3c 57 a8 b9 be 65 b5 df bc 3e 74 4e be
       0.010827136 -0.36261246 -0.027308175 -0.2016153
0002c0 40 19 ac be 82 ea 1e be 60 71 3d be 3b b3 24 be
       -0.33613014 -0.15519145 -0.1850028 -0.16083996
0002d0 1b 67 06 3e 57 56 79 be 5f 99 e3 bd ba 49 2c 3e
       0.13125269 -0.24349342 -0.111132376 0.16825
0002e0 b6 86 77 bd 97 6a 36 be 17 48 b0 3e 32 5e ea 3e
       -0.060431205 -0.17814098 0.3443 0.4577499
0002f0 c5 c9 65 be 49 f7 62 be de 5e 1a bc 45 f9 6f be
       -0.2244025 -0.22164644 -0.009422032 -0.23434933
000300 a0 08 73 3d f2 a2 72 3e f2 80 34 be c5 a2 3b bd
       0.059334397 0.23694971 -0.17627314 -0.045809526
000310 cb b5 c3 3d 2f 04 8a bd 10 89 10 3e e5 5e 5f be
       0.09556159 -0.06739079 0.14114785 -0.21813543
000320 4e 99 80 3e ed 95 1d 3e 41 ab bb 3e a9 56 14 3d
       0.25116962 0.15389223 0.36654094 0.036215458
000330 85 36 77 3e 58 e5 34 3c 1a 9e 60 bd e7 3e 49 be
       0.24141891 0.011041008 -0.054838277 -0.19652902
000340 4d 07 ed 3d f0 4c 6d bd 32 41 c3 bc b1 65 91 bd
       0.11573658 -0.0579347 -0.023834798 -0.07099474
000350 2e 0d 6e 3c c4 c5 25 3d 40 8c d8 bd 92 5d 52 3d
       0.0145295095 0.040471807 -0.105736256 0.051358767
000360 a0 7a 37 3e 0c 9c 36 3c 99 ca 14 bc 88 22 71 3c
       0.17917871 0.011145603 -0.009081506 0.014717706
000370 01 7c b9 bc 4c ca c0 3c ca b4 2a 3e 68 a9 86 3c
       -0.022642137 0.023533963 0.16670528 0.016438201
000380 31 8d 21 3d 4b 26 b3 3d ed cf e5 3c 69 0d 18 be
       0.03944129 0.08747538 0.028053248 -0.14848866
000390 c2 76 3b bc 7a e8 8a 3e 42 4a aa 3d 8f 97 f6 3d
       -0.011441888 0.2713049 0.08314945 0.12040626
0003a0 2a a8 d3 b9 c8 90 78 3d c8 da ba bd ec 22 a1 be
       -0.00040370348 0.06068495 -0.091237605 -0.31471956
0003b0 c8 d3 57 3d 5e f1 80 bc 3d de 14 be 42 ba 29 3e
       0.052692205 -0.015740093 -0.14537902 0.16574958
0003c0 a2 d9 bb 3d 93 f3 c8 3d 8f fb 86 bc 54 b4 02 3d
       0.091723695 0.09812083 -0.016477374 0.031910256
0003d0 ed 51 68 3d b5 c0 9f 3d 82 b2 82 bd a9 94 18 be
       0.056718756 0.07800428 -0.06381704 -0.1490046
0003e0 d1 42 be 3d a0 c3 bd bd 89 1f 6b 3e 81 e4 0a 3d
       0.09290088 -0.09265828 0.22961248 0.033909325
0003f0 7f 00 eb 3c c1 1d 44 be d4 3e 61 be b3 6d ce bc
       0.02868676 -0.19151975 -0.21996623 -0.025198793

lv_mlp_net.0.bias f4 [19]
000000 03 f2 a6 3e ed 47 65 3e c4 c0 d0 bd 2e 0e df 3e
       0.32606515 0.22390719 -0.10193017 0.43565506
000010 9a 68 a9 be 9c 97 76 be 36 e7 2b be b8 16 a4 be
       -0.33087617 -0.24081272 -0.16787419 -0.32048583
000020 d8 d3 46 bd 9b 5b 00 3f 72 af 17 be 71 3e 21 3f
       -0.048541874 0.5013978 -0.14813021 0.62985903
000030 1b a5 99 be 7a 57 cb 3e 65 42 94 be c9 93 a7 be
       -0.30008778 0.39715177 -0.28956905 -0.3272994
000040 47 6d b0 be 5d 9b df 3e 2d 26 bd be
       -0.34458372 0.4367322 -0.36943188

lv_mlp_net.3.weight f4 [1, 19]
000000 98 39 ca be 8c dc fb be 35 8a 2b 3e b8 1d bb be
       -0.39497066 -0.491917 0.1675194 -0.3654611
000010 05 bb d6 3d 86 88 4f 3e c3 94 43 3e 85 c5 27 3e
       0.1048489 0.20266923 0.19099717 0.16383941
000020 87 9f c8 3d 8f 8f a8 be b7 b3 1f 3e a0 1a e1 be
       0.097960524 -0.32922027 0.155959 -0.43965626
000030 1c 4a 00 3e 8d a3 f7 be 26 a8 dc 3d b8 92 90 3d
       0.1252827 -0.48366967 0.10774259 0.070592344
000040 80 15 1c 3e 51 5f d1 be 94 e8 58 3e
       0.15242577 -0.40893033 0.21182472
