model/checkpoints/sarathy2016/rdkit/model_000.onnx (onnx, 79593 bytes, 12 tensors)

lv_onnx::MatMul_4 f4 [194, 28]
0.0 0.0 0.0 0.0 0.0 0.0 0.0 0.0
-0.705296 0.0 0.0 0.0 0.0 0.0 0.0 0.0
0.0 0.0 0.0 0.0 0.0 0.0 0.0 0.0
0.0 0.705296 0.0 0.705296 0.0 0.0 0.0 0.705296
0.0 0.0 0.0 0.0 0.0 0.0 0.0 0.0
0.0 0.0 0.0 0.0 0.0 0.0 0.0 0.0
0.0 0.0 0.0 0.0 0.0 0.0 0.0 0.0
0.0 0.0 0.0 0.0 0.0 0.0 -0.705296 0.0
0.0 0.0 0.0 0.0 0.705296 0.0 0.0 0.0
-0.705296 0.0 0.0 0.0 0.0 0.0 0.0 0.0
0.0 0.0 0.0 0.0 0.0 0.0 0.0 0.0
0.0 0.0 0.0 0.0 0.0 0.0 0.0 0.705296
0.0 0.0 0.0 0.0 0.0 0.0 0.0 0.0
0.0 0.0 0.0 0.0 0.0 0.0 0.0 0.0
0.0 0.705296 0.0 0.0 0.0 0.0 0.0 0.0
0.0 0.0 0.0 0.0 0.0 0.0 0.0 0.0
0.0 0.0 0.0 0.0 0.0 0.0 0.0 0.0
0.0 -0.705296 0.0 0.0 0.0 0.0 0.0 0.0
0.0 0.0 0.0 0.0 0.0 0.0 0.0 0.0
0.0 0.0 0.0 0.0 0.0 0.0 0.0 0.0
0.0 0.0 0.0 0.0 0.705296 0.0 0.0 0.0
0.0 0.0 0.0 0.0 0.0 0.0 0.0 0.0
0.0 0.0 0.0 0.0 0.0 0.0 0.0 0.0
-0.705296 0.0 -0.705296 0.0 0.0 0.0 0.0 0.0
0.0 0.0 0.705296 0.0 0.0 0.0 0.0 0.0
0.0 0.0 0.0 0.0 -0.705296 0.0 0.0 0.0
0.0 0.0 0.0 0.0 0.0 0.0 0.0 0.0
0.0 0.0 0.0 0.0 0.0 0.0 0.0 0.0
0.0 0.0 0.0 0.0 0.0 0.0 0.0 0.0
0.0 0.0 0.0 0.0 0.0 0.0 -0.705296 0.0
0.0 0.0 0.0 0.0 0.0 0.0 0.0 0.0
0.705296 0.0 0.0 0.0 0.0 0.0 0.0 0.0
00000000: 0000 0000 0000 0000 0000 0000 0000 0000
00000010: 0000 0000 0000 0000 0000 0000 0000 0000
00000020: 478e 34bf 0000 0000 0000 0000 0000 0000
00000030: 0000 0000 0000 0000 0000 0000 0000 0000
00000040: 0000 0000 0000 0000 0000 0000 0000 0000
00000050: 0000 0000 0000 0000 0000 0000 0000 0000
00000060: 0000 0000 478e 343f 0000 0000 478e 343f
00000070: 0000 0000 0000 0000 0000 0000 478e 343f
00000080: 0000 0000 0000 0000 0000 0000 0000 0000
00000090: 0000 0000 0000 0000 0000 0000 0000 0000
000000a0: 0000 0000 0000 0000 0000 0000 0000 0000
000000b0: 0000 0000 0000 0000 0000 0000 0000 0000
000000c0: 0000 0000 0000 0000 0000 0000 0000 0000
000000d0: 0000 0000 0000 0000 0000 0000 0000 0000
000000e0: 0000 0000 0000 0000 0000 0000 0000 0000
000000f0: 0000 0000 0000 0000 478e 34bf 0000 0000
00000100: 0000 0000 0000 0000 0000 0000 0000 0000
00000110: 478e 343f 0000 0000 0000 0000 0000 0000
00000120: 478e 34bf 0000 0000 0000 0000 0000 0000
00000130: 0000 0000 0000 0000 0000 0000 0000 0000
00000140: 0000 0000 0000 0000 0000 0000 0000 0000
00000150: 0000 0000 0000 0000 0000 0000 0000 0000
00000160: 0000 0000 0000 0000 0000 0000 0000 0000
00000170: 0000 0000 0000 0000 0000 0000 478e 343f
00000180: 0000 0000 0000 0000 0000 0000 0000 0000
00000190: 0000 0000 0000 0000 0000 0000 0000 0000
000001a0: 0000 0000 0000 0000 0000 0000 0000 0000
000001b0: 0000 0000 0000 0000 0000 0000 0000 0000
000001c0: 0000 0000 478e 343f 0000 0000 0000 0000
000001d0: 0000 0000 0000 0000 0000 0000 0000 0000
000001e0: 0000 0000 0000 0000 0000 0000 0000 0000
000001f0: 0000 0000 0000 0000 0000 0000 0000 0000
00000200: 0000 0000 0000 0000 0000 0000 0000 0000
00000210: 0000 0000 0000 0000 0000 0000 0000 0000
00000220: 0000 0000 478e 34bf 0000 0000 0000 0000
00000230: 0000 0000 0000 0000 0000 0000 0000 0000
00000240: 0000 0000 0000 0000 0000 0000 0000 0000
00000250: 0000 0000 0000 0000 0000 0000 0000 0000
00000260: 0000 0000 0000 0000 0000 0000 0000 0000
00000270: 0000 0000 0000 0000 0000 0000 0000 0000
00000280: 0000 0000 0000 0000 0000 0000 0000 0000
00000290: 478e 343f 0000 0000 0000 0000 0000 0000
000002a0: 0000 0000 0000 0000 0000 0000 0000 0000
000002b0: 0000 0000 0000 0000 0000 0000 0000 0000
000002c0: 0000 0000 0000 0000 0000 0000 0000 0000
000002d0: 0000 0000 0000 0000 0000 0000 0000 0000
000002e0: 478e 34bf 0000 0000 478e 34bf 0000 0000
000002f0: 0000 0000 0000 0000 0000 0000 0000 0000
00000300: 0000 0000 0000 0000 478e 343f 0000 0000
00000310: 0000 0000 0000 0000 0000 0000 0000 0000
00000320: 0000 0000 0000 0000 0000 0000 0000 0000
00000330: 478e 34bf 0000 0000 0000 0000 0000 0000
00000340: 0000 0000 0000 0000 0000 0000 0000 0000
00000350: 0000 0000 0000 0000 0000 0000 0000 0000
00000360: 0000 0000 0000 0000 0000 0000 0000 0000
00000370: 0000 0000 0000 0000 0000 0000 0000 0000
00000380: 0000 0000 0000 0000 0000 0000 0000 0000
00000390: 0000 0000 0000 0000 0000 0000 0000 0000
000003a0: 0000 0000 0000 0000 0000 0000 0000 0000
000003b0: 0000 0000 0000 0000 478e 34bf 0000 0000
000003c0: 0000 0000 0000 0000 0000 0000 0000 0000
000003d0: 0000 0000 0000 0000 0000 0000 0000 0000
000003e0: 478e 343f 0000 0000 0000 0000 0000 0000
000003f0: 0000 0000 0000 0000 0000 0000 0000 0000

lr_lr_W f4 [194, 1]
-0.059159055 -0.01801268 0.004928749 -0.06344044 -0.009439076 -0.014940947 -0.00073181343 -0.041179616
0.04696497 0.07871021 -0.05041824 -0.038961068 -0.031268217 -0.031928174 -0.051384777 -0.0417455
-0.027810978 -0.03228268 -0.012943421 -0.043620065 -0.020210093 -0.041736968 -0.0069949552 -0.0095023895
-0.009732639 -0.021588717 0.038177684 -0.002790305 -0.02919727 -0.032578092 0.072114475 -0.07268367
-0.048244182 -0.0042539365 -0.045974445 0.038877092 -0.0062331394 -0.031313326 0.079018325 0.05197893
-0.047243353 -0.04926711 -0.045811214 -0.028246459 -0.030768318 -0.00753026 -0.047088325 0.019934312
-0.025278319 0.019934312 -0.0029422196 -0.062416025 0.010228255 -0.020830099 0.009646836 -0.12069608
-0.04762679 -0.046026178 0.013074377 0.056768134 0.029319555 -0.013221265 -0.001710483 -0.008977688
-0.060449444 -0.05084574 -0.082713015 -0.0025338412 -0.000464122 0.02244079 0.015927771 0.010865597
-0.058545034 0.017922562 -0.007029178 -0.060422968 0.015020284 -0.009829987 -0.022231158 -0.033991344
-0.036588173 0.015274521 -0.04790132 0.0018378706 -0.090746075 0.10692572 -0.010106187 -0.054357115
0.0150772035 0.010822876 -0.027822413 -0.05801411 -0.029417401 0.030765353 -0.030907653 -0.011859953
-0.0781008 0.0019240144 -0.04448016 -0.023217648 0.03243434 -0.019121619 0.004913096 0.036068883
-0.07635399 -0.055049665 0.011700377 -0.00520131 -0.05252627 0.003362934 -0.06290297 0.061384697
0.014769852 0.062382072 0.013368406 -0.0998754 0.0030539518 -0.085715465 0.049168725 -0.005777494
-0.02541083 -0.030378431 0.021891588 -0.018400488 0.029023735 -0.06961861 0.006259554 0.06152417
-0.07530299 0.014474729 0.0018424687 0.0040237703 0.015457429 0.027426403 0.0087804 -0.015609384
0.006295079 0.03144095 0.03144095 0.0039046085 -0.007686036 0.03253521 0.06091958 -0.029963208
0.025500014 0.011005382 -0.0049061547 0.012197105 0.0013869444 -0.015609384 -0.073469855 0.031296242
-0.008977688 -0.029963208 -0.016246697 0.054161992 -0.03889571 -0.05952751 -0.017401207 -0.018818714
-0.012232804 -0.035507683 -0.0689873 0.08199537 -0.000464122 -0.038845282 -0.04367731 -0.010569405
-0.027212838 -0.0069929534 0.037643522 0.017214086 0.040782385 -0.023217648 -0.0005240789 -0.05107003
-0.006934773 -0.0040718596 0.009964542 -0.016277814 -0.038879525 0.022273319 -0.068002224 -0.052100018
-0.02209437 0.07521507 0.040908035 -0.014075484 0.05653703 -0.046446647 -0.033022422 -0.008260294
-0.04316158 0.0065608784
00000000: c450 72bd 548f 93bc 5881 a13b 10ed 81bd
00000010: 5ba6 1abc e0ca 74bc 2bd7 3fba f5ab 28bd
00000020: 575e 403d d232 a13d 5b83 4ebd a495 1fbd
00000030: 1a13 00bd 1ec7 02bd d878 52bd 54fd 2abd
00000040: d9d3 e3bc d83a 04bd a410 54bc f4aa 32bd
00000050: a38f a5bc 62f4 2abd f035 e5bb e9af 1bbc
00000060: a675 1fbc d2da b0bc 3460 1c3d 8ddd 36bb
00000070: 1d2f efbc 9b70 05bd c1b0 933d 2ddb 94bd
00000080: b19b 45bd 9b64 8bbb b34f 3cbd 963d 1f3d
00000090: 5d3f ccbb 6742 00bd 5cd4 a13d dce7 543d
000000a0: 3f82 41bd 4fcc 49bd 8aa4 3bbd 1e65 e7bc
000000b0: d70d fcbc 66c0 f6bb b0df 40bd 484d a33c
000000c0: 7a14 cfbc 484d a33c 41d2 40bb f2a7 7fbd
000000d0: 6994 273c e2a3 aabc c30d 1e3c 822f f7bd
000000e0: 4f14 43bd f285 3cbd e935 563c b485 683d
000000f0: 902f f03c 019e 58bc 4932 e0ba 2717 13bc
00000100: d699 77bd 9f43 50bd 7165 a9bd cd0e 26bb
00000110: 6655 f3b9 bfd5 b73c f57a 823c 9e05 323c
00000120: ebcc 6fbd 56d2 923c 0555 e6bb 137e 77bd
00000130: a317 763c f40d 21bc 1e1e b6bc 823a 0bbd
00000140: 7bdd 15bd fc41 7a3c 2d34 44bd b4e4 f03a
00000150: 14d9 b9bd dffb da3d 6c94 25bc 91a5 5ebd
00000160: 6006 773c 6f52 313c d4eb e3bc 34a0 6dbd
00000170: c3fc f0bc 9f07 fc3c 0c32 fdbc 4050 42bc
00000180: 50f3 9fbd 362f fc3a d430 36bd f032 bebc
00000190: dfd9 043d f1a4 9cbc 09fe a03b f7bc 133d
000001a0: 7b5f 9cbd c27b 61bd f0b2 3f3c c06f aabb
000001b0: c925 57bd ac64 5c3b 46d3 80bd 856e 7b3d
000001c0: 40fd 713c 5884 7f3d 2907 5b3c 798b ccbd
000001d0: cf24 483b 978b afbd 2565 493d 2251 bdbb
000001e0: 5f2a d0bc 30dc f8bc fd55 b33c 9fbc 96bc
000001f0: 2fc3 ed3c 3494 8ebd f21c cd3b c500 7c3d
00000200: 7438 9abd 6a27 6d3c fe7e f13a d5d9 833b
00000210: 2841 7d3c 56ad e03c abdb 0f3c 80be 7fbc
00000220: f346 ce3b 3ac8 003d 3ac8 003d 76e4 7f3b
00000230: 25db fbbb a443 053d cf86 793d 6775 f5bc
00000240: 68e5 d03c eb4f 343c cfc3 a0bb 5ed6 473c
00000250: 22ca b53a 80be 7fbc 5d77 96bd 7d30 003d
00000260: 2717 13bc 6775 f5bc cb17 85bc f7d8 5d3d
00000270: 1c51 1fbd 1ed3 73bd fa8c 8ebc b429 9abc
00000280: 196c 48bc 8170 11bd 3749 8dbd 30ed a73d
00000290: 6655 f3b9 3b1c 1fbd fbe6 32bd 4c2b 2dbc
000002a0: 75ed debc 2525 e5bb 1830 1a3d 8e04 8d3c
000002b0: 6e0b 273d f032 bebc 5762 09ba cf2e 51bd
000002c0: 183d e3bb 3c6d 85bb 5242 233c 0d59 85bc
000002d0: 2340 1fbd 8976 b63c c044 8bbd d466 55bd
000002e0: 41ff b4bc 5c0a 9a3d 2f8f 273d dc9c 66bc
000002f0: 5f93 673d d73e 3ebd 8542 07bd 2f56 07bc
00000300: 32ca 30bd a3fc d63b

svc_W2_svc f4 [194, 1]
-0.029808398 -0.0055163726 0.018135501 -0.08505244 0.05577138 -0.06943432 -0.026761347 -0.093428105
0.031089744 0.12556274 -0.034440726 -0.03679454 -0.025919145 -0.027129844 -0.05407298 -0.04335296
-0.017093316 -0.027367005 0.006450709 -0.03883129 -0.0051671094 -0.03548983 0.022430554 -0.0116306
-0.011243108 -0.05137125 0.012852072 0.0304861 0.04467169 -0.063231274 0.10422846 -0.13952167
-0.057685237 -0.009608031 -0.053042118 0.041951835 -0.0681218 -0.07908956 0.17118911 0.03374199
-0.047414303 -0.057387486 -0.052239258 -0.028495789 -0.03706833 -0.0054469244 -0.047722008 0.015919562
-0.032540068 0.015919562 0.0196283 -0.107210726 0.040751357 -0.02354143 0.012434101 -0.1629186
-0.049603928 -0.053189464 -0.028509675 0.08308199 0.12503327 -0.025724903 0.020997416 -0.00334552
-0.0338165 -0.0895369 -0.09702726 0.02983416 0.012909329 0.0067177946 -0.023874722 0.023651235
-0.10498291 0.054275423 -0.020102778 -0.23006211 0.0560293 -0.038476873 -0.08480754 -0.09778456
-0.03620592 0.042318266 -0.1319789 -0.0024719539 -0.20804168 0.22203703 0.02529938 -0.10446281
-0.035956763 0.03717523 0.021873668 -0.060414135 -0.051921524 0.108265184 -0.064593084 -0.011817364
-0.075953975 0.010082131 -0.051880796 -0.022895897 0.045975965 -0.027208509 -0.02917468 0.047961086
-0.05625851 -0.070877194 0.04157338 -0.033435717 -0.07761108 0.02004822 -0.09714026 0.08857933
0.057015065 0.13885346 0.018921057 -0.1284842 0.026917456 -0.11845932 0.0467633 0.0039640465
-0.02673255 -0.061975177 0.031459264 -0.034872416 0.07923495 -0.06470487 0.000811956 0.08241503
-0.09608964 0.03832492 -0.057353433 -0.06866379 -0.010696115 0.019807631 0.017848022 -0.019712593
0.0065581454 0.03696776 0.03696776 0.023203548 0.009908631 0.101798 0.09640948 -0.065810785
0.065949224 0.012641414 -0.033136617 0.017236339 0.049387082 -0.019712593 -0.1388068 0.0700472
-0.00334552 -0.065810785 -0.045029614 0.050450075 -0.111269176 -0.028834274 0.030260235 -0.020951122
-0.05100238 -0.09529938 -0.09822877 0.18341544 0.012909329 -0.06969503 -0.09383383 -0.0043657455
-0.028439494 0.00075403176 0.09340726 0.12474939 0.0661408 -0.022895897 -0.0066581164 -0.09288382
-0.042053614 0.09004951 0.023755401 -0.036879316 -0.06322987 0.010631552 -0.19052565 -0.06598316
-0.038710527 0.06566911 0.046492558 -0.036913514 0.05482966 -0.056484804 -0.0199497 -0.020067168
-0.0823498 -0.10520022
00000000: be30 f4bc b0c2 b4bb e790 943c f92f aebd
00000010: 8870 643d 9533 8ebd 9d3a dbbc 3c57 bfbd
00000020: ebaf fe3c 8593 003e b811 0dbd dfb5 16bd
00000030: 6354 d4bc 683f debc a17b 5dbd e092 31bd
00000040: 4807 8cbc c530 e0bc 7860 d33b 8f0d 1fbd
00000050: db50 a9bb c95d 11bd 48c0 b73c 468e 3ebc
00000060: 0335 38bc a96a 52bd 7f91 523c fcbd f93c
00000070: a9f9 363d 667f 81bd bb75 d53d c5de 0ebe
00000080: 5b47 6cbd 016b 1dbc b142 59bd b0d5 2b3d
00000090: 7183 8bbd b5f9 a1bd 334c 2f3e 0a35 0a3d
000000a0: 8035 42bd 240f 6bbd d5f8 55bd 0070 e9bc
000000b0: f6d4 17bd 1d7c b2bb 2778 43bd be69 823c
000000c0: bc48 05bd be69 823c 87cb a03c 4c91 dbbd
000000d0: e5ea 263d f5d9 c0bc 66b8 4b3c 22d4 26be
000000e0: 7d2d 4bbd 32dd 59bd 1f8d e9bc e426 aa3d
000000f0: b908 003e 08bd d2bc c602 ac3c 8340 5bbb
00000100: 2c83 0abd 1f5f b7bd 3ab6 c6bd c566 f43c
00000110: a681 533c f220 dc3b ec94 c3bc 3cc0 c13c
00000120: 4801 d7bd e84f 5e3d 95ae a4bc 6795 6bbe
00000130: fb7e 653d ed99 1dbd 93af adbd 4543 c8bd
00000140: a94c 14bd eb55 2d3d 7a25 07be 8100 22bb
00000150: e108 55be ad5d 633e a540 cf3c 99f0 d5bd
00000160: 6647 13bd 0e45 183d 6830 b33c d074 77bd
00000170: aaab 54bd 23ba dd3d 6149 84bd 9e9d 41bc
00000180: c28d 9bbd 862f 253c f580 54bd 2d90 bbbc
00000190: 4b51 3c3d 61e4 debc bdff eebc d872 443d
000001a0: 536f 66bd 1028 91bd d948 2a3d e4f3 08bd
000001b0: 8ff2 9ebd 2a3c a43c 79f1 c6bd 1469 b53d
000001c0: a188 693d 9a2f 0e3e 5500 9b3c 5d91 03be
000001d0: ff81 dc3c cd9a f2bd e08a 3f3d d5e4 813b
000001e0: 38fe dabc afd9 7dbd 6edb 003d 61d6 0ebd
000001f0: ef45 a23d fd83 84bd 72d9 543a 36c9 a83d
00000200: a5ca c4bd 97fa 1c3d 6feb 6abd 9a9f 8cbd
00000210: c23e 2fbc 9d43 a23c 0436 923c 4e7c a1bc
00000220: b6e5 d63b 826b 173d 826b 173d 5e15 be3c
00000230: d057 223c 787b d03d 5572 c53d cec7 86bd
00000240: 6310 873d ef1d 4f3c 43ba 07bd 3933 8d3c
00000250: 1c4a 4a3d 4e7c a1bc 5f23 0ebe e874 8f3d
00000260: 8340 5bbb cec7 86bd f970 38bd bda4 4e3d
00000270: 18e1 e3bd db35 ecbc 50e4 f73c b0a1 abbc
00000280: dfe7 50bd 522c c3bd 2a2c c9bd 42d1 3b3e
00000290: a681 533c 45bc 8ebd f32b c0bd 870e 8fbb
000002a0: f1f9 e8bc 37aa 453a 4e4c bf3d 9c7c ff3d
000002b0: d474 873d 2d90 bbbc 542c dabb df39 bebd
000002c0: 6940 2cbd e16b b83d b09a c23c c40e 17bd
000002d0: a97e 81bd f62f 2e3c 2819 43be 2e22 87bd
000002e0: ee8e 1ebd 877d 863d fb6e 3e3d a032 17bd
000002f0: 1195 603d 9c5c 67bd 8e6d a3bc e763 a4bc
00000300: 03a7 a8bd 3773 d7bd

fs_lr_fs_lr_W f4 [78, 1]
-0.02799078 -0.03759947 0.02590602 -0.12337687 0.114543855 0.12636939 -0.0045980443 -0.009271801
0.0063427696 0.004679996 -0.040746015 -0.035418674 -0.0073999716 -0.010064963 0.02556873 -0.058326736
-0.013914511 -0.05625898 0.014727993 0.020677356 -0.07358109 -0.13785876 -0.08071707 -0.030789632
0.029142145 -0.060741797 0.14110494 0.0011349313 -0.028877722 -0.036632545 0.034849484 -0.00023112542
-0.028960003 0.011917067 -0.032348793 -0.26546454 -0.038035564 -0.030855117 0.03500461 -0.09353687
-0.016544728 -0.076367326 0.11756038 -0.08527956 0.026441114 -0.0017463502 -0.011750349 -0.10504859
-0.23630923 -0.106422365 -0.025023965 -0.13775584 -0.015025736 -0.05126449 0.00144713 -0.10744701
-0.08702254 -0.10377501 -0.10779366 -0.10478923 -0.15954524 -0.20390952 -0.16647118 -0.057200655
-0.14486663 -0.19929782 -0.012866227 0.03979346 0.042415414 0.042415414 -0.09330338 -0.19113737
-0.09209179 -0.02056995 -0.15928252 0.15137644 0.027225776 -0.09989962
00000000: ec4c e5bc e701 1abd dd38 d43c 03ad fcbd
00000010: f895 ea3d fa66 013e 31ab 96bb c1e8 17bc
00000020: 02d7 cf3b a75a 993b 4be5 26bd 2c13 11bd
00000030: 767b f2bb 84e7 24bc 8375 d13c 04e8 6ebd
00000040: b0f9 63bc d16f 66bd ae4d 713c 8f63 a93c
00000050: afb1 96bd d92a 0dbe fe4e a5bd 8a3a fcbc
00000060: 82bb ee3c 64cc 78bd d07d 103e fac1 943a
00000070: f990 ecbc 020c 16bd 55be 0e3d 425a 72b9
00000080: 873d edbc cd3f 433c 2b80 04bd f8ea 87be
00000090: 2ecb 1bbd dfc3 fcbc fe60 0f3d 4290 bfbd
000000a0: cf88 87bc 7966 9cbd 7fc3 f03d 0da7 aebd
000000b0: 099b d83c cae5 e4ba 8984 40bc b723 d7bd
000000c0: 0cfb 71be f8f3 d9bd 0fff ccbc de0f 0dbe
000000d0: 812e 76bc b7fa 51bd a0ad bd3a 2e0d dcbd
000000e0: e038 b2bd fe87 d4bd ecc2 dcbd bc9b d6bd
000000f0: d45f 23be a8cd 50be 6c77 2abe 3c4b 6abd
00000100: eb57 14be ba14 4cbe decc 52bc 78fe 223d
00000110: c9bb 2d3d c9bb 2d3d d815 bfbd 84b9 43be
00000120: 9f9a bcbd 5082 a8bc f51a 23be 6d02 1b3e
00000130: 9708 df3c 2c98 ccbd

fs_svc_W2_fs_svc f4 [78, 1]
-0.06778602 -0.035438202 0.006553026 -0.11072452 0.09588272 0.1280768 -0.022712389 -0.01444492
-0.0014076153 -0.0026472246 -0.039115038 -0.029718332 -0.0036164264 -0.009643809 0.024389366 -0.043881122
-0.0016720871 -0.042469203 0.017212946 -0.0006360341 -0.073962085 -0.11173387 -0.040397942 -0.029337086
0.02194356 -0.050039843 0.12589218 0.031317007 -0.030127114 -0.035021152 -0.067222096 -0.0008547874
-0.018610781 0.017107146 -0.03219043 -0.20740524 -0.0347631 -0.029425267 0.041736968 -0.08947429
-0.03228003 -0.0867204 0.075613506 -0.057725966 0.022770967 -0.015480026 -0.013618549 -0.08501725
-0.17250505 -0.08542298 -0.045031868 -0.09957358 -0.031219881 -0.026454747 0.010453887 -0.09546686
-0.06640854 -0.10983056 -0.07581706 -0.096076645 -0.13139416 -0.15431784 -0.10729254 -0.06022158
-0.11664553 -0.1604798 0.01442955 0.03545018 0.03790832 0.03790832 -0.034016706 -0.13327116
-0.08622127 -0.0007149156 -0.12761801 0.123837344 0.04991879 -0.07705397
00000000: 66d3 8abd a627 11bd c4ba d63b 8ac3 e2bd
00000010: 295e c43d 9126 033e 550f babc 63aa 6cbc
00000020: bb7f b8ba 0f7d 2dbb 1737 20bd dc73 f3bc
00000030: 9101 6dbb 1101 1ebc 35cc c73c b1bc 33bd
00000040: ef29 dbba 30f4 2dbd 2a02 8d3c 87bb 26ba
00000050: 6f79 97bd bad4 e4bd 5078 25bd 5454 f0bc
00000060: fbc2 b33c 94f6 4cbd e1e9 003e 4346 003d
00000070: 23cd f6bc 5772 0fbd bdab 89bd d013 60ba
00000080: a375 98bc 4924 8c3c 1dda 03bd 0a62 54be
00000090: c163 0ebd 420d f1bc 62f4 2a3d 4c3e b7bd
000000a0: 1138 04bd 779a b1bd 41db 9a3d 1072 6cbd
000000b0: 2e8a ba3c ef9f 7dbc 5620 5fbc 861d aebd
000000c0: 2aa5 30be 3ef2 aebd 5673 38bd 3ced cbbd
000000d0: d6c0 ffbc a0b7 d8bc c846 2b3c 2184 c3bd
000000e0: 3301 88bd d8ee e0bd fa45 9bbd d5c3 c4bd
000000f0: 318c 06be 7f05 1ebe 31bc dbbd e7aa 76bd
00000100: dae3 eebd d154 24be eb69 6c3c 3534 113d
00000110: c145 1b3d c145 1b3d 1a55 0bbd 3c78 08be
00000120: c794 b0bd 2c69 3bba 4cae 02be 6f9e fd3d
00000130: a577 4c3d 79ce 9dbd

mfs_lr_mfs_lr_W f4 [34, 1]
-0.09517645 -0.26930842 -0.0127400365 0.5143501 -0.024767337 -0.038197212 -0.1416703 0.082843825
0.09843423 0.08340938 -0.024450738 -0.03875356 -0.10609616 -0.3536398 0.13122934 -0.0008483146
-0.037515495 0.14493039 -0.073223956 -0.39464572 -0.0042691403 -0.71097106 0.1072382 -0.26808256
-0.3260501 0.33688107 -0.056231562 -0.4959578 -0.57063645 0.25488582 -0.39740986 -0.0811645
-0.32494965 0.095233336
00000000: dfeb c2bd cbe2 89be 96bb 50bc 73ac 033f
00000010: dfe4 cabc ae74 1cbd 0512 11be 06aa a93d
00000020: e397 c93d 89d2 aa3d ea4c c8bc 0ebc 1ebd
00000030: f248 d9bd 4710 b5be fc60 063e 6e61 5eba
00000040: d9a9 19bd a268 143e 71f6 95bd 010f cabe
00000050: 25e4 8bbb 3302 36bf b49f db3d 1e42 89be
00000060: 0af0 a6be ad7b ac3e 1153 66bd 2eee fdbe
00000070: 3b15 12bf 6580 823e 4e79 cbbe 9339 a6bd
00000080: cd5f a6be b209 c33d

mfs_svc_W2_mfs_svc f4 [34, 1]
-0.16582209 -0.1598976 0.066547856 0.25855643 -0.07736217 -0.03141537 -0.069810435 0.0044959364
0.015017127 0.002689205 -0.046064205 0.07407391 -0.057319865 -0.123540044 -0.13921918 0.0007090659
-0.0073659127 0.055782843 -0.056245323 -0.17601274 0.042975027 -0.36435091 -0.024827806 -0.09640633
-0.20570278 0.21470596 -0.17382589 -0.25913888 -0.2119005 0.1881825 -0.18718338 -0.12790658
-0.21455985 0.0014343455
00000000: 44cd 29be 32bc 23be 3e4a 883d 8261 843e
00000010: 0f70 9ebd 67ad 00bd c6f8 8ebd a652 933b
00000020: 650a 763c 603d 303b d2ad 3cbd 10b4 973d
00000030: 3cc8 6abd 9002 fdbd 798f 0ebe 9be0 393a
00000040: c15d f1bb 8d7c 643d 7f61 66bd af3c 34be
00000050: 9506 303d 348c babe af63 cbbc af70 c5bd
00000060: c0a3 52be e1db 5b3e 6aff 31be daad 84be
00000070: 72fc 58be eab2 403e 00ad 3fbe f1f9 02be
00000080: 94b5 5bbe a600 bc3a

lv_lr_lv_lr_W f4 [28, 1]
-0.08349132 -0.06201815 0.22306694 0.025997499 0.044593934 0.059259426 -0.049892988 0.013241545
-0.1478989 -0.027946152 0.14673603 -0.22845109 -0.06534706 0.004209704 0.09750769 0.028831104
0.16987428 0.035816524 0.09519814 0.195044 0.016853739 -0.025255535 -0.05152987 -0.11571533
0.15811133 0.15339166 -0.04811177 0.11733848
00000000: 7ffd aabd be06 7ebd a96b 643e b5f8 d43c
00000010: 21a8 363d 03ba 723d 975c 4cbd 11f3 583c
00000020: cf72 17be 54ef e4bc f841 163e 15ef 69be
00000030: aed4 85bd 8ff1 893b 1db2 c73d 352f ec3c
00000040: 86f3 2d3e 59b4 123d 3ef7 c23d 9db9 473e
00000050: da10 8a3c b2e4 cebc fc10 53bd 29fc ecbd
00000060: f0e7 213e b412 1d3e d910 45bd 284f f03d

lv_svc_W2_lv_svc f4 [28, 1]
-0.048241526 -0.06662563 0.13291542 0.0068416935 0.03475609 0.010536525 -0.07463391 -0.0001788351
-0.077317394 0.0029701686 0.08418517 -0.13480179 -0.0018542309 0.0063064247 0.0020998642 -0.028519474
0.091430314 0.032244798 0.036875486 0.081494726 -0.010066108 -0.014936082 -0.019677958 -0.07181431
0.085857585 0.07274789 -0.0026127195 0.055314276
00000000: e898 45bd 0573 88bd fb1a 083e 4930 e03b
00000010: 675c 0e3d 64a1 2c3c aad9 98bd ae85 3bb9
00000020: 9558 9ebd 29a7 423b 4669 ac3d 7b09 0abe
00000030: aa09 f3ba 20a6 ce3b e09d 093b aca1 e9bc
00000040: d13f bb3d 1f13 043d c00a 173d b5e6 a63d
00000050: 51ec 24bc 78b6 74bc ab33 a1bc 6213 93bd
00000060: 1ad6 af3d d9fc 943d 293a 2bbb 3991 623d

lv_mlp_net.0.weight f4 [10, 28]
-0.08672939 -0.15924914 0.3106315 -0.006553934 0.07691306 0.07302015 -0.07541137 0.13221346
-0.02771959 -0.063534446 0.11733572 -0.019749077 -0.049783427 0.02734161 0.27425823 -0.018431395
0.17764191 0.0908543 0.18720603 0.21228799 -0.021230146 0.102703445 -0.10596554 0.065498956
0.012203019 0.11188335 -0.014645204 0.10499516 0.05651637 -0.14309537 -0.32600576 0.076847054
-0.52791005 0.28015903 0.27729663 -0.14013869 0.08269164 -0.12818584 -0.18698128 0.29997393
0.32085505 -0.29065862 -0.16674568 -0.04498085 0.05360972 0.29940608 -0.22333534 -0.18784119
0.1902233 0.35777935 -0.1281767 0.09047886 -0.38308087 -0.12560672 0.03253729 -0.3183394
-0.122948095 0.24347551 0.38193718 0.17010356 -0.16042358 0.108316176 0.04698259 0.15592116
0.08159021 -0.110301584 0.079788834 -0.30497643 -0.037193045 -0.03453515 0.27493456 0.14275295
0.23233145 0.07963692 0.07400534 0.19813104 -0.005263131 0.24356675 -0.088883646 -0.0009950399
0.26697695 0.36459285 -0.14126499 0.08063795 0.058553934 0.28888187 -0.31724846 0.026491176
-0.27942994 0.20523994 0.21869355 -0.17220958 0.5318682 -0.0023605893 -0.12680475 0.22890957
0.1424169 0.19911969 -0.1897162 -0.13983281 -0.2758787 0.30268893 0.1667573 -0.16971734
0.26407215 0.26808077 0.051133137 0.4773284 -0.42911682 -0.07360328 0.4083127 0.15703844
0.13035354 0.0030692678 0.1623343 0.11749647 0.2222908 0.15087011 -0.01421282 0.027843155
0.02685949 -0.11718601 0.37546843 -0.14525945 -0.19820327 0.008647706 -0.24972622 -0.0016643311
0.21539328 0.022777548 -0.16727832 0.1896289 0.24204351 0.1044252 -0.0010734086 0.032622702
-0.30607885 0.1619222 -0.14480452 0.37645477 -0.055722073 -0.20743856 -0.19435255 -0.17334494
-0.011726214 0.26771933 0.37588212 0.4410026 0.574653 -0.14785355 -0.28059924 0.276906
-0.24030644 -0.33700514 -0.047503375 0.62364507 -0.14419416 -0.35933322 -0.25320116 -0.42590663
-0.025528476 0.2699789 0.10769891 -0.09329506 -0.5739524 -0.23378852 0.18035142 -0.041467607
0.3963252 0.3051912 -0.40512612 0.1647179 -0.040392008 -0.20312509 0.28372827 0.034996394
-0.097866535 0.4033775 -0.42003185 0.45732507 0.27095222 0.05681812 -0.064681634 -0.021232061
-0.5814577 0.46298695 -0.1138597 0.12137784 0.17696208 0.08719463 0.07743947 0.44545862
-0.2626671 -0.41920984 -0.122067615 -0.051496584 -0.15217763 -0.10146752 0.27481306 0.061167803
0.0031884804 0.06820063 0.18121175 0.24232617 -0.060697068 0.00068556843 0.19544686 -0.2060616
-0.13406406 -0.06558938 0.10043531 0.118002824 0.1004267 0.18917583 0.08657 0.23463011
-0.084295474 -0.07756799 0.006005726 -0.05923709 0.17641833 0.41038516 -0.2126205 0.13465078
0.21389821 0.028367331 -0.1644029 -0.0244507 0.0036183528 0.32210565 0.2885109 -0.0056547574
0.017048843 0.027128816 -0.055560976 0.09298856 -0.04254038 -0.14911234 0.017765457 -0.04467866
-0.16587523 -0.5540785 -0.38373184 -0.40062892 -0.4208262 0.04358443 0.0747645 0.2824038
0.011364911 -0.06600631 0.30304462 -0.28304356 0.35836267 -0.15706204 0.26874623 0.085791685
00000000: 2e9f b1bd 3512 23be 180b 9f3e 62c2 d6bb
00000010: 9884 9d3d 978b 953d 4771 9abd f762 073e
00000020: 3214 e3bc 591e 82bd b64d f03d d1c8 a1bc
00000030: b5e9 4bbd 83fb df3c 936b 8c3e 70fd 96bc
00000040: c3e7 353e d211 ba3d f0b2 3f3e 0662 593e
00000050: d8ea adbc 2f56 d23d 7604 d9bd 5124 863d
00000060: 2cef 473c 1923 e53d 70f2 6fbc b407 d73d
00000070: b67d 673d 9887 12be 3aea a6be fd61 9d3d
00000080: 1d25 07bf 0171 8f3e d3f9 8d3e 8480 0fbe
00000090: 3c5a a93d 2643 03be 0578 3fbe 2f96 993e
000000a0: 1d47 a43e 35d1 94be 61bf 2abe d73d 38bd
000000b0: de95 5b3d c14b 993e 05b2 64be 7159 40be
000000c0: e6c9 423e db2e b73e c140 03be fb4c b93d
000000d0: 2d23 c4be 0c9f 00be d245 053d 62fd a2be
000000e0: 36cc fbbd a551 793e 458d c33e a12f 2e3e
000000f0: 1446 24be dfd4 dd3d d170 403d cca9 1f3e
00000100: c518 a73d cce5 e1bd 5468 a33d df25 9cbe
00000110: bc57 18bd bb74 0dbd 39c4 8c3e d42d 123e
00000120: 4ce8 6d3e ae18 a33d 1d90 973d dde2 4a3e
00000130: 5876 acbb 9069 793e a108 b6bd 006c 82ba
00000140: 34b1 883e eaab ba3e c5a7 10be 8225 a53d
00000150: 40d6 6f3d 53e8 933e 646e a2be 0604 d93c
00000160: 7111 8fbe 6b2a 523e 34f1 5f3e b557 30be
00000170: 8428 083f 1eb4 1abb 1bd9 01be 4567 6a3e
00000180: bcd5 113e 08e6 4b3e f744 42be 5530 0fbe
00000190: f93f 8dbe 0bfa 9a3e 6dc2 2a3e 62ca 2dbe
000001a0: 7734 873e e241 893e fb70 513d 6364 f43e
000001b0: 33b5 dbbe 51bd 96bd 5d0e d13e afce 203e
000001c0: 667b 053e c525 493b f63a 263e fda1 f03d
000001d0: 33a0 633e b27d 1a3e e3dc 68bc 5417 e43c
000001e0: 6f08 dc3c 38ff efbd 663d c03e e5be 14be
000001f0: ccf5 4abe 1caf 0d3c 3bb8 7fbe af25 daba
00000200: 0e90 5c3e fb97 ba3c 024b 2bbe 142e 423e
00000210: 41da 773e e1dc d53d 9eb1 8cba 629f 053d
00000220: 5eb6 9cbe efce 253e a347 14be aebe c03e
00000230: d43c 64bd c66a 54be 5b04 47be 5681 31be
00000240: 4e1f 40bc 8212 893e 9f73 c03e 18cb e13e
00000250: 761c 133f ec66 17be b4aa 8fbe a0c6 8d3e
00000260: e412 76be f08b acbe e692 42bd 34a7 1f3f
00000270: a2a7 13be 86fa b7be 95a3 81be 6f10 dabe
00000280: 1821 d1bc ad3a 8a3e 3f91 dc3d 7b11 bfbd
00000290: 8bee 12bf 4266 6fbe 0bae 383e f0d9 29bd
000002a0: 23eb ca3e 0542 9c3e b16c cfbe cfab 283e
000002b0: 1772 25bd 0600 50be d544 913e 6158 0f3d
000002c0: 406e c8bd 7f87 ce3e 6a0e d7be 8326 ea3e
000002d0: 40ba 8a3e 1eba 683d ce77 84bd dcee adbc
000002e0: 69da 14bf a00c ed3e 462f e9bd f294 f83d
000002f0: 8c35 353e 1993 b23d 9698 9e3d 2713 e43e
00000300: 4d7c 86be aca2 d6be 96fe f9bd 15ee 52bd
00000310: 74d4 1bbe 34ce cfbd 4cb4 8c3e 178b 7a3d
00000320: d3f5 503b c6ac 8b3d 938f 393e 5a24 783e
00000330: 7d9d 78bd b8b7 333a 3923 483e d001 53be
00000340: 1748 09be ba53 86bd 07b1 cd3d 77ab f13d
00000350: 84ac cd3d 4fb7 413e 9d4b b13d e042 703e
00000360: 1ba3 acbd f7db 9ebd aecb c43b 97a2 72bd
00000370: 02a7 343e 011e d23e 30b9 59be e5e1 093e
00000380: 2208 5b3e 9b62 e83c 3c59 28be d64c c8bc
00000390: e321 6d3b 08eb a43e b3b7 933e 8b4b b9bb
000003a0: 04aa 8b3c 403d de3c e893 63bd c970 be3d
000003b0: d23e 2ebd e8b0 18be dd88 913c f800 37bd
000003c0: 32db 29be 17d8 0dbf 8078 c4be 3c1f cdbe
000003d0: 8876 d7be 9685 323d 211e 993d 3b97 903e
000003e0: e433 3a3c 512e 87bd aa28 9b3e 16eb 90be
000003f0: 507b b73e dfd4 20be 1b99 893e 8db3 af3d

lv_mlp_net.0.bias f4 [10]
-0.42640883 0.48281366 -0.35867164 0.7740004 -0.4214799 0.6336403 0.6885485 -0.3604048
0.54576874 -0.5695917
00000000: 4252 dabe 5a33 f73e cfa3 b7be e424 463f
00000010: 37cc d7be 4036 223f b744 303f fa86 b8be
00000020: 80b7 0b3f c3d0 11bf

lv_mlp_net.3.weight f4 [1, 10]
0.25026327 -0.38797432 0.18871748 -0.6224775 0.16522694 -0.57333297 -0.6967444 0.26889005
-0.7141779 0.18418615
00000000: 8222 803e 92a4 c6be 283f 413e af5a 1fbf
00000010: 4031 293e f3c5 12bf d75d 32bf f5ab 893e
00000020: 5dd4 36bf 4b9b 3c3e
