model/checkpoints/sarathy2016/rdkit/model_000.onnx (onnx, 83310 bytes, 10 tensors)

lv_onnx::MatMul_4 f4 [194, 33]
0	0x00000000	0.0
1	0x00000000	0.0
2	0x00000000	0.0
3	0x00000000	0.0
4	0x00000000	0.0
5	0x00000000	0.0
6	0x00000000	0.0
7	0x00000000	0.0
8	0x3f2650d6	0.64967096
9	0x00000000	0.0
10	0x00000000	0.0
11	0x00000000	0.0
12	0x00000000	0.0
13	0x00000000	0.0
14	0x00000000	0.0
15	0x00000000	0.0
16	0x00000000	0.0
17	0x00000000	0.0
18	0x00000000	0.0
19	0x00000000	0.0
20	0x00000000	0.0
21	0x00000000	0.0
22	0x00000000	0.0
23	0x00000000	0.0
24	0x00000000	0.0
25	0x3f2650d6	0.64967096
26	0x00000000	0.0
27	0x3f2650d6	0.64967096
28	0xbf2650d6	-0.64967096
29	0x00000000	0.0
30	0x00000000	0.0
31	0x00000000	0.0
32	0x00000000	0.0
33	0x00000000	0.0
34	0x00000000	0.0
35	0x00000000	0.0
36	0x3f2650d6	0.64967096
37	0x00000000	0.0
38	0x00000000	0.0
39	0x00000000	0.0
40	0x00000000	0.0
41	0x00000000	0.0
42	0x00000000	0.0
43	0x00000000	0.0
44	0x00000000	0.0
45	0x00000000	0.0
46	0x00000000	0.0
47	0x00000000	0.0
48	0x00000000	0.0
49	0x00000000	0.0
50	0x00000000	0.0
51	0x00000000	0.0
52	0x00000000	0.0
53	0x00000000	0.0
54	0x00000000	0.0
55	0x00000000	0.0
56	0x00000000	0.0
57	0x00000000	0.0
58	0x00000000	0.0
59	0x00000000	0.0
60	0x00000000	0.0
61	0x00000000	0.0
62	0x00000000	0.0
63	0x00000000	0.0
64	0x00000000	0.0
65	0x00000000	0.0
66	0x00000000	0.0
67	0x00000000	0.0
68	0x00000000	0.0
69	0x00000000	0.0
70	0x00000000	0.0
71	0x00000000	0.0
72	0x3f2650d6	0.64967096
73	0x00000000	0.0
74	0x00000000	0.0
75	0x00000000	0.0
76	0x00000000	0.0
77	0x00000000	0.0
78	0xbf2650d6	-0.64967096
79	0x00000000	0.0
80	0x00000000	0.0
81	0x00000000	0.0
82	0x3f2650d6	0.64967096
83	0x00000000	0.0
84	0x00000000	0.0
85	0x00000000	0.0
86	0x00000000	0.0
87	0x00000000	0.0
88	0x00000000	0.0
89	0x00000000	0.0
90	0x00000000	0.0
91	0x00000000	0.0
92	0x00000000	0.0
93	0x00000000	0.0
94	0x3f2650d6	0.64967096
95	0x00000000	0.0
96	0xbf2650d6	-0.64967096
97	0x00000000	0.0
98	0x00000000	0.0
99	0x00000000	0.0
100	0x00000000	0.0
101	0x00000000	0.0
102	0x00000000	0.0
103	0x00000000	0.0
104	0x00000000	0.0
105	0x00000000	0.0
106	0x00000000	0.0
107	0x00000000	0.0
108	0x00000000	0.0
109	0x00000000	0.0
110	0x3f2650d6	0.64967096
111	0x00000000	0.0
112	0x00000000	0.0
113	0x00000000	0.0
114	0x00000000	0.0
115	0x00000000	0.0
116	0x00000000	0.0
117	0x00000000	0.0
118	0x00000000	0.0
119	0x00000000	0.0
120	0x00000000	0.0
121	0x00000000	0.0
122	0x00000000	0.0
123	0x00000000	0.0
124	0x00000000	0.0
125	0x00000000	0.0
126	0x00000000	0.0
127	0x00000000	0.0
128	0x00000000	0.0
129	0x00000000	0.0
130	0xbf2650d6	-0.64967096
131	0x00000000	0.0
132	0x00000000	0.0
133	0xbf2650d6	-0.64967096
134	0x00000000	0.0
135	0x00000000	0.0
136	0x00000000	0.0
137	0x00000000	0.0
138	0x00000000	0.0
139	0x00000000	0.0
140	0x00000000	0.0
141	0x00000000	0.0
142	0x00000000	0.0
143	0x00000000	0.0
144	0x00000000	0.0
145	0x00000000	0.0
146	0x00000000	0.0
147	0x00000000	0.0
148	0x00000000	0.0
149	0x00000000	0.0
150	0x00000000	0.0
151	0x00000000	0.0
152	0x00000000	0.0
153	0x00000000	0.0
154	0x00000000	0.0
155	0x00000000	0.0
156	0x00000000	0.0
157	0x3f2650d6	0.64967096
158	0x00000000	0.0
159	0x00000000	0.0
160	0x00000000	0.0
161	0x00000000	0.0
162	0x00000000	0.0
163	0x00000000	0.0
164	0x00000000	0.0
165	0x00000000	0.0
166	0x00000000	0.0
167	0x00000000	0.0
168	0x00000000	0.0
169	0x00000000	0.0
170	0x00000000	0.0
171	0x00000000	0.0
172	0x00000000	0.0
173	0x00000000	0.0
174	0x00000000	0.0
175	0x00000000	0.0
176	0x00000000	0.0
177	0x00000000	0.0
178	0x00000000	0.0
179	0x00000000	0.0
180	0x00000000	0.0
181	0x00000000	0.0
182	0x00000000	0.0
183	0x00000000	0.0
184	0x00000000	0.0
185	0x00000000	0.0
186	0x00000000	0.0
187	0x00000000	0.0
188	0x00000000	0.0
189	0xbf2650d6	-0.64967096
190	0x00000000	0.0
191	0x00000000	0.0
192	0x00000000	0.0
193	0x00000000	0.0
194	0x00000000	0.0
195	0x00000000	0.0
196	0x00000000	0.0
197	0x00000000	0.0
198	0x00000000	0.0
199	0x00000000	0.0
200	0x00000000	0.0
201	0x00000000	0.0
202	0x00000000	0.0
203	0x00000000	0.0
204	0x00000000	0.0
205	0x00000000	0.0
206	0x00000000	0.0
207	0x00000000	0.0
208	0x00000000	0.0
209	0x00000000	0.0
210	0x00000000	0.0
211	0x00000000	0.0
212	0x00000000	0.0
213	0x00000000	0.0
214	0x3f2650d6	0.64967096
215	0x00000000	0.0
216	0x3f2650d6	0.64967096
217	0x00000000	0.0
218	0x00000000	0.0
219	0x00000000	0.0
220	0x00000000	0.0
221	0x00000000	0.0
222	0x00000000	0.0
223	0x00000000	0.0
224	0x3f2650d6	0.64967096
225	0x00000000	0.0
226	0x00000000	0.0
227	0x00000000	0.0
228	0x00000000	0.0
229	0x00000000	0.0
230	0x00000000	0.0
231	0x00000000	0.0
232	0x00000000	0.0
233	0x00000000	0.0
234	0x00000000	0.0
235	0x00000000	0.0
236	0x00000000	0.0
237	0x00000000	0.0
238	0x00000000	0.0
239	0xbf2650d6	-0.64967096
240	0x00000000	0.0
241	0x00000000	0.0
242	0x00000000	0.0
243	0x00000000	0.0
244	0x00000000	0.0
245	0x00000000	0.0
246	0x00000000	0.0
247	0x00000000	0.0
248	0x00000000	0.0
249	0x00000000	0.0
250	0x00000000	0.0
251	0x00000000	0.0
252	0x00000000	0.0
253	0x00000000	0.0
254	0x00000000	0.0
255	0x00000000	0.0

lr_lr_W f4 [194, 1]
0	0xbd83b91c	-0.06431791
1	0xbcb14312	-0.021638427
2	0x3c021c12	0.007941263
3	0xbd9f1ede	-0.07769559
4	0xbbd28884	-0.0064249653
5	0xbcec7d41	-0.02886832
6	0xbb86c179	-0.004112419
7	0xbd7aa1c9	-0.061189447
8	0x3d5d9a52	0.05410225
9	0x3dc16ddf	0.094447844
10	0xbd696dbf	-0.056989428
11	0xbd382386	-0.044955753
12	0xbd0c9c83	-0.03432895
13	0xbd0f83ea	-0.035037912
14	0xbd77ce96	-0.06049975
15	0xbd44b890	-0.048027575
16	0xbcedd84e	-0.029033806
17	0xbd14fc80	-0.036373615
18	0xbc2b38d5	-0.0104505615
19	0xbd4cb13f	-0.049973723
20	0xbca09a47	-0.019604815
21	0xbd4410ef	-0.04786771
22	0xba87f516	-0.0010372724
23	0xbc90be1b	-0.017668774
24	0xbc3b84a7	-0.011445201
25	0xbcfd3044	-0.030906804
26	0x3d3ce914	0.046120718
27	0x3b91e8e3	0.004452811
28	0xbca7f7ae	-0.020503845
29	0xbd3d9ece	-0.046294026
30	0x3dd9f1c8	0.10641819
31	0xbdc394a9	-0.09549839
32	0xbd8cd54c	-0.06876621
33	0xbc1a97ca	-0.009435603
34	0xbd6051da	-0.05476556
35	0x3d351065	0.04420509
36	0xbc8859b0	-0.016644329
37	0xbd26a2f6	-0.040682755
38	0x3dd9f207	0.10641866
39	0x3d75898d	0.05994563
40	0xbd625b0b	-0.055262607
41	0xbd72112d	-0.05909841
42	0xbd23bf42	-0.03997732
43	0xbd03f738	-0.032218188
44	0xbd12d1bd	-0.035844553
45	0xbbf115d1	-0.007357337
46	0xbd60ba22	-0.05486501
47	0x3d04ee66	0.032453917
48	0xbce08efc	-0.02741193
49	0x3d04ee66	0.032453917
50	0xbb5e9bab	-0.0033967297
51	0xbdb663ef	-0.089057796
52	0x3c808e56	0.015692871
53	0xbcba7498	-0.022760674
54	0x3b9ca062	0.0047798613
55	0xbe1c8c02	-0.15287784
56	0xbd611646	-0.054952882
57	0xbd60a5fd	-0.0548458
58	0x3b986b01	0.0046514277
59	0x3d97cfeb	0.07412704
60	0x3d5b5452	0.05354721
61	0xbc9d4601	-0.01919842
62	0x3abd0bc2	0.001442306
63	0xbc563d7f	-0.013076185
64	0xbd8794b8	-0.06620163
65	0xbd8cd9e0	-0.06877494
66	0xbdcfca15	-0.10145966
67	0xbbcf1667	-0.0063198092
68	0xba016d6c	-0.00049372646
69	0x3cf3b2fd	0.029748434
70	0x3c37690d	0.01119448
71	0x3c6f5474	0.014607538
72	0xbda442c5	-0.08020548
73	0x3cbcdca2	0.023054425
74	0xbb88d58a	-0.0041758465
75	0xbdc966fd	-0.098340966
76	0x3cc576c9	0.024104493
77	0xbc859731	-0.016307445
78	0xbd0414ab	-0.032246273
79	0xbd60458d	-0.05475383
80	0xbd2c766f	-0.042105135
81	0x3cc367c5	0.023853192
82	0xbd89df77	-0.06732076
83	0xbb252494	-0.0025198804
84	0xbe02ec7d	-0.12785526
85	0x3e1b19dc	0.15146583
86	0xbc04f4bf	-0.008114993
87	0xbd978428	-0.07398254
88	0xbb5c754c	-0.003363925
89	0x3cd69dd2	0.026198301
90	0xbce1655f	-0.027514158
91	0xbd8e24a2	-0.06940581
92	0xbd086186	-0.03329613
93	0x3d469cdd	0.04848944
94	0xbd360d88	-0.0444465
95	0xbc4ef74a	-0.0126322005
96	0xbdbf4408	-0.09339148
97	0x3aa508e2	0.0012591148
98	0xbd6059a4	-0.054772988
99	0xbce6df92	-0.028182779
100	0x3d1a4650	0.03766471
101	0xbce75d02	-0.028242592
102	0x3b8b1136	0.004243995
103	0x3d4fea3a	0.050760485
104	0xbdb13f5f	-0.08654665
105	0xbd95eafb	-0.073202096
106	0x3c7f09f0	0.015566334
107	0xbbb3df31	-0.005489253
108	0xbd8c6d4c	-0.06856784
109	0x3c0e6288	0.008690484
110	0xbda3c179	-0.07995886
111	0x3da2726d	0.07931981
112	0x3cf80e7f	0.03028035
113	0x3dbc86c1	0.0920539
114	0x3c99e81b	0.018787434
115	0xbe006cc8	-0.12541497
116	0x3bfbcdcd	0.0076844455
117	0xbdebaa56	-0.115070984
118	0x3d6e7336	0.058215342
119	0xbc0f320d	-0.00873996
120	0xbcfd1238	-0.030892476
121	0xbd14dc88	-0.036343127
122	0x3ce8199d	0.028332526
123	0xbceba943	-0.028767234
124	0x3d3a37d1	0.045463387
125	0xbda6fc9d	-0.08153651
126	0x3b21c42a	0.0024683573
127	0x3dab69a3	0.08369758
128	0xbdc27b88	-0.09496218
129	0x3ca71dba	0.020399917
130	0xbc0f44c3	-0.008744421
131	0xbbd551e8	-0.006510008
132	0x3c326706	0.0108888205
133	0x3d030778	0.031989545
134	0x3c3aa9f6	0.011393061
135	0xbc985844	-0.018596776
136	0x3c1d93fb	0.009617801
137	0x3d1d9450	0.03847152
138	0x3d1d9450	0.03847152
139	0x3bc0497b	0.0058681346
140	0xbc07e6e6	-0.008294797
141	0x3d590c96	0.05299052
142	0x3da06a34	0.07832757
143	0xbd271060	-0.0407871
144	0x3d147242	0.036241777
145	0x3c623164	0.013805721
146	0xbc9eb1fa	-0.019371975
147	0x3c8c80fd	0.01715135
148	0x3c3c93cf	0.01150985
149	0xbc985844	-0.018596776
150	0xbdd0136f	-0.10159957
151	0x3d317162	0.04332102
152	0xbc563d7f	-0.013076185
153	0xbd271060	-0.0407871
154	0xbca270f8	-0.019829258
155	0x3d969718	0.073530376
156	0xbd5f0881	-0.05445147
157	0xbd8577f0	-0.06517017
158	0xbc6195d0	-0.013768628
159	0xbccb2195	-0.024796287
160	0xbc9b3443	-0.018945819
161	0xbd4fd213	-0.05073745
162	0xbdbc792e	-0.09202801
163	0x3df0d273	0.1175889
164	0xba016d6c	-0.00049372646
165	0xbd54a30a	-0.0519133
166	0xbd73201e	-0.0593568
167	0xbbeaf9e1	-0.007170901
168	0xbcf1410a	-0.029449958
169	0xbc0a2e78	-0.008433931
170	0x3d68f7fc	0.05687712
171	0x3d2538c9	0.040337358
172	0x3d5e57db	0.054283004
173	0xbce6df92	-0.028182779
174	0xbb64a8e1	-0.0034890699
175	0xbd8f6cf2	-0.070032015
176	0xbbfb03f6	-0.0076603843
177	0x3c1e1b9f	0.00965014
178	0x3c710683	0.014711025
179	0xbcb1b0dd	-0.02169078
180	0xbd63561e	-0.05550205
181	0x3ccf01d1	0.02526942
182	0xbddfac58	-0.10921544
183	0xbd962167	-0.0733059
184	0xbccc9f7d	-0.024978394
185	0x3db0a06e	0.086243495
186	0x3d59ebf7	0.05320355
187	0xbc9e0490	-0.019289285
188	0x3d94a526	0.07258062
189	0xbd6eb04f	-0.05827361
190	0xbd27bcce	-0.040951543
191	0xbc2a1153	-0.010380107
192	0xbd71b949	-0.059014592
193	0x3bc9f98d	0.006163782

svc_W2_svc f4 [194, 1]
0	0xbd8bb5e8	-0.06821805
1	0xbc91157b	-0.017710438
2	0x3b04a84a	0.002024191
3	0xbd68af8b	-0.056808036
4	0xbc238f72	-0.0099829305
5	0xbb6e5028	-0.0036363695
6	0x3baa60ec	0.0051995423
7	0xbcddf972	-0.027096484
8	0x3d27ab14	0.040934637
9	0x3da34be4	0.07973459
10	0xbd51a4cd	-0.051182557
11	0xbd1fb663	-0.038992297
12	0xbd03ec74	-0.03220792
13	0xbd07de99	-0.03317127
14	0xbd4ec465	-0.050480265
15	0xbd29200b	-0.041290324
16	0xbcfae378	-0.030626044
17	0xbd015df3	-0.031583738
18	0xbc880c30	-0.016607374
19	0xbd2a25f7	-0.041540112
20	0xbcbc6b9a	-0.023000527
21	0xbd213f14	-0.039366797
22	0xbc4cfd49	-0.01251156
23	0x397b6c3e	0.00023977549
24	0xbc37d543	-0.011220279
25	0xbc935540	-0.017984986
26	0x3cea7cae	0.028623905
27	0xbc59661a	-0.013268972
28	0xbd237e0e	-0.039915137
29	0xbc9c73a1	-0.019098105
30	0x3d29e7a8	0.04148069
31	0xbd803158	-0.062594116
32	0xbcedc440	-0.029024243
33	0x3aa1776c	0.0012318916
34	0xbd37e75e	-0.044898383
35	0x3d2911ed	0.04127686
36	0x3b2cf1d3	0.0026389256
37	0xbcdcf51c	-0.026972346
38	0x3d88426e	0.066532955
39	0x3d5805ce	0.05273991
40	0xbd3f25a3	-0.046666753
41	0xbd4428d2	-0.04789049
42	0xbd943d2d	-0.07238231
43	0xbcec7955	-0.02886645
44	0xbd03c435	-0.03216954
45	0xbc4721ee	-0.012154086
46	0xbd3e6d53	-0.04649098
47	0x3b4b8980	0.0031057298
48	0xbcc55c7b	-0.02409195
49	0x3b4b8980	0.0031057298
50	0xbb83c639	-0.0040214327
51	0xbd2eeaa5	-0.042704243
52	0x3bb4a1bc	0.0055124443
53	0xbca72af1	-0.020406218
54	0x3c4c74db	0.012479032
55	0xbdd8986a	-0.10575946
56	0xbd3f6952	-0.0467313
57	0xbd380b6e	-0.044932775
58	0x3cc25c00	0.02372551
59	0x3d398fa1	0.04530299
60	0x3c45e2c4	0.012077991
61	0xbbc972a0	-0.0061476976
62	0xbab12ee6	-0.0013518005
63	0xbc2dbf3b	-0.010604675
64	0xbd73ada6	-0.059491776
65	0xbd3dfdb1	-0.046384517
66	0xbda07e13	-0.07836547
67	0x3bf8fd16	0.0075985296
68	0x3c0cb3e8	0.008587815
69	0x3c88fb25	0.016721318
70	0x3cb29440	0.021799207
71	0x3baa15ca	0.0051905857
72	0xbd480a84	-0.048838153
73	0x3c42dbc9	0.011893221
74	0xbc9d65d0	-0.019213587
75	0xbd12bcfb	-0.035824757
76	0x3c22e5fa	0.009942526
77	0xbba0461d	-0.0048911707
78	0xbcabf654	-0.020991482
79	0xbca52081	-0.0201571
80	0xbd1702c7	-0.036867883
81	0x3c3b971f	0.011449604
82	0xbd2df7f4	-0.042472795
83	0x3bec91d7	0.007219534
84	0xbd93a0b0	-0.07208383
85	0x3d9cc95b	0.07655593
86	0xbc42d071	-0.011890517
87	0xbd42d50d	-0.047566462
88	0x3d04dcb2	0.032437034
89	0xbb3fc612	-0.0029262346
90	0xbd0cd256	-0.03438028
91	0xbd5200cc	-0.05127029
92	0xbcfbf372	-0.030755732
93	0x3ca92ecc	0.020652197
94	0xbcaef626	-0.021357607
95	0xbc747260	-0.014919847
96	0xbd972b1a	-0.07381268
97	0x3b0c8f7c	0.0021447828
98	0xbd21b4d7	-0.039479103
99	0xbcc38706	-0.023868095
100	0x3cea012a	0.028565008
101	0xbbd649ae	-0.006539545
102	0x3bef609f	0.0073052193
103	0x3cd55272	0.02604029
104	0xbda03f5c	-0.07824585
105	0xbd3c401c	-0.045959577
106	0x3c6f8fe9	0.014621713
107	0xbc2be853	-0.010492402
108	0xbd3fd630	-0.046835124
109	0x3adccc8f	0.0016845631
110	0xbd680bdf	-0.056651946
111	0x3d5c87ba	0.053840376
112	0x3b390fbd	0.002823814
113	0x3d2d8c56	0.042370163
114	0x3c488f46	0.01224119
115	0xbdbacd23	-0.09121158
116	0xbb3da961	-0.002894007
117	0xbd8b123d	-0.06790588
118	0x3d39dce1	0.045376662
119	0xbbcb167a	-0.006197748
120	0xbccd1a30	-0.025036901
121	0xbd00338a	-0.03129915
122	0x3ca42794	0.020038404
123	0xbba69daf	-0.0050847153
124	0x3c6e1ca4	0.014533196
125	0xbd87faa9	-0.066396065
126	0x3c3f08c8	0.011659808
127	0x3d4a085a	0.04932437
128	0xbd7a75af	-0.061147388
129	0x3c6a46c9	0.014299103
130	0x3c46f2f7	0.012142888
131	0x3c59ea13	0.013300437
132	0x3ce94758	0.028476402
133	0x3ce62f22	0.028098647
134	0x3bac9a3e	0.0052674105
135	0xbc95a202	-0.018265728
136	0x3bf1d8f0	0.0073805973
137	0x3d02d3ba	0.0319402
138	0x3d02d3ba	0.0319402
139	0x3ae51357	0.0017477077
140	0xbc24eed0	-0.010066703
141	0x3cc0d6a7	0.023539854
142	0x3d566237	0.05233976
143	0xbcbddfa0	-0.023177922
144	0x3c99f742	0.01879466
145	0x3b53c5ef	0.0032314023
146	0x3c5f465b	0.013627614
147	0x3bfbd860	0.007685706
148	0xbc102739	-0.008798414
149	0xbc95a202	-0.018265728
150	0xbd6f2ed5	-0.058394272
151	0x3cd10493	0.025514876
152	0xbc2dbf3b	-0.010604675
153	0xbcbddfa0	-0.023177922
154	0xbc854266	-0.016267013
155	0x3d1dbd0b	0.038510364
156	0xbcec8277	-0.028870804
157	0xbd6d8982	-0.057992466
158	0xbc63ab28	-0.013895787
159	0xbc302303	-0.010750535
160	0xbbd229bb	-0.006413666
161	0xbd020310	-0.031741202
162	0xbd702d14	-0.05863674
163	0x3d7e4774	0.06207986
164	0x3c0cb3e8	0.008587815
165	0xbd039ef3	-0.032134008
166	0xbd11fa1e	-0.03563892
167	0xbc4e8344	-0.012604538
168	0xbccf3c47	-0.025297297
169	0xbbf4bc08	-0.007468704
170	0x3caf6eab	0.021415075
171	0x3bddb574	0.0067660157
172	0x3cfe40b6	0.031036716
173	0xbcc38706	-0.023868095
174	0x3af74dbd	0.0018867772
175	0xbd259ae8	-0.040430933
176	0xbc01c16a	-0.007919649
177	0xbc185f18	-0.009300016
178	0x3c2eaab1	0.010660813
179	0xbc24ff2e	-0.010070605
180	0xbcd4e932	-0.025990102
181	0x3cd944f8	0.026522145
182	0xbd2be997	-0.041970816
183	0xbd2e1548	-0.042500764
184	0xbcb8c01c	-0.022552542
185	0x3d92b64d	0.07163677
186	0x3d09b007	0.03361514
187	0xbc478c1c	-0.012179401
188	0x3d3b044e	0.045658402
189	0xbd2b61ab	-0.04184119
190	0xbd050dd9	-0.03248391
191	0xbc196e5f	-0.009364693
192	0xbd13fa94	-0.03612764
193	0xba8ce491	-0.001074927

fs_lr_fs_lr_W f4 [43, 1]
0	0xbd1f5f46	-0.03890922
1	0xbeb9ba73	-0.36275062
2	0x3e720898	0.23636091
3	0x3ea36905	0.3191606
4	0x3e1e1de0	0.15441084
5	0xbd23f9f3	-0.040033292
6	0x3dd41f88	0.103575766
7	0x3da44676	0.08021252
8	0xbddcf825	-0.10789517
9	0xbc548d4e	-0.012973143
10	0x3dedb2d6	0.11606376
11	0x3dba7e12	0.09106077
12	0x3e801598	0.25016475
13	0xbde4181c	-0.11137411
14	0x3d96edc0	0.07369566
15	0xbcc3187d	-0.023815388
16	0x3e8ae8ad	0.27130643
17	0xbe23a035	-0.15979083
18	0xbcd12615	-0.025530854
19	0xbdaea579	-0.08527655
20	0xbda66799	-0.081252284
21	0xbe4e5436	-0.20149311
22	0x3d938bb8	0.072043836
23	0xbd2bd5e0	-0.041952014
24	0xbdd7c1c8	-0.10535008
25	0xbdadff00	-0.08495903
26	0xbf57d128	-0.8430352
27	0xbd18fcbe	-0.03735041
28	0xbe23de3c	-0.16002744
29	0xbdb72407	-0.089424185
30	0xbc80bbd1	-0.015714558
31	0xbeb1b6e9	-0.34709862
32	0xbd234d0d	-0.039868403
33	0xbe307680	-0.17232704
34	0x3e56e72a	0.2098662
35	0xbe69ce77	-0.22832666
36	0xbdbddeb3	-0.09270992
37	0xbee61da3	-0.44944486
38	0xbedc635d	-0.43044558
39	0xbe584745	-0.21120937
40	0x3db4bb5f	0.08824801
41	0xbe875f33	-0.2643982
42	0xbdb3e3d7	-0.087836914

fs_svc_W2_fs_svc f4 [43, 1]
0	0x3d2d1f73	0.04226632
1	0xbe66afb6	-0.22527966
2	0x3e71b753	0.23605089
3	0x3e9f678f	0.31133696
4	0x3e8b85c9	0.27250507
5	0xbdae329a	-0.08505745
6	0x3e8993bd	0.26870528
7	0x3e61a7bd	0.22036643
8	0xbe0f5a3e	-0.13999268
9	0x3da4e005	0.08050541
10	0x3e55677a	0.20840254
11	0x3e4d7842	0.20065406
12	0x3ea93156	0.33045453
13	0xbe835258	-0.2564876
14	0xbe0ec00b	-0.13940446
15	0x3d3aa7d4	0.04557021
16	0x3edead19	0.43491438
17	0xbea67156	-0.32508343
18	0xbcefd9e2	-0.0292787
19	0xbe214166	-0.15747604
20	0xbde598b5	-0.11210767
21	0xbed3741a	-0.41299516
22	0x3dd96ae8	0.10616094
23	0xbdd0839f	-0.10181355
24	0xbd8354a0	-0.06412625
25	0xbd83f09d	-0.06442378
26	0xbf82481a	-1.0178254
27	0xbc307ca9	-0.010771909
28	0xbea5c48f	-0.32376525
29	0xbc925b4c	-0.0178658
30	0x3e248265	0.16065367
31	0xbed99b87	-0.4250147
32	0xbd3a43f9	-0.04547498
33	0xbd850f95	-0.06497113
34	0x3e4bec56	0.19914374
35	0xbe4e1f93	-0.20129232
36	0x3e014ddc	0.12627357
37	0xbf258ac1	-0.64664847
38	0xbf026bbf	-0.5094566
39	0xbe28909d	-0.16461416
40	0x3d98d91d	0.07463286
41	0xbeb068a9	-0.3445485
42	0xbc3505da	-0.011048758

mfs_lr_mfs_lr_W f4 [34, 1]
0	0xbe01876f	-0.1264932
1	0xbe57e5a7	-0.21083699
2	0x3d34a7f3	0.04410548
3	0x3eaade3a	0.3337267
4	0xbd92478b	-0.07142552
5	0xbd1f4f21	-0.038893823
6	0xbdc88b83	-0.09792235
7	0x3c9482b4	0.01812873
8	0x3d00d62e	0.031454258
9	0x3bf004de	0.007324799
10	0xbd388649	-0.04504994
11	0x3d160468	0.036625296
12	0xbda10223	-0.07861736
13	0xbe4a9426	-0.19783077
14	0x3c98f897	0.018673224
15	0xbb3b6449	-0.002859371
16	0xbc57a22d	-0.013161224
17	0x3dc80b4e	0.09767781
18	0xbd8fab5d	-0.07015107
19	0xbe907865	-0.28216854
20	0x3cc1e87d	0.02367043
21	0xbf005193	-0.5012447
22	0x3b4c3d3b	0.0031164426
23	0xbe1d5ca2	-0.15367368
24	0xbe803442	-0.2503987
25	0x3e893464	0.26797783
26	0xbe100ddc	-0.14067787
27	0xbeb1812d	-0.34668866
28	0xbeba6c58	-0.36410785
29	0x3e795eb9	0.2435254
30	0xbe736775	-0.23769934
31	0xbe0fc433	-0.14039688
32	0xbe88258e	-0.26591152
33	0x3d9739a8	0.07384044

mfs_svc_W2_mfs_svc f4 [34, 1]
0	0xbe2c7b2f	-0.16843866
1	0xbe28d997	-0.16489254
2	0x3d84cb48	0.06484085
3	0x3e8c80d3	0.27442035
4	0xbd9997f9	-0.074996896
5	0xbced8134	-0.028992273
6	0xbd8df52b	-0.06931528
7	0x3c55e92a	0.013056079
8	0x3caca80d	0.021076227
9	0x3c3b5650	0.011434153
10	0xbd25ed28	-0.040509373
11	0x3d8e2775	0.069411196
12	0xbd66174e	-0.05617457
13	0xbe077cc3	-0.13231187
14	0xbe0d4d05	-0.13798912
15	0x3b770f39	0.0037698282
16	0xbba2d5be	-0.0049693277
17	0x3d797893	0.060906004
18	0xbd606689	-0.054785285
19	0xbe3f9bde	-0.18711802
20	0x3d3229d2	0.043496914
21	0xbec3113d	-0.3809909
22	0xbc939b08	-0.01801826
23	0xbdd1653f	-0.10224389
24	0xbe581dfd	-0.2110519
25	0x3e69feb7	0.22851072
26	0xbe30e98e	-0.17276594
27	0xbe896c18	-0.2684028
28	0xbe622c58	-0.22087228
29	0x3e449ae7	0.19199716
30	0xbe5102cb	-0.20411222
31	0xbdfe4b6d	-0.1241673
32	0xbe61d2dc	-0.22053093
33	0x3b55a3f4	0.0032598944

lv_lr_lv_lr_W f4 [33, 1]
0	0x3bacf549	0.0052782637
1	0x3e17ac2f	0.14811777
2	0x3da52c94	0.08065143
3	0x3cee22a4	0.029069252
4	0xbd152875	-0.036415536
5	0x3da6ac8f	0.08138382
6	0x3df8bcbc	0.12145373
7	0xbd394063	-0.04522742
8	0x3ba44fe0	0.0050144047
9	0x3d8a2a77	0.06746381
10	0xbdf757ab	-0.12077268
11	0xbe766d0f	-0.2406504
12	0x3d297440	0.04137063
13	0x3df3b15e	0.118990645
14	0xbd5d02ea	-0.053957857
15	0x3a2c2db1	0.0006568088
16	0xbba36f1e	-0.0049876114
17	0xbd1ab3ab	-0.037769
18	0x3dc060c8	0.093934596
19	0xbd716733	-0.05893631
20	0x3c62c858	0.013841711
21	0x3d17cae7	0.037058737
22	0xbda24b70	-0.07924545
23	0xbd1b25a7	-0.037877705
24	0x3d69caa8	0.057078034
25	0xbda5affb	-0.08090206
26	0xbbeb9896	-0.0071898205
27	0xbccfa7b9	-0.025348531
28	0xba80e32b	-0.0009833326
29	0xbddea201	-0.108707435
30	0x3bff65a2	0.007794098
31	0x3d749f49	0.05972222
32	0xbd3bb3ac	-0.045825645

lv_svc_W2_lv_svc f4 [33, 1]
0	0xbcf32ac8	-0.029683486
1	0x3e423a15	0.18967469
2	0x3dcf1698	0.10111731
3	0x3d6e65b0	0.058202446
4	0x3d5a5950	0.05330783
5	0x3d806d67	0.06270867
6	0x3e0e2393	0.13880758
7	0xbd645783	-0.05574752
8	0xbc8b7130	-0.017021745
9	0x3dea5b76	0.11443226
10	0xbe6209ac	-0.22074002
11	0xbeb6d768	-0.35711217
12	0x3d708058	0.05871615
13	0x3e0963e8	0.13417017
14	0xbe172fdc	-0.1476435
15	0x3c6e069c	0.014527943
16	0xbc88fa42	-0.016720895
17	0x3d4e4510	0.050358832
18	0x3da3af88	0.07992464
19	0xbdadb7f9	-0.084823556
20	0x3c4cff63	0.012512061
21	0x3cbf526d	0.023354733
22	0xbe132795	-0.14370568
23	0xbde1ebc1	-0.110312946
24	0x3da0ffda	0.078613
25	0x3ceb48ff	0.02872133
26	0x3a8674b6	0.0010258171
27	0x3a4de6f7	0.0007854546
28	0xbcf4f08b	-0.029899856
29	0xbe31ec3c	-0.17375273
30	0xbd494b37	-0.049143996
31	0x3de1de9b	0.11028787
32	0xbca614f3	-0.020273661

lv_mlp_net.0.weight f4 [1, 33]
0	0x3c9b3b34	0.018949129
1	0x3e3503bc	0.17677206
2	0x3e0e4060	0.13891745
3	0x3d83fe75	0.06445018
4	0x3d75ffda	0.060058452
5	0x3d794c38	0.060863703
6	0x3e0658ce	0.13119814
7	0xbdd27215	-0.10275666
8	0xbca32f83	-0.019920116
9	0x3dc3ae10	0.09554684
10	0xbe769a67	-0.24082337
11	0xbec83a6e	-0.39107078
12	0x3cb79cb6	0.022413593
13	0x3e459f80	0.19299126
14	0xbdc6c207	-0.097049765
15	0xbcc48e6d	-0.023993695
16	0x3bc79b1f	0.00609149
17	0x3c79931c	0.0152328275
18	0x3db545f5	0.08851234
19	0xbe0ac3dc	-0.13551277
20	0x3d5a1048	0.053238183
21	0x3d99bab5	0.07506315
22	0xbe3323cb	-0.17494123
23	0xbe0520e9	-0.13000835
24	0x3de13822	0.109970346
25	0xbd8c423b	-0.0684857
26	0xbca61cb7	-0.020277364
27	0x3b54bfcb	0.003246295
28	0xbd5995d0	-0.053121388
29	0xbe610ec2	-0.21978286
30	0xbdd47760	-0.103743315
31	0x3d74b57a	0.059743382
32	0xbc8578b2	-0.016292904
