model/checkpoints/valitalo2016/rdkit/model_000.onnx (onnx, 39638 bytes, 12 tensors)

lv_onnx::MatMul_4 f4 [185, 17]
00000000: 0000 0000 0000 0000 0000 0000 0000 0000
00000010: 0000 0000 0000 0000 0000 0000 0000 0000
00000020: 59fc 643f 0000 0000 0000 0000 0000 0000
00000030: 0000 0000 0000 0000 0000 0000 0000 0000
00000040: 0000 0000 0000 0000 0000 0000 0000 0000
00000050: 0000 0000 0000 0000 0000 0000 0000 0000
00000060: 59fc 64bf 0000 0000 0000 0000 0000 0000
00000070: 0000 0000 0000 0000 0000 0000 59fc 643f
00000080: 0000 0000 0000 0000 0000 0000 0000 0000
00000090: 0000 0000 0000 0000 0000 0000 0000 0000
000000a0: 0000 0000 0000 0000 0000 0000 0000 0000
000000b0: 59fc 64bf 0000 0000 0000 0000 0000 0000
000000c0: 0000 0000 0000 0000 0000 0000 0000 0000
000000d0: 0000 0000 0000 0000 59fc 64bf 0000 0000
000000e0: 0000 0000 0000 0000 0000 0000 0000 0000
000000f0: 0000 0000 0000 0000 0000 0000 0000 0000
00000100: 0000 0000 0000 0000 0000 0000 0000 0000
00000110: 0000 0000 0000 0000 0000 0000 0000 0000
00000120: 0000 0000 0000 0000 0000 0000 0000 0000
00000130: 0000 0000 59fc 643f 0000 0000 0000 0000
00000140: 0000 0000 0000 0000 0000 0000 0000 0000
00000150: 0000 0000 0000 0000 0000 0000 0000 0000
00000160: 0000 0000 0000 0000 0000 0000 0000 0000
00000170: 59fc 64bf 0000 0000 0000 0000 0000 0000
00000180: 0000 0000 0000 0000 0000 0000 0000 0000
00000190: 0000 0000 0000 0000 0000 0000 0000 0000
000001a0: 0000 0000 0000 0000 0000 0000 0000 0000
000001b0: 0000 0000 0000 0000 0000 0000 0000 0000
000001c0: 59fc 64bf 0000 0000 0000 0000 0000 0000
000001d0: 0000 0000 0000 0000 59fc 64bf 0000 0000
000001e0: 0000 0000 0000 0000 0000 0000 0000 0000
000001f0: 0000 0000 0000 0000 0000 0000 59fc 643f
00000200: 0000 0000 0000 0000 0000 0000 0000 0000
00000210: 0000 0000 0000 0000 0000 0000 0000 0000
00000220: 0000 0000 0000 0000 0000 0000 0000 0000
00000230: 0000 0000 0000 0000 0000 0000 0000 0000
00000240: 0000 0000 0000 0000 59fc 64bf 0000 0000
00000250: 59fc 64bf 0000 0000 0000 0000 0000 0000
00000260: 0000 0000 0000 0000 0000 0000 0000 0000
00000270: 0000 0000 0000 0000 0000 0000 0000 0000
00000280: 0000 0000 0000 0000 0000 0000 0000 0000
00000290: 0000 0000 0000 0000 0000 0000 0000 0000
000002a0: 0000 0000 59fc 643f 0000 0000 0000 0000
000002b0: 0000 0000 0000 0000 59fc 643f 0000 0000
000002c0: 0000 0000 0000 0000 0000 0000 0000 0000
000002d0: 0000 0000 0000 0000 0000 0000 0000 0000
000002e0: 0000 0000 0000 0000 0000 0000 0000 0000
000002f0: 0000 0000 0000 0000 0000 0000 0000 0000
00000300: 0000 0000 0000 0000 0000 0000 0000 0000
00000310: 0000 0000 0000 0000 0000 0000 0000 0000
00000320: 0000 0000 0000 0000 0000 0000 0000 0000
00000330: 0000 0000 59fc 64bf 0000 0000 0000 0000
00000340: 0000 0000 0000 0000 0000 0000 0000 0000
00000350: 0000 0000 0000 0000 59fc 64bf 0000 0000
00000360: 0000 0000 0000 0000 0000 0000 59fc 64bf
00000370: 0000 0000 0000 0000 0000 0000 59fc 643f
00000380: 0000 0000 0000 0000 0000 0000 0000 0000
00000390: 0000 0000 0000 0000 0000 0000 0000 0000
000003a0: 0000 0000 0000 0000 0000 0000 0000 0000
000003b0: 0000 0000 0000 0000 0000 0000 0000 0000
000003c0: 0000 0000 0000 0000 0000 0000 0000 0000
000003d0: 59fc 643f 0000 0000 59fc 643f 0000 0000
000003e0: 0000 0000 0000 0000 0000 0000 0000 0000
000003f0: 0000 0000 0000 0000 0000 0000 59fc 643f
0.0 0.0 0.0 0.0 0.0 0.0 0.0 0.0
0.8944755 0.0 0.0 0.0 0.0 0.0 0.0 0.0
0.0 0.0 0.0 0.0 0.0 0.0 0.0 0.0
-0.8944755 0.0 0.0 0.0 0.0 0.0 0.0 0.8944755
0.0 0.0 0.0 0.0 0.0 0.0 0.0 0.0
0.0 0.0 0.0 0.0 -0.8944755 0.0 0.0 0.0
0.0 0.0 0.0 0.0 0.0 0.0 -0.8944755 0.0
0.0 0.0 0.0 0.0 0.0 0.0 0.0 0.0
0.0 0.0 0.0 0.0 0.0 0.0 0.0 0.0
0.0 0.0 0.0 0.0 0.0 0.8944755 0.0 0.0
0.0 0.0 0.0 0.0 0.0 0.0 0.0 0.0
0.0 0.0 0.0 0.0 -0.8944755 0.0 0.0 0.0
0.0 0.0 0.0 0.0 0.0 0.0 0.0 0.0
0.0 0.0 0.0 0.0 0.0 0.0 0.0 0.0
-0.8944755 0.0 0.0 0.0 0.0 0.0 -0.8944755 0.0
0.0 0.0 0.0 0.0 0.0 0.0 0.0 0.8944755
0.0 0.0 0.0 0.0 0.0 0.0 0.0 0.0
0.0 0.0 0.0 0.0 0.0 0.0 0.0 0.0
0.0 0.0 -0.8944755 0.0 -0.8944755 0.0 0.0 0.0
0.0 0.0 0.0 0.0 0.0 0.0 0.0 0.0
0.0 0.0 0.0 0.0 0.0 0.0 0.0 0.0
0.0 0.8944755 0.0 0.0 0.0 0.0 0.8944755 0.0
0.0 0.0 0.0 0.0 0.0 0.0 0.0 0.0
0.0 0.0 0.0 0.0 0.0 0.0 0.0 0.0
0.0 0.0 0.0 0.0 0.0 0.0 0.0 0.0
0.0 0.0 0.0 0.0 0.0 -0.8944755 0.0 0.0
0.0 0.0 0.0 0.0 0.0 0.0 -0.8944755 0.0
0.0 0.0 0.0 -0.8944755 0.0 0.0 0.0 0.8944755
0.0 0.0 0.0 0.0 0.0 0.0 0.0 0.0
0.0 0.0 0.0 0.0 0.0 0.0 0.0 0.0
0.0 0.0 0.0 0.0 0.8944755 0.0 0.8944755 0.0
0.0 0.0 0.0 0.0 0.0 0.0 0.0 0.8944755

lr_lr_W f4 [185, 1]
00000000: 1f65 d73c 38dc 58bd c2dd a43c d627 d3bc
00000010: e287 353d 2802 dbbc 2ffd 753d 473f 16bd
00000020: 74f9 d3bc 2e6d 2b3c 4a76 9a3b c569 1e3c
00000030: 7032 963c dfdc 7a3c 5cb5 223c c55f 993c
00000040: de12 4e3c 6584 bc3c 43f9 713c 5e68 eb3c
00000050: 1771 963c 1521 053d a124 993c 0828 15bc
00000060: 740b 08bd 3911 7f3c ad64 10bc 5471 c53c
00000070: 76c2 d13c 605c 793b 6b79 1d3d 37a4 753d
00000080: 3873 723c 9bb8 70bc 84c0 d73b 7d7e cebc
00000090: 881a 3fbc 7e7b 33bc e9b3 44bc 6f68 3b3b
000000a0: 6776 223c 8c44 9e3b 6c21 b939 c980 303c
000000b0: 05a0 1f3c 1d6b 0e3c 3995 303c 9876 6e3c
000000c0: 9180 14bd 9876 6e3c deb3 6dbd 2517 243d
000000d0: 2b3f 63bd db98 2f3d ebb9 d33c c6d5 b13d
000000e0: 6b31 753c 6c59 d73b 7099 43bd eae3 9dbc
000000f0: 98ff 313d a4b9 0abd 02db 46bc 0941 32bd
00000100: f918 843b 3700 093d b170 b53c b68c 243c
00000110: 56d6 35bc 992c bcbb 8835 30bd ace0 b2bc
00000120: 3e66 94bc c247 0cbc 604e 3c3d 04c7 04ba
00000130: d2da 013d b68c 243c 38b3 2a3c f7fc dabc
00000140: a089 3bbc 0ef3 03bc 1210 8bbc ca70 1dbd
00000150: df3a 52bd a8a1 723b 2bc7 f33c 4286 26bc
00000160: a95f eabc 83fc 883c 4c82 5c3d 4fdd 233d
00000170: 4126 0c3d aabb 2e3c 91e4 a63b 1b0f 98bc
00000180: 221b f8bc f4eb 263c b509 9b3c eecf be3c
00000190: 0a2c 373d 3c7c f03b 6b74 a5bb 2d51 4dbc
000001a0: 8bc4 43bd c522 403d 6e41 4abc bc47 18bd
000001b0: ff0e 513a 559c 1cbb f7bf a33d 958c 243d
000001c0: 79e3 63ba 9d4b 45bc db2f c63c 5b6d 04bd
000001d0: 700a 013d 1587 88bc b805 3dbc 6a8b cabc
000001e0: 4c28 45bd a447 dcbb b2f9 133d 7699 463d
000001f0: c05f 703d c961 653d 4783 89bd 2427 07bc
00000200: bca7 99bc 5efb 0c3c a7c1 ff3a c783 843d
00000210: 1c0d 68bc e9b2 81bd e9b2 81bd 10af d2bc
00000220: 8b7e 31bc ce3f 393d 7314 16bc f1ca 5e3d
00000230: 2726 27bd 1875 35bd 01c8 7a3b 9c29 573c
00000240: 0f50 9e3c 5095 be3c eb3d f6bc 1988 afbc
00000250: 0941 32bd 445a 383d 699c 9f3d f918 843b
00000260: dd13 92bc 64d6 243d ca8f 923c 8fc1 6ebc
00000270: d5ec c3bc 10ce c93c e975 e1bb 3333 30bc
00000280: b00a 6d3c 899f 44bc a167 383d a167 383d
00000290: 7050 8dbd 4b29 3c3d e122 743d e369 1fbc
000002a0: 8582 afbc 5095 be3c 1c0d 68bc 1c0d 68bc
000002b0: 5899 75bc ca7c 2a3d da7f 063d 0768 aa3b
000002c0: 5d76 59bc 625c debc 3801 7dbc 7281 183d
000002d0: b22f 1cbd 3323 8dbc ced5 25bc 05b0 cdbc
000002e0: 3fdb b63c
0.026293335 -0.052944392 0.020125274 -0.025775831 0.04431904 -0.026734427 0.060055908 -0.03668144
-0.025875784 0.010463042 0.004713808 0.009668772 0.018334597 0.015311449 0.009930935 0.018722424
0.0125777405 0.02301235 0.014768901 0.02873629 0.018364472 0.032502253 0.018694224 -0.0091037825
-0.033214048 0.015568071 -0.0088130655 0.02410189 0.025605422 0.0038049445 0.03844587 0.05997106
0.014797978 -0.014692451 0.006584229 -0.025206799 -0.01166404 -0.010954736 -0.012005785 0.0028596183
0.009915925 0.004829949 0.0003531085 0.010772892 0.0097427415 0.00869253 0.010777765 0.014554642
-0.036255423 0.014554642 -0.058032863 0.040061135 -0.055480164 0.042870384 0.025845489 0.08683352
0.014965395 0.006571939 -0.04775375 -0.019273717 0.043456644 -0.033868447 -0.0121371765 -0.043519054
0.0040312973 0.03344747 0.022148462 0.010043314 -0.011098465 -0.005742621 -0.0430198 -0.021835648
-0.01811516 -0.00856203 0.04597318 -0.0005065056 0.031702824 0.010043314 0.010418706 -0.026731951
-0.011446387 -0.008053554 -0.016975436 -0.038437642 -0.051325675 0.0037022624 0.029758057 -0.0101638455
-0.028610067 0.01672197 0.0538352 0.04000598 0.03421617 0.01066486 0.005093165 -0.01856189
-0.030286375 0.010188092 0.018925527 0.023292508 0.044719733 0.0073390286 -0.0050492785 -0.012531561
-0.04779486 0.04690816 -0.012344701 -0.037177786 0.0007974952 -0.0023896892 0.07995599 0.040173132
-0.0008693259 -0.012041953 0.024192741 -0.032330852 0.031504095 -0.016665975 -0.011537008 -0.02472468
-0.048134133 -0.0067224074 0.0361268 0.048486196 0.058685064 0.05600146 -0.06714492 -0.008249078
-0.01875674 0.0086048525 0.0019512669 0.06470447 -0.014163282 -0.063329525 -0.063329525 -0.025718242
-0.010833393 0.045226865 -0.009160149 0.05439276 -0.04080787 -0.044301122 0.0038266184 0.013132479
0.019325284 0.023264557 -0.030058822 -0.021427201 -0.043519054 0.04500796 0.07793505 0.0040312973
-0.017831737 0.04024352 0.01789083 -0.014572515 -0.023916641 0.024634391 -0.006880511 -0.010754394
0.01446788 -0.012000927 0.045020703 0.045020703 -0.06900108 0.045937818 0.059603576 -0.009729835
-0.021424541 0.023264557 -0.014163282 -0.014163282 -0.014990173 0.041622914 0.032836773 0.0052003893
-0.013272849 -0.027143661 -0.015442185 0.037232824 -0.038131423 -0.017228698 -0.010121776 -0.025108347
0.022321342

svc_W2_svc f4 [185, 1]
00000000: df97 e03c 00bd c8bd c3b6 bb3c c368 64bd
00000010: bc4a 603d 92ec 1abc b761 c83d b39f 1fbd
00000020: 5e81 37bd 7450 c53c 3479 113c faa5 7f3c
00000030: 61a9 df3c 40b3 bd3c fb2c 863c 5fc9 e93c
00000040: b88f a73c 2532 0e3d 112d c73c 82af 3c3d
00000050: ff94 093d 5b7d 583d a911 163d e0d1 c1bb
00000060: a85c 43bd 5134 423d d2a6 23bd e491 193c
00000070: fda8 7b3d 9324 133d 1d83 143d 8e5f 9a3d
00000080: 492a cd3c 8c4b febc e99d 3a3c 7dcd 23bd
00000090: f414 66bc f800 9bbc e41a 0abd 3c35 adba
000000a0: 8cf2 843c 77aa 133c 705b 5cbc c442 883c
000000b0: 479a 783c e6ef 523c b402 8f3c c1eb 953c
000000c0: 3ba2 53bd c1eb 953c 2619 d1bd 2a08 aa3d
000000d0: bdd5 c5bd 5dda a93d a0ba 053d 053c 033e
000000e0: 999b be3c 6330 3a3c 378d 88bd 5482 d0bc
000000f0: ddc2 973d 4d6b 54bd ca46 6cbc 7ca6 4fbd
00000100: b143 c53b d47a 4a3d 1150 063d 8f0a 683c
00000110: 5166 e4bb 542a fabb 46ff 75bd e630 ebbc
00000120: bc26 eabc 0527 5dbc a242 af3d fe85 1fba
00000130: 9d19 733d 8f0a 683c b0c8 873c aeca 23bd
00000140: 3b56 63bc 6dff e2bc 85b5 5bbb 3ef0 66bd
00000150: f9e7 adbd 490d 713c e5c8 4d3d 4b56 9ebc
00000160: 71a4 7fbc 2c7f 423c d241 b43d a740 2e3d
00000170: 22e0 5e3d a115 823c c032 203c b911 ccbc
00000180: d8cb 09bd be19 ac3c 4aa1 883c 68f1 193d
00000190: 7939 6f3d 066f 043c 7c36 0abc 42f2 e9bc
000001a0: 40f5 a0bd 3828 a13d 2b38 89bc f511 46bd
000001b0: 535d 8e3b 687c cfbb 3fbb f53d b9bb 803d
000001c0: 39ff 5bba 846f 0abd c322 d23c 7d76 2cbd
000001d0: 3b36 1e3d 25e1 05bd ebc1 18bc 85e0 f9bc
000001e0: de29 96bd f942 aabc 16f9 de3c 757b b53d
000001f0: c032 a93d d703 a13d 12bd 90bd 93ce e5bb
00000200: 53ae 99bc 69af 1f3d a849 96bb 5af7 dc3d
00000210: e01a c2bc 2b4e 91bd 2b4e 91bd 90a8 ecbc
00000220: dd30 5fbc 1a96 883d b15e d5bb 688f b73d
00000230: 4c81 83bd 1c7e 7dbd 4d7a 843c 72fe c3ba
00000240: fa0b 2f3d aaa2 093d 7c9c a2bd 8328 4fbd
00000250: 7ca6 4fbd c5bb b43d 24e7 103e b143 c53b
00000260: 389b 07bd 394c 713d 1f93 913c 8c3b c7bc
00000270: 4300 17bd a81c e73c 3b77 2fbd 97f8 05bd
00000280: 43de 973c 8a53 7bbc d26a 543d d26a 543d
00000290: 858c c5bd 3dbb 553d baac df3d be8a 2bbd
000002a0: a49c d6bc aaa2 093d e01a c2bc e01a c2bc
000002b0: c0a1 98bc 4652 973d 5d7a 9f3d ca65 e8bc
000002c0: 3ecf d3bc 7e07 d2bb fcb2 d9bc 1209 863d
000002d0: 2672 86bd a760 89bc a109 a1bc 0bdd b7bc
000002e0: cd7c ed3c
0.027416168 -0.09801674 0.022914296 -0.05576397 0.054758772 -0.009455817 0.097842626 -0.03897066
-0.04480111 0.024086215 0.008878995 0.015603537 0.027302446 0.023156762 0.01637887 0.028538404
0.020454273 0.03471579 0.024313482 0.046065815 0.03358936 0.052853923 0.036637936 -0.0059149116
-0.047695786 0.047413174 -0.039954014 0.009373162 0.061440457 0.03592355 0.036257852 0.07537757
0.025044577 -0.031041883 0.011390188 -0.03999089 -0.014043082 -0.01892136 -0.03371705 -0.0013214718
0.016228937 0.00901281 -0.013449535 0.016633399 0.015173501 0.012874579 0.017457344 0.018300893
-0.051668387 0.018300893 -0.10209875 0.083023384 -0.09659908 0.082936026 0.032648683 0.12815864
0.023267554 0.011364075 -0.066675596 -0.02545277 0.07410214 -0.051860142 -0.014421174 -0.05069588
0.0060200323 0.049433544 0.0327912 0.014162674 -0.006970205 -0.0076344404 -0.0600579 -0.02870984
-0.028582923 -0.0134980725 0.08557631 -0.0006085335 0.0593506 0.014162674 0.016575187 -0.039988212
-0.013875539 -0.027709687 -0.0033524942 -0.056381457 -0.08491511 0.01471264 0.050240416 -0.019328257
-0.015603171 0.01187114 0.08801617 0.042542126 0.05441297 0.015879454 0.009777725 -0.024910795
-0.033641666 0.021008369 0.016678471 0.03758374 0.05840442 0.008083111 -0.008435842 -0.0285579
-0.07859278 0.07868999 -0.016750416 -0.04835697 0.004344621 -0.006331969 0.11998605 0.06285805
-0.0008392218 -0.033797756 0.025651341 -0.042105187 0.038625937 -0.032685418 -0.009323577 -0.030502567
-0.07332204 -0.020783888 0.027218383 0.08861438 0.08261633 0.078620605 -0.07067312 -0.007013151
-0.018759882 0.038985644 -0.004586417 0.10789366 -0.023694456 -0.070949875 -0.070949875 -0.02888897
-0.01362249 0.066692546 -0.0065115322 0.089628994 -0.06421146 -0.061887845 0.016171599 -0.001495315
0.04273603 0.033602394 -0.07940003 -0.050575744 -0.05069588 0.08824877 0.14150673 0.0060200323
-0.033107013 0.058910582 0.017770348 -0.024320386 -0.036865484 0.028211907 -0.042838316 -0.032707777
0.0185386 -0.0153397415 0.051859684 0.051859684 -0.096459426 0.052180517 0.10921617 -0.04188036
-0.026197739 0.033602394 -0.023694456 -0.023694456 -0.018631816 0.07388739 0.07787011 -0.02836885
-0.025855657 -0.0064095845 -0.026574604 0.06544699 -0.06564741 -0.01676972 -0.019657912 -0.022444269
0.028990174

fs_lr_fs_lr_W f4 [35, 1]
00000000: cfde 1abb b1d1 25bb f10b 213b 326b 433b
00000010: 7609 673b b918 fdba 7fb5 1cbb e8a6 0ebb
00000020: 2e96 0f3b 5b97 163b 1105 ee3a f318 f9ba
00000030: 685a 0c3b d8e0 fcba 67e0 17bb afb9 623b
00000040: 4520 e93a f59e 013b c201 03bb ae60 fc3a
00000050: f054 423b 5cdd 313b 90bd 5abb e896 3cbb
00000060: e896 3cbb 66e0 f3ba 7fb5 1cbb 563f 033b
00000070: 2375 053b 614c 063b 614c 063b 4c0d 4ebb
00000080: cdc3 323b af11 193b 747e 11bb
-0.002363134 -0.0025301988 0.0024573768 0.0029818532 0.0035253442 -0.0019309736 -0.002391189 -0.0021766964
0.0021909582 0.0022978398 0.0018159469 -0.0019004628 0.002141619 -0.0019293083 -0.0023174526 0.003459554
0.0017786106 0.0019778584 -0.0019990061 0.0019254887 0.0029652677 0.0027139997 -0.0033377148 -0.002877647
-0.002877647 -0.0018606305 -0.002391189 0.0020026765 0.0020364008 0.0020492303 0.0020492303 -0.003144103
0.002727735 0.0023356488 -0.0022200616

fs_svc_W2_fs_svc f4 [35, 1]
00000000: db14 dfbc bca5 ecbc bdbb d33c 54d4 0a3d
00000010: 3c7e 393d 3289 dbbc 7132 fbbc 5c25 cebc
00000020: f3b9 c93c 959a d73c e8a6 913c 66c1 bbbc
00000030: 3375 d33c d8d5 c3bc 588f ddbc b029 2d3d
00000040: 4611 963c d6ac ad3c 8f1b c5bc 8c0a d73c
00000050: ae76 043d d90d fd3c d00b 2bbd 1bfd 0dbd
00000060: 1bfd 0dbd c7af c0bc 7132 fbbc 0699 fa3c
00000070: 6937 a83c 8db5 c63c 8db5 c63c 6443 23bd
00000080: 407c f03c 923b d73c 19b7 d2bc
-0.027231624 -0.028887622 0.025846357 0.033893898 0.045286402 -0.026798818 -0.0306637 -0.025164299
0.0246248 0.026318828 0.017779782 -0.022919368 0.02581272 -0.02390568 -0.02704589 0.042276084
0.018318783 0.021200579 -0.024060993 0.026250146 0.032339744 0.030890392 -0.041759312 -0.03466521
-0.03466521 -0.023521317 -0.0306637 0.030590545 0.020534234 0.024256492 0.024256492 -0.03985919
0.029356122 0.026273523 -0.025722073

mfs_lr_mfs_lr_W f4 [28, 1]
00000000: 73c5 1a3e 3b44 733e 4417 0abe f7a3 b6bd
00000010: 0923 783d 8882 a23d 1e39 b7bc 8b96 643e
00000020: 5aef 89bd 6a6d d63a 2157 693c eee9 23be
00000030: 2157 693c 6065 c73d d7f7 813e 8e59 2abe
00000040: 6f19 493e 9cbd 243d f4fa edbd 54a3 423e
00000050: 6bef cabd 2b91 8e3e 392b 10be be98 303d
00000060: 7dc2 dcbd 7d0d 573e d81e 063e 6296 82be
0.15114383 0.23756497 -0.13485438 -0.089179926 0.060580287 0.07935053 -0.022366103 0.22323053
-0.06735106 0.0016359512 0.014241965 -0.16007206 0.014241965 0.097361326 0.253844 -0.16635725
0.19638608 0.040219888 -0.11620131 0.19007617 -0.099089466 0.2784513 -0.14078988 0.043114416
-0.10779283 0.21001239 0.13097703 -0.25505358

mfs_svc_W2_mfs_svc f4 [28, 1]
00000000: 340e 063e b8fd 1c3e 4e69 02be b9cb 64bd
00000010: 9ae7 423d 4851 653d 6b12 06bd fd5b 253e
00000020: 2e49 55bd e36a 82bc 3715 db3c 32fd cebd
00000030: 3715 db3c 2677 843d d9a9 513e 505e 13be
00000040: 5159 fc3d 2be8 b23d 821c cabd fe7a 093e
00000050: 5dce 47bd 151f 533e 0cc3 ddbd 1a4d 823d
00000060: ba83 c6bd 90dc 073e d3a7 053e 7ed1 42be
0.13091356 0.15331161 -0.12735483 -0.055858348 0.047584154 0.05598572 -0.03273241 0.16148372
-0.052071743 -0.015920108 0.026743514 -0.10106887 0.026743514 0.06468038 0.20474948 -0.14391446
0.12321723 0.08735689 -0.09868719 0.13425824 -0.048780788 0.20617326 -0.10828218 0.06362362
-0.096930936 0.13267732 0.13052301 -0.19025227

lv_lr_lv_lr_W f4 [17, 1]
00000000: 44d8 54bd cc7d 44be 476c 293e 8622 693e
00000010: fac5 bdbe 8bb3 52be 9550 fd3d 5298 9fbd
00000020: 0121 933d da31 a0be 6b2f 17be 0a43 a93c
00000030: 9b56 d2bd 2b6d c73e cab6 163c 95e2 f33d
00000040: 0b38 d43d
-0.05196406 -0.19188613 0.16545211 0.22767076 -0.37065107 -0.20576303 0.123688854 -0.07792725
0.07184029 -0.31288034 -0.14764182 0.02066185 -0.10270425 0.38950476 0.009198854 0.119084515
0.10362252

lv_svc_W2_lv_svc f4 [17, 1]
00000000: 44b3 88bc 82d3 54bd d867 583d 30ab 883d
00000010: 4d3d e1bd 2467 79bd 0980 1d3d 456e acbc
00000020: 31ae b63c d863 c1bd 8ccf 18bd 52c6 f03b
00000030: 3b28 12bd 8f14 013e 86c8 2a3b ad89 053d
00000040: 90a8 0c3d
-0.016687043 -0.051959522 0.052833408 0.066732764 -0.1099802 -0.06088938 0.038452182 -0.021048674
0.022299858 -0.09442872 -0.037307307 0.0073478604 -0.035682898 0.12605499 0.0026059463 0.032602
0.03434044

lv_mlp_net.0.weight f4 [5, 17]
00000000: 6d44 863e 0c4c a33e 6a7c 32bf 00ef 73be
00000010: 5111 763e cd42 d93e 1985 7bbd f82f 07be
00000020: 602f fbbe 1874 db3e a232 373e c7f5 f83d
00000030: f2df fb3e 248f 28bf 782a 533d e7bb 03bc
00000040: 9f58 22be 187e 573d f75c 0e3e b081 b1be
00000050: 7f7a 45be 8eef 62be af33 5e3f b72a ddbd
00000060: cd48 a73d c0c0 3ebe c469 073f faab 0d3f
00000070: 91d2 c43d 3459 bc3e a523 47be e538 a23e
00000080: 8260 bb3d 3243 51bd 1243 743d 4170 503e
00000090: 333b b1be 1e30 47be ae0d 383e d928 073f
000000a0: 8ce3 b5be 4bf3 a8be bee8 b1be 8480 8e3a
000000b0: cb44 e93e 7c97 853d 64be a03e ac4a fcbe
000000c0: b372 e4be 8700 083e 1647 8abe 7a58 a33d
000000d0: d8e2 4d3e 5642 8a3e 2768 023d 3fe5 bc3d
000000e0: a240 863f 5f39 a23c e309 893f ee05 493e
000000f0: f637 373f d8bd 123e 98c3 a1bd 87a5 423e
00000100: 52e5 bfbe a979 f9bd df33 95be 6a97 ad3c
00000110: 86e6 813d 5678 1fbe 176b 003f a111 c13e
00000120: 80d5 07bd 7d98 2c3e 54ec 9bbd ec82 13bc
00000130: d663 cabd af1a b13d 70d1 f93c 6edb 933d
00000140: 6db2 b0be 3569 583f c663 793d b141 cf3e
00000150: 100b a3be
0.2622408 0.31893957 -0.6972109 -0.2382164 0.24030043 0.42433777 -0.06140623 -0.13201892
-0.49059582 0.4286201 0.17890409 0.12156253 0.49194294 -0.65843415 0.051554173 -0.008040405
-0.15854119 0.052610487 0.13902651 -0.34669256 -0.1928501 -0.22161695 0.8679761 -0.10799163
0.081681825 -0.18628216 0.5289576 0.5534054 0.09610475 0.36786807 -0.19447191 0.31684032
0.09149267 -0.051089473 0.059634276 0.20355321 -0.34615478 -0.19451949 0.17973968 0.52796704
-0.35525167 -0.32998118 -0.3474788 0.0010872041 0.45560297 0.06523034 0.31395257 -0.4927572
-0.4461876 0.13281451 -0.2700736 0.0797586 0.20106065 0.27003735 0.03183761 0.09223413
1.0488474 0.019802747 1.0706142 0.19631168 0.71569765 0.14330232 -0.07898635 0.19008456
-0.37479645 -0.12181408 -0.29141137 0.021190364 0.06342797 -0.15573248 0.50163406 0.37708762
-0.033162594 0.16855045 -0.076134354 -0.009003382 -0.098823234 0.086476676 0.030495375 0.07219587
-0.34511128 0.84535533 0.060886167 0.40479806 -0.31844378

lv_mlp_net.0.bias f4 [5]
00000000: 322a 9dbd af4f 4a3e dee0 22be 4532 3fbf
00000010: 9802 bdbe
-0.07674064 0.1975696 -0.15906093 -0.7468608 -0.3691604

lv_mlp_net.3.weight f4 [1, 5]
00000000: f788 02bf c688 a4be 0d22 89be f2a4 e9be
00000010: 0d61 a03e
-0.5099024 -0.321356 -0.2678379 -0.45633656 0.31324044
