model/checkpoints/valitalo2016/rdkit/model_000.onnx (onnx, 36252 bytes, 12 tensors)

lv_onnx::MatMul_4 f4 [185, 13]
000000 00 00 00 00 00 00 00 00 00 00 00 00 00 00 00 00
       0.0 0.0 0.0 0.0
000010 00 00 00 00 00 00 00 00 00 00 00 00 00 00 00 00
       0.0 0.0 0.0 0.0
000020 78 ed 82 3f 00 00 00 00 00 00 00 00 00 00 00 00
       1.022872 0.0 0.0 0.0
000030 00 00 00 00 00 00 00 00 00 00 00 00 00 00 00 00
       0.0 0.0 0.0 0.0
000040 00 00 00 00 00 00 00 00 00 00 00 00 00 00 00 00
       0.0 0.0 0.0 0.0
000050 78 ed 82 3f 00 00 00 00 00 00 00 00 00 00 00 00
       1.022872 0.0 0.0 0.0
000060 00 00 00 00 00 00 00 00 00 00 00 00 00 00 00 00
       0.0 0.0 0.0 0.0
000070 00 00 00 00 00 00 00 00 00 00 00 00 00 00 00 00
       0.0 0.0 0.0 0.0
000080 00 00 00 00 00 00 00 00 00 00 00 00 00 00 00 00
       0.0 0.0 0.0 0.0
000090 78 ed 82 bf 00 00 00 00 00 00 00 00 00 00 00 00
       -1.022872 0.0 0.0 0.0
0000a0 00 00 00 00 00 00 00 00 78 ed 82 bf 00 00 00 00
       0.0 0.0 -1.022872 0.0
0000b0 00 00 00 00 00 00 00 00 00 00 00 00 00 00 00 00
       0.0 0.0 0.0 0.0
0000c0 00 00 00 00 00 00 00 00 00 00 00 00 00 00 00 00
       0.0 0.0 0.0 0.0
0000d0 00 00 00 00 00 00 00 00 00 00 00 00 00 00 00 00
       0.0 0.0 0.0 0.0
0000e0 00 00 00 00 00 00 00 00 00 00 00 00 00 00 00 00
       0.0 0.0 0.0 0.0
0000f0 00 00 00 00 78 ed 82 3f 00 00 00 00 00 00 00 00
       0.0 1.022872 0.0 0.0
000100 00 00 00 00 00 00 00 00 00 00 00 00 00 00 00 00
       0.0 0.0 0.0 0.0
000110 00 00 00 00 00 00 00 00 00 00 00 00 00 00 00 00
       0.0 0.0 0.0 0.0
000120 78 ed 82 bf 00 00 00 00 00 00 00 00 00 00 00 00
       -1.022872 0.0 0.0 0.0
000130 00 00 00 00 00 00 00 00 00 00 00 00 00 00 00 00
       0.0 0.0 0.0 0.0
000140 00 00 00 00 00 00 00 00 00 00 00 00 00 00 00 00
       0.0 0.0 0.0 0.0
000150 00 00 00 00 00 00 00 00 00 00 00 00 00 00 00 00
       0.0 0.0 0.0 0.0
000160 78 ed 82 3f 00 00 00 00 00 00 00 00 00 00 00 00
       1.022872 0.0 0.0 0.0
000170 00 00 00 00 00 00 00 00 00 00 00 00 00 00 00 00
       0.0 0.0 0.0 0.0
000180 00 00 00 00 00 00 00 00 00 00 00 00 78 ed 82 bf
       0.0 0.0 0.0 -1.022872
000190 00 00 00 00 00 00 00 00 00 00 00 00 00 00 00 00
       0.0 0.0 0.0 0.0
0001a0 00 00 00 00 00 00 00 00 00 00 00 00 00 00 00 00
       0.0 0.0 0.0 0.0
0001b0 00 00 00 00 00 00 00 00 00 00 00 00 00 00 00 00
       0.0 0.0 0.0 0.0
0001c0 00 00 00 00 00 00 00 00 78 ed 82 3f 00 00 00 00
       0.0 0.0 1.022872 0.0
0001d0 78 ed 82 3f 00 00 00 00 00 00 00 00 00 00 00 00
       1.022872 0.0 0.0 0.0
0001e0 00 00 00 00 00 00 00 00 00 00 00 00 00 00 00 00
       0.0 0.0 0.0 0.0
0001f0 00 00 00 00 00 00 00 00 00 00 00 00 00 00 00 00
       0.0 0.0 0.0 0.0
000200 00 00 00 00 00 00 00 00 00 00 00 00 00 00 00 00
       0.0 0.0 0.0 0.0
000210 00 00 00 00 00 00 00 00 78 ed 82 3f 00 00 00 00
       0.0 0.0 1.022872 0.0
000220 00 00 00 00 00 00 00 00 00 00 00 00 00 00 00 00
       0.0 0.0 0.0 0.0
000230 00 00 00 00 00 00 00 00 00 00 00 00 00 00 00 00
       0.0 0.0 0.0 0.0
000240 00 00 00 00 00 00 00 00 00 00 00 00 00 00 00 00
       0.0 0.0 0.0 0.0
000250 00 00 00 00 00 00 00 00 00 00 00 00 00 00 00 00
       0.0 0.0 0.0 0.0
000260 00 00 00 00 00 00 00 00 00 00 00 00 00 00 00 00
       0.0 0.0 0.0 0.0
000270 00 00 00 00 78 ed 82 3f 00 00 00 00 00 00 00 00
       0.0 1.022872 0.0 0.0
000280 00 00 00 00 00 00 00 00 00 00 00 00 00 00 00 00
       0.0 0.0 0.0 0.0
000290 00 00 00 00 00 00 00 00 78 ed 82 bf 00 00 00 00
       0.0 0.0 -1.022872 0.0
0002a0 00 00 00 00 00 00 00 00 00 00 00 00 78 ed 82 3f
       0.0 0.0 0.0 1.022872
0002b0 00 00 00 00 00 00 00 00 00 00 00 00 00 00 00 00
       0.0 0.0 0.0 0.0
0002c0 00 00 00 00 00 00 00 00 00 00 00 00 00 00 00 00
       0.0 0.0 0.0 0.0
0002d0 00 00 00 00 00 00 00 00 00 00 00 00 00 00 00 00
       0.0 0.0 0.0 0.0
0002e0 00 00 00 00 00 00 00 00 00 00 00 00 00 00 00 00
       0.0 0.0 0.0 0.0
0002f0 78 ed 82 3f 00 00 00 00 78 ed 82 3f 00 00 00 00
       1.022872 0.0 1.022872 0.0
000300 00 00 00 00 00 00 00 00 00 00 00 00 78 ed 82 3f
       0.0 0.0 0.0 1.022872
000310 78 ed 82 3f 00 00 00 00 00 00 00 00 00 00 00 00
       1.022872 0.0 0.0 0.0
000320 78 ed 82 3f 00 00 00 00 00 00 00 00 00 00 00 00
       1.022872 0.0 0.0 0.0
000330 00 00 00 00 00 00 00 00 00 00 00 00 00 00 00 00
       0.0 0.0 0.0 0.0
000340 00 00 00 00 00 00 00 00 00 00 00 00 00 00 00 00
       0.0 0.0 0.0 0.0
000350 00 00 00 00 00 00 00 00 00 00 00 00 00 00 00 00
       0.0 0.0 0.0 0.0
000360 00 00 00 00 00 00 00 00 00 00 00 00 00 00 00 00
       0.0 0.0 0.0 0.0
000370 78 ed 82 3f 00 00 00 00 00 00 00 00 00 00 00 00
       1.022872 0.0 0.0 0.0
000380 00 00 00 00 00 00 00 00 00 00 00 00 00 00 00 00
       0.0 0.0 0.0 0.0
000390 00 00 00 00 00 00 00 00 00 00 00 00 00 00 00 00
       0.0 0.0 0.0 0.0
0003a0 00 00 00 00 00 00 00 00 00 00 00 00 00 00 00 00
       0.0 0.0 0.0 0.0
0003b0 00 00 00 00 00 00 00 00 00 00 00 00 00 00 00 00
       0.0 0.0 0.0 0.0
0003c0 00 00 00 00 00 00 00 00 00 00 00 00 00 00 00 00
       0.0 0.0 0.0 0.0
0003d0 78 ed 82 3f 00 00 00 00 00 00 00 00 00 00 00 00
       1.022872 0.0 0.0 0.0
0003e0 00 00 00 00 00 00 00 00 00 00 00 00 00 00 00 00
       0.0 0.0 0.0 0.0
0003f0 00 00 00 00 00 00 00 00 00 00 00 00 00 00 00 00
       0.0 0.0 0.0 0.0

lr_lr_W f4 [185, 1]
000000 3d c9 1b 3d e8 0c 00 be 06 df 11 3d 52 a4 a6 bd
       0.038033713 -0.12504923 0.035613082 -0.0813681
000010 8f d9 8a 3d 11 e0 5c bb 34 10 ed 3d d5 51 24 bd
       0.06779777 -0.003370289 0.11575356 -0.040117104
000020 23 70 6d bd 4d 08 92 3c e8 fd 11 3c 85 8e 89 3c
       -0.05796827 0.017826224 0.008910634 0.016791591
000030 05 49 02 3d 73 28 df 3c 8a 00 9e 3c cc 02 0f 3d
       0.031807918 0.027240967 0.019287366 0.034914777
000040 09 85 d7 3c 46 ce 23 3d 08 28 ee 3c 11 d5 64 3d
       0.026308553 0.03999164 0.029071823 0.05586726
000050 39 a6 2f 3d 39 62 89 3d fd 30 4e 3d 51 79 50 bc
       0.04288313 0.067081876 0.050339688 -0.012724237
000060 11 84 8f bd d9 2f 8a 3d 87 2d 65 bd 81 6d 57 3c
       -0.070076115 0.067474075 -0.05595162 0.013148666
000070 fd d4 a9 3d d4 d7 52 3d af b2 24 3d b1 60 d7 3d
       0.082925774 0.05147536 0.04020947 0.10516489
000080 d7 9a e9 3c 6c 9e 1e bd bb 81 52 3c 38 08 56 bd
       0.028516216 -0.0387253 0.012848313 -0.05225393
000090 7b 1e 82 bc 19 15 ae bc 7b 39 0b bd 64 48 83 3b
       -0.015883675 -0.021250295 -0.033990365 0.0040064324
0000a0 85 15 97 3c 24 e9 21 3c 2c 06 eb bc 96 d2 96 3c
       0.018442878 0.009882245 -0.028689466 0.018410962
0000b0 69 22 a2 3c a9 71 85 3c 41 20 a6 3c f5 c4 8e 3c
       0.019791799 0.016289549 0.020279052 0.0174279
0000c0 bd 2e 8a bd f5 c4 8e 3c 4d dc ee bd cb 6e c6 3d
       -0.06747196 0.0174279 -0.11663113 0.09689101
0000d0 07 be e5 bd f9 ad bf 3d 52 e7 43 3d 4a f8 22 3e
       -0.112178855 0.093593545 0.047828026 0.15915027
0000e0 87 d3 e4 3c 55 02 52 3c 23 db a8 bd 14 2b 08 bd
       0.027932895 0.012817939 -0.08244922 -0.033244208
0000f0 44 a7 b9 3d 28 32 6b bd 52 fc 37 bc 56 63 75 bd
       0.090651065 -0.05742088 -0.011229591 -0.059909187
000100 63 61 0f 3c 78 56 67 3d cc 81 20 3d 2a d9 7b 3c
       0.008751246 0.056478947 0.039186284 0.0153716
000110 ea 05 45 bc 56 b9 3c bc 74 b6 9c bd 71 04 13 bd
       -0.012025336 -0.011518797 -0.07651988 -0.035892908
000120 d6 7b fc bc 34 93 de bb 1e 19 d4 3d e5 b3 be 3b
       -0.030820768 -0.0067924503 0.10356353 0.005819785
000130 80 a9 a0 3d 2a d9 7b 3c ca 63 9a 3c 92 39 4a bd
       0.078448296 0.0153716 0.018846411 -0.04937131
000140 7b 66 aa bc 3c 6f 55 bd 31 34 9a bb a3 48 94 bd
       -0.02080082 -0.052108034 -0.0047059287 -0.07240417
000150 1d e9 d3 bd 24 46 29 3c 78 5f 72 3d d9 6f b0 bc
       -0.10347197 0.010331664 0.059173077 -0.021537708
000160 f4 e3 6f bc de dc 6a 3c 66 ee e4 3d 58 da 46 3d
       -0.014641751 0.014334885 0.111782834 0.048548073
000170 47 1c 9d 3d e7 4f a4 3c 5f 77 7d 3c 19 44 1b bd
       0.07671409 0.020057632 0.015470355 -0.03790674
000180 ab 6a 2b bd c4 80 0d 3d bc a2 6c 3c b4 2e 45 3d
       -0.041849773 0.03454663 0.014443096 0.048140243
000190 af 95 95 3d c9 7e 0d 3c 35 ae 65 bc 53 b3 02 bd
       0.073039405 0.008636185 -0.014018585 -0.0319093
0001a0 3b cf c2 bd 0c 33 bc 3d 7e 28 e7 bc 99 87 5c bd
       -0.09512182 0.09189424 -0.02821755 -0.053840254
0001b0 b8 e6 96 3b c5 a9 18 bc b0 96 09 3e f4 ff 9d 3d
       0.0046051405 -0.00931782 0.13436389 0.07714835
0001c0 f6 5d 0f 3b 9e 69 1f bd ee 97 0a 3d f6 b0 5f bd
       0.0021876073 -0.038919084 0.033836298 -0.054612122
0001d0 75 87 4d 3d a9 ad 17 bd 38 8b 6e bc bd 57 44 bd
       0.05017801 -0.03703085 -0.0145595595 -0.047935236
0001e0 3e 97 99 bd b2 a7 90 bc fd 14 1e 3d 3f b1 fd 3d
       -0.0749955 -0.017658088 0.038594235 0.12387323
0001f0 86 2b bc 3d 51 0e a9 3d 45 26 d3 bd 02 93 a2 bc
       0.09187989 0.08254684 -0.10310034 -0.01984549
000200 fa e0 e9 bc db 7c 28 3d 90 01 d0 bb 0f 5d 0a 3e
       -0.02854966 0.041134696 -0.0063478425 0.13512062
000210 7c ba 14 bd b3 85 d3 bd b3 85 d3 bd 4b 58 2a bd
       -0.036310658 -0.103282355 -0.103282355 -0.04158811
000220 14 6a 95 bc 55 50 93 3d 34 9e c8 ba 59 70 e7 3d
       -0.018239059 0.071930565 -0.0015305937 0.113007255
000230 bc f0 95 bd 7d ad 89 bd e5 80 a3 3c d2 8a 20 3c
       -0.07321307 -0.067225434 0.019958923 0.009798722
000240 4a f4 89 3d 82 b1 4b 3d be 8a a8 bd 46 1d 81 bd
       0.067360476 0.04972983 -0.08229588 -0.063044116
000250 56 63 75 bd 7f a0 ce 3d 76 51 41 3e 63 61 0f 3c
       -0.059909187 0.10089206 0.18878731 0.008751246
000260 7a ed 23 bd a6 0e 8f 3d 3a 78 a3 3c 2c fb cf bc
       -0.040021397 0.06985216 0.01995479 -0.025388323
000270 fa 05 1d bd e5 05 10 3d 46 89 8b bd ce 34 33 bd
       -0.038335778 0.03516187 -0.06813292 -0.04375153
000280 30 9d a4 3c 21 b4 8a bc 67 94 58 3d 67 94 58 3d
       0.020094484 -0.016931595 0.052875903 0.052875903
000290 d8 fc eb bd ee 96 50 3d bb e5 fc 3d ea 96 7c bd
       -0.115228355 0.050925188 0.12348505 -0.06166736
0002a0 5b dc d0 bc 82 b1 4b 3d 7c ba 14 bd 7c ba 14 bd
       -0.025495699 0.04972983 -0.036310658 -0.036310658
0002b0 97 d4 98 bc 69 60 aa 3d 6b e1 e3 3d be 46 4e bd
       -0.018656058 0.0831917 0.111269794 -0.050360434
0002c0 69 d8 dd bc ab 5f ba 39 32 00 d1 bc 40 1b 9a 3d
       -0.027080731 0.00035547963 -0.025512788 0.07524729
0002d0 1f c1 9c bd 64 86 bb bc 47 47 88 bc f4 ad 1f bd
       -0.076540224 -0.02289123 -0.01663555 -0.038984254
0002e0 16 7b b3 3c
       0.021909278

svc_W2_svc f4 [185, 1]
000000 32 49 f1 3c 50 1c 9e bd 12 09 c1 3c 47 71 1c bd
       0.029453848 -0.07720244 0.023563895 -0.038193967
000010 58 5d 62 3d dd fd c5 bc bd ea ac 3d af 82 2b bd
       0.0552648 -0.024168903 0.0844321 -0.041872676
000020 c9 45 10 bd 8e 85 99 3c 54 a7 fb 3b 5b c8 5f 3c
       -0.035222802 0.018740442 0.007679859 0.013658608
000030 bf e9 c8 3c b2 c0 a9 3c 18 a9 64 3c 27 e0 cc 3c
       0.024525521 0.020721767 0.013956331 0.025009228
000040 f3 d6 8d 3c ad 3c fd 3c c1 aa a9 3c 0a 91 20 3d
       0.01731441 0.030912722 0.020711305 0.03920082
000050 61 9f d9 3c 36 12 35 3d ee f3 e0 3c 98 63 10 bc
       0.026565256 0.04420682 0.027460065 -0.0088128075
000060 de 24 2a bd 84 97 ee 3c 88 61 a0 bc 51 58 ab 3c
       -0.041539066 0.029124983 -0.019577757 0.020916136
000070 6a 63 2f 3d 66 28 86 3c c3 50 31 3d e9 60 91 3d
       0.042819418 0.016376685 0.04328991 0.07098562
000080 da 55 bb 3c 4d 60 be bc fe 63 1e 3c 3a 3a 09 bd
       0.022868086 -0.02323928 0.009667395 -0.033502795
000090 67 f2 66 bc 2a ee 7c bc 93 0f c3 bc a2 4b 1a 3a
       -0.014095879 -0.015437642 -0.023811137 0.0005885904
0000a0 88 02 65 3c 26 2b f5 3b f0 5b 0e bb 0e 35 72 3c
       0.013977654 0.0074819503 -0.002172228 0.014783157
0000b0 00 53 54 3c cf e4 3b 3c 2c 50 77 3c 6e 30 97 3c
       0.012959242 0.011468126 0.015094798 0.01845571
0000c0 a0 f3 3c bd 6e 30 97 3c 4e 10 b1 bd 74 5b 80 3d
       -0.046130776 0.01845571 -0.08645688 0.06267443
0000d0 e6 a3 a8 bd f8 e7 84 3d 22 1a fb 3c b1 04 eb 3d
       -0.08234386 0.06489557 0.03065211 0.11475504
0000e0 e6 9b a7 3c ca 17 1e 3c b4 18 7b bd 4f c0 c4 bc
       0.02046008 0.009649226 -0.061302856 -0.024017481
0000f0 c5 1a 7f 3d 98 89 3f bd a0 fa 7d bc 0c 38 55 bd
       0.06228139 -0.04676208 -0.015501648 -0.052055404
000100 a3 e3 c1 3b 0d 6e 37 3d 55 d7 f6 3c e3 5b 49 3c
       0.005917029 0.044782687 0.030131975 0.012289974
000110 d2 ee 28 bc 2f 63 e5 bb ec 34 60 bd 5a 4e dd bc
       -0.010310845 -0.007000349 -0.05473797 -0.0270149
000120 b9 52 d2 bc 66 ce 4c bc 00 64 8b 3d 0f 39 54 bb
       -0.02567421 -0.012500381 0.06806183 -0.0032382642
000130 25 f3 35 3d e3 5b 49 3c 94 91 6c 3c 66 44 12 bd
       0.044421334 0.012289974 0.014439005 -0.03570976
000140 e9 95 5d bc 8d 30 62 bc fc a7 5f bc 33 13 47 bd
       -0.013524511 -0.013805521 -0.01365089 -0.048602294
000150 ee 00 94 bd 5c 17 23 3c 3c 77 2a 3d 0f 4e 63 bc
       -0.0722674 0.0099543 0.041617617 -0.013873591
000160 77 0c e0 bc d6 ee 92 3c b6 8c 96 3d 03 5b 3f 3d
       -0.027349694 0.017936151 0.07351057 0.046717655
000170 81 f6 38 3d 59 e6 64 3c 3f ed f7 3b 23 93 bb bc
       0.04515696 0.013970935 0.0075661237 -0.022897309
000180 90 58 0b bd 3b 43 7d 3c 19 dc ab 3c 33 34 fc 3c
       -0.034020007 0.0154579235 0.020978974 0.03078661
000190 4f 4f 6b 3d 52 a1 19 3c 6d a8 d3 bb f5 9d b4 bc
       0.05744868 0.009376841 -0.006459287 -0.022047976
0001a0 2f a2 84 bd e4 a8 8a 3d 5a 2f 69 bc 55 e3 38 bd
       -0.064762466 0.067704946 -0.014232481 -0.045138676
0001b0 35 ed d7 3a 37 73 88 bb 6d 2b dd 3d a9 e9 5e 3d
       0.0016473891 -0.0041641253 0.107992984 0.054422054
0001c0 92 70 f4 ba 3e 27 ab bc ef 57 df 3c 7b 97 24 bd
       -0.0018649271 -0.020892736 0.02726361 -0.040183526
0001d0 a9 87 1b 3d d8 f4 be bc 8b a5 3f bc 59 bb eb bc
       0.037971172 -0.02331011 -0.011697183 -0.028775858
0001e0 c3 42 89 bd 93 70 6d bc 6c db 18 3d 13 b5 8b 3d
       -0.06702187 -0.014492172 0.037318632 0.068216465
0001f0 1b 55 9d 3d 2f a7 98 3d c9 4c 9b bd b3 57 06 bc
       0.07682248 0.07453763 -0.07583005 -0.00819962
000200 10 f1 b4 bc 3d 07 c1 3c d2 96 49 39 cb dc b7 3d
       -0.022087604 0.023563022 0.00019225039 0.0897766
000210 93 bb 94 bc 67 23 95 bd 67 23 95 bd 45 ee f2 bc
       -0.018155849 -0.07282143 -0.07282143 -0.029654631
000220 41 5c 56 bc 44 b9 82 3d b9 f2 37 bc b3 3a 99 3d
       -0.0130835185 0.06382993 -0.011227303 0.07481899
000230 46 d8 5d bd 64 30 71 bd 9d 1d 01 3c 95 a3 10 3c
       -0.054161333 -0.05888404 0.0078805955 0.0088280635
000240 85 32 f7 3c 42 56 e8 3c 60 ef 5f bd df 55 0d bd
       0.030175457 0.028361443 -0.054671645 -0.03450572
000250 0c 38 55 bd 07 03 91 3d e2 ed e0 3d a3 e3 c1 3b
       -0.052055404 0.070806555 0.109828725 0.005917029
000260 97 3b d1 bc 55 59 55 3d 17 4c a2 3c 8b 56 ab bc
       -0.02554111 0.052087147 0.019811673 -0.02091529
000270 44 8f 08 bd 71 12 fd 3c ff 53 97 bc 99 11 a2 bc
       -0.033339754 0.030892583 -0.01847267 -0.019783782
000280 76 ad 3f 3c 62 01 75 bc 72 45 60 3d 72 45 60 3d
       0.011699071 -0.014953943 0.05475373 0.05475373
000290 2e 3d b6 bd 10 16 64 3d 2f 63 b3 3d 5f ca ab bc
       -0.08898388 0.055685103 0.08759152 -0.020970521
0002a0 7c 14 d5 bc 42 56 e8 3c 93 bb 94 bc 93 bb 94 bc
       -0.026010744 0.028361443 -0.018155849 -0.018155849
0002b0 7f 4f a1 bc 52 6e 76 3d 49 3d 57 3d 00 df 98 bb
       -0.019691227 0.060163803 0.05254868 -0.0046652555
0002c0 8b 0d a4 bc ca 65 c4 bc e0 e2 b9 bc 69 a6 60 3d
       -0.020025989 -0.023974318 -0.02269119 0.0548462
0002d0 81 4d 59 bd 56 ca 9c bc 43 d8 7a bc 7f 80 d3 bc
       -0.05305243 -0.01913945 -0.01531035 -0.025818108
0002e0 00 b9 f8 3c
       0.030361652

fs_lr_fs_lr_W f4 [49, 1]
000000 68 3a 53 3c e8 a8 08 3e 09 7d 89 bc 68 c9 ae 3e
       0.012892343 0.13345683 -0.016783254 0.34138036
000010 d1 57 a0 bd 71 74 cf bd 78 2e e4 bd dc 59 49 3e
       -0.0782925 -0.10129631 -0.11141676 0.19663185
000020 67 e0 9d 3e d5 45 16 be 23 92 e7 bd 3d ff 28 be
       0.30835268 -0.14675076 -0.1130717 -0.16503616
000030 51 60 30 be 5f 2c 9a 3c da 72 99 3e 4e ec 83 bd
       -0.17224242 0.018819986 0.29970437 -0.06441556
000040 01 27 8f 3d 28 ff e8 bd 93 a6 7f 3d 92 59 0e be
       0.06989861 -0.11376792 0.062414717 -0.13901356
000050 63 2d 58 3e 7f ef 7e bd 7e 7a 8e 3e 8a 2d 2c 3e
       0.21111064 -0.06224012 0.2782783 0.16814247
000060 48 b5 6c bd 04 c6 3c bd 13 b8 58 bd f2 c3 8d bb
       -0.05779007 -0.04608728 -0.05290992 -0.004326337
000070 06 40 af 3d 96 7e 14 3e 00 42 6a be 2b f9 c9 3e
       0.085571334 0.14501414 -0.2287674 0.39447913
000080 b3 4f 77 be b3 4f 77 be be e4 52 3e e7 91 a9 bd
       -0.24151497 -0.24151497 0.2059507 -0.08279782
000090 04 b0 21 ba 23 92 e7 bd 9a 86 cd 3e 3e cc 1e 3d
       -0.0006167891 -0.1130717 0.40141755 0.038769
0000a0 19 d4 80 bd be 2c d3 3d be 2c d3 3d 87 02 8f be
       -0.062904544 0.10311268 0.10311268 -0.27931616
0000b0 05 6a 63 bc 8b 17 6e 3e ef 58 1f 3e 31 28 9b 3d
       -0.0138802575 0.23251168 0.15561269 0.07576025
0000c0 09 2a 25 be
       -0.16129316

fs_svc_W2_fs_svc f4 [49, 1]
000000 5b 89 1a 3c 78 a2 40 3c a3 68 64 bc c3 06 4c 3c
       0.009432162 0.011757486 -0.013940963 0.012452784
000010 13 35 75 bc 1f ef 2a 3c 2b 84 66 3c a6 b7 91 3c
       -0.014966267 0.0104329875 0.014069597 0.017787766
000020 3a bc b3 3c 65 14 47 bc 74 0d 71 bc f7 f2 32 bc
       0.02194034 -0.0121508585 -0.01471268 -0.010922185
000030 45 49 32 bc 37 c4 52 bc bc e0 59 3c ac 59 5e 3c
       -0.010881727 -0.012864164 0.01329821 0.013571184
000040 82 17 2a 3c f0 bb 3a bc 23 94 54 3c 3b 22 41 bc
       0.010381581 -0.011397347 0.012974772 -0.011787946
000050 e1 2b 39 3c 6a d6 60 bc 75 e0 af 3c b7 bb 2c 3c
       0.011301965 -0.013722995 0.021469334 0.010542802
000060 ef ec 13 3c 37 0f 3a 3c c2 e9 46 bc 29 e9 42 3c
       0.009028657 0.011356167 -0.012140693 0.01189641
000070 27 a5 8f 3c 93 78 86 3c 96 0a a8 bc 78 47 4b 3c
       0.017534805 0.016414916 -0.02051286 0.012407176
000080 af b8 90 bc af b8 90 bc cb 77 32 3c 80 eb 36 bc
       -0.017666189 -0.017666189 0.010892819 -0.011164546
000090 64 51 3a bc 74 0d 71 bc a8 40 5e 3c 81 de 3f 3c
       -0.011371944 -0.01471268 0.01356522 0.011710764
0000a0 ac 20 fb 3b a9 bd 50 3c a9 bd 50 3c 81 6b a0 bc
       0.007663807 0.012740531 0.012740531 -0.019582512
0000b0 f0 9d 81 3c 5f b4 64 3c 1f 38 20 3c bb 16 57 bc
       0.01582238 0.013959019 0.009779005 -0.013127978
0000c0 06 77 29 bc
       -0.010343319

mfs_lr_mfs_lr_W f4 [28, 1]
000000 7a c9 b1 3d f7 24 cd 3d e2 0d b5 bd a4 83 1d bd
       0.08681007 0.10016816 -0.088405386 -0.03845562
000010 3c 79 07 3d ab 1e 1e 3d 0c bb c5 bc 12 4e e0 3d
       0.033074602 0.038603466 -0.024137042 0.10952391
000020 6b a0 12 bd 5b 6f 65 bc f7 3b a1 3c 9f 3c 8a bd
       -0.035797518 -0.0140036 0.019681914 -0.06749844
000030 f7 3b a1 3c 2c 28 3d 3d 85 9e 0c 3e 2d b6 c4 bd
       0.019681914 0.04618089 0.13732345 -0.0960506
000040 2a 28 a5 3d 8f cc 81 3d e9 f6 8f bd bd 15 ae 3d
       0.08064301 0.063378446 -0.07029516 0.0850024
000050 9c 7b ba bc f5 21 0a 3e 4d d3 90 bd 99 fc 45 3d
       -0.02276402 0.13489516 -0.070715524 0.0483366
000060 b2 72 8b bd d5 94 a5 3d 12 d2 ba 3d 5b 45 06 be
       -0.06808986 0.08085028 0.09122099 -0.13112395

mfs_svc_W2_mfs_svc f4 [28, 1]
000000 d2 3e 9d 3c 77 78 a1 3c 8c 28 c8 bc f0 d9 31 bc
       0.019194994 0.019710762 -0.024433397 -0.010855183
000010 d8 6a 35 3c e0 f9 46 3c 38 bf d2 bb 17 51 e8 3c
       0.011072837 0.012144536 -0.0064314865 0.02835898
000020 f4 01 43 bc 53 a7 01 bc 98 58 16 3c 7c be 6c bc
       -0.011902321 -0.007913428 0.009176396 -0.014449712
000030 98 58 16 3c 20 b2 2b 3c 0d 7f 0c 3d 56 dc c4 bc
       0.009176396 0.01047948 0.034300853 -0.024030846
000040 65 f8 a5 3c 06 4a ab 3c 20 f9 99 bc c0 96 a8 3c
       0.020260045 0.02090932 -0.01879555 0.020579696
000050 b6 f4 9b 3a cf ae 08 3d e5 2f 76 bc ab f4 8e 3c
       0.0011898491 0.033369835 -0.015026067 0.017450651
000060 91 3e 9b bc ed 38 67 3c 3c cd df 3c 92 18 06 bd
       -0.018950732 0.014112693 0.027319543 -0.032738276

lv_lr_lv_lr_W f4 [13, 1]
000000 a0 a5 97 bd a6 11 e2 bd 76 a7 2f be cd 71 f7 3d
       -0.07404637 -0.110385224 -0.17153725 0.12082253
000010 c9 aa af 3d 4a 3b 86 be bc 3a fd bd bf f0 42 3b
       0.085774966 -0.2621711 -0.12364718 0.0029745547
000020 66 6b 21 3e b7 58 42 3e b0 d4 d8 bd 40 cb 0c 3e
       0.15763626 0.18979155 -0.10587442 0.13749409
000030 1d 5d f4 3d
       0.119318224

lv_svc_W2_lv_svc f4 [13, 1]
000000 11 39 87 bd 1c dd aa bd 82 25 1e be 38 2b cf 3d
       -0.066026814 -0.083429545 -0.15443996 0.10115665
000010 48 ee a0 3d 46 42 72 be 60 d6 e1 bd 52 ac 38 3c
       0.078579485 -0.23658094 -0.11027217 0.011271553
000020 44 d5 16 3e 0f ab 2b 3e 82 e7 9b bd af 8b f6 3d
       0.14729792 0.16764472 -0.07612516 0.12038361
000030 df 0f c1 3d
       0.09426855

lv_mlp_net.0.weight f4 [5, 13]
000000 27 47 f8 bb c2 b4 34 3e cd 38 fd bc aa 99 73 3e
       -0.0075768414 0.17647079 -0.030910874 0.23789087
000010 38 3b 9d bb 10 cb 72 bb e2 9c 4f 3d 84 be 0d bd
       -0.004798319 -0.0037047304 0.050686724 -0.034605518
000020 98 e1 bf 3d 5a e7 24 be ea bd 78 bc b7 69 08 3e
       0.093692005 -0.16103879 -0.015181998 0.13321577
000030 4e 8b 97 3d 71 c4 a8 3d c3 8b 6f be 5f ee 66 be
       0.07399617 0.08240593 -0.23393159 -0.22551869
000040 26 d1 12 be e3 f2 04 3e 5c ef 48 be b2 76 29 3e
       -0.14337596 0.12983279 -0.19622558 0.16549185
000050 1e e9 eb bd 81 1f 3a be a4 bf 6f 3e 01 64 09 be
       -0.11519073 -0.1817608 0.23412949 -0.13417055
000060 df 30 18 3e c2 4b d0 3d 98 a9 26 be 8c 63 83 3e
       0.14862393 0.101707 -0.16275632 0.25661886
000070 ff e0 39 be d4 aa 30 be 96 7c 1c be df ef 28 3e
       -0.18152235 -0.17252666 -0.15281901 0.16497754
000080 cb ba 0a be 11 ca 59 3c 03 12 1c 3e d6 99 4b 3e
       -0.13547818 0.013292805 0.15241246 0.19882903
000090 de 36 91 3d fe c8 7a 3e 9b 99 51 be 16 02 f1 bd
       0.07090543 0.24490735 -0.20468752 -0.11767976
0000a0 0c 5c 22 bd dd e8 37 3e 67 d3 cc bc 4a fc 35 3e
       -0.039638564 0.17959924 -0.025003148 0.17772022
0000b0 c2 e8 02 be da 20 80 be 26 52 f1 3d f2 b2 93 3e
       -0.12784103 -0.25025064 0.11783247 0.28847462
0000c0 17 cb 81 3d 32 4f de bc ff c3 78 3e ee 3b 53 3d
       0.063375644 -0.027137373 0.24293517 0.051570825
0000d0 b9 03 17 3e b9 c9 c4 3d b1 ae b0 3d 28 5d 69 3d
       0.14747514 0.09608788 0.0862707 0.056973606
0000e0 18 e4 67 3d 8d 9d 55 3d 3d 7a 85 3e 33 81 35 be
       0.05661401 0.052152205 0.26069823 -0.17725067
0000f0 ff d5 4b 3e bf 2e 24 be c3 af 54 3e df ec 81 3c
       0.19905852 -0.16033457 0.20770173 0.01586002
000100 4b e1 2a 3e
       0.16687505

lv_mlp_net.0.bias f4 [5]
000000 33 37 bd bb de 86 15 be 0b 29 0f 3d 08 48 d1 3d
       -0.0057744025 -0.14602229 0.03495125 0.10218817
000010 22 0f 4a bd
       -0.049330838

lv_mlp_net.3.weight f4 [1, 5]
000000 45 1f 4e 3e c6 2a 9d 3e d0 16 47 3e e5 c6 14 3e
       0.20129116 0.30696696 0.19442296 0.14528997
000010 43 f2 e8 3c
       0.028435832
