model/checkpoints/janardhan2016/rdkit/model_000.onnx (onnx, 53770 bytes, 12 tensors)

lv_onnx::MatMul_4 f4 [191, 28]
00000000: 0000 0000 0000 0000 0000 0000 0000 0000
00000010: 0000 0000 0000 0000 0000 0000 0000 0000
00000020: 0000 0000 0000 0000 0000 0000 0000 0000
00000030: 0000 0000 0000 0000 0000 0000 0000 0000
00000040: 0000 0000 0000 0000 0000 0000 0000 0000
00000050: 0000 0000 0000 0000 0000 0000 0000 0000
00000060: 0000 0000 0000 0000 0000 0000 0000 0000
00000070: 0000 0000 0000 0000 0000 0000 0000 0000
00000080: 0000 0000 0000 0000 0000 0000 8ada 33bf
00000090: 0000 0000 0000 0000 0000 0000 0000 0000
000000a0: 0000 0000 0000 0000 8ada 333f 0000 0000
000000b0: 0000 0000 0000 0000 0000 0000 0000 0000
000000c0: 8ada 333f 0000 0000 0000 0000 0000 0000
000000d0: 0000 0000 0000 0000 0000 0000 0000 0000
000000e0: 0000 0000 0000 0000 0000 0000 0000 0000
000000f0: 0000 0000 0000 0000 0000 0000 0000 0000
00000100: 0000 0000 0000 0000 0000 0000 0000 0000
00000110: 0000 0000 0000 0000 0000 0000 0000 0000
00000120: 8ada 333f 0000 0000 0000 0000 0000 0000
00000130: 0000 0000 0000 0000 0000 0000 0000 0000
00000140: 0000 0000 0000 0000 0000 0000 0000 0000
00000150: 0000 0000 0000 0000 0000 0000 8ada 333f
00000160: 0000 0000 0000 0000 0000 0000 0000 0000
00000170: 0000 0000 0000 0000 0000 0000 0000 0000
00000180: 0000 0000 0000 0000 0000 0000 0000 0000
00000190: 0000 0000 0000 0000 0000 0000 0000 0000
000001a0: 0000 0000 0000 0000 0000 0000 0000 0000
000001b0: 0000 0000 0000 0000 0000 0000 0000 0000
000001c0: 0000 0000 8ada 333f 0000 0000 0000 0000
000001d0: 0000 0000 0000 0000 0000 0000 0000 0000
000001e0: 0000 0000 0000 0000 0000 0000 0000 0000
000001f0: 0000 0000 0000 0000 0000 0000 0000 0000
00000200: 8ada 33bf 0000 0000 0000 0000 8ada 333f
00000210: 0000 0000 0000 0000 0000 0000 0000 0000
00000220: 0000 0000 0000 0000 8ada 333f 0000 0000
00000230: 0000 0000 0000 0000 0000 0000 0000 0000
00000240: 0000 0000 0000 0000 0000 0000 8ada 333f
00000250: 0000 0000 0000 0000 0000 0000 0000 0000
00000260: 0000 0000 8ada 33bf 0000 0000 0000 0000
00000270: 0000 0000 0000 0000 8ada 333f 0000 0000
00000280: 0000 0000 0000 0000 0000 0000 0000 0000
00000290: 0000 0000 8ada 333f 0000 0000 0000 0000
000002a0: 0000 0000 0000 0000 0000 0000 0000 0000
000002b0: 0000 0000 0000 0000 0000 0000 0000 0000
000002c0: 0000 0000 0000 0000 0000 0000 0000 0000
000002d0: 0000 0000 0000 0000 0000 0000 0000 0000
000002e0: 0000 0000 0000 0000 0000 0000 0000 0000
000002f0: 0000 0000 0000 0000 0000 0000 0000 0000
00000300: 0000 0000 0000 0000 8ada 333f 0000 0000
00000310: 0000 0000 0000 0000 0000 0000 0000 0000
00000320: 0000 0000 0000 0000 0000 0000 0000 0000
00000330: 8ada 333f 0000 0000 0000 0000 0000 0000
00000340: 0000 0000 0000 0000 0000 0000 0000 0000
00000350: 0000 0000 0000 0000 0000 0000 0000 0000
00000360: 0000 0000 0000 0000 0000 0000 0000 0000
00000370: 0000 0000 0000 0000 0000 0000 0000 0000
00000380: 0000 0000 0000 0000 0000 0000 0000 0000
00000390: 0000 0000 0000 0000 0000 0000 0000 0000
000003a0: 0000 0000 0000 0000 0000 0000 0000 0000
000003b0: 0000 0000 0000 0000 0000 0000 0000 0000
000003c0: 0000 0000 0000 0000 0000 0000 0000 0000
000003d0: 0000 0000 0000 0000 0000 0000 0000 0000
000003e0: 0000 0000 0000 0000 0000 0000 8ada 333f
000003f0: 8ada 333f 0000 0000 0000 0000 0000 0000
0.0 0.0 0.0 0.0 0.0 0.0 0.0 0.0
0.0 0.0 0.0 0.0 0.0 0.0 0.0 0.0
0.0 0.0 0.0 0.0 0.0 0.0 0.0 0.0
0.0 0.0 0.0 0.0 0.0 0.0 0.0 0.0
0.0 0.0 0.0 -0.7025534 0.0 0.0 0.0 0.0
0.0 0.0 0.7025534 0.0 0.0 0.0 0.0 0.0
0.7025534 0.0 0.0 0.0 0.0 0.0 0.0 0.0
0.0 0.0 0.0 0.0 0.0 0.0 0.0 0.0
0.0 0.0 0.0 0.0 0.0 0.0 0.0 0.0
0.7025534 0.0 0.0 0.0 0.0 0.0 0.0 0.0
0.0 0.0 0.0 0.0 0.0 0.0 0.0 0.7025534
0.0 0.0 0.0 0.0 0.0 0.0 0.0 0.0
0.0 0.0 0.0 0.0 0.0 0.0 0.0 0.0
0.0 0.0 0.0 0.0 0.0 0.0 0.0 0.0
0.0 0.7025534 0.0 0.0 0.0 0.0 0.0 0.0
0.0 0.0 0.0 0.0 0.0 0.0 0.0 0.0
-0.7025534 0.0 0.0 0.7025534 0.0 0.0 0.0 0.0
0.0 0.0 0.7025534 0.0 0.0 0.0 0.0 0.0
0.0 0.0 0.0 0.7025534 0.0 0.0 0.0 0.0
0.0 -0.7025534 0.0 0.0 0.0 0.0 0.7025534 0.0
0.0 0.0 0.0 0.0 0.0 0.7025534 0.0 0.0
0.0 0.0 0.0 0.0 0.0 0.0 0.0 0.0
0.0 0.0 0.0 0.0 0.0 0.0 0.0 0.0
0.0 0.0 0.0 0.0 0.0 0.0 0.0 0.0
0.0 0.0 0.7025534 0.0 0.0 0.0 0.0 0.0
0.0 0.0 0.0 0.0 0.7025534 0.0 0.0 0.0
0.0 0.0 0.0 0.0 0.0 0.0 0.0 0.0
0.0 0.0 0.0 0.0 0.0 0.0 0.0 0.0
0.0 0.0 0.0 0.0 0.0 0.0 0.0 0.0
0.0 0.0 0.0 0.0 0.0 0.0 0.0 0.0
0.0 0.0 0.0 0.0 0.0 0.0 0.0 0.0
0.0 0.0 0.0 0.7025534 0.7025534 0.0 0.0 0.0

lr_lr_W f4 [191, 1]
00000000: db31 82bd 9ea0 afbc 9b65 d6bd e3d7 7abe
00000010: 856c 04be a44f 94bd 346b f7bd 705f 893c
00000020: c5dc 2bbe c301 bf3b 57e7 253d 70d3 103d
00000030: 2c7a 7d3c 7796 363c f543 273d 9c73 4e3c
00000040: 2452 88bc 7264 09bd 047d 92bd 388a bc38
00000050: aeb6 dabc d316 103c a6ed 4bbc b06c 963d
00000060: 23dc 123d eae9 893d f0ac 483d 0274 a83c
00000070: d7db 063d c956 6ebd 28fa 05bd 755c 183d
00000080: 3442 dfbd 8290 c33d 587a 203d cdea 373e
00000090: 729c 0b3e 5902 a83d d613 d6bc 52c3 55bd
000000a0: 4c64 103d 0b9f 323d 2070 f7bd 549d 0b3d
000000b0: 3d5b c83d d46d c5bd 9ff5 f83c 9004 763a
000000c0: 5d2b 6c3d 9004 763a deda 1f3d 824f 843d
000000d0: 995d 6e3d 72e8 1d3d bfe3 c6bd aa0d 483b
000000e0: dfb8 833b 2518 213d 475a 02be a708 8e3d
000000f0: 0c48 8f3c 2686 b03d 97fa 8e3d 7b83 abbc
00000100: d303 95bd 19b3 5c3c 441f 76bd db0c b83d
00000110: 2f44 e83d 5f02 e53d e619 0ebe 1e8d 833d
00000120: 2a80 8a3d e149 d93d 2d67 95bc 3e25 c7bd
00000130: 22b7 8cbd dbab 7a3c 159a 04be 2ace 173d
00000140: 37cc 393d 535f 783b d68b 1cbe 80df 1bbe
00000150: 56ff 653d bd1d c63d 7b6c 7a3d 06a2 2abc
00000160: fcae 65bd 4dc2 043d bcdb d9bd cb25 b73d
00000170: 2884 21be d64e 573e e495 b73d 2baa 863c
00000180: 9d54 323d 6c93 48bd 58da 16be e1ae e7bc
00000190: 8c26 9c3d c2f4 9dbc c509 90bd 7406 db3d
000001a0: 30dd 21bd 5a0c 803d 45dc 023e 6467 693c
000001b0: 0ff9 3abd a665 bf3b c51d b5bd 2cf7 15bd
000001c0: 4188 983d c8bd 55bc 6fd0 863d b7c8 2e3d
000001d0: 7211 39bc ae78 053d 08ba 5b3d 17ff 473d
000001e0: ccb8 debb c014 34bc ccec 1ebc ad11 03be
000001f0: 4497 25bc beef 573d 8ca1 95bd b4ef 8a3d
00000200: 8773 e5bb e4b6 bcbd 9ef4 ecbc 27a5 c03d
00000210: 1288 b4bc 014d 52be e472 0cbe 27a5 c03d
00000220: 27a5 c03d 5306 04bd ead6 80bd b6dd 8fbd
00000230: 1734 c23c ee3a 34bd 63a8 7c3a 100c 383c
00000240: 9391 0abe e5b5 2fbe 014d 52be ec92 df3b
00000250: a2f7 f83b 0d42 ec3a a4da 20be 7b83 abbc
00000260: c2e9 08be 256d 88be 79da a23b cd5a eebb
00000270: 653b 2abd 8c6c 213d 6aed 973d 6561 0b3e
00000280: ad3a 673d ad0a a73d 7f5e a33d 55e1 8d3d
00000290: b5c8 213d 7321 d73c 7321 d73c 35bd a53d
000002a0: 00de 833d 1f9f 283b 58da 16be d570 1c3e
000002b0: fe3d 853d 05e3 883d af23 23be e309 ee3d
000002c0: a791 11be 9d4e 4dbe f926 09bb ee58 b1bd
000002d0: 4b98 0fbd 6df0 cf3d d50c d7bc 0e3f 0bbd
000002e0: 4571 1bbd 5da6 dd3a 2104 20be 21f2 6f3d
000002f0: be66 c33d a0f8 3f3e 5923 09be
-0.063571654 -0.021438893 -0.104685985 -0.24496417 -0.12932022 -0.07241753 -0.12080994 0.016769141
-0.16783436 0.0058290674 0.040503826 0.035357893 0.015471023 0.011144272 0.040836293 0.012600806
-0.01664073 -0.033543058 -0.07152751 8.990284e-05 -0.026698437 0.008794504 -0.0124467965 0.07344949
0.03585447 0.06734069 0.04899305 0.02056313 0.0329245 -0.058188234 -0.03270927 0.03719755
-0.10901299 0.09549047 0.039179176 0.17960663 0.13633898 0.08203573 -0.026132505 -0.052188225
0.0352519 0.043608706 -0.12081933 0.034085587 0.09783027 -0.09640089 0.030390559 0.0009384835
0.057658542 0.0009384835 0.039027087 0.064604774 0.05819473 0.038551755 -0.09711408 0.0030525723
0.004019841 0.039329667 -0.1272975 0.06935244 0.01749041 0.08619337 0.0698139 -0.020936718
-0.0727612 0.013470435 -0.06008841 0.08986827 0.1134113 0.11182093 -0.13877067 0.064234
0.067627266 0.106097944 -0.018237675 -0.097239 -0.06870867 0.015299763 -0.12949403 0.037061848
0.04536077 0.0037898615 -0.15287718 -0.15221977 0.05615171 0.09673641 0.06113861 -0.010414606
-0.05607508 0.032411862 -0.10637614 0.08942755 -0.1577307 0.21026167 0.08964136 0.016438564
0.043537725 -0.048968717 -0.14731729 -0.028281631 0.0762454 -0.019281749 -0.070331134 0.1069459
-0.03951758 0.06252356 0.12779339 0.014245842 -0.045647677 0.005840975 -0.08843569 -0.036612675
0.07447863 -0.013045736 0.06582724 0.042671885 -0.011295663 0.032585792 0.05364421 0.048827257
-0.006796932 -0.010991275 -0.009700011 -0.12799712 -0.010106865 0.05271887 -0.07306203 0.06784001
-0.0070022973 -0.09214571 -0.028925236 0.094065 -0.02203754 -0.20537187 -0.13715702 0.094065
0.094065 -0.032232594 -0.062909916 -0.0702471 0.023706479 -0.044001512 0.00096381287 0.011233345
-0.13532095 -0.17159231 -0.20537187 0.0068229344 0.0075978795 0.0018025056 -0.15708405 -0.020936718
-0.13370422 -0.2664577 0.0049698916 -0.007274008 -0.04156055 0.03941016 0.0741833 0.13611372
0.056452442 0.08156333 0.07977008 0.06927744 0.03949805 0.026261067 0.026261067 0.08092729
0.064388275 0.002572961 -0.14731729 0.15277417 0.06505965 0.066839255 -0.15931581 0.116229795
-0.14215718 -0.2004952 -0.002092777 -0.0865954 -0.035057347 0.101532795 -0.026251236 -0.03399568
-0.03794982 0.0016910542 -0.15626575 0.05858052 0.09541081 0.18747187 -0.1339239

svc_W2_svc f4 [191, 1]
00000000: e4dc 7ebd 5e25 28bc 5f9a abbd a858 29be
00000010: d625 cbbd 0094 a1bc 1871 f2bd ec73 d63c
00000020: add1 e3bd f6cf 393c d1b5 253d 48e5 fe3c
00000030: 2c8a 823c 1954 6a3c 52cb fd3c fd6f 0c3c
00000040: b5c5 cebb 224a 87bc 4e08 15bd ab95 e4ba
00000050: 2155 65bc 831e 0e3c ae47 03ba c5a3 8e3d
00000060: c7a5 013d afab 733d 05a9 ee3c 9885 9f3b
00000070: 71d2 fb3c 53e4 9dbd 15f2 f9bb a80d 0c3d
00000080: 41bb a2bd c5e7 9c3d 3d6c 043d f099 0b3e
00000090: 4cd9 ce3d 7d1c 7f3d d945 a1bc 1312 36bd
000000a0: a384 ec3c b437 123d 2e25 84bd af5b f73c
000000b0: afac 753d 23cc 40bd a65e cc3c b337 9e3b
000000c0: 517f 3f3d b337 9e3b dbec 2f3d 1353 67bc
000000d0: 6ec9 913d be11 a23c 924e cabd d1f7 bb3b
000000e0: 4718 113c 60a7 043d be72 ddbd 6adf 393d
000000f0: c037 733a 569e 933d a036 3f3d 4e93 d3bb
00000100: ee6a 37bd 4cf7 b03b 6a7d 22bd 992d 373d
00000110: f27b d03d 7dc3 9b3d 377d f5bd b5f1 2b3d
00000120: ca47 543d 234d 2a3d 92f9 b9bc 87c7 91bd
00000130: 0635 6cbd 6264 623c b963 bbbd b639 eb3c
00000140: 2c9c 0e3d b23a 053c 1917 ebbd f0aa fdbd
00000150: ec8c 2e3d 5769 a83d 8524 1d3d 6897 84bb
00000160: e36a a7bc 28e6 3ebc 5f28 98bd 1615 a43d
00000170: 5998 0abe 517d 1a3e a6f7 5a3d 9cfa 393c
00000180: c53a 183d e4b0 e0bc 706b c8bd e673 73bd
00000190: 8111 993d f406 c5bc ecfe 77bd 57d6 bb3d
000001a0: c0e0 fabc f4ff 373d 1cde ba3d fd7e 7f3b
000001b0: 7b2f 14bd 98d5 2d3c 5d24 b2bd 90a1 b8ba
000001c0: 95ef 9a3d 13a0 f7bc 0a0a 813d 0445 de3b
000001d0: 867f 49b9 4d72 aa3c 23d7 1f3d 884b 9f3c
000001e0: 7080 b53c 3338 32bd e599 06ba a149 b5bd
000001f0: 18cb 913a d5ee e83c 14dc 9bbc 8b48 b43c
00000200: e184 a9bc bbae 98bd 52de 55bc 016b 913d
00000210: d7b4 08bd 440b 51be 757d eabd 016b 913d
00000220: 016b 913d 205b 85bc c86c 1fbd 0a90 1dbd
00000230: 5387 643c 0393 8fbd d09c 193c 68ea 093a
00000240: 8cbf d8bd 37f3 1ebe 440b 51be 2964 113c
00000250: 2630 c13b 16cb ddbb 9124 bfbd 4e93 d3bb
00000260: 6c11 d9bd 2894 20be cc2c ae3b 81bb 3a3b
00000270: 0e85 cabc 9b92 da3c c870 583d e254 053e
00000280: f453 f23c d3e5 aa3d 6c75 613d 9ac6 4d3d
00000290: 067a ed3c 083e 2c3c 083e 2c3c 224f 663d
000002a0: d958 583d 8a15 acba 706b c8bd b8be e83d
000002b0: 807b 003d f9b6 0b3d 93aa d5bd 02ed b73d
000002c0: 9d9f f3bd 1f9a 16be d2e9 d8bb e1c6 90bd
000002d0: b27a c0bc e78f ad3d 45b1 163b c352 5fbd
000002e0: e452 5fbd 737c a83b 433c d2bd ac95 283d
000002f0: 8aa1 8b3d 1582 0a3e aa2a e7bd
-0.062222376 -0.010262815 -0.08379053 -0.16537726 -0.09919326 -0.019723892 -0.11837977 0.026178323
-0.11123977 0.011341086 0.040456597 0.03111519 0.015935026 0.014302277 0.03098074 0.008571622
-0.0063101896 -0.016514841 -0.036384873 -0.0017439624 -0.013997347 0.008674267 -0.00050079345 0.0696483
0.03165224 0.059489902 0.02913333 0.0048682205 0.030739995 -0.07709565 -0.0076277354 0.03419271
-0.07945872 0.07661394 0.032329787 0.13632941 0.1010004 0.062283028 -0.019686626 -0.04445083
0.02887184 0.035697654 -0.06452404 0.030195085 0.059979137 -0.04706968 0.024947476 0.004828417
0.046752278 0.004828417 0.042950492 -0.0141189275 0.07118498 0.01978385 -0.09878267 0.005736329
0.008855886 0.032386184 -0.10812901 0.04537908 0.0009278022 0.072079346 0.046682954 -0.006456769
-0.04477971 0.005400574 -0.039670385 0.04472122 0.10179891 0.07605646 -0.119867735 0.041978557
0.051826276 0.04157747 -0.022702012 -0.07118135 -0.057667755 0.013817878 -0.0914988 0.028714042
0.034816906 0.00813167 -0.11479015 -0.12386119 0.042614862 0.08223217 0.038364906 -0.0040463693
-0.02043671 -0.011651553 -0.07429575 0.08011834 -0.13534679 0.15086867 0.053458832 0.011351254
0.037165422 -0.027428098 -0.09786117 -0.0594367 0.07474042 -0.024051167 -0.060545847 0.091717415
-0.030624747 0.04492183 0.09124395 0.0038985603 -0.036178093 0.010610007 -0.08698342 -0.0014086235
0.07565228 -0.030227697 0.06300743 0.0067831296 -0.0001921636 0.020806456 0.03902353 0.019445196
0.02215597 -0.043510627 -0.00051346264 -0.08851934 0.0011123149 0.028434196 -0.01902584 0.022007247
-0.020693244 -0.07455202 -0.013053494 0.071004875 -0.033375587 -0.20414454 -0.1144971 0.071004875
0.071004875 -0.016278803 -0.0389221 -0.038467444 0.013948279 -0.07010462 0.009375766 0.00052610645
-0.1058341 -0.15522467 -0.20414454 0.008873978 0.0058956323 -0.0067685945 -0.09333146 -0.006456769
-0.10599026 -0.15681517 0.005315399 0.0028493109 -0.024721649 0.026681235 0.05284193 0.13020661
0.029581048 0.08344617 0.055043623 0.05023823 0.02898885 0.010512836 0.010512836 0.05622781
0.052819107 -0.0013128978 -0.09786117 0.11364502 0.03136778 0.034110043 -0.10432925 0.089807525
-0.11895678 -0.1470723 -0.0066196704 -0.07069183 -0.023496006 0.08474713 0.0022993844 -0.054522287
-0.05452241 0.0051417886 -0.102654 0.041158363 0.068179205 0.13526185 -0.112874344

fs_lr_fs_lr_W f4 [111, 1]
00000000: 0c3f 24bd fd33 78be dfe3 8dbe 1e7c 1cbe
00000010: e247 9abd a800 0abe 4991 4ebc d8f1 093d
00000020: d124 c33c e909 023c 1c59 263c 16cc 183d
00000030: ebb5 bf3c 2a5f c73d e39a dc3c e875 23bc
00000040: b686 57be 4e14 103e 00b5 2f3d 1a0f 913e
00000050: cc0e 653e 8714 173e 059a ff3b 55c9 6ebc
00000060: 4378 d43c 685d 3e3d 9395 2cbe 2687 e33c
00000070: 575d 293e 0cd5 42be a84e f43c bfaf 8cbc
00000080: 72b6 ce3d bfaf 8cbc 7d93 113d 14c9 b43d
00000090: 566a 783d 48bb b23d e459 2dbe b00c ce3a
000000a0: 3581 313d d23b 31be e4cf 303d f114 b43d
000000b0: abca bb3d 95b3 eb3b 73f9 f43d 82e6 44be
000000c0: 1efe 743d bd10 d53d 6aef 983d 234e 11be
000000d0: b352 a7bc 4ac9 103d c73e af39 1ded 3fbd
000000e0: d19f 44be b6a7 8abe 63a2 033e b0ec 193d
000000f0: 3d63 7b3d 7fed 343d 2957 24be 9321 8fbe
00000100: 68d3 a63e f543 1b3e dc77 3a3a 0490 5bbd
00000110: 157c 47be fc7a 49bd 928a d4bd 6011 ef3d
00000120: 3924 c7bd 0791 813e 1e50 fd3c 5732 84bd
00000130: 393a 06be c18e 0b3e 526f bd3d 85ef 5b3d
00000140: 344f 10bc d868 723d 64c8 8abd 21a2 25be
00000150: 7e0f 483e ce16 1bbe a902 8bbe 42e3 e5bd
00000160: 509f bcbd 07c7 f83b 99a4 ebbc c0e6 04be
00000170: 9b04 91be a902 8bbe b861 18bc 0270 4bbe
00000180: f829 d3be 6c64 353d a42a c83d f329 d53d
00000190: 4740 823d 157c 47be 3479 563e 6130 57be
000001a0: b2da f5bd 152f 7ebe b2f1 463e 61b3 39bd
000001b0: 3488 4abd c1cb 47be 9802 34be
-0.04009919 -0.24238582 -0.27712914 -0.15281722 -0.07533242 -0.13476813 -0.012607881 0.033677906
0.023821266 0.007936933 0.010153081 0.037304007 0.023402175 0.09734948 0.026929324 -0.0099768415
-0.21047482 0.14070246 0.042897224 0.28331834 0.22368926 0.14753924 0.007800343 -0.0145743685
0.025936252 0.046475798 -0.16853933 0.027774405 0.16539513 -0.19026583 0.029822662 -0.017173646
0.100933924 -0.017173646 0.035541046 0.08827415 0.060648285 0.08727127 -0.16928822 0.0015720334
0.043336112 -0.17307976 0.04316701 0.08793057 0.09169515 0.0071930387 0.11961641 -0.19228557
0.059812658 0.10403583 0.074675396 -0.14189963 -0.020425176 0.035348214 0.00033425374 -0.04685699
-0.1920159 -0.27081078 0.12854914 0.03757924 0.061373938 0.044171806 -0.16048874 -0.27955303
0.32583165 0.15162642 0.00071131974 -0.05360414 -0.19480927 -0.049189553 -0.10377993 0.11673236
-0.09723706 0.2530596 0.030921992 -0.06454914 -0.13108148 0.13628675 0.09249748 0.05369522
-0.008807946 0.059182018 -0.06776503 -0.16175129 0.1953716 -0.15145418 -0.27150467 -0.112249866
-0.09210074 0.0075920853 -0.02876501 -0.12978649 -0.28323826 -0.27150467 -0.009300642 -0.19866946
-0.41242957 0.044285223 0.09773758 0.10408392 0.06359916 -0.19480927 0.20944673 -0.21014549
-0.120046034 -0.24822648 0.19428137 -0.045337085 -0.0494463 -0.1951132 -0.17579114

fs_svc_W2_fs_svc f4 [111, 1]
00000000: 1197 b1bd 3e9a a4be 627a 56be 31a8 b43a
00000010: a6a4 79bd 9e0c d2bc 1588 1fbd 4e09 2b3d
00000020: f6a2 ee3b 1d39 ce3b e20d f43b 5c89 cc3c
00000030: cacd 323d 2fe3 113e 4f3e 6e3c 07ec 37be
00000040: 91e7 3abe 8070 2e3d 70b9 fa3c 5b91 b53e
00000050: 4bda 513e a80b ab3d 7820 a03d 56a6 89bc
00000060: 5e74 0e3c 6081 f33c 54e1 55be 215d d43b
00000070: d237 6d3e 8836 bdbe 6e94 a33c cefc acbd
00000080: a3c8 093e cefc acbd 16e9 bc3a 179e c13d
00000090: b2a6 1b3d 59e2 193e 7a80 82be a2b5 1d3c
000000a0: f6d8 fe3c f0bd f7bd 77f2 cfbb bcd4 193c
000000b0: 3a6b 533d 3e6f 1b3d fac6 cb3d 87d2 33be
000000c0: d3d2 923b 4cf9 523e 1932 563d 3acc 1ebe
000000d0: 5e14 3abd ad9d bd3c 7e94 eabd 3382 fabd
000000e0: 32e7 f2bd e1b7 8cbe 8142 1e3e a0d7 1f3d
000000f0: 5ce1 023e c547 f93c 5bc9 07be fbe2 b0be
00000100: c6a7 a63e 1f3d 643e 4fad 87bd 3158 bbbc
00000110: 8bda 15be 99b8 ffbd 7dc8 07bd 3935 203e
00000120: 3939 87be 73a1 cb3e 58de bc3c f63e 0fbe
00000130: d469 58be 7d3e 2a3e 9c55 873e 0a2c 863d
00000140: 1823 d0bc 2add 2e3a 1613 a1bd 2526 05be
00000150: 87f7 d93d 7787 c1bd 1c9f 83be a2f1 a6bd
00000160: 57a2 efbd 0790 5abd e8c2 37bd 37b4 81bd
00000170: 7297 66be 1c9f 83be 6b74 323c cb9e 9fbe
00000180: f4ab d5be 4232 1dbe d193 7b3d 6339 8f3d
00000190: 0e8d 9cbd 8bda 15be 02c1 5f3e 5120 32be
000001a0: 36ed 04be 603e c7be 6a1b be3d a653 f8bd
000001b0: bbfb f7bd b53f 49be 17bb 57be
-0.08671392 -0.32148927 -0.20945123 0.0013783035 -0.060948037 -0.025640782 -0.038948137 0.04175692
0.00728261 0.0062934295 0.007447944 0.024967842 0.043653287 0.1424682 0.014541223 -0.17961131
-0.18252398 0.042587757 0.030606002 0.3546246 0.20493428 0.08351833 0.07818693 -0.016802948
0.008694736 0.029724777 -0.20886737 0.0064808284 0.23165825 -0.36955667 0.019968238 -0.08446656
0.13455443 -0.08446656 0.0014412727 0.09453981 0.03800077 0.15027751 -0.25488645 0.009625824
0.031109314 -0.120967746 -0.0063460427 0.009389099 0.05161593 0.037947886 0.09950061 -0.17560779
0.0044806986 0.20602912 0.05229387 -0.15507594 -0.04542958 0.023146475 -0.11454104 -0.12231865
-0.11860503 -0.27484038 0.15455057 0.039023995 0.1278128 0.03042973 -0.13260405 -0.34548172
0.32549876 0.22288941 -0.06624853 -0.022869201 -0.14634149 -0.12486381 -0.033150185 0.15645303
-0.26410845 0.39771613 0.02305524 -0.13988861 -0.2113412 0.166254 0.26432502 0.065513685
-0.025407359 0.0006670529 -0.078649685 -0.13002832 0.10642915 -0.09449666 -0.25707328 -0.081515566
-0.11700886 -0.05336001 -0.04486361 -0.063332014 -0.2251871 -0.25707328 0.010892014 -0.31175837
-0.41732752 -0.15351203 0.061420266 0.069933675 -0.076440915 -0.14634149 0.2185097 -0.1739514
-0.12981114 -0.38914776 0.092825726 -0.1212533 -0.12108561 -0.19653209 -0.21067463

mfs_lr_mfs_lr_W f4 [25, 1]
00000000: 68bc 55bf 07e6 1fbd 5576 0dbf eeda af3f
00000010: fb0d 84bf fef7 323f 3e7a b63e f7af 0bbf
00000020: ef09 acbe 74cc 0fbc b1b2 173f cb94 44bf
00000030: b903 10bf 9e03 453f 802f 8f3f a367 21be
00000040: 5760 e93f 83d5 23bf 1714 833f 699d c93e
00000050: c90d b3bd 68be f3bd f0b6 72bf 2269 073f
00000060: bc67 e63f
-0.8349061 -0.03903773 -0.55258685 1.3738687 -1.0316767 0.69909656 0.35640138 -0.54565376
-0.3360133 -0.008776773 0.59257036 -0.7678954 -0.5625568 0.76958644 1.1186371 -0.1576219
1.8232526 -0.6399767 1.0240506 0.39377907 -0.08742864 -0.119015515 -0.9481039 0.52894795
1.8000407

mfs_svc_W2_mfs_svc f4 [25, 1]
00000000: e358 01bf 1d15 683d 621b febe 42f2 a83f
00000010: 3964 74bf a5a7 d03e b206 d43d 905a ecbe
00000020: 5e0a 3bbe fa0b 543d 0d70 e23e 6794 04bf
00000030: d93b 02bf 05e2 1d3f 936c 7e3f 7c1d cb3c
00000040: 8a1a b83f a48c 6cbe d7ad 303f 7c06 123e
00000050: dcbb 42be 0ea8 043d 92b3 3abf d34a 9a3e
00000060: b9d5 b33f
-0.50526255 0.05666076 -0.49630266 1.3198931 -0.9546543 0.40752903 0.103528395 -0.46162844
-0.18265674 0.051769234 0.44226113 -0.51788944 -0.5087257 0.61673003 0.9938442 0.024794333
1.4383099 -0.23100525 0.6901526 0.14260286 -0.19016975 0.032386832 -0.7293025 0.3013521
1.4049598

lv_lr_lv_lr_W f4 [28, 1]
00000000: 1a88 79bd 4ded a5bd d344 abbc aae6 1abd
00000010: cfbb c8bd 7f6d 12bd 4e09 ecbc 1bc3 ebbd
00000020: 4fa4 8c3c 9151 1d3e 4cbd a33d 4d09 ba3c
00000030: a900 883d 1996 6fbd 6d63 bcbc 5ba8 2b3d
00000040: 6045 e2b8 e5e9 03bd d04a c63d 25c4 c1bd
00000050: 630c d3bd 5db9 59bd 6271 29bd 0c85 87bc
00000060: cc58 c8bd 5f9e 113d a8e7 21be 2704 8cbd
-0.060920812 -0.08101902 -0.020906841 -0.037817635 -0.09801447 -0.035748955 -0.02881303 -0.11511823
0.017168192 0.15363146 0.0799509 0.022709513 0.06640751 -0.058492754 -0.022996629 0.041908603
-0.00010789442 -0.03220548 0.09682238 -0.0946124 -0.10305097 -0.05315529 -0.041367896 -0.016542934
-0.09782562 0.035551425 -0.15811026 -0.068367295

lv_svc_W2_lv_svc f4 [28, 1]
00000000: 33d0 aabd fb96 89bd cef4 5ebc 16fa 4cbd
00000010: cb1e 12be 3db2 73bd 51f3 44bc a8fd 09be
00000020: 7253 c43c 2736 6a3e 91bd fe3d 21cd cd3c
00000030: d6aa 5f3d 561b babd 3e65 2ebd fab6 253d
00000040: 8b93 bf3c b02e 24bd bcfe fd3d 14db 0fbe
00000050: 68cf f2bd 6f36 86bd 1ba8 20bc a3d1 4cbb
00000060: 45b5 f5bd ffc8 7b3d f79f 2ebe bcec a4bd
-0.08340492 -0.0671825 -0.013608171 -0.050043188 -0.14269559 -0.059496153 -0.012020902 -0.13475668
0.023965571 0.2287222 0.12438501 0.025122227 0.05460628 -0.09087245 -0.04257702 0.040457703
0.023385784 -0.040083587 0.12402102 -0.14048415 -0.11855966 -0.06553351 -0.0098057045 -0.0031252883
-0.11997465 0.06147098 -0.17053209 -0.08052966

lv_mlp_net.0.weight f4 [14, 28]
00000000: 3578 70be a0bd f6bd 84a5 32be 7c30 39b9
00000010: 6a08 f43b 41ce 403d 5321 d63d fec3 d2bc
00000020: 5079 41be 559a 19be d97b 8dbd 152d 9ebd
00000030: 994d 5ebd c722 653d 1923 8ebb ae52 393e
00000040: 429c 2e3e 2bc8 413e efe0 453e a306 ed3c
00000050: d639 31be c66b 1c3e 11e7 f83c 6bcb 11be
00000060: 7b1c b43d 10bb 59bc 702f bc3d 426b 1ebc
00000070: 38cb ed3d 9fc8 a13d 0f06 e4bc 2884 413e
00000080: f7ad 9b3d 4e10 283d 4c29 d93d 03dd 84bd
00000090: 98ab 923c 15f9 22be 6020 0cbe 03a8 41be
000000a0: 5bc7 f4bd 0888 8b3d c681 b2bd 51bb d7bd
000000b0: 7b3c c6bd 4e2a 2abd 383e e2bd a1df fc3c
000000c0: 3259 1b3e a673 48bd 9910 21be bfe9 003e
000000d0: a818 343e 152b 7c3d 0ff5 223e d91e ff3d
000000e0: ba30 023e 7457 7e3d e27b 58be f77d e1bd
000000f0: 1e28 123e 70ff 5cbd d903 29be ccbe e0bd
00000100: 0a70 4e3d c0ff 6d3d 3e13 fe3c 6e15 98bd
00000110: dc04 92bd 2f52 fdbd fefb acbd 600d 1a3d
00000120: 47bb 27be 70d8 ec3d c310 693e 7576 b1be
00000130: c6e9 353d f9ad 60be e064 e1bd a128 a83d
00000140: 1dc5 34be 3d20 603e 57c2 24be ff94 fabc
00000150: 369e 1abd 066a 23be fd82 e1bd 4c4f 893e
00000160: eb4c 98be a0d0 39bd 68d7 03be 226f 6bbe
00000170: fa38 d3bc af9a b8bd 724a 0b3e 36f9 b2bc
00000180: 1414 26be a15b bc3d 09e5 303e 30f1 03bd
00000190: ef00 963d 1d47 c5bd 88cf 083e 786a 34be
000001a0: 479a 35be 9d81 07be f79b 0e3e 77cf 7fbd
000001b0: aa1c 15be 6dc9 f8bd a8dc febd cfad 193e
000001c0: 340c 123e c517 22be b47d 49be 28dd c9bc
000001d0: 4db2 253b 9be7 27be 91ac 293d 78e0 5dbd
000001e0: 2130 353d db88 16be 6d8b ed3d b2e9 b1bc
000001f0: 848f 083e ea74 a23d 1ec5 373d 954c 4dbd
00000200: d871 efbd cbb9 853d f5a7 e7bd f315 aebc
00000210: 87ce bdbd 282f 47be 5105 a73d 6ddd 073e
00000220: a775 b53d 75c2 fbbc 355d 653c 1f04 80bd
00000230: 7a90 f8bc 3b90 1e3e 08d7 b9bc 191d 343d
00000240: ab0f afbc 66e1 403d db42 453e c26c ff3d
00000250: a646 2dbd 0d6a 59be dec9 37bd f054 f9bd
00000260: 10a3 26be f5cf 593e a072 dd3d d8d3 22be
00000270: bce4 edbd 2b64 e4bd 1dbd 81be 0856 ab3d
00000280: 389b 88bd c799 ffbb c88f dcbd f069 163e
00000290: 2292 1d3e 8686 ce3c ba9a 573e c356 6b3d
000002a0: a98d ef3c 6871 4fbd a4b1 76bc 1825 9cbd
000002b0: 40df 53b7 8e37 07be b3db f73d 984d 4abe
000002c0: 4376 0cbe 3353 f2bd 2ae6 0d3d b3a5 15bd
000002d0: a90c 07be 84a6 073e 9121 e43c e545 6f3e
000002e0: 314d 853d 0f5c e23d 7369 253e 3ca9 b6bd
000002f0: a9ec 40be d48e 3ebd e732 30bd 05b4 153e
00000300: 8996 91be 696b 113e e046 9f3d 94a3 aa3c
00000310: cd61 41be d446 6d3d 1827 1fbe 7331 643e
00000320: b37a e93d 1175 23bd a755 0c3d 50f1 30be
00000330: a457 113e 3870 07be 90c6 04be 9ef4 bf3d
00000340: aa25 d9bd 0a14 84bd b5df 4abe af76 633c
00000350: 6972 41be 9c86 ec3d 66d4 d43d 5097 a43d
00000360: 4378 ec3d 665c f73d 8b8a 49be 901a 8f3c
00000370: 1d44 71bb 18a8 dcbd 4b2e 043e 9f10 9abd
00000380: fb62 53be c008 8fbe ea89 1b3e 4ff0 f2bd
00000390: 2fb4 a9be ee37 0e3e 6e82 9cbe ccd0 06be
000003a0: 0b68 ccbd d7b0 b73e a0a6 6f3e dc36 7fbd
000003b0: 078d 383e 6eb6 313e 60af 063e 85b1 b93e
000003c0: b02b 62be fa9f 613e 0e11 0d3e 91c5 533c
000003d0: b8dc b4be f6e5 643e 0549 31be dd8a 16be
000003e0: 85fa 95bd db79 25be 2aa5 8dbe 3c70 a2bd
000003f0: b1d1 bebd 93b2 cd3d 167e ea3d 1b30 fd3c
-0.23483355 -0.12047887 -0.17445952 -0.00017661037 0.007447292 0.0470717 0.10455575 -0.025728222
-0.18893933 -0.15000279 -0.06908388 -0.077234425 -0.05427322 0.05594137 -0.00433768 0.18097946
0.17051795 0.18924014 0.19324087 0.028933829 -0.17307219 0.15275487 0.030383619 -0.14237754
0.08794495 -0.013289228 0.091887355 -0.009669127 0.116110265 0.078995936 -0.02783492 0.1889807
0.076015405 0.041031174 0.1060358 -0.06487467 0.017904088 -0.1591533 -0.13684225 -0.18911748
-0.119520865 0.06813055 -0.087161586 -0.10533775 -0.096795045 -0.04154425 -0.110470235 0.030868353
0.15170744 -0.048938416 -0.15728988 0.12589167 0.1758753 0.061564524 0.15913795 0.124570556
0.127139 0.06209512 -0.21141008 -0.11010354 0.14273116 -0.05395454 -0.16505374 -0.109738916
0.050399818 0.05810523 0.031015035 -0.074259624 -0.07129833 -0.12369191 -0.08446501 0.03761041
-0.16380034 0.1156472 0.227603 -0.34660688 0.044412397 -0.21941365 -0.110055685 0.08210874
-0.17653318 0.21887298 -0.1608976 -0.030588625 -0.037748538 -0.15958413 -0.11011312 0.2681831
-0.29746184 -0.045364976 -0.1287514 -0.22991613 -0.025784004 -0.090138786 0.13602617 -0.021847349
-0.16218597 0.09197164 0.1727487 -0.032212436 0.07324397 -0.096327044 0.13360417 -0.1761874
-0.17734633 -0.13233037 0.13926683 -0.062453713 -0.14561716 -0.12147794 -0.124444306 0.15007709
0.14262468 -0.1582938 -0.19676858 -0.024641588 0.0025283278 -0.16396944 0.041424338 -0.05416915
0.044235352 -0.14700644 0.11598859 -0.02171788 0.13335997 0.07932456 0.04486572 -0.050121862
-0.11691636 0.06529578 -0.11311332 -0.0212507 -0.092679076 -0.19451582 0.08155311 0.13268061
0.08860331 -0.030732373 0.013999273 -0.06250786 -0.03034233 0.15484707 -0.022685543 0.043973062
-0.021369776 0.047089957 0.19263785 0.12471916 -0.042303704 -0.21231861 -0.04487025 -0.12174404
-0.16273141 0.21270736 0.108128786 -0.15901124 -0.11615893 -0.11151918 -0.25339594 0.083660185
-0.066702306 -0.007800314 -0.107696116 0.1468885 0.15387776 0.02521063 0.21055117 0.05745579
0.029242354 -0.050645262 -0.015057001 -0.076242626 -1.26285595e-05 -0.13204786 0.12102451 -0.19756162
-0.13716988 -0.11832275 0.03464333 -0.036534976 -0.13188423 0.13247114 0.027848037 0.23366506
0.06508864 0.11052715 0.16153507 -0.08918998 -0.18840279 -0.04652293 -0.043017294 0.14619453
-0.28435162 0.1420113 0.0777719 0.020829953 -0.18884964 0.057928875 -0.15542257 0.22284488
0.11400356 -0.039906565 0.034261372 -0.17279553 0.14193588 -0.13226402 -0.1296637 0.09372829
-0.10602887 -0.06449135 -0.198119 0.013883277 -0.188913 0.11549112 0.10392074 0.08036673
0.115463756 0.120781705 -0.19681756 0.01746872 -0.003681428 -0.10774249 0.12908284 -0.075227015
-0.20643227 -0.27936363 0.15189329 -0.118622415 -0.33145282 0.13888523 -0.3056826 -0.13165587
-0.09980782 0.35877106 0.23403406 -0.062308177 0.18022548 0.17354748 0.13152838 0.3626825
-0.22086978 0.22033682 0.13776037 0.0129255215 -0.35324645 0.22353348 -0.17313011 -0.1470141
-0.073231734 -0.16159765 -0.27665073 -0.07931563 -0.09317339 0.10043826 0.1144983 0.030906728

lv_mlp_net.0.bias f4 [14]
00000000: e553 dc3d f5be 3ebd fe1c 483e 4b50 bfbd
00000010: 5218 15bc 15cf d13d 9eda d53c e7c0 eabd
00000020: 85da 3c3e e5a9 f83d 8e83 193e 4b02 66bd
00000030: 6ece 133e 4140 da3e
0.10758189 -0.04656883 0.1954231 -0.093414865 -0.009100037 0.10244576 0.026105221 -0.114625745
0.18442734 0.1214178 0.1499159 -0.05615453 0.14434215 0.42627147

lv_mlp_net.3.weight f4 [1, 14]
00000000: b463 223c b5e1 9cbe cb2d b53e 50bf 803e
00000010: 6fd7 25be cb62 f1bd 9d75 8d3e 1d09 1d3d
00000020: 9369 5a3e 4c03 1c3e a044 85be 7cd7 05be
00000030: 0362 92be 8462 853e
0.009911466 -0.3064095 0.353865 0.2514596 -0.16195463 -0.117864214 0.27628794 0.03833877
0.21329336 0.15235633 -0.2602892 -0.13070482 -0.28590402 0.26051724
