model/checkpoints/janardhan2016/rdkit/model_000.onnx (onnx, 75007 bytes, 14 tensors)

lv_onnx::MatMul_4 f4 [191, 33]
00000000: 0000 0000 0000 0000 0000 0000 0000 0000
00000010: 0000 0000 0000 0000 0000 0000 0000 0000
00000020: 0000 0000 0000 0000 0000 0000 0000 0000
00000030: 0000 0000 0000 0000 0000 0000 0000 0000
00000040: 0000 0000 0000 0000 0000 0000 0000 0000
00000050: 0000 0000 0000 0000 0000 0000 0000 0000
00000060: 0000 0000 0000 0000 0000 0000 0000 0000
00000070: 46ab 25bf 46ab 25bf 0000 0000 0000 0000
00000080: 0000 0000 0000 0000 0000 0000 0000 0000
00000090: 0000 0000 0000 0000 0000 0000 0000 0000
000000a0: 46ab 25bf 0000 0000 0000 0000 0000 0000
000000b0: 0000 0000 0000 0000 0000 0000 46ab 25bf
000000c0: 0000 0000 0000 0000 0000 0000 0000 0000
000000d0: 0000 0000 46ab 25bf 0000 0000 0000 0000
000000e0: 0000 0000 0000 0000 0000 0000 0000 0000
000000f0: 0000 0000 0000 0000 0000 0000 0000 0000
00000100: 0000 0000 0000 0000 0000 0000 0000 0000
00000110: 0000 0000 0000 0000 0000 0000 0000 0000
00000120: 0000 0000 0000 0000 0000 0000 0000 0000
00000130: 0000 0000 0000 0000 0000 0000 0000 0000
00000140: 0000 0000 0000 0000 46ab 25bf 0000 0000
00000150: 0000 0000 0000 0000 0000 0000 0000 0000
00000160: 0000 0000 0000 0000 0000 0000 0000 0000
00000170: 0000 0000 0000 0000 0000 0000 0000 0000
00000180: 0000 0000 0000 0000 0000 0000 0000 0000
00000190: 0000 0000 0000 0000 46ab 253f 0000 0000
000001a0: 0000 0000 0000 0000 0000 0000 0000 0000
000001b0: 0000 0000 0000 0000 0000 0000 0000 0000
000001c0: 0000 0000 0000 0000 0000 0000 0000 0000
000001d0: 0000 0000 0000 0000 0000 0000 0000 0000
000001e0: 0000 0000 0000 0000 0000 0000 0000 0000
000001f0: 0000 0000 0000 0000 0000 0000 0000 0000
00000200: 0000 0000 0000 0000 0000 0000 0000 0000
00000210: 0000 0000 46ab 25bf 0000 0000 0000 0000
00000220: 0000 0000 0000 0000 0000 0000 0000 0000
00000230: 0000 0000 0000 0000 0000 0000 0000 0000
00000240: 0000 0000 0000 0000 0000 0000 0000 0000
00000250: 46ab 253f 0000 0000 0000 0000 46ab 253f
00000260: 0000 0000 0000 0000 0000 0000 0000 0000
00000270: 0000 0000 0000 0000 46ab 253f 0000 0000
00000280: 0000 0000 0000 0000 46ab 25bf 0000 0000
00000290: 0000 0000 0000 0000 0000 0000 0000 0000
000002a0: 0000 0000 0000 0000 0000 0000 0000 0000
000002b0: 46ab 253f 0000 0000 0000 0000 0000 0000
000002c0: 0000 0000 0000 0000 46ab 253f 0000 0000
000002d0: 0000 0000 0000 0000 0000 0000 46ab 253f
000002e0: 0000 0000 0000 0000 0000 0000 0000 0000
000002f0: 0000 0000 0000 0000 46ab 253f 0000 0000
00000300: 0000 0000 0000 0000 0000 0000 0000 0000
00000310: 0000 0000 0000 0000 0000 0000 0000 0000
00000320: 0000 0000 0000 0000 0000 0000 0000 0000
00000330: 0000 0000 0000 0000 0000 0000 0000 0000
00000340: 0000 0000 0000 0000 0000 0000 0000 0000
00000350: 0000 0000 0000 0000 0000 0000 0000 0000
00000360: 0000 0000 0000 0000 0000 0000 0000 0000
00000370: 0000 0000 0000 0000 0000 0000 0000 0000
00000380: 46ab 253f 0000 0000 0000 0000 0000 0000
00000390: 0000 0000 0000 0000 46ab 253f 0000 0000
000003a0: 0000 0000 0000 0000 0000 0000 0000 0000
000003b0: 0000 0000 0000 0000 0000 0000 46ab 25bf
000003c0: 0000 0000 0000 0000 0000 0000 0000 0000
000003d0: 0000 0000 0000 0000 0000 0000 0000 0000
000003e0: 0000 0000 0000 0000 0000 0000 0000 0000
000003f0: 0000 0000 0000 0000 0000 0000 0000 0000
0.0 0.0 0.0 0.0 0.0 0.0 0.0 0.0
0.0 0.0 0.0 0.0 0.0 0.0 0.0 0.0
0.0 0.0 0.0 0.0 0.0 0.0 0.0 0.0
0.0 0.0 0.0 0.0 -0.6471447 -0.6471447 0.0 0.0
0.0 0.0 0.0 0.0 0.0 0.0 0.0 0.0
-0.6471447 0.0 0.0 0.0 0.0 0.0 0.0 -0.6471447
0.0 0.0 0.0 0.0 0.0 -0.6471447 0.0 0.0
0.0 0.0 0.0 0.0 0.0 0.0 0.0 0.0
0.0 0.0 0.0 0.0 0.0 0.0 0.0 0.0
0.0 0.0 0.0 0.0 0.0 0.0 0.0 0.0
0.0 0.0 -0.6471447 0.0 0.0 0.0 0.0 0.0
0.0 0.0 0.0 0.0 0.0 0.0 0.0 0.0
0.0 0.0 0.0 0.0 0.0 0.0 0.6471447 0.0
0.0 0.0 0.0 0.0 0.0 0.0 0.0 0.0
0.0 0.0 0.0 0.0 0.0 0.0 0.0 0.0
0.0 0.0 0.0 0.0 0.0 0.0 0.0 0.0
0.0 0.0 0.0 0.0 0.0 -0.6471447 0.0 0.0
0.0 0.0 0.0 0.0 0.0 0.0 0.0 0.0
0.0 0.0 0.0 0.0 0.6471447 0.0 0.0 0.6471447
0.0 0.0 0.0 0.0 0.0 0.0 0.6471447 0.0
0.0 0.0 -0.6471447 0.0 0.0 0.0 0.0 0.0
0.0 0.0 0.0 0.0 0.6471447 0.0 0.0 0.0
0.0 0.0 0.6471447 0.0 0.0 0.0 0.0 0.6471447
0.0 0.0 0.0 0.0 0.0 0.0 0.6471447 0.0
0.0 0.0 0.0 0.0 0.0 0.0 0.0 0.0
0.0 0.0 0.0 0.0 0.0 0.0 0.0 0.0
0.0 0.0 0.0 0.0 0.0 0.0 0.0 0.0
0.0 0.0 0.0 0.0 0.0 0.0 0.0 0.0
0.6471447 0.0 0.0 0.0 0.0 0.0 0.6471447 0.0
0.0 0.0 0.0 0.0 0.0 0.0 0.0 -0.6471447
0.0 0.0 0.0 0.0 0.0 0.0 0.0 0.0
0.0 0.0 0.0 0.0 0.0 0.0 0.0 0.0

lr_lr_W f4 [191, 1]
00000000: 47b9 7dbd bce2 94bc 3a2b ccbd 6ba3 6abe
00000010: a33f fdbd 90fc 88bd ded7 f2bd a166 873c
00000020: 0b21 20be d689 a93b f737 233d 8225 103d
00000030: 5888 7e3c 81ce 3a3c 2df7 223d f2a9 443c
00000040: 0a77 78bc 52ae fabc 6b43 87bd 55bf acb9
00000050: c54a d2bc 8992 033c a2d8 4bbc 4803 923d
00000060: 03d2 133d 0c65 823d 96e7 483d e6c0 813c
00000070: b934 f03c e843 5bbd 65b5 ebbc 900b 0d3d
00000080: 8c14 d5bd 6474 bd3d 6e83 1e3d 7fda 2e3e
00000090: 5583 053e 32da a13d 08a0 cebc 7c39 52bd
000000a0: aeaf 0e3d 0952 303d 4b09 e7bd 83c9 0a3d
000000b0: 703f bb3d d511 afbd 25f2 f33c 3f43 aa3a
000000c0: 4d68 693d 3f43 aa3a 7a8b 293d e4d9 6c3d
000000d0: 9d1b 763d 7ae3 053d 31a2 c0bd 36a5 443b
000000e0: 1234 863b 8811 1f3d 9934 fbbd 9b6b 8b3d
000000f0: daf7 903c 49de a63d 0731 893d 9dea a3bc
00000100: 564e 8ebd 035d 583c ecbc 69bd 4d4a a73d
00000110: 2358 de3d ca80 db3d c4b8 08be 6c98 813d
00000120: 4bb4 833d 30bd c83d 2b4a 81bc 5822 c0bd
00000130: 8ed5 84bd 5983 7a3c cb57 fabd 9da7 153d
00000140: aeab 3b3d a28c dc3b 6ae6 15be 7aa2 15be
00000150: e556 5a3d 4f49 c23d a6c3 723d 8ce5 33bc
00000160: ffee 58bd 89c3 f83c 80ac d2bd 6445 b03d
00000170: 181b 1abe 81aa 4b3e 956c aa3d 1ea1 843c
00000180: 18c3 383d ff68 43bd 3274 0fbe f7f5 eebc
00000190: 6521 953d 1774 9ebc 8749 8cbd a733 d13d
000001a0: 8fe7 0bbd 566a 743d d80e f63d 852f 713c
000001b0: 0e8c 24bd 36ae 9b3b 4756 aabd e30b 02bd
000001c0: 9d3d 963d 22e1 84bc f193 813d 9cb7 1e3d
000001d0: ef0c 27bc 7c35 083d d72e 5b3d 33dd 363d
000001e0: 2f9a 86bb 8141 5abc 6e8e 1dbc e5a3 f6bd
000001f0: 298a 21bc ee13 473d cdd9 8dbd f08d 773d
00000200: 7abe 1fbc e1c0 b6bd cdaf dcbc b506 b53d
00000210: 3f73 a5bc 6a65 4bbe 2416 06be b506 b53d
00000220: b506 b53d ef11 fdbc bcc4 74bd cbde 85bd
00000230: 12ad bf3c 175d 3abd 28e2 b038 940f 153c
00000240: 3818 06be 108d 2bbe 6a65 4bbe 6fb9 e23b
00000250: bdd4 f03b 6a1c 3d3b c15c 15be 9dea a3bc
00000260: 5d36 02be 7014 80be 7928 a73b 3723 ebbb
00000270: 4c0d 28bd d293 153d 3d8b 983d ad30 033e
00000280: fe4b 5f3d 88b1 a53d 493d 9c3d 794f 893d
00000290: 50f8 1c3d 5346 c23c 5346 c23c 9716 9a3d
000002a0: 4830 833d 530f 333b 3274 0fbe e3fe 153e
000002b0: 6a41 773d 8b34 7d3d ca95 1cbe 2080 dc3d
000002c0: 6710 0bbe 1b64 41be b500 caba 2466 a9bd
000002d0: bd04 09bd 4cc4 cb3d c08c ccbc 70de 0bbd
000002e0: d679 1bbd a5d6 e73a 18ca 18be 518d 603d
000002f0: 540c b43d 8e25 343e 8be9 03be
-0.061944272 -0.018174522 -0.09969182 -0.22913902 -0.12365653 -0.066887975 -0.1185758 0.01652843
-0.15637605 0.005173902 0.039848294 0.03519202 0.015535437 0.011401773 0.039786506 0.012003409
-0.0151651 -0.0306007 -0.06604656 -0.0003294895 -0.025670419 0.008030542 -0.012441786 0.07129532
0.036088955 0.063669294 0.049048983 0.015839051 0.029322015 -0.053531557 -0.02877302 0.034434855
-0.1040431 0.092507154 0.03869956 0.17075537 0.1303838 0.079029456 -0.025222793 -0.051324353
0.03483551 0.043046985 -0.11281069 0.033883583 0.09142959 -0.08548323 0.02977855 0.0012990012
0.056984235 0.0012990012 0.04139278 0.057824984 0.060084928 0.03268764 -0.094059356 0.00300057
0.0040955627 0.03883508 -0.122658916 0.068076335 0.01769631 0.08147866 0.06698804 -0.020009333
-0.06948535 0.0132057695 -0.057064936 0.081684686 0.108566545 0.10717924 -0.13351732 0.063279
0.064308725 0.0980171 -0.015782436 -0.093815506 -0.06486045 0.015290105 -0.122237764 0.0365368
0.045818023 0.006730632 -0.14638677 -0.14612761 0.053305525 0.09486639 0.059268616 -0.010980021
-0.0529623 0.030366676 -0.10286808 0.08606985 -0.15049398 0.19889261 0.08321492 0.016190108
0.04510793 -0.047707554 -0.14009169 -0.02917002 0.0728176 -0.019342465 -0.06849962 0.1021493
-0.03415638 0.059671722 0.1201455 0.014720802 -0.04017263 0.004750992 -0.08317237 -0.031749617
0.073359706 -0.016220633 0.06327046 0.038749322 -0.010195955 0.03325413 0.053511467 0.044644546
-0.0041077356 -0.013321281 -0.009616477 -0.12042979 -0.0098596 0.04860299 -0.06926308 0.060438097
-0.009750003 -0.089235075 -0.026939297 0.0883917 -0.020196555 -0.19862905 -0.13094383 0.0883917
0.0883917 -0.03089234 -0.059757933 -0.06536635 0.023397956 -0.045498934 8.434459e-05 0.009097952
-0.13095176 -0.1675303 -0.19862905 0.006919078 0.007349579 0.0028856047 -0.14586164 -0.020009333
-0.1271605 -0.25015593 0.0051012603 -0.007175829 -0.041028306 0.036517926 0.074484326 0.12811537
0.05451583 0.08090502 0.07628877 0.06704611 0.038322747 0.023715174 0.023715174 0.0752384
0.06405693 0.0027322366 -0.14009169 0.14648013 0.060365118 0.061817687 -0.15291515 0.107666254
-0.13580476 -0.18885843 -0.0015411588 -0.08271435 -0.033451784 0.0994955 -0.024969459 -0.03414768
-0.03795799 0.001768787 -0.14920843 0.05482227 0.08791414 0.17592451 -0.12882058

svc_W2_svc f4 [191, 1]
00000000: 8c66 82bd c998 78bc 4363 b0bd d526 33be
00000010: 9f1e cabd aa75 b0bc 15cb eabd f927 cc3c
00000020: e3e3 f5bd f149 5a3c 934a 223d c138 ed3c
00000030: 4beb 703c 0fa0 553c a67a ef3c 525a 043c
00000040: 870a 04bc e194 99bc 8cc6 23bd 1cc1 0abb
00000050: eacf 6abc 6037 233c c67e e13a 149a 913d
00000060: 7253 f33c 471b 803d 2fc1 be3c 3468 253c
00000070: a402 0c3d 2cc7 a6bd 77da 57bc 1b9a 0e3d
00000080: 6afc 9fbd 4f29 9b3d a1df f53c 1440 0f3e
00000090: c136 cf3d c993 7b3d bac6 8fbc 62da 2dbd
000000a0: 690f db3c a500 083d 46cf 90bd 8b1a e83c
000000b0: 56e4 7f3d 6932 6abd e918 bf3c 2f23 c63a
000000c0: 0115 393d 2f23 c63a d5aa 193d e3a2 6ebc
000000d0: aa32 873d 5c15 cf3c c7a1 ccbd a858 c03b
000000e0: e235 063c 5d60 f63c 2532 e2bd 3c4d 293d
000000f0: 91b3 54bb abaf 973d 45cb 353d 69a5 9ebb
00000100: 89b5 3abd e976 d73b a54b 21bd c1f5 513d
00000110: 9480 dd3d 0cf7 9a3d 0efa fbbd 7bf8 1d3d
00000120: 9084 5d3d 587a 343d f21a dfbc 7456 92bd
00000130: 0177 7bbd f07b 463c 7967 c3bd 5dca da3c
00000140: 7e62 f53c 3513 4d3b 2a8b edbd b18b 00be
00000150: f1d5 343d 8cf0 a53d 7e73 0f3d dd88 14bb
00000160: 9380 a4bc a8c1 1fbc c70f 94bd 858c a53d
00000170: 5591 0ebe ee28 1d3e 05a8 683d 139c 1d3c
00000180: 4c77 043d 1eeb c8bc 8051 cbbd d70b 72bd
00000190: b0f6 a43d 69e0 b7bc c967 7abd f7d4 bc3d
000001a0: c5d6 22bd a7ad 383d 7f1d c73d 9e2e b0b9
000001b0: 75d7 2abd d28f 543c 4309 c0bd a081 dfbb
000001c0: efd6 983d f630 cebc 8389 823d 1b22 da3b
000001d0: 1bb2 4b3a 0c67 823c 76f4 133d dab8 ad3c
000001e0: 875f a83c 5120 2fbd 98eb 9cba 767b b6bd
000001f0: 6435 b839 65d8 f33c 7d05 71bc 140c eb3c
00000200: b3fe 78bc 2652 99bd 2b31 62bc 35a4 973d
00000210: 7ff6 14bd 1511 57be 59a7 f2bd 35a4 973d
00000220: 35a4 973d 747b 82bc 0daf 21bd c5af 29bd
00000230: ab76 4f3c 8a9e 90bd f1f6 463c 012d 3c3b
00000240: 12e3 d7bd 70eb 1fbe 1511 57be e4a7 fc3b
00000250: c5bd c33b 0d8c f1bb 9882 cebd 69a5 9ebb
00000260: bdd2 e8bd 7283 28be 36f2 b53b 7b62 453b
00000270: e422 9ebc c13a e63c d2f8 3e3d 49ca 103e
00000280: 819b eb3c 6676 ad3d b8d4 643d af72 4c3d
00000290: b3f5 d63c 15a6 3e3c 15a6 3e3c 855a 7e3d
000002a0: 2242 433d 3240 0abb 8051 cbbd 2533 e83d
000002b0: 5891 073d be05 143d 1010 d3bd f9ef c93d
000002c0: 9821 fcbd 8194 1ebe c89e 02bc efc2 95bd
000002d0: 0546 d0bc 0865 a93d 070b f03b 396d 70bd
000002e0: b270 70bd c8dd d43b 7f2a d3bd 580e 303d
000002f0: 362b a13d 04a8 133e 1058 edbd
-0.063672155 -0.015173146 -0.08612683 -0.17495282 -0.09869122 -0.021540482 -0.11464516 0.024921404
-0.120063566 0.013323293 0.0396219 0.028957726 0.014704536 0.013038649 0.029233288 0.008078175
-0.008059151 -0.018747749 -0.03998427 -0.002117223 -0.014331797 0.009961933 0.0017203919 0.07109466
0.029702876 0.06255203 0.023285476 0.010095645 0.034182206 -0.08143458 -0.013174645 0.034814935
-0.07811816 0.07576238 0.030013861 0.13989288 0.10117865 0.061420236 -0.017550815 -0.042444594
0.026740747 0.03320374 -0.07070784 0.02833297 0.062473617 -0.05717698 0.023327308 0.0015116687
0.045186047 0.0015116687 0.037516434 -0.014565202 0.0660146 0.02527874 -0.09991794 0.0058699436
0.008191558 0.030075246 -0.110447206 0.041333422 -0.0032455663 0.07406553 0.044383306 -0.004841496
-0.04558328 0.0065754545 -0.03937878 0.05125976 0.1081554 0.07566652 -0.123035535 0.038567048
0.0540815 0.04406199 -0.027234528 -0.07145396 -0.061392788 0.01211451 -0.0954122 0.026707822
0.029954191 0.0031291966 -0.11598809 -0.12553288 0.044149343 0.08102521 0.03502225 -0.0022664585
-0.02008084 -0.009750761 -0.07229572 0.080834426 -0.13922627 0.15347645 0.05680086 0.0096197305
0.032340333 -0.024526175 -0.09927654 -0.059093323 0.080548644 -0.022445874 -0.061134133 0.09220307
-0.0397556 0.045087483 0.09722423 -0.00033604068 -0.041709382 0.012973743 -0.093767665 -0.0068208724
0.0746287 -0.02516983 0.063738845 0.0066568977 0.0007770375 0.015918277 0.036121808 0.021206308
0.020553363 -0.04275543 -0.0011972068 -0.08910267 0.00035134994 0.02976627 -0.014710781 0.028692283
-0.015197444 -0.07486372 -0.013805668 0.07404367 -0.03636789 -0.2100261 -0.11848325 0.07404367
0.07404367 -0.015928008 -0.039473582 -0.041427393 0.01266257 -0.07061489 0.012143836 0.0028713348
-0.10541357 -0.15617156 -0.2100261 0.007710444 0.00597355 -0.0073714317 -0.100835025 -0.004841496
-0.1136832 -0.16456392 0.0055525554 0.0030118513 -0.019303747 0.028104188 0.046624012 0.14139666
0.028760673 0.08469848 0.055866927 0.04991406 0.026240205 0.011636277 0.011636277 0.062098045
0.04767049 -0.0021095392 -0.09927654 0.1133788 0.033097595 0.03613829 -0.10305798 0.09860224
-0.12311095 -0.15486337 -0.007972427 -0.07312571 -0.025424013 0.08271223 0.0073255333 -0.058697913
-0.058701225 0.006496165 -0.1031084 0.04298243 0.0786957 0.14419562 -0.11589062

fs_lr_fs_lr_W f4 [79, 1]
00000000: 8de2 5ebe 2418 02bf 0f9d 21be 4e68 8cbe
00000010: 6f46 043e fb08 28bd d6df f4bd 7ef6 1e3d
00000020: 4b4f 553e ce08 953d 4bed 2a3e 61bc a4be
00000030: cf5e 9e3e adab 343c 8a25 fa3e c43f 543e
00000040: 90a6 f7bd cc63 37ba 73ec 033d 8482 02be
00000050: cb37 1b3e 0adc 0cbd a8b8 b0bd 3dce 0d3e
00000060: a8b8 b0bd 4e91 03bd 8874 7f3c ed3b 553c
00000070: 7ea0 193e c5b0 96be afc2 4b3c bcc6 36be
00000080: 3c99 a93d 1ca1 c83c 933c aa3d 0471 3a3e
00000090: 9f8e c2be 3aa7 9a3d 69d2 6b3e 1a54 033f
000000a0: 11ad 1d3e 4db4 83bc 94ce 49be 1e45 81be
000000b0: dab1 8dbe d266 8ebe f16d a53e 66ba 10bf
000000c0: e7d5 383f 97f4 a43c 9cde 21bd 6253 ff3e
000000d0: ad99 c5be 80df 633e 5bae 21bd 9432 0ebf
000000e0: 722e afbd 0d71 083e 02c9 073d 9e4b 413e
000000f0: fb63 17bd f6c9 40be 6a8c e93e bfee 8ebe
00000100: f1be 5dbc 717e 973d 36ec 83be f698 a0be
00000110: bfee 8ebe 78cd b2bd 927d d4be d38a 243d
00000120: 2a34 9b3e 3706 223e c0cd 1f3f 181a 07bd
00000130: 4fb0 f7be 519d d93e cc79 60be
-0.2176611 -0.50818086 -0.1578257 -0.27423328 0.12917493 -0.04102419 -0.11956756 0.038809292
0.20831029 0.0727707 0.16692083 -0.32174972 0.30931708 0.011027259 0.48856765 0.2072745
-0.12092316 -0.0006995767 0.032207917 -0.127451 0.15158002 -0.034389533 -0.086289704 0.13848205
-0.086289704 -0.032120995 0.015591748 0.013014776 0.15002629 -0.2943174 0.012436553 -0.17849249
0.0828118 0.024490885 0.08312335 0.18207175 -0.37999436 0.07551427 0.23029484 0.51300204
0.15398051 -0.016077185 -0.1970771 -0.25248045 -0.27674752 -0.2781282 0.3231044 -0.5653442
0.7220139 0.02013616 -0.039518937 0.49868304 -0.38593808 0.22253227 -0.03947292 -0.55545926
-0.085537806 0.13324375 0.03315068 0.18876502 -0.036960583 -0.18827042 0.4561494 -0.27916524
-0.0135342935 0.07397164 -0.25766152 -0.313667 -0.27916524 -0.08730596 -0.41502053 0.040171456
0.30313236 0.15822683 0.62423325 -0.03298387 -0.483767 0.42502835 -0.21921462

fs_svc_W2_fs_svc f4 [79, 1]
00000000: a5aa 29be e154 bfbe 4fc8 bebd 1769 09be
00000010: 5d24 083e 6f33 003a 6ec1 21bd 7095 c63c
00000020: 682e 5b3e f1fb 333d 9c07 103c 2c32 44be
00000030: 5118 473e 80c2 3e3d 22ed a83e da06 393e
00000040: 5be9 96bd d324 2a3c 7860 723d 94b4 30bd
00000050: 7080 8d3d b8c6 bb3b 0cec c8bd df38 c63d
00000060: 0cec c8bd 9060 483d 38a6 b4bd 32d9 fe3d
00000070: 39a7 003e 8e9f 84be 33c5 423d 41cc 06be
00000080: 2543 c83b 1b98 793c 3912 44bc 4183 9e3d
00000090: ba2a 7dbe e1b0 fc3c 86ad c63d 1d56 973e
000000a0: c327 d43d d35a ec3a 153f f9bd bf81 0bbe
000000b0: 45b0 24be 9f30 5fbe 7a67 493e f8fd babe
000000c0: 77ce ce3e 9950 88bb 32bb 2cbd 1ec7 933e
000000d0: 03b9 67be cee7 0f3e 6591 f2bc adc7 a3be
000000e0: 423e 453d 105f 643d 6e79 a9bc ed2d d23d
000000f0: ed53 293d 4fe1 8dbd 850f 813e 92ce a5be
00000100: f487 96bd a60b b63c ec28 86be bcdc a3be
00000110: 92ce a5be ca52 babd 23ff 5cbe 48fc 11bc
00000120: 0d84 1b3e 3de7 973d e75d a93e f4fc f4bd
00000130: 0b91 91be f24a 803e f8c2 39be
-0.16569002 -0.37369445 -0.093155496 -0.13418995 0.13295121 0.00048904767 -0.03949111 0.02424118
0.21404421 0.043941442 0.008790877 -0.19159764 0.1944287 0.04657221 0.32993418 0.1806902
-0.07368728 0.010384756 0.05917403 -0.043140963 0.06909263 0.005730476 -0.09810647 0.09678816
-0.09810647 0.048920214 -0.08820766 0.124437705 0.1256379 -0.2590298 0.047551345 -0.13163854
0.00611152 0.015234019 -0.011967235 0.077398784 -0.2472333 0.030846061 0.09701066 0.29557887
0.103591464 0.0018032439 -0.12170235 -0.13623713 -0.16082866 -0.21795891 0.1966838 -0.36521888
0.40391895 -0.0041599986 -0.04217071 0.28862852 -0.2262917 0.1405327 -0.029610345 -0.31988278
0.048155077 0.05575472 -0.020687785 0.10262666 0.041339803 -0.0692774 0.25207153 -0.32384163
-0.0735015 0.022222351 -0.26203096 -0.32004344 -0.32384163 -0.09097822 -0.21581702 -0.008910246
0.15187092 0.07417152 0.33079454 -0.119623095 -0.28430972 0.2505718 -0.18140781

mfs_lr_mfs_lr_W f4 [96, 1]
00000000: dd75 a4bd 7ed8 25be 02ab 13bf 8995 a6be
00000010: e870 75bd 8792 38be ba23 dc3d 53fb bcbe
00000020: 946f 593e a048 363e 2e12 41bd d2e5 d8bd
00000030: 7c00 9a3c dcde 55bc 3bfe 8bbe 50ce bb3e
00000040: ea72 c6bc ad00 983e 0120 7b3e e0bc ab3d
00000050: e18d c33d 1868 46be 1838 db3e 5690 9b3b
00000060: 8aa4 f93e d373 1e3e b072 bbbd 8f0a 033e
00000070: ecb9 383d 1a8c 50bc 54e4 9c3c fa98 b3bd
00000080: c765 f2be 4c02 14bd 85f8 8dbd 017e a0bc
00000090: 85f8 8dbd 9183 313d d4c4 353e 4f90 2b3e
000000a0: 2f1f 353e 5026 50be a511 20bd 58a8 acbd
000000b0: 218c b53b 9e98 9bbe c36f 573d 695c 473e
000000c0: a7ff 343e cfa9 e7be c2b8 993d 95f9 653e
000000d0: 1ae6 1c3f 1bcf 4dbd e519 80be b140 0abf
000000e0: 1ae9 56be af77 cf3e 730e dc3e 571e 073d
000000f0: 276e 94be 63f6 653e 3756 bebe d655 123f
00000100: 5a7b cd3d 9efe 753d 8f54 c13d 1725 72be
00000110: 8664 dd3e cd11 833e 35a5 f63e eadb 07be
00000120: 0d2f 84be 31ba d6be 1645 4fbd 9cd5 293e
00000130: edfb 873e a265 7e3d ad1c d0bc abf4 213e
00000140: 799a 5ebd f001 6abd 88d7 c5be afba 6c3d
00000150: 5c27 a63e d920 4d3d 65d4 5dbe 65d4 5dbe
00000160: c865 8bbe 0c22 433e 87ab 8c3e b85a eb3c
00000170: d3ae 0d3f fd65 d53e 4b88 2a3f 9922 bbbe
-0.08030293 -0.16195866 -0.5768281 -0.3253596 -0.05992213 -0.18024646 0.10749002 -0.36910495
0.2123397 0.17801142 -0.047136478 -0.1059071 0.01879906 -0.013053622 -0.273424 0.3668084
-0.024224717 0.29688016 0.24523927 0.083856344 0.09548546 -0.19375646 0.42816234 0.004747431
0.48758346 0.15473871 -0.09152734 0.12796997 0.045099184 -0.012728715 0.019151844 -0.08769412
-0.47343275 -0.036135003 -0.06932167 -0.019591333 -0.06932167 0.043338362 0.17750865 0.16754268
0.17687677 -0.20327115 -0.039079327 -0.084305465 0.0055403863 -0.30389875 0.05259682 0.19468845
0.17675649 -0.4524674 0.07505943 0.22458489 0.6128861 -0.05024634 -0.25019756 -0.5400496
-0.20987359 0.40521 0.42979774 0.03298792 -0.2899029 0.2245727 -0.37175152 0.57162225
0.10033293 0.060057275 0.094399564 -0.23646961 0.43240756 0.25599518 0.48172918 -0.13267484
-0.25817147 -0.41938928 -0.050602995 0.16585392 0.26559392 0.062108643 -0.025404299 0.1581599
-0.054346535 -0.057130754 -0.38641 0.057795223 0.32451904 0.050080154 -0.21663053 -0.21663053
-0.2722609 0.19055957 0.27474615 0.028729782 0.55344886 0.41679373 0.66614217 -0.36549833

mfs_svc_W2_mfs_svc f4 [96, 1]
00000000: d83b 4abe e653 e4bc bc03 35bf dc05 923d
00000010: fb10 3d3e 4711 9d3d 5f25 8bbc 4669 e2be
00000020: 0b82 b43e 376f 953e 29cf 7fbd 43b8 19be
00000030: e7d4 1d3d 8e1e a33d 53fc acbe fb00 523f
00000040: 9219 0c3d 8884 b83e 6a80 ca3e 51c2 7f3e
00000050: c89c 8c3e 3a3f 9f3d 217a cf3e 7391 92bd
00000060: 295f 183f 0de0 153d 2d7e adbd 2e32 c73e
00000070: 77ed bd3d fca7 e8bb 3014 95bd ef6d f3bd
00000080: 6772 46bf 747a 60bd 4d7d 2bbd 581e 2b3e
00000090: 4d7d 2bbd bdaf 383c fef0 e93d 55bf 223d
000000a0: cde0 353e 6317 8ebe b1a8 e0bd 30fa 91bd
000000b0: 3a83 93bd 7789 79be f7e7 f7bc 7823 cd3e
000000c0: f734 cdba a99b 0ebf 95a6 47bd fde0 953e
000000d0: 684f 2f3f 02d9 05be 0971 debe 2383 f2be
000000e0: beb5 c7bd 78b6 fe3e 25b8 013f 0b3a 823e
000000f0: 7e8e 52be 0e67 9f3e d711 94be cbcb 823e
00000100: 6780 543d cccb 593e 4891 8d3e aea0 f7be
00000110: 1320 073f a700 fd3d 84c4 5a3f 4f5a 9abe
00000120: 7b54 c2be 846e 62be 630d 08bb f66e e33e
00000130: 2477 9f3e 8a51 123e d8fc 99be b169 303e
00000140: 22f3 673c a0c1 0f3b 5904 e3bd dd6e 3a3e
00000150: fc22 5d3e b28b 01be 6c2b dbbd 6c2b dbbd
00000160: f73c 02bf b94a 253e 82c7 5c3e a8ef 6ebe
00000170: 1d57 e63e cdee 893e 630e 5f3f f4e9 f7be
-0.19749391 -0.027872037 -0.70708823 0.07130024 0.18463509 0.07669311 -0.016985593 -0.44220942
0.35255465 0.29186413 -0.062453423 -0.15011697 0.038533118 0.07964812 -0.33786258 0.82032746
0.034204073 0.36038613 0.39551097 0.2497647 0.27463365 0.077757314 0.40522864 -0.071566485
0.595202 0.036590625 -0.08471332 0.38905472 0.092738084 -0.0071001034 -0.07279241 -0.118862025
-0.77518314 -0.05480428 -0.041867543 0.16710794 -0.041867543 0.011272368 0.11422919 0.03973325
0.17761536 -0.27752218 -0.10969675 -0.071277976 -0.07202764 -0.24368845 -0.030261977 0.40066123
-0.0015656044 -0.5570627 -0.04874285 0.29273215 0.6848054 -0.13071063 -0.43445614 -0.47365674
-0.097514614 0.49748588 0.5067161 0.25434908 -0.20562169 0.31133312 -0.2891986 0.25546107
0.051880267 0.21269149 0.27649903 -0.48364776 0.52783316 0.1235364 0.8545611 -0.30147025
-0.37955078 -0.22112471 -0.0020759932 0.44420594 0.31145585 0.14288917 -0.30075717 0.17227818
0.0141570885 0.0021935478 -0.110848136 0.18206353 0.21595377 -0.12650946 -0.107016414 -0.107016414
-0.50874275 0.16141786 0.21560481 -0.23333609 0.44988337 0.26940003 0.8713133 -0.4842068

lv_lr_lv_lr_W f4 [33, 1]
00000000: d094 4d3b d9c2 a13d 70dc 91bc 3fd5 d6bc
00000010: 61bd 8bbd 4334 b3bc af23 323c fdfe 93bd
00000020: 7341 253d 36b2 e93c 4e98 0d3c 8565 d3bd
00000030: e697 603d e883 d03d db0d cdbb 8d24 273d
00000040: 3cdb 8abd b8e1 2b3d 6d60 abbc 512b bd3c
00000050: 705c 4d3c 1fa9 2e3d 925b f6bc 2022 f33c
00000060: c25d b93b 4378 03bd b64b 07bd 49d7 0d3d
00000070: 9e5b 3f3d 4019 73bc f72d f43d 4ece dcbb
00000080: eef9 a33c
0.0031369217 0.07898492 -0.017805308 -0.02622473 -0.068232305 -0.021875506 0.010872765 -0.072263695
0.04034562 0.02852736 0.008642269 -0.10322098 0.05483236 0.10181409 -0.006257755 0.040806342
-0.06780097 0.04196331 -0.020920003 0.023091944 0.012534246 0.042641755 -0.030072961 0.029679358
0.0056569288 -0.032097112 -0.033031188 0.03462914 0.046718232 -0.014837563 0.119228296 -0.0067384606
0.020016637

lv_svc_W2_lv_svc f4 [33, 1]
00000000: a4ce 85bc ece7 1b3e ef6d 65bd 7998 84bc
00000010: bebe 20be 1ba7 3bbd 7945 d73c f9d9 dfbd
00000020: 1404 973d 076b 5e3d de8b be3d 7a36 85be
00000030: 49a3 853d 76aa 573e e172 813d 30ea e93d
00000040: 079b 5ebe 7dc7 f13d fc0d 35bd 3ed8 713d
00000050: 13f4 bebc 2b40 bb3d cb91 3dbd c214 3d3d
00000060: bd48 00bd af13 8abd 402b 18bd a17f 4b3d
00000070: 0e71 eb3d 82d8 14bd 5c61 823e 6bf6 8cbd
00000080: 5271 a13c
-0.016333885 0.1522519 -0.056013044 -0.016185986 -0.15697762 -0.04581366 0.026278244 -0.10930247
0.07373825 0.054301288 0.09304021 -0.26018125 0.06525285 0.2106112 0.063207395 0.11421621
-0.21738826 0.118056275 -0.04420279 0.059044115 -0.023309743 0.091430984 -0.046281617 0.046162374
-0.03131937 -0.067420356 -0.03715062 0.049682263 0.11496173 -0.03633929 0.25464904 -0.06882938
0.019707356

lv_mlp_net.0.weight f4 [9, 33]
00000000: f174 0d3f 280c c5bd 428a a73d 4e04 87be
00000010: 7133 e9be 46c8 8d3e 9148 06be f48f 1abf
00000020: fa31 123c 2ab1 bf3c 0976 1dbe fb97 5f3c
00000030: 5c5f 123f 073d e63e 7935 1ebe 98e7 db3d
00000040: c008 62be 6cf4 493e dabc 19bf b22d 943d
00000050: 6505 273e 48ca d83d 2d79 00bf 6dc1 163e
00000060: 30d8 86bd 5ffc 903e 2122 83be bdfd 053f
00000070: 5cbf 253d 4665 3ebf 4245 b83e f76d 42be
00000080: aed3 203e 9954 4c3c 63b4 7e3d 7732 48be
00000090: 4d6e 97bd cf79 f3be d059 85bd ffcf c0bd
000000a0: 086f bebe 37f6 0e3e 1fbe d63d ca77 adbe
000000b0: ece0 f1be 648e f73e 06ce 023f 7ed8 f7be
000000c0: d0d7 323f f073 21be a137 4d3f 4021 41be
000000d0: 8f9f e5be cc73 803e 094d 0d3f c9c1 f0be
000000e0: 33dc f53d 2e88 d4bc b279 573d cc87 63bf
000000f0: 937e 0d3f 2664 2a3e ed7d 54be cff0 bf3e
00000100: e2a2 2bbe 3d5a 603d 4a20 b13d dcab 863e
00000110: 0665 2d3e ca75 27be 2932 89be 2896 c4bb
00000120: 5837 c6bd 031a 99bf d7bb 8d3f f9b1 433f
00000130: f426 003d a52f 2dbf d8e6 843e 8849 343f
00000140: d5bb c7bd c628 713e 7781 5bbe 639e f33e
00000150: 7645 a5be 6494 efbd 1a16 933e dfb7 e33e
00000160: 893b f0be 79f8 ad3e df63 733e 8260 12bf
00000170: c2d7 20bf 4673 833e 8628 0e3f 7282 75bf
00000180: b3aa 983f f727 493e 6315 3e3e ce90 02be
00000190: cf8e 4c3f 6c4b debc ca81 67be 6cb8 413e
000001a0: b996 3fbd 98b5 66bc f13e 4abf 9231 493e
000001b0: bc8d 1c3f df99 5c3e 5b1e 25bf 4367 563e
000001c0: 85c8 8e3f b718 f03d 7ee3 273f d2c5 b4be
000001d0: 5e98 193f c9f0 9f3b 9bba d13e 50e5 e0bd
000001e0: 83b4 af3e 58ef 7dbe 3691 1d3e dc02 9c3d
000001f0: 57c6 103e 4480 cbbe 2df4 c83d 32ea 493d
00000200: 5fbd b73c e566 873f ada6 97be 0deb c23e
00000210: 2115 863e 82ef 073f 281f e23e c2b6 6ebe
00000220: 37e8 8ebe 0b98 03bf 5619 c23c 4fd2 63bf
00000230: 2f3e ef3d 908e 3e3e 664b e33d f077 32bf
00000240: 7be6 2abe c450 b83e 1507 63be 48e2 fb3a
00000250: 8635 adbe 1afd 033f dfa8 573e aa6d ebbd
00000260: 2449 43bf 8ca5 223f 9262 95be 39e5 99bd
00000270: 1bed 003e 5c15 0d3f db37 ddbe 18ab 78be
00000280: 189d 5a3e 9f8f 41be 2067 783f e06d 16bf
00000290: 45ec 9f3e c3a5 1fbe 60c7 223f 054b 57bf
000002a0: 624b 51be 1bde 3fbf ac21 a7be 456f 9d3e
000002b0: eb23 1dbf c6e1 cb3e ae0a 633f bd9f 38be
000002c0: 32d4 8abe 0dad 3f3e 3843 483f 4f14 96bd
000002d0: bec4 ab3f 1cfa 3ebe a9aa 313f 9852 22bf
000002e0: f865 26be 731b 413e 2e21 923d 6865 27bf
000002f0: a50b 343f 4471 853e 3f6a 5dbe fa8b 3bbe
00000300: c8f0 edbd 451a 4e3e da81 4ebe 33d2 2f3f
00000310: 2f7f 0ebf 7c6d 153f 279d 8b3d 6a63 853e
00000320: afc5 b8bd 85d1 90bd b69e 3fbe 4336 9ebe
00000330: ccd5 bdbe 5a1e 2ebd 43b3 13bb 3090 343e
00000340: 1c2d a4bd 7114 03be da00 d53d f13a 303e
00000350: 8d96 55be 18da 72be a83c 2bbd 2d17 883d
00000360: ccc2 7b3d b660 96be 61eb 133f 9546 463e
00000370: e7e8 42be a6e7 04be ed2e 51be d8f2 7a3e
00000380: a9f9 08be 63fe 6b3d 505a d93e b693 b6bd
00000390: 08a2 e937 575b 7c3d 5e20 933e d77e a63e
000003a0: 0d1d 933e 5963 08bf 879b a1be 0270 acbd
000003b0: a7eb 3e3d 8a8f b63e 6e51 353d f41f 893c
000003c0: 1833 b03e b5a4 eabe 111b 51be fe9e feba
000003d0: 92be 023f 1b1f b8bc 9d8d bb3e 2ecc f93d
000003e0: cccf e83d 7480 023e 3ba1 953e fba4 6f3e
000003f0: f98d 913d 38d1 153e 129e 94bd 9aab 09bd
0.55256563 -0.09621459 0.081806675 -0.26370472 -0.4554706 0.2769186 -0.1311362 -0.60375905
0.008923048 0.023399908 -0.15377058 0.013647075 0.57176757 0.44968435 -0.15450086 0.107375324
-0.2207365 0.19722146 -0.6005379 0.07235278 0.16310652 0.10585457 -0.501849 0.14722224
-0.06584203 0.28317544 -0.25611976 0.523403 0.040465698 -0.7437328 0.3599034 -0.18987261
0.1570575 0.0124713415 0.06218375 -0.19550501 -0.07394085 -0.4755387 -0.06511271 -0.09414672
-0.37194085 0.13961111 0.104854815 -0.33880454 -0.47241914 0.48350823 0.51095617 -0.48407358
0.69860554 -0.15766883 0.8016301 -0.1886034 -0.44848296 0.25088346 0.5519567 -0.47022846
0.1200489 -0.025943842 0.052606292 -0.88879085 0.5527126 0.16639766 -0.20751162 0.3748841
-0.16761354 0.054773558 0.08648737 0.26302993 0.16933069 -0.16353527 -0.26796082 -0.0059993453
-0.09678525 -1.1961063 1.1072949 0.7644344 0.03128715 -0.67650825 0.2595737 0.704247
-0.09752623 0.2355071 -0.21436106 0.47581777 -0.32279557 -0.11698225 0.287278 0.4447622
-0.46920422 0.33978632 0.23768567 -0.5717851 -0.6282922 0.25673884 0.55530584 -0.9590217
1.1927093 0.19644152 0.18562846 -0.12750551 0.7990541 -0.027135573 -0.22608104 0.18918008
-0.0467746 -0.014081381 -0.7900229 0.19647816 0.6115377 0.21543072 -0.64499444 0.20937829
1.1154944 0.11723464 0.655815 -0.35307175 0.5999812 0.0048809987 0.4096268 -0.10981238
0.34317407 -0.24798334 0.15387425 0.07617733 0.1413816 -0.39746296 0.09812198 0.04929561
0.022429166 1.0578276 -0.2961935 0.38069955 0.26187995 0.53099835 0.44164395 -0.23311904
-0.2791154 -0.51403874 0.023693722 -0.8899278 0.116817825 0.18609071 0.110983655 -0.6971426
-0.16689484 0.3599912 -0.2217067 0.0019217217 -0.33829898 0.5155808 0.21060513 -0.11495526
-0.7628348 0.63533854 -0.29176766 -0.07514424 0.12590449 0.55110717 -0.43206677 -0.24284017
0.21348989 -0.18902443 0.97032356 -0.58761406 0.31234947 -0.15590577 0.6358547 -0.84098846
-0.20438913 -0.7494828 -0.32642877 0.30748954 -0.6138293 0.3982069 0.8868817 -0.18029685
-0.27115017 0.18718357 0.7822757 -0.07328092 1.3419416 -0.18650097 0.6940103 -0.6340728
-0.16249835 0.18858127 0.07135235 -0.6538911 0.7033027 0.26062977 -0.21622561 -0.18315116
-0.11618191 0.20127209 -0.20166722 0.68680114 -0.55662817 0.58370185 0.06817084 0.2605241
-0.0902208 -0.07071213 -0.18712887 -0.30900773 -0.37077177 -0.042509414 -0.0022537268 0.17633128
-0.080164164 -0.12800767 0.10400553 0.17209984 -0.20858212 -0.23716009 -0.041805893 0.066450454
0.06146507 -0.2937066 0.57781035 0.19362862 -0.19034158 -0.12978992 -0.20428057 0.245067
-0.13376488 0.05761565 0.42451715 -0.089148924 2.7851216e-05 0.061610546 0.28735632 0.32518646
0.287331 -0.5327659 -0.3156397 -0.08419801 0.046611454 0.35656387 0.04426711 0.01673887
0.3441398 -0.45828786 -0.20420481 -0.0019426045 0.5107204 -0.02247577 0.3663148 0.12197147
0.11367759 0.12744313 0.29224572 0.23402779 0.07107157 0.14630592 -0.07256712 -0.033610918

lv_mlp_net.0.bias f4 [9]
00000000: c42c 8e3e c9d5 453e 7c77 b33e 3a6e 3a3f
00000010: b7d8 003e b5f1 2a3f e7e6 43bf 52da 2b3d
00000020: 8054 0dbf
0.27768528 0.19319834 0.35052097 0.7282444 0.1258267 0.66775066 -0.76524204 0.041956253
-0.5520706

lv_mlp_net.3.weight f4 [2, 9]
00000000: 87a1 a5be aaf4 c5bd a0d6 44be f49d d6be
00000010: 7767 c6be 4563 94be bf49 363d abf4 27bf
00000020: 0b0f 4ebe f5f7 ac3e af29 1f3f 43ec 0f3f
00000030: d566 2e3f a305 033f 4fbf fe3e 6ba2 d7bd
00000040: f732 b9bb 78a1 f9bd
-0.32349798 -0.096658066 -0.19222498 -0.41917384 -0.38750812 -0.28981987 0.044503924 -0.6560771
-0.20122926 0.33782926 0.6217298 0.5621988 0.6812566 0.51180476 0.49755332 -0.10529026
-0.0056518274 -0.12189001

lv_mlp_net.3.bias f4 [2]
00000000: b1ec 0cbf d727 9bbd
-0.5504866 -0.07575958

lv_mlp_net.6.weight f4 [1, 2]
00000000: 3f4a 6d3c ae27 2b3f
0.014483034 0.6685742
