model/checkpoints/radchenko2023/rdkit/model_000.onnx (onnx, 125119 bytes, 12 tensors)

lv_onnx::MatMul_4 f4 [205, 66]
000000 00 00 00 00 00 00 00 00 00 00 00 00 00 00 00 00
       0.0 0.0 0.0 0.0
000010 00 00 00 00 00 00 00 00 00 00 00 00 b3 78 ee 3e
       0.0 0.0 0.0 0.4657646
000020 00 00 00 00 00 00 00 00 00 00 00 00 00 00 00 00
       0.0 0.0 0.0 0.0
000030 00 00 00 00 00 00 00 00 00 00 00 00 00 00 00 00
       0.0 0.0 0.0 0.0
000040 00 00 00 00 00 00 00 00 00 00 00 00 00 00 00 00
       0.0 0.0 0.0 0.0
000050 00 00 00 00 00 00 00 00 00 00 00 00 b3 78 ee 3e
       0.0 0.0 0.0 0.4657646
000060 00 00 00 00 00 00 00 00 b3 78 ee be 00 00 00 00
       0.0 0.0 -0.4657646 0.0
000070 00 00 00 00 00 00 00 00 00 00 00 00 00 00 00 00
       0.0 0.0 0.0 0.0
000080 00 00 00 00 b3 78 ee be 00 00 00 00 00 00 00 00
       0.0 -0.4657646 0.0 0.0
000090 00 00 00 00 00 00 00 00 00 00 00 00 00 00 00 00
       0.0 0.0 0.0 0.0
0000a0 00 00 00 00 00 00 00 00 00 00 00 00 b3 78 ee be
       0.0 0.0 0.0 -0.4657646
0000b0 00 00 00 00 00 00 00 00 00 00 00 00 00 00 00 00
       0.0 0.0 0.0 0.0
0000c0 00 00 00 00 00 00 00 00 00 00 00 00 00 00 00 00
       0.0 0.0 0.0 0.0
0000d0 00 00 00 00 00 00 00 00 00 00 00 00 00 00 00 00
       0.0 0.0 0.0 0.0
0000e0 00 00 00 00 00 00 00 00 00 00 00 00 00 00 00 00
       0.0 0.0 0.0 0.0
0000f0 00 00 00 00 00 00 00 00 00 00 00 00 00 00 00 00
       0.0 0.0 0.0 0.0
000100 00 00 00 00 b3 78 ee 3e 00 00 00 00 00 00 00 00
       0.0 0.4657646 0.0 0.0
000110 00 00 00 00 00 00 00 00 00 00 00 00 00 00 00 00
       0.0 0.0 0.0 0.0
000120 00 00 00 00 00 00 00 00 00 00 00 00 00 00 00 00
       0.0 0.0 0.0 0.0
000130 00 00 00 00 00 00 00 00 00 00 00 00 00 00 00 00
       0.0 0.0 0.0 0.0
000140 00 00 00 00 00 00 00 00 00 00 00 00 b3 78 ee 3e
       0.0 0.0 0.0 0.4657646
000150 00 00 00 00 00 00 00 00 00 00 00 00 00 00 00 00
       0.0 0.0 0.0 0.0
000160 00 00 00 00 00 00 00 00 00 00 00 00 00 00 00 00
       0.0 0.0 0.0 0.0
000170 00 00 00 00 00 00 00 00 00 00 00 00 00 00 00 00
       0.0 0.0 0.0 0.0
000180 00 00 00 00 00 00 00 00 00 00 00 00 00 00 00 00
       0.0 0.0 0.0 0.0
000190 00 00 00 00 00 00 00 00 00 00 00 00 00 00 00 00
       0.0 0.0 0.0 0.0
0001a0 00 00 00 00 00 00 00 00 00 00 00 00 00 00 00 00
       0.0 0.0 0.0 0.0
0001b0 00 00 00 00 00 00 00 00 00 00 00 00 00 00 00 00
       0.0 0.0 0.0 0.0
0001c0 00 00 00 00 00 00 00 00 00 00 00 00 00 00 00 00
       0.0 0.0 0.0 0.0
0001d0 00 00 00 00 00 00 00 00 00 00 00 00 00 00 00 00
       0.0 0.0 0.0 0.0
0001e0 00 00 00 00 00 00 00 00 00 00 00 00 b3 78 ee be
       0.0 0.0 0.0 -0.4657646
0001f0 00 00 00 00 00 00 00 00 00 00 00 00 00 00 00 00
       0.0 0.0 0.0 0.0
000200 00 00 00 00 00 00 00 00 00 00 00 00 00 00 00 00
       0.0 0.0 0.0 0.0
000210 00 00 00 00 00 00 00 00 00 00 00 00 00 00 00 00
       0.0 0.0 0.0 0.0
000220 00 00 00 00 00 00 00 00 00 00 00 00 00 00 00 00
       0.0 0.0 0.0 0.0
000230 00 00 00 00 b3 78 ee be 00 00 00 00 00 00 00 00
       0.0 -0.4657646 0.0 0.0
000240 00 00 00 00 00 00 00 00 00 00 00 00 b3 78 ee be
       0.0 0.0 0.0 -0.4657646
000250 00 00 00 00 00 00 00 00 00 00 00 00 00 00 00 00
       0.0 0.0 0.0 0.0
000260 00 00 00 00 00 00 00 00 00 00 00 00 00 00 00 00
       0.0 0.0 0.0 0.0
000270 00 00 00 00 00 00 00 00 00 00 00 00 b3 78 ee 3e
       0.0 0.0 0.0 0.4657646
000280 00 00 00 00 00 00 00 00 00 00 00 00 00 00 00 00
       0.0 0.0 0.0 0.0
000290 00 00 00 00 00 00 00 00 00 00 00 00 b3 78 ee 3e
       0.0 0.0 0.0 0.4657646
0002a0 00 00 00 00 00 00 00 00 00 00 00 00 00 00 00 00
       0.0 0.0 0.0 0.0
0002b0 00 00 00 00 00 00 00 00 00 00 00 00 00 00 00 00
       0.0 0.0 0.0 0.0
0002c0 00 00 00 00 00 00 00 00 00 00 00 00 00 00 00 00
       0.0 0.0 0.0 0.0
0002d0 00 00 00 00 00 00 00 00 00 00 00 00 00 00 00 00
       0.0 0.0 0.0 0.0
0002e0 00 00 00 00 00 00 00 00 00 00 00 00 00 00 00 00
       0.0 0.0 0.0 0.0
0002f0 00 00 00 00 00 00 00 00 00 00 00 00 00 00 00 00
       0.0 0.0 0.0 0.0
000300 00 00 00 00 00 00 00 00 00 00 00 00 00 00 00 00
       0.0 0.0 0.0 0.0
000310 00 00 00 00 00 00 00 00 00 00 00 00 00 00 00 00
       0.0 0.0 0.0 0.0
000320 00 00 00 00 00 00 00 00 00 00 00 00 00 00 00 00
       0.0 0.0 0.0 0.0
000330 00 00 00 00 00 00 00 00 00 00 00 00 00 00 00 00
       0.0 0.0 0.0 0.0
000340 00 00 00 00 00 00 00 00 00 00 00 00 00 00 00 00
       0.0 0.0 0.0 0.0
000350 00 00 00 00 00 00 00 00 00 00 00 00 00 00 00 00
       0.0 0.0 0.0 0.0
000360 00 00 00 00 00 00 00 00 00 00 00 00 00 00 00 00
       0.0 0.0 0.0 0.0
000370 00 00 00 00 00 00 00 00 00 00 00 00 00 00 00 00
       0.0 0.0 0.0 0.0
000380 00 00 00 00 00 00 00 00 00 00 00 00 00 00 00 00
       0.0 0.0 0.0 0.0
000390 00 00 00 00 00 00 00 00 00 00 00 00 b3 78 ee be
       0.0 0.0 0.0 -0.4657646
0003a0 00 00 00 00 00 00 00 00 00 00 00 00 00 00 00 00
       0.0 0.0 0.0 0.0
0003b0 00 00 00 00 00 00 00 00 00 00 00 00 00 00 00 00
       0.0 0.0 0.0 0.0
0003c0 b3 78 ee 3e 00 00 00 00 00 00 00 00 00 00 00 00
       0.4657646 0.0 0.0 0.0
0003d0 00 00 00 00 00 00 00 00 00 00 00 00 00 00 00 00
       0.0 0.0 0.0 0.0
0003e0 00 00 00 00 00 00 00 00 00 00 00 00 00 00 00 00
       0.0 0.0 0.0 0.0
0003f0 00 00 00 00 00 00 00 00 00 00 00 00 00 00 00 00
       0.0 0.0 0.0 0.0

lr_lr_W f4 [205, 1]
000000 e4 0e eb 3e 13 34 0f bf 1a 79 06 3e a4 ca 86 3d
       0.45909798 -0.55938834 0.13132134 0.065816194
000010 47 ee 72 be fc ab e4 3d 67 a4 c4 bd 20 dc 7f 3b
       -0.23723708 0.11165616 -0.0960167 0.0039041117
000020 5f f8 1f 3d e5 36 e6 3d 93 92 32 3d 2c e0 4b 3d
       0.039055225 0.11240939 0.043596815 0.049774334
000030 3f 75 a2 3d bc 24 9c 3c 9b a6 7a 3d 79 73 90 3c
       0.07932519 0.019060485 0.061194044 0.017633187
000040 c9 b9 de 3d db 52 11 3e 56 7b b0 be a1 6a 1f be
       0.108752795 0.14191763 -0.34469098 -0.1556802
000050 10 34 6e 3e 87 c9 80 bd fb 26 66 bd 67 cb 1c 3e
       0.23262048 -0.06288438 -0.05618952 0.15311967
000060 e5 3b d4 3d e5 14 7c bd 5c 7a cc 3d 82 91 f3 3b
       0.103629865 -0.061543364 0.09984276 0.0074331174
000070 46 19 1b 3d 83 a2 a3 3c b1 a5 21 3c 23 18 c4 bd
       0.0378659 0.019974953 0.009866164 -0.09574916
000080 1f a3 c3 bd 94 4a 26 bd 95 24 45 be c3 b5 0e be
       -0.09552597 -0.040598467 -0.19252236 -0.13936524
000090 c2 7f 1a be 49 97 ac 3e 4b 77 cc be 5c 13 ad 3e
       -0.15087798 0.3370917 -0.39934763 0.33803833
0000a0 1e a7 c9 3c 61 83 58 be 90 2b b6 bd c3 3e 0e 3e
       0.02461582 -0.21143867 -0.08895028 0.13891129
0000b0 f5 cb cc 3e c9 e1 07 bf 6c bc 02 3d da 42 aa bd
       0.39999357 -0.53078896 0.031917974 -0.08313532
0000c0 1b cc 9e 3e da 42 aa bd fe cd 7f 3e 1c ad 1c bd
       0.31015095 -0.08313532 0.24980924 -0.038251027
0000d0 9e a2 18 be 63 52 bf 3e eb 12 7c 3d 38 72 73 3e
       -0.14905784 0.37367544 0.06154148 0.2377404
0000e0 51 8d 8d 3b 56 03 43 be ea be 36 be af 03 95 3e
       0.0043198247 -0.19044241 -0.17846265 0.29104373
0000f0 65 28 69 3e b4 d1 77 3d a6 ed 36 3e b9 d8 27 3d
       0.22769316 0.060502723 0.17864093 0.040978167
000100 15 a1 ed 3d 5a 08 fc bd a2 b9 12 ba 75 99 0f be
       0.116029896 -0.123062804 -0.00055971195 -0.14023383
000110 ad c1 fe 3d 48 eb c7 3e 71 8c 1b be 8e f4 4b 3e
       0.124392845 0.39046693 -0.15190293 0.19917509
000120 a9 53 80 bd 56 33 88 be 87 75 ac bc 9c 8a d8 bd
       -0.06265957 -0.26601666 -0.021052135 -0.10573313
000130 94 bf ce bd 8b 6b 3d 3d 55 a8 13 bb 35 49 dc 3d
       -0.100951344 0.04624514 -0.0022530754 0.10756151
000140 75 bb 5b 3e 8b 07 e6 3c 29 0e 30 be 28 be 81 3b
       0.21458228 0.028079769 -0.17192902 0.003959436
000150 28 00 4f 3d c0 97 36 bc c4 df 53 3e 6f 20 43 3e
       0.05053726 -0.011144578 0.20690829 0.19055341
000160 63 05 7d bc 3d 60 5b 3e bc 41 06 3e 9d 36 41 bd
       -0.015443179 0.2142343 0.13111013 -0.047171224
000170 47 8b 51 be 18 90 7e be f5 a2 c2 3e 54 d3 17 3e
       -0.20463286 -0.24859655 0.3801495 0.14826709
000180 42 6c 05 be c7 a9 93 3d 82 a8 6f be b2 2d 2b be
       -0.13029578 0.07210117 -0.23404124 -0.1671665
000190 b6 f0 e4 3b 03 b2 21 3e 16 96 6c 3e 54 ab f3 bd
       0.006986703 0.15790562 0.23104128 -0.118979126
0001a0 79 61 0f bc 4e d3 87 bd 76 90 1f bc d4 84 79 bd
       -0.008751267 -0.066321 -0.009739032 -0.06091769
0001b0 53 01 8e 3d 13 f4 e7 3c 97 72 15 be 22 f4 1e 3c
       0.06933846 0.028314626 -0.14594494 0.0097017605
0001c0 9d cc b7 3d f2 5f a0 3d 17 e5 94 bc 20 e9 3a bd
       0.08974574 0.078308 -0.018175645 -0.04563248
0001d0 81 6f 39 3e 1f 0e 69 3e fa d8 52 3d 33 f6 8b 3e
       0.18108942 0.22759293 0.051476456 0.27336273
0001e0 eb c9 c4 be 1a 98 1c be a6 d8 fa 3d ca 33 18 be
       -0.384353 -0.15292397 0.12248354 -0.14863506
0001f0 de 78 0d 3f 8b 18 34 3e 8a e2 5b 3e a2 7e d9 3d
       0.55262554 0.17587487 0.21473137 0.106198564
000200 b2 51 8c bd ff 21 19 3e 21 d2 b2 be cc 16 23 be
       -0.0685152 0.14954375 -0.3492594 -0.15926665
000210 16 29 c1 bd 5c 13 78 3d cf cd 5e 3d a3 c4 9e bd
       -0.09431665 0.060565338 0.054395493 -0.07752349
000220 50 2e f2 bd 50 2e f2 bd 6e c9 72 bc 6d 0d 22 3d
       -0.1182524 -0.1182524 -0.014818532 0.039563585
000230 12 95 ed 3d 69 7c 82 3d 74 c3 24 bd 6a 19 78 be
       0.116006985 0.063713856 -0.04022546 -0.24228445
000240 da 66 9c 3d 4f 48 1c be 90 98 ae bd 3e a2 a3 bb
       0.07636805 -0.15261959 -0.08525193 -0.004993706
000250 db 5d a8 bd cf cd 5e 3d 85 e6 34 bd 70 e3 b8 3c
       -0.082210265 0.054395493 -0.044165153 0.022569388
000260 16 1d 0a bd 9c 50 30 3e b9 ec 35 bb b9 d8 27 3d
       -0.033719145 0.1721825 -0.0027759506 0.040978167
000270 29 56 06 3e 67 d8 fc 3d 9d 4e 01 3e 4f 1f 58 bd
       0.13118805 0.12345963 0.12627645 -0.052764233
000280 46 d0 2d 3d aa 6b a8 bd 8c 5a 8a bd 61 ba 2e bd
       0.042434953 -0.0822366 -0.06755552 -0.042658214
000290 60 28 49 3d 38 f6 82 3c 83 21 60 be 0f cd db bd
       0.04911077 0.015986547 -0.21887784 -0.10732471
0002a0 fc 20 80 3d 9a a5 5e 3e cb af 61 bd 72 7d 47 bc
       0.06256291 0.2174286 -0.05509929 -0.012175905
0002b0 91 b7 aa 3c 90 b4 14 3d a4 3c b9 3e 93 ee b1 bd
       0.020839484 0.03630501 0.36179078 -0.086880825
0002c0 4d 6d c9 bb ca 14 29 bd b2 83 46 bd 3d 3e 88 3c
       -0.006147063 -0.04127959 -0.04846544 0.01663124
0002d0 54 8e ac 3d 0d 87 83 3e 30 1e a2 bd 87 14 fa 3a
       0.084255844 0.25688973 -0.07915914 0.0019079604
0002e0 88 4c 6a 3d 9a 09 b9 bd ce f9 14 bd 9f 72 2b 3d
       0.057201892 -0.090350345 -0.036371045 0.041857358
0002f0 3d b6 5f bc b6 e0 49 be 73 d8 93 3d e1 58 84 bc
       -0.013654289 -0.19714627 0.07219019 -0.016155662
000300 c1 53 ed bd eb ea 8a bc ac 81 7c 3c 2f fa 87 bd
       -0.115882404 -0.01695772 0.015411776 -0.066395156
000310 19 a2 e8 bc a9 e0 09 3e 59 7b 35 3c 8e 29 6d bc
       -0.028397607 0.13464607 0.011076772 -0.014475239
000320 66 d3 92 bd c2 59 bc bd 4f 47 49 3e 3c 9a 02 bd
       -0.07169227 -0.091968074 0.19656108 -0.03188537
000330 e2 e7 33 3d
       0.043922313

svc_W2_svc f4 [205, 1]
000000 81 42 d2 3e b5 7c 0f bf 87 17 26 3e c8 65 87 3d
       0.41066363 -0.5604966 0.16219912 0.0661121
000010 01 ff 86 be 67 34 01 3e 64 64 c5 bd 8d bc 42 3d
       -0.26366428 0.12617646 -0.096382886 0.047543097
000020 6e ea 10 bc 2f 11 c1 3d e8 40 8c 3e f2 c1 16 3e
       -0.008844955 0.09427106 0.2739327 0.14722422
000030 b0 4f 91 3e 51 59 6a 3e 18 88 4d bd 29 b3 8e be
       0.2838111 0.22885634 -0.050178617 -0.27871063
000040 64 c8 e5 3e 89 0e 53 3f 22 bf 8b bf 4f fa 39 bf
       0.44879448 0.82444054 -1.0917704 -0.72647566
000050 8a 5d 0e 3f c2 fe 5c 3d 11 fb 8a be e0 60 38 3e
       0.5561148 0.053953893 -0.27144673 0.18005705
000060 53 95 09 bd 6d ce e5 bc 95 2d ed 3d 26 b9 ed 3c
       -0.033589672 -0.028052533 0.1158096 0.02901895
000070 4f 42 41 3d ff 43 1f 3d e5 83 21 3d a7 20 95 bd
       0.047182377 0.038883206 0.039432425 -0.072816186
000080 27 22 e8 bd 2a 35 4a be 5b d1 13 bf d7 cb 44 bd
       -0.11334639 -0.19746843 -0.57741326 -0.04804596
000090 ed 7d bc be 00 e1 dd 3e 40 02 c3 be 34 32 7f 3f
       -0.36814824 0.43335724 -0.38087654 0.9968598
0000a0 f1 f9 e4 bd a2 b6 24 bf f4 26 99 bd 64 f4 a8 3e
       -0.11180485 -0.64341176 -0.07478133 0.32998955
0000b0 5e 9c 3d 3f 50 29 45 bf 79 19 1e 3c 99 6b 9d bd
       0.7406672 -0.7701616 0.009649628 -0.07686538
0000c0 d3 44 ad 3e 99 6b 9d bd 8b f4 90 3e 19 70 bf bc
       0.3384157 -0.07686538 0.2831157 -0.023368882
0000d0 8a a9 48 be 20 d5 c9 3e d6 89 d9 3d 22 6c 9e 3e
       -0.19595924 0.39420414 0.10621993 0.30941874
0000e0 82 30 01 bd b4 a5 10 bf b1 a1 9b be e1 bf 4f 3f
       -0.0315404 -0.5650284 -0.30396798 0.8115216
0000f0 af 1b 80 3e c4 3b 07 3e 0b 6b 80 3e 90 c8 35 3e
       0.2502112 0.13206393 0.25081667 0.1775229
000100 69 a1 bc 3e b2 3b 53 be 87 53 25 3e 15 8c f9 bd
       0.36841896 -0.2062824 0.16145144 -0.12184922
000110 f8 09 ba 3d 26 02 10 3f b3 5c 8e be 0b 1f e4 3e
       0.09083933 0.5625328 -0.278051 0.44554934
000120 36 1f ab bd 5f 2d b3 be 64 8d c6 bc 75 aa db bd
       -0.083555624 -0.34995553 -0.024237342 -0.107258715
000130 70 be d4 bd 38 52 47 3d 40 c5 9c 3b 0b b8 2e 3e
       -0.103878856 0.048662394 0.004784256 0.17062394
000140 1a 09 e0 3e f1 bc e3 bc 4a 69 49 be 5a bd 17 bd
       0.43756944 -0.027800055 -0.19669071 -0.037045814
000150 b6 50 41 3c 94 ec 84 bd 8f 55 aa 3e 59 d3 9a 3e
       0.011799028 -0.06490436 0.332684 0.3023937
000160 fb 0b 3d 3d 67 ad 33 3e 67 c0 63 3d 4b a7 ba bd
       0.046154004 0.17546616 0.05560341 -0.0911394
000170 1a 46 67 be c1 35 82 be 3c 0c 06 3f eb c2 b9 3e
       -0.22585335 -0.25431636 0.5236242 0.36281523
000180 d6 8c e6 be 95 cb f0 3d e4 22 82 be ef 60 6a be
       -0.45029324 0.1175758 -0.25417244 -0.2288854
000190 0f 00 11 bc 64 b7 0f 3e 20 00 63 3e ee fa ed 38
       -0.008850112 0.14034802 0.22168016 0.0001134778
0001a0 1e 62 5f bc b7 7d 73 3c bc c7 4d bc e9 37 a4 bd
       -0.013634233 0.014861516 -0.012559827 -0.080184765
0001b0 ea 4c 5f 3e 8e c1 fb 3d b4 bc 1e be 7e f5 51 3c
       0.21806684 0.12292777 -0.15501672 0.012814878
0001c0 e8 8c b3 3d 24 78 18 3d fa 5e c0 bd 17 c1 3e bd
       0.0876711 0.03722395 -0.09393115 -0.046570864
0001d0 c7 c7 39 3e 77 ef 22 3f a9 5b ed 3d 7a 4a c8 3d
       0.18142615 0.63646644 0.115897484 0.0977983
0001e0 5c 9a 2a bf c1 51 9c be 24 3a 1f 3e d4 62 9f bd
       -0.66641784 -0.30531123 0.15549523 -0.07782522
0001f0 1e e6 85 3f 2d 10 b6 3e af 66 c7 3e d7 8b 6b 3e
       1.0460851 0.35559216 0.3894553 0.23002563
000200 16 ca ab bc 62 0d 8b 3e 3a ac be be 94 e4 12 be
       -0.020970386 0.27158648 -0.37240773 -0.14345008
000210 ed d1 d5 bc 5c 40 57 3e 71 27 9e 3d 17 a2 7c 3d
       -0.026101077 0.21020645 0.077223666 0.06167802
000220 a1 cf 0a bd a1 cf 0a bd 35 d9 11 3c 67 e5 c6 3d
       -0.033889417 -0.033889417 0.008901884 0.09711724
000230 3f 31 5b 3e 9f be 67 3d c2 be 0a bd 28 7c 3c bf
       0.21405505 0.056578275 -0.033873327 -0.7362695
000240 e4 83 95 bd 6d 6b 4b be ff 92 5e bd 04 bf 7c bb
       -0.07300547 -0.19865198 -0.054339405 -0.0038566003
000250 8f 6a 75 bd 71 27 9e 3d 47 4a 11 bd b5 fd 22 3d
       -0.059916075 0.077223666 -0.035471227 0.039792735
000260 14 56 b6 bc f9 07 33 3e bd 90 40 bb 90 c8 35 3e
       -0.022257842 0.1748351 -0.0029383146 0.1775229
000270 29 2e 07 3e 40 76 e0 3d c8 cf fc 3d b0 46 41 bd
       0.13201202 0.109600544 0.12344319 -0.047186553
000280 82 c7 0d 3d fc 89 da be 3c 90 77 bd 38 a0 10 bd
       0.034614094 -0.426834 -0.060440287 -0.035309047
000290 63 77 48 3d e8 4d 20 3e 9d 8b f1 be 9c bd 07 be
       0.04894198 0.15654719 -0.4717683 -0.13255924
0002a0 6b 9b 7f 3d f4 74 24 3f 86 f1 6d bd 50 9d 9f bb
       0.062404078 0.64240956 -0.058091663 -0.004871048
0002b0 22 f2 68 3b cb 51 58 3c 29 30 f9 3e 94 35 bc bd
       0.0035544713 0.013203095 0.48669556 -0.09189907
0002c0 aa da 7e bb 44 42 f1 bc 97 63 bc bc 1f 02 5b 3b
       -0.0038887658 -0.029450543 -0.022996707 0.0033418012
0002d0 c2 e4 6f 3e c4 d4 9e 3e 8a 07 bc bd a9 fa cc 3b
       0.23427108 0.31021702 -0.091811255 0.006255467
0002e0 20 bd 79 3d a8 36 c6 bd 2d 14 4f bc 5d 5b b8 3c
       0.06097138 -0.096783936 -0.012639088 0.022504503
0002f0 b8 db 1c 3e ad da b2 be 42 a8 46 3d 5b 82 ba bc
       0.15318191 -0.3493246 0.048500307 -0.022767236
000300 79 7c c6 bd 47 5f e9 3b 6b da ab 3c 50 1b da bd
       -0.0969171 0.0071219536 0.020978173 -0.10649741
000310 6f 09 15 3d 3d 7b 26 3e 99 b4 d8 3c 11 1d c2 ba
       0.03638595 0.16257949 0.026453303 -0.0014809688
000320 8a 2c 13 bd c2 c1 07 bc d2 de 3f 3e 8a 97 80 bd
       -0.035931148 -0.008285942 0.18737343 -0.06278904
000330 86 07 07 3d
       0.03296616

fs_lr_fs_lr_W f4 [108, 1]
000000 54 3c 85 3e ca e6 ec 3d 7f 69 05 3c 98 f1 1e 3d
       0.2602259 0.11567457 0.008142828 0.03880462
000010 ce 5c 9b bd a8 04 1d 3f ba ec 2e 3e 72 c1 ae 3e
       -0.075860605 0.6133523 0.17082492 0.34131962
000020 19 8f 20 3e 73 5c 26 be 3b 4c 37 3e 8e 3a 52 3d
       0.15679587 -0.16246204 0.17900173 0.051325373
000030 92 9c 14 3f f4 a7 61 bf fc 1e 14 bf 2f b6 8a 3e
       0.5805141 -0.881469 -0.5785978 0.2709212
000040 9f 80 50 bb 63 a9 3d be 10 d7 a8 bb 3e 8e 81 bd
       -0.0031814945 -0.18521647 -0.0051525906 -0.06325959
000050 1a 04 d7 bd 47 4b 5d bd 53 26 bc be 23 40 a5 bd
       -0.10498829 -0.05402687 -0.3674799 -0.08068874
000060 53 3f 08 3e d9 4f 08 bf 59 db 31 3f dc de 72 bd
       0.13305406 -0.5324684 0.6947532 -0.059294567
000070 9d a7 d4 be 63 27 67 bd 68 93 70 3e b8 2a 24 3f
       -0.4153413 -0.056434046 0.23493731 0.64127684
000080 ee 36 14 bf 9f 5e 80 bd f4 99 b7 bb cb ac 37 3e
       -0.57896316 -0.062680475 -0.0056030694 0.17937009
000090 e7 71 d4 3d 6b cd b7 be 60 ca ed bd ff ae de be
       0.10373288 -0.3589891 -0.116108656 -0.43492886
0000a0 28 c1 32 3f 3b 08 6a 3e b1 58 62 be d0 57 38 bd
       0.69825983 0.22854702 -0.22104146 -0.04500562
0000b0 4c f7 87 be 75 f7 1c 3f 2d 37 a2 be ef 4b 4b bc
       -0.2655586 0.6131509 -0.3168272 -0.012408241
0000c0 da 10 6f bd a1 75 9d ba 53 29 4f 3e f2 1c ae 3d
       -0.05836568 -0.0012013206 0.20230608 0.08501615
0000d0 ec c7 0e 3d 49 f4 7a 3d 82 fd 8a bd 09 3f 7a 3e
       0.03485863 0.061268125 -0.06786634 0.24438109
0000e0 a0 c8 a9 3e 9e 7e 78 3e 85 db e8 3c d5 9b 17 3f
       0.33160877 0.2426705 0.028424988 0.59222156
0000f0 fa e9 bd 3e e4 83 5d 3e 8e 52 ed bc 4a 11 0f bd
       0.37092572 0.21632344 -0.02897003 -0.034928598
000100 28 5b 62 3e 06 20 86 bd 47 69 af be 8a 8f 1c bd
       0.22105086 -0.06549077 -0.34260008 -0.038222827
000110 3e c1 70 be 67 4d f6 be 6b 9f 81 be f8 5d 59 be
       -0.23511216 -0.48105928 -0.2531694 -0.21227252
000120 8a d4 6c bb 3e 89 bc 3e aa 98 09 bd fa ec 94 bd
       -0.0036137425 0.36823457 -0.033592857 -0.07271762
000130 db 66 cc 3e 81 cb 90 bc 56 ed 5a 3e 0c 28 8c be
       0.39922222 -0.017675163 0.21379599 -0.27374303
000140 e0 e5 3c be da 9f 89 bd 6a a0 09 3e e1 98 87 bd
       -0.18447065 -0.067199424 0.134401 -0.06620956
000150 e1 98 87 bd 09 4a 9f 3d 5b 86 b2 bb af cd 74 3e
       -0.06620956 0.07777793 -0.0054481453 0.23906587
000160 a6 99 c2 3d 9e af c7 bd 54 22 d3 be d9 1c a6 bc
       0.09501962 -0.09750293 -0.41237128 -0.020277428
000170 d5 b2 81 3d 75 47 ae bd 75 2d c1 3e ed 1d f0 bd
       0.06332938 -0.08509723 0.37729993 -0.11724458
000180 57 c4 bb bc 34 74 26 3d 89 06 80 3e 03 b5 9c be
       -0.02292077 0.040638164 0.25004986 -0.3060685
000190 c6 0f a4 3d 6c 8b 0b be db 06 35 be 0b 14 a3 bc
       0.08010821 -0.13627404 -0.17678396 -0.019907018
0001a0 5b 56 27 3e 44 b4 e7 bd 78 70 52 3e 7e 87 a6 bd
       0.16341536 -0.1131368 0.20550716 -0.08131312

fs_svc_W2_fs_svc f4 [108, 1]
000000 e5 e1 79 3e 0d 37 00 3e 40 9a 53 bc 1e ac 9f 3d
       0.24402578 0.12521 -0.012915194 0.077965006
000010 78 2e 02 be bf 6a 6c 3f fe 54 c7 3e 28 3b f0 3e
       -0.12713039 0.9235038 0.3893203 0.46920133
000020 20 84 9e 3e 23 f6 99 bf 86 f9 f6 bd 2e 07 81 3e
       0.30960178 -1.202824 -0.120593116 0.2520079
000030 56 3d af 3f df fb d3 bf b2 8f 99 bf bc 1e 39 3f
       1.3690593 -1.656124 -1.1996977 0.7231252
000040 bf df 8b 3e dc 7a be be de a5 0c 3c 92 04 24 bd
       0.27319142 -0.3720311 0.008584468 -0.04004342
000050 ee 19 ab bd 93 86 63 bd 33 36 fc be 96 40 ce bd
       -0.08354555 -0.05554826 -0.492601 -0.100709125
000060 98 89 d9 3d 77 a6 00 bf 43 5f 68 3f 21 38 3a bf
       0.10621947 -0.50254005 0.9077036 -0.72741896
000070 74 a6 eb be 78 49 11 bd ab 07 ba 3e e4 89 9d 3f
       -0.4602543 -0.035470456 0.36333975 1.2307706
000080 09 49 29 bf 2d e5 a0 be cf ae 9e bc 16 d1 7f 3e
       -0.6612707 -0.31424847 -0.019370465 0.24982104
000090 37 33 37 3f 0f dc d4 be 9e f5 32 bc 57 20 dc be
       0.7156252 -0.4157414 -0.0109228175 -0.42993423
0000a0 ad d9 46 3f 66 0f 3c 3f 3b 99 3a be 2f 76 2f bc
       0.77675897 0.73460996 -0.18222515 -0.0107093295
0000b0 56 15 ff be f6 7e 93 3f ab ad 9d be 55 73 6a bb
       -0.49820966 1.152312 -0.3079656 -0.003577431
0000c0 69 d5 84 bd 62 43 40 bb 03 dd 70 3e ac ec c2 3d
       -0.06486017 -0.0029337038 0.2352181 0.09517798
0000d0 22 91 d0 3c cd 44 34 3d 25 5e 91 bd 54 6b 60 3e
       0.02545983 0.044010926 -0.07098035 0.21915942
0000e0 46 33 a1 3e 79 45 6e 3e 93 2b 16 3d ea e8 be 3e
       0.3148443 0.23268689 0.03666265 0.37287074
0000f0 f0 55 f2 3e cf 89 2c 3e be 93 23 bd 6f bd 83 bd
       0.4733119 0.16849445 -0.03993582 -0.06432616
000100 5d ef 6f 3e a0 e6 5b 3d b5 f0 87 be a9 ed 95 bd
       0.23431154 0.053686738 -0.26550832 -0.07320721
000110 7e 24 97 be da 71 07 bf 66 aa 88 be 6e 66 60 be
       -0.2952003 -0.529081 -0.26692504 -0.21914074
000120 a2 2a 5a 3c f6 7e 97 3e ab 68 b5 bd c6 9c 12 be
       0.0133158285 0.2958905 -0.088578545 -0.14317617
000130 2d 38 ec 3e 26 4e 20 3c 94 d0 9c 3e 07 5b 87 be
       0.4613661 0.009784257 0.30627882 -0.26436636
000140 2c 41 3f be 87 c7 12 bd 41 aa 8e 3e ad 0d c6 bc
       -0.18677205 -0.035834815 0.27864268 -0.024176443
000150 ad 0d c6 bc b8 16 5d 3e ec d2 b2 bb 05 00 a0 3e
       -0.024176443 0.21590698 -0.0054572728 0.31250015
000160 a0 d3 f8 3d 1f d5 9f bd 44 6f 60 bf 8c 5f 52 bc
       0.12149739 -0.078043215 -0.8766978 -0.012840163
000170 4e 0c a4 3d d0 19 31 3b 10 8b be 3e 96 6e e6 bd
       0.080101594 0.0027023442 0.3721547 -0.11251561
000180 e2 0c bb bc 5f f4 1c 3d 74 05 d4 3e 84 c9 ee be
       -0.022833291 0.038318988 0.4141041 -0.4663812
000190 7a 41 99 3d 04 51 ef bd c7 95 1a be 22 ec de bc
       0.07483192 -0.116853744 -0.15096198 -0.027212206
0001a0 70 25 29 3e 41 75 a3 bd 48 7c 3b 3e c6 e8 b3 bd
       0.16518188 -0.07981349 0.18309128 -0.087846324

mfs_lr_mfs_lr_W f4 [92, 1]
000000 8d ef e9 3e 38 53 d4 be f0 f2 ff 3d 8c 88 04 3e
       0.45690575 -0.4146974 0.124975085 0.12942713
000010 e6 64 5e be d1 5e 9a 3e 2d 0d 80 be 61 8a 1a be
       -0.21718177 0.30150464 -0.25010052 -0.1509185
000020 f5 ad 94 bd 62 aa 90 bd e1 2f 15 3f 4c 3a 45 be
       -0.07259742 -0.07063748 0.5827618 -0.1926052
000030 48 9a e1 3e cd f1 92 3e 73 93 10 3f 4a 0a 3d 3e
       0.4406302 0.28700104 0.5647499 0.18460956
000040 96 df 50 3f a0 01 6a 3d 5c d6 3e bf ce 16 54 bf
       0.81591165 0.057130456 -0.74545836 -0.828473
000050 f5 fa ea 3e 2f 99 e7 3e 40 c8 e1 be 16 fe 08 be
       0.4589459 0.45234057 -0.4409809 -0.13378176
000060 41 bb 91 be ad 89 93 be f2 a8 8c be b5 48 99 be
       -0.28463176 -0.28815976 -0.27472645 -0.29938284
000070 f0 82 f5 be a8 b4 b7 be a1 31 15 bf 79 4e 1c be
       -0.4795146 -0.35880017 -0.5827885 -0.1526431
000080 da d2 82 3e 18 93 83 bf 6d 56 32 3f d9 6d 14 bf
       0.25551492 -1.0279264 0.69663125 -0.57980114
000090 d7 e7 bf 3e 31 29 a8 3e 1a 23 a6 3d 4d c7 5e bf
       0.37481567 0.32843927 0.08112164 -0.8702286
0000a0 8b b1 18 3e 2c 0b e1 be 94 f3 ba 3c 24 c8 b4 bd
       0.14911477 -0.43953836 0.022821225 -0.08827236
0000b0 79 5f b7 3e 24 c8 b4 bd c8 14 af 3e 98 d8 2c bd
       0.35815027 -0.08827236 0.34195542 -0.042198747
0000c0 de f0 82 be 52 6d 11 3f 7e c1 46 3e 1f c3 e8 3e
       -0.25574392 0.56807435 0.19409749 0.45461366
0000d0 a4 00 ca be f0 cb 0e be 33 6b a3 3e 6c 66 2f bf
       -0.39453614 -0.13944983 0.31917724 -0.6851566
0000e0 c5 7e e8 3e 91 32 61 bd 82 4f fa 3d 04 af 34 3e
       0.45409217 -0.054979865 0.12222196 0.17644888
0000f0 07 51 09 bd 5b fd 79 3e 7a a4 b9 3e df 96 23 3e
       -0.03352454 0.24413054 0.36258298 0.15975522
000100 09 f5 73 bd 74 3d 94 bd 2d 51 75 3e 06 83 d0 be
       -0.059559856 -0.07238284 0.23956747 -0.40724963
000110 fd 34 21 3e c7 30 e8 3b 26 78 78 3e 10 a5 c0 3e
       0.1574287 0.007085893 0.24264583 0.37625933
000120 25 1d fb 3d ad 96 3f be 91 e1 16 bf 2c 38 b5 be
       0.12261418 -0.18709822 -0.5893794 -0.35394418
000130 06 b6 de bb a5 1f c5 be 4c 78 ba bc 8f a5 4f 3f
       -0.006796601 -0.38500705 -0.02276244 0.81112
000140 5e 6d 9f 3e b0 52 7a 3f 48 3d bb be 32 22 31 bf
       0.31138128 0.9778242 -0.3657019 -0.691928
000150 26 03 92 be 92 31 03 be ec 0f 27 3e b0 60 51 bd
       -0.28518027 -0.12811878 0.16314667 -0.0511176
000160 dd 8d ce 3d 67 83 1a 3e c2 d6 a3 be 8d f7 69 be
       0.10085652 0.15089189 -0.31999785 -0.2284834

mfs_svc_W2_mfs_svc f4 [92, 1]
000000 f5 59 b1 3e e3 49 da be bf 39 fd 3d ce a7 83 3d
       0.34638944 -0.42634496 0.1236453 0.064284906
000010 39 20 6c be 73 f0 22 3e d1 32 35 be 57 2d 86 b9
       -0.23059167 0.15912037 -0.17695166 -0.00025592252
000020 01 54 32 bd 3e 00 11 bd 26 bd 1b 3e 4c ee a8 c1
       -0.043537144 -0.03540062 0.15208873 -21.116356
000030 3d 2a 30 41 b2 b4 e1 40 3a bc 52 40 f3 54 4c bf
       11.010312 7.0533075 3.2927384 -0.7981712
000040 16 6d 7c 3e a9 cf 8a 3f f6 ee cf bf ec a5 d0 bf
       0.24650988 1.0844623 -1.62448 -1.6300635
000050 3c 8a 67 3f 9b 06 67 3f fc 8c 5c bf 2e 01 16 be
       0.90445304 0.90244454 -0.86152625 -0.14648888
000060 ac 68 a5 be de 48 b7 be 14 f1 90 be c3 5d 93 be
       -0.3230642 -0.3579778 -0.28308928 -0.28782472
000070 17 ee f5 be 75 76 cf be 11 67 10 bf a0 b5 a5 c1
       -0.4803321 -0.40520063 -0.56407267 -20.713684
000080 7f 1b aa 3e c9 68 8f bf 65 12 42 3f 2f f3 f4 be
       0.33224103 -1.1203853 0.7580932 -0.47841784
000090 c2 98 86 3f 8d 0e 90 c0 12 dc fb 41 8d 90 40 c0
       1.0515368 -4.501776 31.482456 -3.0088227
0000a0 76 31 14 bf 2f 49 0e bf 93 0f 75 3f 1b 25 a8 bd
       -0.5788797 -0.5558042 0.9572689 -0.08210202
0000b0 7e 8c a7 3e 1b 25 a8 bd 46 c5 89 3e fd 39 e6 bc
       0.32724375 -0.08210202 0.2690832 -0.028103823
0000c0 3d ad 87 be 2a 7b b5 3e cb ce 28 3e d4 68 93 3e
       -0.26499358 0.3544553 0.16485135 0.28790915
0000d0 4f 59 96 3f 59 ef 6a c1 2e a5 00 3f 45 b9 07 bf
       1.1746005 -14.6834345 0.50252044 -0.53017074
0000e0 1b 6a a0 40 80 2c 87 3e bb 08 00 3e 18 62 6f 3e
       5.0129523 0.26401138 0.1250333 0.23377264
0000f0 6e 8d 67 3d 86 01 87 3e e8 b6 f3 3e b8 45 83 3e
       0.056531362 0.2636835 0.47600484 0.2563913
000100 9d d5 be 3c cc f5 71 bd 93 2c c4 3f cc eb a9 be
       0.023295218 -0.0590723 1.5326103 -0.3318771
000110 06 61 90 3d 14 5b 69 3d a4 79 4b bd 9b 8b 33 3e
       0.07049756 0.056971624 -0.049676552 0.17533724
000120 f2 10 37 be b0 ff 03 be 0e 4f 3a bf ae a4 cb be
       -0.17877558 -0.12890506 -0.7277688 -0.39774078
000130 6c 92 c6 3d f8 92 fd bd c6 87 a3 bd e6 21 8c 3f
       0.096958965 -0.12381548 -0.07984881 1.0947845
000140 3f 50 da 40 40 6c 34 40 52 79 ab 40 6a 14 8f 40
       6.8222957 2.819107 5.3585596 4.471242
000150 50 22 b3 3f dc 94 3d 3f c6 c0 7d 40 42 5d e3 3f
       1.3994846 0.74055266 3.964891 1.7762835
000160 f1 17 cf 3f 98 3e 8f 3f ee fb 13 bf 27 81 3b be
       1.6179181 1.1190977 -0.5780629 -0.18310986

lv_lr_lv_lr_W f4 [66, 1]
000000 bc 11 e9 bb 3f 80 8b bd 7c 84 23 bd 36 e9 0b be
       -0.00711271 -0.068115704 -0.03992127 -0.13663182
000010 7d a5 4a 3d df ee f5 bc 06 db 0c bd a8 48 c0 3d
       0.04947423 -0.03002113 -0.034388565 0.09388858
000020 35 8b b7 3c 1e bf e5 bd e1 92 cb 3d cd ad 4a 3d
       0.022405246 -0.11218093 0.09940124 0.049482156
000030 c6 d1 d0 bc a0 9e f5 bd dc e7 03 3c 9e 82 bd 3d
       -0.025490653 -0.11993146 0.008050885 0.09253429
000040 89 bd 59 be be b1 cf bd ef 0c ee 3d 02 65 d1 bd
       -0.21263708 -0.101413235 0.11623561 -0.10224344
000050 c4 71 2d bb bd 7b c5 3d 91 92 bf bc bd ae a5 3d
       -0.0026465515 0.09642742 -0.023385318 0.08089969
000060 7f b4 c3 bc 3b 6e a5 bd bc 54 78 bd ff 8a e2 3d
       -0.023889778 -0.080776654 -0.060627684 0.11061668
000070 fa fa 4c 3e bd d6 30 3c 51 18 a3 3d 49 a8 34 3d
       0.20017615 0.010793385 0.07963622 0.0441058
000080 c8 5b 3c 3d 83 d1 0f 3d df 8e de 3b fe ab fa 3d
       0.045985967 0.035111915 0.006791934 0.12239836
000090 32 79 f4 3d 64 5f 07 3e 8e 7a 59 bd 36 f0 71 3b
       0.11937179 0.13219982 -0.053095393 0.0036916859
0000a0 a4 70 56 bd 7f 92 01 3d 36 2e ed 3b 56 36 77 b9
       -0.052353516 0.03163385 0.007238175 -0.00023575997
0000b0 ec d8 3e be ea 1d 36 3e 8a c1 9b bd 57 bf ca 3d
       -0.18637437 0.17784849 -0.07605274 0.098997764
0000c0 65 48 23 be 13 41 89 bd a7 36 ab bd a6 10 d0 bc
       -0.15945585 -0.06701865 -0.083600335 -0.025398564
0000d0 c3 42 e8 3d aa 4e 2b bc a5 a7 34 3d a2 94 58 bd
       0.11340859 -0.010455767 0.04410519 -0.052876122
0000e0 47 a7 50 bd 75 b0 60 3d 9c 80 ce bd ad be b0 3d
       -0.050940778 0.054855783 -0.10083124 0.086301185
0000f0 5e a9 f2 3d e8 37 ab bd 56 ed 7b bd 84 ef b4 39
       0.118487105 -0.08360273 -0.061505638 0.00034510728
000100 08 92 f2 3c c0 b0 97 3d
       0.029610649 0.07406759

lv_svc_W2_lv_svc f4 [66, 1]
000000 c0 e6 3d bc a1 0d 30 bd ea 95 47 bd c2 33 09 be
       -0.01159066 -0.042981748 -0.048726954 -0.1339865
000010 fe cd 85 3c 2c 23 4f bd f8 b3 f5 bc f9 32 86 3d
       0.016333576 -0.050570652 -0.029993042 0.06552691
000020 87 30 e7 3c 33 cc bd bd 2e f4 af 3d 76 d4 84 3d
       0.028221382 -0.092674635 0.085914955 0.06485836
000030 51 cc 63 bc 93 f1 f4 bd 18 32 a8 3b 66 39 a7 3d
       -0.013903693 -0.11960139 0.0051329248 0.08165245
000040 6e 42 1f be 2b 0e 9f bd 28 f5 93 3d 99 60 de bd
       -0.15552685 -0.07766374 0.07224494 -0.10858268
000050 06 6c d2 3c 73 c1 ed 3c 0e fc a8 bc 6b 84 81 3d
       0.025686275 0.029022908 -0.020628002 0.06324085
000060 c2 53 88 bc 8b 67 be bd c6 59 7b bd 9d 02 c0 3d
       -0.016641501 -0.09297093 -0.06136491 0.093754984
000070 b9 16 38 3e 81 6c 78 bb bc 01 8d 3d 1e d2 2c 3d
       0.17977418 -0.003790647 0.068850964 0.04219257
000080 83 03 15 3d 8d d1 8c 3b c1 9e 09 3c 9b 94 74 3d
       0.036380302 0.0042974413 0.008399666 0.059712034
000090 25 42 9d 3d ad 4d bd 3d 0f 95 18 bd ce 7f 13 bc
       0.07678632 0.09243331 -0.03725153 -0.009002639
0000a0 97 b0 1d bd 06 05 e7 3c bc bb 9d 3c e2 c2 a3 bc
       -0.038498487 0.028200638 0.019254558 -0.019990388
0000b0 50 8b 1e be 32 03 17 3e 20 35 b1 bd d4 b0 df 3d
       -0.15482831 0.14747313 -0.08652711 0.10922399
0000c0 a1 a2 0b be 14 66 2e bd 2d 1c 99 bd 1e ec a4 bc
       -0.13636257 -0.042577818 -0.07476077 -0.02013212
0000d0 97 c2 ad 3d 02 51 1f bc 53 4a 32 3b 61 36 6a bd
       0.08484381 -0.009723904 0.0027204945 -0.057180766
0000e0 a5 7e d1 bc 7f 16 8c 3d 97 3b e7 bd 5b 3e 8e 3d
       -0.025573084 0.06840228 -0.11290663 0.06945487
0000f0 f8 ce ea 3d 9d ad 7a bd 18 ff 0f bd c1 88 3e bb
       0.114652574 -0.061200727 -0.035155386 -0.002907321
000100 1e 58 13 3d 1d d5 76 3d
       0.035972707 0.060261834

lv_mlp_net.0.weight f4 [30, 66]
000000 63 9b bb 3d 5e 2e 0b 3e a9 92 6d bc 82 4b b7 3d
       0.09160497 0.13591906 -0.014500299 0.08949949
000010 31 ff e7 bd a1 1a 18 be ce b9 18 3e 0f 69 68 be
       -0.11327971 -0.14853908 0.14914629 -0.22696327
000020 9b d3 19 3e 36 a3 0c 3e ae 89 3f 3e 8e 52 4a 3d
       0.15022127 0.13734135 0.18704864 0.049395137
000030 a5 28 f8 3d 06 82 ad 3d 10 82 90 bd 1e ed 59 be
       0.12117127 0.08472066 -0.070560575 -0.2128186
000040 c9 db 0f 3d 13 a7 64 be 4a ee 83 be f0 3c c8 3d
       0.035121713 -0.22329359 -0.25767738 0.09777248
000050 44 26 3b be e3 19 1e 3e 65 47 00 3e b7 e4 d0 3d
       -0.18276316 0.15439562 0.12527235 0.10199874
000060 e8 44 7e 3d 38 fd 19 be 26 4f 27 bd d3 c3 0e 3e
       0.062077433 -0.15038002 -0.040846966 0.13941889
000070 fd d5 8e bc c6 a4 9e bd a7 47 93 bd 24 ea d5 bd
       -0.017436022 -0.07746272 -0.07191401 -0.104450494
000080 30 82 f2 3d 57 a7 a5 bd 88 08 4c be c7 96 4c be
       0.118412375 -0.08088558 -0.1992513 -0.19979392
000090 59 b9 cf bc e3 d8 96 3c 18 12 6f 3e fe 47 80 3c
       -0.025356935 0.018413967 0.23346746 0.015659329
0000a0 28 92 6f 3e cd ab 09 be 2d 15 7c bc d5 a6 13 bd
       0.23395598 -0.13444443 -0.015385908 -0.036047775
0000b0 a0 38 0d bd 95 60 56 be a2 80 a0 3e 02 be 75 3e
       -0.03447783 -0.2093528 0.3134814 0.23998263
0000c0 7a 66 68 3e ba ee 5c 3e 4f e5 db 3d 1a 58 b9 bd
       0.22695342 0.21575442 0.107370965 -0.09050007
0000d0 18 aa e0 bd 04 55 1a 3e 52 66 c0 bd c3 15 b3 bd
       -0.10969943 0.15071493 -0.09394516 -0.08744385
0000e0 44 c7 91 bc 01 b7 dd bd 46 f9 15 bd b3 17 a0 3d
       -0.017795213 -0.10825921 -0.03661468 0.0781702
0000f0 b0 85 31 be 0d 77 72 3d a7 48 15 3e 8e 25 ee 3d
       -0.17336154 0.059195567 0.14578496 0.11628257
000100 af 3e 76 be 16 37 19 3d 0c 8f 24 bd 5d 0c f4 39
       -0.2404735 0.03740605 -0.040175483 0.00046548518
000110 6d d7 27 bd 18 41 0a 3e d5 86 6c 3d bc 02 2c be
       -0.04097693 0.13501394 0.057745773 -0.16797918
000120 ad 19 e9 bc 7f 40 d2 bd 4c 5c dc bb df b0 a7 bd
       -0.028454626 -0.10266208 -0.00672487 -0.08188032
000130 aa 01 14 3e 97 9e 1c bd 8b 10 f1 bd bd 8e a8 3d
       0.1445376 -0.03823718 -0.117707334 0.0823035
000140 1d 8c 01 bd 35 a4 be bd a6 4a e0 3e a2 53 6e 3d
       -0.031627763 -0.09308664 0.43806952 0.058185227
000150 7f 76 8b 3e 7e 6c 73 3e 84 31 a6 bd d9 f4 9f bd
       0.27238843 0.23771855 -0.08114913 -0.07810373
000160 c8 dd 88 3d 2d 7b 6d bd 37 88 de 3d e2 d8 18 be
       0.066829264 -0.057978798 0.10865825 -0.14926484
000170 8f a2 01 be 59 3d 5d bc e6 d1 43 be 11 14 87 bd
       -0.12659667 -0.013503396 -0.19123039 -0.06595624
000180 57 c1 5f be 18 12 76 3b 7a 0a 19 3d 79 9d a5 be
       -0.21851097 0.0037547406 0.037363507 -0.32346705
000190 cc a3 72 3d 02 bd 3a be df 83 d7 36 55 fa 0e bc
       0.05923824 -0.18236163 6.422851e-06 -0.008726676
0001a0 f7 83 dd bd 5d 64 48 be dd 81 28 3c b5 b6 a0 be
       -0.10816186 -0.19569536 0.010284868 -0.31389394
0001b0 19 e4 83 3d c7 aa a8 3d ae aa ef bd b0 8d 7c bd
       0.064399906 0.08235698 -0.117024764 -0.06165856
0001c0 2a 38 ef bc 00 0a 92 3e d5 d8 7b 3e 88 c5 9e 3e
       -0.029201586 0.28523254 0.24594434 0.3101008
0001d0 3d bc 98 bd 97 16 6c 3d ac 42 21 be 03 e4 f3 3d
       -0.074577786 0.05763873 -0.1574809 0.11908724
0001e0 03 03 47 bd fc db 31 be 17 7a 85 bc 8a 3a 9e 3b
       -0.048586857 -0.17369074 -0.016293569 0.0048287557
0001f0 d1 8d 63 3e 12 55 42 3e 5d 44 0c 3d 3d 4e a6 3d
       0.22222067 0.18977764 0.034244884 0.081203915
000200 da 3b 11 3e 93 38 8f 3e b6 13 92 3d 4d 10 9d bd
       0.14182988 0.2797285 0.07132666 -0.07669125
000210 9d 73 d6 bd c4 c7 c6 bd c9 c7 17 be 14 5e 2e be
       -0.1047127 -0.09706071 -0.14822306 -0.17028075
000220 ef 9f b6 3d 45 12 c2 3d fa 0f e3 bd 3f 05 19 3e
       0.08917224 0.09476141 -0.11087032 0.14943407
000230 4b 48 ed 3c 77 c9 9e be fa e2 0f be e6 66 be 3c
       0.028965136 -0.3101308 -0.14051428 0.023242425
000240 6a 4b 9a be e9 fd 9d be b2 4a 4c be 11 27 f7 3d
       -0.3013566 -0.3085778 -0.19950369 0.12067998
000250 13 b1 0c 3c d3 1d a1 3c c8 11 50 be d3 4b 31 be
       0.00858714 0.019667542 -0.20319283 -0.17314081
000260 7e 18 33 be ca 2c 3f 3e ec 85 32 be 3e 40 87 bc
       -0.17489812 0.1866943 -0.174339 -0.016510125
000270 9c df 8f 3d e4 46 da 3d 1e ac 03 3e af 25 81 bd
       0.07025072 0.106580526 0.12858626 -0.06306016
000280 27 f3 46 3e f2 a3 1c 3e 54 26 fd bd c4 85 2b 3e
       0.19428693 0.15296915 -0.12360826 0.16750246
000290 c4 ab 9e be 09 20 bd bc a0 66 ae 3e 05 2f 93 be
       -0.30990422 -0.023086565 0.34062672 -0.2874681
0002a0 f5 9a 16 3d e0 c6 d3 3d 31 e6 e7 3d 10 16 72 3d
       0.036768872 0.10340667 0.113232024 0.05910307
0002b0 75 b2 59 3e eb cb a1 3d dc b3 e2 bc 30 e4 9c bd
       0.21259482 0.079002224 -0.027673654 -0.07660711
0002c0 d7 61 b7 3c bc 00 a9 3d ad 65 94 3c 30 5c d5 3d
       0.02238552 0.08252093 0.018114889 0.10417974
0002d0 b5 14 d8 3b 2d 8f ea 3d a8 9b 66 be 09 02 0b 3d
       0.0065942653 0.1145309 -0.22520316 0.033937488
0002e0 3a 35 28 be e6 7a 89 3d 94 01 41 3d b6 f2 f8 3d
       -0.16426554 0.06712894 0.047120646 0.121556684
0002f0 08 95 2e bd a0 8f 7e 3e 01 0e 19 be dd 98 9a be
       -0.042622596 0.24859476 -0.14946748 -0.3019475
000300 f0 d9 18 3e 10 59 e6 3c 50 7c 2e 3e fb 56 0c 3e
       0.14926887 0.02811864 0.17039609 0.13705055
000310 23 36 21 be 1d 87 81 be c8 24 38 3d 96 c0 1e 3a
       -0.15743308 -0.25298396 0.044956952 0.0006055919
000320 69 99 15 3d 59 be 89 bd 06 69 36 bb 50 7e 96 3e
       0.036523256 -0.06725759 -0.0027833595 0.29393244
000330 ef e5 44 3d 36 1c 91 bd bc 41 37 3e c7 04 c7 bd
       0.048070844 -0.07085459 0.1789617 -0.09717708
000340 b7 7a 55 be 3c aa b1 3c ce 0e c6 bd e8 47 3b 3e
       -0.20847593 0.02168762 -0.096707925 0.18289149
000350 bd 30 3d 3d 8c 39 55 be df b2 63 be b9 ad 55 bc
       0.04618906 -0.20822734 -0.22236203 -0.013041907
000360 f2 45 95 bd fe af 2c 3e 0d 49 dc bc 83 c1 27 bd
       -0.07288732 0.1686401 -0.026890302 -0.04095603
000370 2d d8 50 bb 86 34 d2 3c 04 a0 92 3d c2 3f 92 3e
       -0.0031867132 0.02565981 0.07159427 0.28564268
000380 83 63 e3 3d 6b 79 43 3c 50 96 37 3e ae 6f 07 3d
       0.11102965 0.011930804 0.17928433 0.03306549
000390 6e b1 a1 3d de 3b 83 3e 3f dd 02 3e 6f 0d c0 bb
       0.0789517 0.25631613 0.12779711 -0.0058609764
0003a0 ef e9 8d 3d 81 b5 25 be c4 7b 74 be 2a 56 0a bc
       0.06929385 -0.1618252 -0.23875338 -0.008443395
0003b0 c1 9a 8a 3e 04 de 84 bd 0e 32 82 bc 24 5d 85 bd
       0.27071193 -0.064876586 -0.015893009 -0.06511906
0003c0 dd 33 20 3e 8f 9f 09 3d fd ba 24 3e 13 3d 34 be
       0.15644784 0.033599433 0.16086955 -0.17601423
0003d0 44 18 90 3d 35 3f 60 bc 67 6b 14 be 44 e4 99 3d
       0.07035878 -0.013686945 -0.14494096 0.07514241
0003e0 32 04 46 3e 45 96 06 be 48 0a fc bd fd 26 cc bd
       0.19337538 -0.13143261 -0.123066485 -0.09968374
0003f0 82 71 27 be 87 c0 60 3e f3 b3 6d 3d dc 7b 86 bd
       -0.16351894 0.21948443 0.05803294 -0.06566593

lv_mlp_net.0.bias f4 [30]
000000 fb 4e 09 bf d1 33 dc be 4d 41 06 bf 4c 0a c3 be
       -0.5363614 -0.43008283 -0.5244339 -0.38093793
000010 24 13 c0 be 7b 2d cf be 78 df b5 be 00 bd a9 be
       -0.37514603 -0.40464386 -0.35522056 -0.33152008
000020 c8 b6 d5 be 15 c7 0d bf ef 95 c0 be ad ba 41 be
       -0.41741014 -0.553819 -0.3761439 -0.18918867
000030 be 35 f6 be 52 5d 15 bf a9 64 b2 be a6 e9 25 bf
       -0.48087877 -0.5834552 -0.34842423 -0.64809644
000040 18 1a 0f bf 56 4d 1b bf 00 0d be be 1b 65 15 bf
       -0.5589919 -0.6066488 -0.37119293 -0.583574
000050 3f 44 1e be fd ee fd be a8 8a 34 bf a8 b7 12 bf
       -0.15455721 -0.49596396 -0.7052407 -0.5731149
000060 3e ae 18 bf 38 11 fc be dd 3a 20 be a8 66 e1 be
       -0.5964087 -0.49231887 -0.15647455 -0.44023633
000070 de 23 f0 be 4d 1d 17 bf
       -0.46902364 -0.59029084

lv_mlp_net.3.weight f4 [1, 30]
000000 7d 97 36 be 0d ce 35 be bf 06 23 3e 9c 22 0f be
       -0.17831226 -0.17754383 0.15920542 -0.13978046
000010 be 6d 12 be 30 5d 05 3e 90 32 2b be e0 72 1b 3e
       -0.14299676 0.1302383 -0.16718507 0.1518054
000020 e9 c1 5e be 75 9c 80 be 98 cf 5b 3e 71 ee e3 3d
       -0.21753658 -0.25119367 0.2146591 0.111294635
000030 cc ee 38 be c0 31 26 be 30 fb 1d 3e 29 6f 68 3e
       -0.18059844 -0.16229916 0.15427852 0.22698654
000040 1e c8 63 be 18 32 42 be 99 a6 3d be 24 1a 63 3e
       -0.22244307 -0.18964422 -0.18520583 0.2217794
000050 df 80 f6 3d a3 a6 59 be 90 fa 61 be 52 c1 a1 3e
       0.12036299 -0.21254973 -0.22068238 0.31592804
000060 f9 a5 89 3e 5b 25 6c be 62 4b 2e 3e ea 19 46 3e
       0.2688444 -0.23061125 0.17020944 0.19345823
000070 71 66 2e 3e a0 df 3a be
       0.17031266 -0.18249369
