model/checkpoints/radchenko2023/rdkit/model_000.onnx (onnx, 127215 bytes, 12 tensors)

lv_onnx::MatMul_4 f4 [205, 58]
00000000: 0000 0000 0000 0000 0000 0000 0000 0000
00000010: 0000 0000 0000 0000 0000 0000 0063 febe
00000020: 0000 0000 0000 0000 0000 0000 0000 0000
00000030: 0000 0000 0000 0000 0000 0000 0000 0000
00000040: 0000 0000 0000 0000 0000 0000 0000 0000
00000050: 0000 0000 0000 0000 0000 0000 0063 fe3e
00000060: 0000 0000 0000 0000 0063 fe3e 0000 0000
00000070: 0000 0000 0000 0000 0000 0000 0000 0000
00000080: 0000 0000 0063 fe3e 0000 0000 0000 0000
00000090: 0000 0000 0000 0000 0000 0000 0000 0000
000000a0: 0000 0000 0000 0000 0000 0000 0063 febe
000000b0: 0000 0000 0000 0000 0000 0000 0000 0000
000000c0: 0000 0000 0000 0000 0000 0000 0000 0000
000000d0: 0000 0000 0000 0000 0000 0000 0000 0000
000000e0: 0000 0000 0000 0000 0000 0000 0000 0000
000000f0: 0000 0000 0000 0000 0000 0000 0000 0000
00000100: 0000 0000 0000 0000 0000 0000 0000 0000
00000110: 0000 0000 0000 0000 0000 0000 0000 0000
00000120: 0000 0000 0000 0000 0000 0000 0063 febe
00000130: 0000 0000 0000 0000 0000 0000 0000 0000
00000140: 0000 0000 0000 0000 0000 0000 0000 0000
00000150: 0000 0000 0000 0000 0000 0000 0000 0000
00000160: 0000 0000 0000 0000 0000 0000 0000 0000
00000170: 0000 0000 0000 0000 0000 0000 0000 0000
00000180: 0000 0000 0000 0000 0000 0000 0000 0000
00000190: 0000 0000 0000 0000 0000 0000 0000 0000
000001a0: 0000 0000 0000 0000 0000 0000 0000 0000
000001b0: 0000 0000 0000 0000 0000 0000 0000 0000
000001c0: 0000 0000 0000 0000 0000 0000 0063 febe
000001d0: 0000 0000 0000 0000 0000 0000 0000 0000
000001e0: 0000 0000 0000 0000 0000 0000 0000 0000
000001f0: 0000 0000 0063 fe3e 0000 0000 0000 0000
00000200: 0000 0000 0000 0000 0000 0000 0063 fe3e
00000210: 0000 0000 0000 0000 0000 0000 0000 0000
00000220: 0000 0000 0000 0000 0000 0000 0000 0000
00000230: 0000 0000 0000 0000 0000 0000 0063 fe3e
00000240: 0000 0000 0000 0000 0000 0000 0000 0000
00000250: 0000 0000 0000 0000 0000 0000 0063 febe
00000260: 0000 0000 0000 0000 0000 0000 0000 0000
00000270: 0000 0000 0000 0000 0000 0000 0000 0000
00000280: 0000 0000 0000 0000 0000 0000 0000 0000
00000290: 0000 0000 0000 0000 0000 0000 0000 0000
000002a0: 0000 0000 0000 0000 0000 0000 0000 0000
000002b0: 0000 0000 0000 0000 0000 0000 0000 0000
000002c0: 0000 0000 0000 0000 0000 0000 0000 0000
000002d0: 0000 0000 0000 0000 0000 0000 0000 0000
000002e0: 0000 0000 0000 0000 0000 0000 0000 0000
000002f0: 0000 0000 0000 0000 0000 0000 0000 0000
00000300: 0000 0000 0000 0000 0000 0000 0000 0000
00000310: 0000 0000 0000 0000 0000 0000 0000 0000
00000320: 0000 0000 0000 0000 0000 0000 0000 0000
00000330: 0000 0000 0000 0000 0000 0000 0063 febe
00000340: 0000 0000 0000 0000 0000 0000 0000 0000
00000350: 0000 0000 0000 0000 0000 0000 0000 0000
00000360: 0063 febe 0000 0000 0000 0000 0000 0000
00000370: 0000 0000 0000 0000 0000 0000 0000 0000
00000380: 0000 0000 0000 0000 0000 0000 0000 0000
00000390: 0000 0000 0000 0000 0000 0000 0000 0000
000003a0: 0000 0000 0000 0000 0000 0000 0000 0000
000003b0: 0000 0000 0000 0000 0000 0000 0000 0000
000003c0: 0063 febe 0000 0000 0000 0000 0000 0000
000003d0: 0000 0000 0000 0000 0000 0000 0000 0000
000003e0: 0000 0000 0063 febe 0000 0000 0000 0000
000003f0: 0000 0000 0000 0000 0000 0000 0000 0000
0.0 0.0 0.0 0.0 0.0 0.0 0.0 -0.49684906
0.0 0.0 0.0 0.0 0.0 0.0 0.0 0.0
0.0 0.0 0.0 0.0 0.0 0.0 0.0 0.49684906
0.0 0.0 0.49684906 0.0 0.0 0.0 0.0 0.0
0.0 0.49684906 0.0 0.0 0.0 0.0 0.0 0.0
0.0 0.0 0.0 -0.49684906 0.0 0.0 0.0 0.0
0.0 0.0 0.0 0.0 0.0 0.0 0.0 0.0
0.0 0.0 0.0 0.0 0.0 0.0 0.0 0.0
0.0 0.0 0.0 0.0 0.0 0.0 0.0 0.0
0.0 0.0 0.0 -0.49684906 0.0 0.0 0.0 0.0
0.0 0.0 0.0 0.0 0.0 0.0 0.0 0.0
0.0 0.0 0.0 0.0 0.0 0.0 0.0 0.0
0.0 0.0 0.0 0.0 0.0 0.0 0.0 0.0
0.0 0.0 0.0 0.0 0.0 0.0 0.0 0.0
0.0 0.0 0.0 -0.49684906 0.0 0.0 0.0 0.0
0.0 0.0 0.0 0.0 0.0 0.49684906 0.0 0.0
0.0 0.0 0.0 0.49684906 0.0 0.0 0.0 0.0
0.0 0.0 0.0 0.0 0.0 0.0 0.0 0.49684906
0.0 0.0 0.0 0.0 0.0 0.0 0.0 -0.49684906
0.0 0.0 0.0 0.0 0.0 0.0 0.0 0.0
0.0 0.0 0.0 0.0 0.0 0.0 0.0 0.0
0.0 0.0 0.0 0.0 0.0 0.0 0.0 0.0
0.0 0.0 0.0 0.0 0.0 0.0 0.0 0.0
0.0 0.0 0.0 0.0 0.0 0.0 0.0 0.0
0.0 0.0 0.0 0.0 0.0 0.0 0.0 0.0
0.0 0.0 0.0 0.0 0.0 0.0 0.0 -0.49684906
0.0 0.0 0.0 0.0 0.0 0.0 0.0 0.0
-0.49684906 0.0 0.0 0.0 0.0 0.0 0.0 0.0
0.0 0.0 0.0 0.0 0.0 0.0 0.0 0.0
0.0 0.0 0.0 0.0 0.0 0.0 0.0 0.0
-0.49684906 0.0 0.0 0.0 0.0 0.0 0.0 0.0
0.0 -0.49684906 0.0 0.0 0.0 0.0 0.0 0.0

lr_lr_W f4 [205, 1]
00000000: 9dbd f93e 0f75 1fbf 0b73 1d3e 33de a53d
00000010: 7d8a 96be 617a fa3d 0f46 cebd db3e bf3c
00000020: 7585 673c 177a 013e 9f51 693d 18b9 813d
00000030: 03d8 da3d a600 b23c 546b 743d 8176 43bc
00000040: db12 1d3e f3a3 8e3e ab1f f9be c4ec 94be
00000050: 731c a03e fc9f d3bd 6fa7 f4bd 444f 483e
00000060: 088e a83d afbf 92bd 7ce7 013e 7005 ca3c
00000070: 46ee 363d ab55 bc3c c33e 473c a6ad ddbd
00000080: c10f f7bd d5ba dcbd 3465 96be daf2 01be
00000090: 3123 73be c138 d03e 7b02 f4be 4545 073f
000000a0: ce07 763c c395 a4be 60fd ccbd 49e2 453e
000000b0: 93f2 0b3f 877b 31bf fa7a d63c 9eb4 b3bd
000000c0: 1001 b63e 9eb4 b3bd c474 983e da56 33bd
000000d0: 6da2 40be f4b7 d73e f145 c53d 7ad7 913e
000000e0: 777e 99bc 0b8c 94be 9e72 6ebe d116 d63e
000000f0: 1de6 823e 4868 b83d 3f37 603e b1f8 be3d
00000100: 1b4f 353e 71e6 0fbe 55ce 273d 1f43 19be
00000110: 7a78 043e 22ef 043f dcbb 54be 35d1 873e
00000120: bdee 68bd 445f adbe 0785 dfbc 63bb dfbd
00000130: 2e66 dbbd 6a17 593d c5a9 993a 40be 0e3e
00000140: 2fd5 ad3e 063f e6ba d0e7 4fbe 205d acbc
00000150: 8355 023d 3f59 1cbd bce2 9a3e ec46 8b3e
00000160: 1cd6 d83c 0fbe 643e aefa c83d 03db 92bd
00000170: e414 6fbe 2a88 8cbe f87b 053f 2dc0 623e
00000180: 77ff 4abe 8ad5 9d3d 2357 90be f853 4ebe
00000190: 2ef5 413c 24c2 4f3e 31fc 953e ca0e 19be
000001a0: 56ee f7bc 46c6 43bd 4004 e9bc 24a5 dcbd
000001b0: cf4c 1b3e 34a5 9f3c cdd2 41be d7bc c93c
000001c0: b5f3 e73d 8700 a93d 5d13 a6bc aefd 3abd
000001d0: 2706 4d3e 3e1c bd3e 5a64 8f3d 3366 933e
000001e0: c7a5 07bf aab3 60be 174f 103e 08e2 09be
000001f0: 5197 4c3f 1a10 823e 7c8a 9e3e 2bb1 3a3e
00000200: 64ca 60bd 5efb 593e c1cb cdbe aeea 23be
00000210: ed03 9abd 91a2 d43d be1e 943d ddf5 8cbd
00000220: 0766 c1bd 0766 c1bd f9d2 8ebc 89f7 1c3d
00000230: 9b62 193e cfbd 883d 946b 22bd 7a69 c7be
00000240: fe5c 643d 64a9 2dbe 4ced a5bd d26e a1bb
00000250: 066d abbd be1e 943d 40d2 3bbd a773 063d
00000260: 0537 03bd d5af 463e 3978 81bb b1f8 be3d
00000270: cdb7 0f3e a3b6 0c3e 7feb 043e eed8 5fbd
00000280: 59ec 153d 3793 18be 17aa 8ebd 78a3 35bd
00000290: d8a7 593d 3b12 803d 107d b2be 3ab0 0dbe
000002a0: 98d4 823d 4a64 b03e 0bd8 84bd 1078 cbbc
000002b0: 0bb6 8d3c 503d 113d 5e7f e33e 172c d0bd
000002c0: 5786 b4bb 4afb 1ebd 5eb8 26bd 676b 013c
000002d0: 7502 103e 970b 933e 3f1f b4bd cfbe aa3b
000002e0: 2534 803d 2122 cebd 72f1 07bd 04a7 023d
000002f0: 9242 013d dd5e 78be 6c2c 823d 3564 d8bc
00000300: f48c e5bd 4613 b9bb 21ea ad3c 365c aebd
00000310: 6929 afbb 0fd1 1c3e aad8 7a3c f2ff 2abc
00000320: b2c9 8abd f4f2 a6bd c426 563e 4d87 29bd
00000330: 535b 553d
0.48777476 -0.6228799 0.15375917 0.08099022 -0.29402533 0.12230373 -0.10071956 0.023345402
0.01413094 0.1264423 0.056962606 0.06334132 0.10685732 0.021728825 0.05967267 -0.011930109
0.15339224 0.27859458 -0.48656973 -0.29086888 0.31271705 -0.10333249 -0.11945998 0.19561487
0.08230215 -0.07165467 0.1268596 0.024660796 0.04466083 0.022990068 0.01216096 -0.108241364
-0.12063552 -0.10777823 -0.29374087 -0.12690297 -0.23743893 0.406683 -0.47658142 0.5284007
0.015016509 -0.3214551 -0.10009265 0.19324602 0.54667014 -0.6932911 0.026181687 -0.08774684
0.35547686 -0.08774684 0.29776585 -0.043784 -0.1881196 0.42132533 0.09632481 0.28484708
-0.018737061 -0.29013094 -0.2328591 0.41814283 0.25566188 0.09004265 0.21896075 0.09324778
0.17705958 -0.1405275 0.040968258 -0.14967011 0.12936583 0.5192739 -0.20774788 0.265268
-0.056868304 -0.33861744 -0.027285112 -0.10924413 -0.107128486 0.053000845 0.0011723569 0.13939762
0.3395171 -0.001756639 -0.20303273 -0.0210405 0.03181983 -0.03817105 0.3025111 0.27202547
0.026469283 0.22338127 0.09813438 -0.071706794 -0.23347813 -0.27447635 0.52142286 0.22143622
-0.19824015 0.07706745 -0.2819148 -0.20149219 0.011838241 0.20288903 0.2929397 -0.14947048
-0.030265015 -0.04779651 -0.02844441 -0.107736856 0.15166019 0.019487955 -0.1892807 0.024626179
0.1132578 0.08252054 -0.020272905 -0.045652084 0.20021878 0.3693561 0.070015624 0.2878891
-0.5298733 -0.21943536 0.1409267 -0.1346513 0.7991839 0.2540291 0.3096503 0.18231647
-0.054880515 0.21287295 -0.40194514 -0.16007492 -0.0752028 0.103825696 0.07232426 -0.06882832
-0.09443288 -0.09443288 -0.017434584 0.038322005 0.14979021 0.06676828 -0.039653376 -0.3894766
0.055752747 -0.16959149 -0.081019014 -0.004926541 -0.08370404 0.07232426 -0.045854807 0.03282514
-0.032034893 0.19403012 -0.0039510992 0.09324778 0.14034958 0.13741545 0.1298046 -0.05465024
0.03660235 -0.14899908 -0.06966036 -0.04434535 0.053138584 0.06253477 -0.3486104 -0.13836756
0.06388205 0.34451514 -0.064865194 -0.024837524 0.017298719 0.035458863 0.4443311 -0.101646595
-0.0055091786 -0.038813867 -0.04070317 0.007899142 0.14063437 0.2871978 -0.08795022 0.0052107344
0.06259946 -0.10065103 -0.033189245 0.03189756 0.031557627 -0.24254937 0.06356129 -0.02641497
-0.11208525 -0.0056480495 0.021229805 -0.085136816 -0.0053455126 0.15314125 0.015310446 -0.010436999
-0.067767516 -0.081518084 0.20913225 -0.0413888 0.052089047

svc_W2_svc f4 [205, 1]
00000000: d648 d23e 8363 0fbf 442c 263e d35f 873d
00000010: 21ea 86be 6a22 013e 3358 c5bd 8db8 413d
00000020: 3003 10bc 2556 c13d c7ab 8b3e c254 163e
00000030: 9fed 933e 5f53 743e 1522 5ebd 6631 90be
00000040: 6407 e63e 7ce4 523f 2d5d 8bbf 132f 39bf
00000050: 7d13 0e3f b25b 563d 52ea 89be 3c40 383e
00000060: d6ff 01bd c644 e6bc b11e ed3d 47da ee3c
00000070: 69be 423d 94f5 1f3d 8490 213d 7006 95bd
00000080: 0574 e7bd eafd 48be b1a6 13bf 52c7 46bd
00000090: 53bb bbbe 1663 dd3e 76e6 c2be 5655 7d3f
000000a0: bcff f4bd ccf5 24bf fddc 98bd 419e a63e
000000b0: 87ba 3f3f 0de5 44bf 6d81 2a3c 904e 9dbd
000000c0: 3c27 ad3e 904e 9dbd 88cb 903e 77bc bfbc
000000d0: cb63 48be f9c9 c93e 25ea d83d e8ce 9d3e
000000e0: 9c1a f8bc e469 10bf f6a1 9abe 7424 513f
000000f0: 0730 803e afd3 063e 424b 803e fff6 353e
00000100: be7a bb3e 8535 52be 4615 243e 6062 f9bd
00000110: 6c41 ba3d 9663 103f ee55 8dbe 9f15 e03e
00000120: 73f1 a9bd cc0c b3be a9a4 c6bc f195 dbbd
00000130: e5af d4bd 7e7f 473d 6deb 973b 6fc4 2a3e
00000140: efb7 df3e 4fcc e2bc 4a51 49be ebc6 17bd
00000150: 8898 403c f8ec 84bd cb44 aa3e f9bc 9a3e
00000160: 45db 3c3d ac0e 343e 4a5b 683d d5e3 b8bd
00000170: 8ddd 66be db28 82be 3491 043f c410 b93e
00000180: cb67 e4be 2937 f53d c6ed 81be 180f 6abe
00000190: 56ba 16bc 88d1 0e3e 8118 623e ad4a 2eba
000001a0: f616 48bc 6c8b 763c 3ba4 4fbc 4dcd a3bd
000001b0: bba5 5d3e a4cf f93d a155 1ebe ce9c 553c
000001c0: 15a0 b43d 5f0e 1d3d b5f3 bcbd 5007 3dbd
000001d0: adc8 383e 1a56 213f e8cb e43d 6f26 c63d
000001e0: 54fb 2abf 09b1 9dbe 404a 1d3e df2c a2bd
000001f0: b61a 853f 6885 b43e 00d9 c53e a7ff 683e
00000200: 7888 acbc 0c6c 8a3e 0b70 bebe dc30 13be
00000210: ab94 d7bc ac24 573e 4f36 9e3d b8a7 763d
00000220: 7dc2 0bbd 7dc2 0bbd 2e5b bc3b ecd5 c53d
00000230: e9e4 5a3e c6a0 673d 449a 0bbd 9d0e 3cbf
00000240: ccbf 96bd cccd 4abe 0ff9 5ebd 5e57 80bb
00000250: 3e4c 75bd 4f36 9e3d 2a23 11bd 5616 233d
00000260: 1f8f b6bc d972 333e 7d5e 3fbb fff6 353e
00000270: 341c 073e ed63 df3d b15b fc3d 6ef7 40bd
00000280: e4d3 0d3d b362 d8be 31a3 77bd 09cc 10bd
00000290: 2d94 483d 2314 203e 7d2d f1be 85a9 07be
000002a0: ba6d 7f3d 7ace 243f 1bd6 6dbd c78d a0bb
000002b0: 189a 683b 2a55 583c 1238 f93e 9657 bcbd
000002c0: 4a2f 7dbb c8eb f1bc 67fb bdbc 6631 613b
000002d0: 8369 6f3e 42f0 9e3e ff07 bcbd 7f7d cc3b
000002e0: 9f8a 793d 1545 c6bd 2bfc 51bc ff77 b93c
000002f0: 6cdd 1b3e 2f8c b2be f42f 473d d5a7 b9bc
00000300: 4e76 c6bd ad27 ea3b 3527 ac3c ff73 d9bd
00000310: b8fa 133d 4715 263e 1be3 d73c 7a9e d0ba
00000320: 00ba 13bd 1785 0dbc feb6 3f3e 30b7 80bd
00000330: 1385 063d
0.41071194 -0.5601122 0.16227823 0.06610074 -0.263505 0.12610784 -0.09635963 0.047295142
-0.008789822 0.09440259 0.27279493 0.1468077 0.28892228 0.23859929 -0.054231722 -0.28162688
0.44927514 0.8237989 -1.088781 -0.72337455 0.55498487 0.05233354 -0.26936585 0.17993253
-0.031738125 -0.028108966 0.115781195 0.029156817 0.04754487 0.03905256 0.03944446 -0.072766185
-0.11301426 -0.1962811 -0.57676226 -0.04852993 -0.36666355 0.4323966 -0.38066453 0.9895834
-0.1196284 -0.64437556 -0.07464025 0.32542613 0.74893993 -0.76912004 0.010406834 -0.07681
0.33818996 -0.07681 0.28280282 -0.023405297 -0.19569318 0.39411905 0.105915345 0.3082192
-0.030286126 -0.56411576 -0.3020169 0.8169625 0.25036642 0.13166688 0.25057417 0.17770003
0.36617082 -0.20528229 0.1602374 -0.12176967 0.090945095 0.56401956 -0.27604622 0.43766496
-0.08298006 -0.349707 -0.024248438 -0.107219584 -0.10385112 0.04870557 0.0046362192 0.16676496
0.43695018 -0.027685313 -0.19659916 -0.037054937 0.011755116 -0.06490511 0.3325561 0.302223
0.04610755 0.17583722 0.056727685 -0.090278305 -0.22545452 -0.25421795 0.5178406 0.36145604
-0.44610438 0.119734116 -0.2537672 -0.2285732 -0.009199699 0.13947117 0.2207966 -0.0006648701
-0.012212506 0.015047889 -0.012673433 -0.079981424 0.21645252 0.121978074 -0.15462352 0.013037873
0.08819596 0.038343783 -0.09226171 -0.046149552 0.18045302 0.63022006 0.111717045 0.096752994
-0.66789746 -0.3079913 0.15360355 -0.07918715 1.0398777 0.3525803 0.3864212 0.22753774
-0.021061167 0.27035558 -0.37194857 -0.14374107 -0.026316008 0.21010083 0.07725202 0.060218543
-0.034121025 -0.034121025 0.005748174 0.09659943 0.21376385 0.05654981 -0.034082666 -0.734598
-0.07360801 -0.19805068 -0.05443674 -0.003916665 -0.059887163 0.07725202 -0.035433926 0.039816223
-0.022285042 0.1752428 -0.0029200607 0.17770003 0.13194352 0.10907731 0.12322176 -0.047110967
0.034625903 -0.42262802 -0.060458366 -0.035350833 0.048969436 0.15632682 -0.47105017 -0.1324826
0.062360503 0.6437756 -0.058065515 -0.0048997137 0.0035492238 0.013203898 0.4867559 -0.09196393
-0.0038632923 -0.029531375 -0.023191167 0.003436172 0.23380093 0.31042677 -0.09181213 0.0062405462
0.060923215 -0.09681145 -0.012816469 0.022640226 0.15221184 -0.34872577 0.048629716 -0.022663036
-0.096905336 0.007145843 0.02101479 -0.106178276 0.036127776 0.16219054 0.02635341 -0.001591637
-0.036066055 -0.008637688 0.1872215 -0.0628494 0.032841753

fs_lr_fs_lr_W f4 [79, 1]
00000000: faaa ac3e 7024 803d 1046 e0bc 5285 a93d
00000010: b011 2cbd 01d2 6c3f 8917 ef3d f2d1 a93e
00000020: 2b89 043e d600 b4be a4a5 993e ce7b c93e
00000030: 5c82 1a3f 94af 72bf 8036 dfbe 201e 783e
00000040: 5818 3ebe 117c 07bd 30d5 d0bd 3dec 14be
00000050: 2cae e1bc 6794 a9be 6fcc f0bc 6a91 2a3d
00000060: 90e1 23bf c90a 3f3f ba72 51be 1897 cbbe
00000070: e2ff 84bd 9d83 dbbb 838b 1f3f c016 dfbe
00000080: 12f3 8bbe 7c19 843e 2e91 d6bd d3f4 a3be
00000090: d623 e6be 7509 b5be 18d1 de3e 085a 7fbf
000000a0: 2ace d3bd 478d 1a3f 041c 82be e6bb 073d
000000b0: d32a b0bd 5fc6 c43e 90c6 eabb 82b5 e63b
000000c0: cc5f 363e 368a 893e 26c7 153e 0383 413f
000000d0: 4a6d 843f 61bd cc3d 0b34 f1bd da7c 8dbe
000000e0: a860 78be 3839 a6be 7d73 7cbe bf7b 82be
000000f0: 59cd c6bc 3160 fc3e d6c6 543e 1f98 503e
00000100: a9c3 8dbe b3dd fcbd b3dd fcbd f07b a43d
00000110: 66f8 873e 28a6 1c3d 757e e8bd 18fe 8ebe
00000120: 954f 8cbd 596a 0ebe e5b3 b93e b746 2cbe
00000130: 2d1b 873d ed3d 473d 080a 40bd
0.33724195 0.0625695 -0.027377158 0.08277382 -0.042009056 0.9250794 0.11674411 0.33167988
0.1294295 -0.35156888 0.30009186 0.39352268 0.6035516 -0.9479916 -0.43596268 0.24230242
-0.18563974 -0.033077303 -0.10196912 -0.14543243 -0.027548872 -0.33121035 -0.029394357 0.041642584
-0.64016056 0.7462583 -0.20453921 -0.39763713 -0.06494118 -0.006699039 0.62322253 -0.43572044
-0.27333885 0.25800693 -0.104769096 -0.32022724 -0.44949216 -0.35358778 0.435189 -0.9974675
-0.10342057 0.6037182 -0.25412 0.03313818 -0.08601918 0.38432595 -0.007164784 0.0070406804
0.17809981 0.2686326 0.1462675 0.75590533 1.0345852 0.09997059 -0.117775045 -0.27634317
-0.24255621 -0.3246553 -0.2465343 -0.25485036 -0.02426784 0.49292138 0.20778975 0.2037053
-0.2768834 -0.12346973 -0.12346973 0.08031452 0.265567 0.038244396 -0.11352245 -0.27928233
-0.068511166 -0.13907756 0.3627006 -0.1682385 0.0659698 0.04864304 -0.046884567

fs_svc_W2_fs_svc f4 [79, 1]
00000000: b034 a03e 702f b73d a200 36bd 20a6 d63d
00000010: e14c 7abd 3111 9b3f 46b3 df40 369f 8a40
00000020: 0db3 8ec0 ef59 6bc0 df32 fa3d a137 d73f
00000030: e5c4 bc3f 4daf ebbf bbe4 87bf 5225 5b3f
00000040: 7f13 98be 363a adbc 1b51 abbd 4ed3 0abe
00000050: 968e 54bd c445 28c1 ffab 0cbe af7e cb3d
00000060: 2694 32bf 01a8 833e 5c72 97c1 c9b9 4641
00000070: 334f e4bc 356f 83bf 4077 5940 0b38 00bf
00000080: ed25 b640 5ecf 9d3e 6f7b 933e e276 45c0
00000090: 39a0 06bf 7495 d3be 469b 813f 0c9d 73bf
000000a0: e01a fcbd de12 3f3f 4fe8 86be b495 bf3d
000000b0: 89a9 43be 3cd7 e740 4d87 e3bc 8d99 053c
000000c0: 11dc 203e 3f1c 8f3e 4e3c 0e3e a2ed 35bf
000000d0: b54f 1240 0d1d bd3d 3da3 993d 0af6 ebbd
000000e0: 8f68 95be 2748 7cbe a30e 63be d38b 8bbe
000000f0: a69f c03c eede cf3e ff8b a03e 4ca7 7b3e
00000100: 02a7 89be de25 e7bd de25 e7bd 74d4 c13d
00000110: 7148 9e3e 33f6 c43d 5e65 a7bd e3e1 64bf
00000120: 8ccb 03be e91e 67bb b1d1 893e 783a 15be
00000130: b7c3 7f3d b05e 113d ec21 a7bd
0.31290197 0.08944595 -0.044434197 0.104809046 -0.061108474 1.2114621 6.990634 4.331935
-4.459357 -3.677364 0.12216734 1.6813852 1.4747587 -1.8412873 -1.0616678 0.8560382
-0.29702374 -0.021145921 -0.08365079 -0.13557169 -0.051893793 -10.517033 -0.13737486 0.09936272
-0.69757307 0.25714114 -18.93084 12.420358 -0.027869796 -1.0268313 3.3979034 -0.50085515
5.6921296 0.3082227 0.2880511 -3.085381 -0.5258823 -0.4132496 1.0125511 -0.9516151
-0.123098135 0.74638164 -0.26349112 0.093547255 -0.19107641 7.2450237 -0.027774477 0.008154285
0.15708949 0.27951238 0.13890192 -0.71065724 2.286115 0.092340566 0.07501838 -0.115215376
-0.29181334 -0.24636899 -0.22173552 -0.27255115 0.023513626 0.4059977 0.3135681 0.24575537
-0.2688523 -0.112865195 -0.112865195 0.0946435 0.30914643 0.09617271 -0.08173631 -0.89407176
-0.12870616 -0.0035266227 0.26917794 -0.14573085 0.062442508 0.03549069 -0.08160767

mfs_lr_mfs_lr_W f4 [92, 1]
00000000: fe38 ea3e b2b3 d4be 20f4 fe3d d0cc 043e
00000010: 3322 5fbe 7fc6 9a3e f310 80be b4ef 1abe
00000020: 61e2 95bd 6769 91bd 9e40 163f 8afb 48be
00000030: 88e6 e33e 9868 943e e34f 123f 52da 3d3e
00000040: 2949 533f d63a 773d 15a7 40bf 2e29 57bf
00000050: 911d ee3e a640 ea3e a766 e4be 4c48 0abe
00000060: baca 92be 440c 95be bcf0 8dbe ddda 9abe
00000070: 69ba f7be f676 b9be 5f34 16bf ddf4 1dbe
00000080: fdc9 853e 22fc 84bf 2bb1 333f ce32 15bf
00000090: 387f c23e 781d aa3e 6bf0 a93d 1617 62bf
000000a0: 7761 193e d77f e1be 0069 b93c 95b7 b4bd
000000b0: 6a17 b83e 95b7 b4bd b7ca af3e e86b 2dbd
000000c0: 23a3 83be fbb2 113f 25e7 473e e7ff e93e
000000d0: 4c09 cdbe de45 10be 2a4b a53e 8122 30bf
000000e0: 310e eb3e 8faf 60bd af09 fb3d cad6 343e
000000f0: 5ed5 08bd 6fb9 7a3e f279 ba3e 2f6c 253e
00000100: 2cef 6ebd 1bb8 92bd 66ca 773e d638 d0be
00000110: d08b 213e 4d94 ef3b 7b64 783e 09a3 c03e
00000120: bc3f fc3d 11a3 3fbe 8dbb 17bf 0f75 b5be
00000130: ee9e f8bb dc5e c6be 9507 bdbc 1ef7 503f
00000140: 55d7 9e3e 974d 7b3f ceb8 bcbe 22e6 31bf
00000150: f52a 92be 373c 03be dff1 293e 003b 50bd
00000160: 9544 d13d 0116 1d3e f9a1 a6be 151f 6abe
0.45746607 -0.41543347 0.12448907 0.12968755 -0.2179039 0.30229566 -0.2501293 -0.15130502
-0.07318569 -0.07100182 0.5869235 -0.19627205 0.4451182 0.2898605 0.5715315 0.18540314
0.8253351 0.060358845 -0.75254947 -0.8404721 0.46506932 0.45752448 -0.44609568 -0.13504142
-0.28670293 -0.2911092 -0.27722728 -0.30245104 -0.48384407 -0.36223572 -0.5867366 -0.15425439
0.26130667 -1.0389445 0.7019221 -0.58280647 0.37987685 0.33225608 0.08297809 -0.88316476
0.14978586 -0.44042847 0.022633076 -0.08824078 0.35955364 -0.08824078 0.34334347 -0.042339236
-0.257104 0.5691373 0.19521768 0.4570305 -0.40046155 -0.14089152 0.32283908 -0.6880265
0.45909265 -0.054854926 0.122577064 0.1766006 -0.033406608 0.244848 0.36421162 0.1615455
-0.05833356 -0.071640216 0.24198303 -0.40668362 0.1577599 0.00731138 0.2425708 0.37624386
0.12316844 -0.18714549 -0.59270555 -0.3544087 -0.0075873053 -0.38744247 -0.023074904 0.8162707
0.3102366 0.9816527 -0.36859745 -0.6949178 -0.285484 -0.12815939 0.16596173 -0.050837517
0.10218159 0.15340425 -0.3254545 -0.2286342

mfs_svc_W2_mfs_svc f4 [92, 1]
00000000: da2e af3e 1897 dbbe bb7f f93d 840d 923d
00000010: 8834 68be 6249 2f3e 9af2 36be 3ec2 33bc
00000020: fe07 30bd 957f 14bd 09cb b93d 4418 99c1
00000030: 3ab5 1841 7dd3 ea40 fbb8 8540 022f cabf
00000040: 3dd6 963e 54b0 783f 7233 ccbf 4a75 d7bf
00000050: 47fa 6a3f 3e24 663f 7ccb 60bf 71d7 18be
00000060: 6d13 a6be f9c0 b8be 0fc9 96be c2c1 9bbe
00000070: 8571 00bf a14e d4be d711 0fbf 9238 51c1
00000080: 37e9 a53e a100 91bf a9ec 463f c42a eabe
00000090: ea18 923f b0ce ebbf 3ee1 9f41 5022 76c0
000000a0: 0dc9 2fbf d164 08bf e5ee abbe eede a6bd
000000b0: 8b93 a43e eede a6bd c029 873e 088a fdbc
000000c0: 8697 82be ccc9 ba3e e1cb 203e be4a a13e
000000d0: ead8 233f 9d9c 1fc1 daf4 0e3f 5eae 0ebf
000000e0: b666 6040 6335 703e 1fa7 043e b0fc 633e
000000f0: 519a 3f3d e362 853e de50 fd3e 01d8 8d3e
00000100: 1a04 0e3d efb5 57bd 224e d23f 7150 d3be
00000110: 46fb c53d 212c a93c db06 17bd 0a68 2c3e
00000120: e098 34be 5ae9 06be 9e97 2ebf 5a43 c3be
00000130: 1514 dc3d 3077 20be bda1 6cbd e415 843f
00000140: 0762 d340 2438 3440 f32a a640 1ec0 8940
00000150: efbf aa3f 9291 373f 04dc 7540 78d4 db3f
00000160: 99b9 ca3f 4401 8c3f 332a 22bf 0db7 3fbe
0.34215432 -0.42888713 0.12182566 0.07131484 -0.22676289 0.17117837 -0.17865983 -0.010971604
-0.042976372 -0.036254484 0.09071929 -19.136848 9.544245 7.3383164 4.1788306 -1.5795596
0.29460326 0.97144055 -1.59532 -1.6832669 0.9178814 0.8989905 -0.8781049 -0.14925934
-0.32436696 -0.36084726 -0.2945027 -0.30421263 -0.5017322 -0.4146624 -0.55886596 -13.076311
0.3240449 -1.1328317 0.77704865 -0.45735753 1.1413853 -1.8422451 19.984982 -3.8458443
-0.68666154 -0.53278834 -0.335807 -0.08147989 0.32143816 -0.08147989 0.2639904 -0.030949607
-0.25506228 0.36482084 0.15702774 0.31502336 0.6400286 -9.975736 0.55842364 -0.55734813
3.506269 0.23457865 0.12954377 0.22264361 0.046778027 0.26052007 0.4947576 0.2770386
0.03467188 -0.05266374 1.6430094 -0.4127231 0.09667067 0.020650925 -0.036871772 0.16836563
-0.17636442 -0.13174954 -0.682001 -0.38137323 0.10746018 -0.15670466 -0.057771433 1.031918
6.605716 2.8159266 5.192743 4.304702 1.3339823 0.717065 3.8415537 1.7174215
1.583789 1.0937886 -0.6334564 -0.18722172

lv_lr_lv_lr_W f4 [58, 1]
00000000: 9d7f 8dbe 848f 85bd 1256 033e 987d c03c
00000010: 6881 9fbd d65e 8b3a 3aa2 903d e2a3 36be
00000020: 201c f93b 55f1 0c3c eacb ab3d 2f71 42bb
00000030: aa73 7f3c 0c5e 7dbc 6e72 c4bd c238 ac3d
00000040: 5698 ac3d 1380 c1bc 6d11 723e d85c d6bd
00000050: 2f64 47bc 4634 423d da9d 00be 6368 853e
00000060: 6e09 363e 913d 14be 8f9d ec3d e586 86bd
00000070: 2456 3d3d 5033 2e3d 6d84 2c3d 9918 d73d
00000080: 96c8 943a a41e f8bd f581 193c 7c2d eabd
00000090: 5f93 e53d 47df 50be 954c 8d3e ee26 dc3c
000000a0: feae 993b 3034 e93d 4ce8 e83c c4ec acbe
000000b0: 614d 9cbd 5de8 73bd 1045 47be 9893 cc3d
000000c0: c5e8 77bd c5c4 973d ed5f 30be 6350 97be
000000d0: c46b acbc 61e5 efbc 1dfe 23be 4754 6a3e
000000e0: de37 fd3d f8b8 6f3e
-0.27636424 -0.06521514 0.12825802 0.023497388 -0.07788354 0.0010633122 0.07062192 -0.17835954
0.0076022297 0.00860246 0.08388503 -0.0029669513 0.015591541 -0.015464317 -0.09592138 0.08409263
0.08427493 -0.02362064 0.2363946 -0.10466927 -0.012169882 0.047413133 -0.12560216 0.26056203
0.17777035 -0.1447661 0.115534894 -0.06568698 0.04622473 0.042529404 0.04211848 0.105027385
0.0011351283 -0.12115219 0.009369363 -0.11434457 0.112097494 -0.20397674 0.2759749 0.026874032
0.00469005 0.11386907 0.02843108 -0.33774388 -0.07631946 -0.05954777 -0.19459939 0.09989089
-0.06052472 0.07410578 -0.17224093 -0.29553518 -0.02104748 -0.029284181 -0.16014905 0.22883712
0.123641714 0.23410404

lv_svc_W2_lv_svc f4 [58, 1]
00000000: 42c0 76be eb76 76bd 43a9 ed3d e2c4 ad3c
00000010: 4aca 90bd ab21 513a 9a28 893d eca6 1cbe
00000020: c254 343b 9a44 163c d465 913d 8caf 163c
00000030: a9ed 723c b0d7 89bc 6911 99bd f77d 883d
00000040: 9d01 ad3d 32b1 97bc 654d 503e 523f babd
00000050: fc7f 3ebc 048a 253d 03be dbbd 04d1 683e
00000060: 4248 203e ddcf 09be 761d c43d e856 6bbd
00000070: 899f 4b3d 12d5 193d 1a95 343d 3078 b33d
00000080: 3d25 ccbb 269e d0bd bd9f 933c 9040 d4bd
00000090: f848 cf3d c707 36be e494 713e 2994 793c
000000a0: 6fa1 e3ba 7283 d33d a7e6 e73c 4859 96be
000000b0: e870 81bd e2ec 50bd 417f 27be 497f b73d
000000c0: 88e3 31bd 8a72 743d 6ea7 16be 0fde 83be
000000d0: 672b 5abc d73b f1bc 1858 17be 2811 463e
000000e0: a966 d33d 9e35 493e
-0.24096778 -0.060172003 0.1160455 0.021212045 -0.070698336 0.0007977734 0.06697197 -0.1529805
0.002751634 0.009171629 0.070995 0.009197127 0.01482717 -0.01682648 -0.07474024 0.06664651
0.08447573 -0.01851711 0.20342024 -0.09094109 -0.011627194 0.040414825 -0.10729601 0.22735983
0.15652564 -0.134582 0.09575932 -0.057455927 0.04971269 0.037556715 0.044087507 0.08763158
-0.006230025 -0.101864144 0.018020505 -0.10363877 0.101213396 -0.17776404 0.23591954 0.015233078
-0.0017366837 0.103278056 0.028308226 -0.2936499 -0.06320363 -0.05100716 -0.16357137 0.089598246
-0.04342988 0.059679545 -0.14712307 -0.25755355 -0.013316012 -0.02944748 -0.14779699 0.19342482
0.10322315 0.1964936

lv_mlp_net.0.weight f4 [29, 58]
00000000: 3d8c 66bd 98ce f73d 1199 91be 7f69 f43d
00000010: d8a8 6ebe 8be0 f13d 9a07 4fbd 93b1 d53d
00000020: 9db4 013e c465 d63d 15bb a63c 5eb3 03be
00000030: 36a3 bb3d eee6 e1bd 9003 6ebd f3e6 d43d
00000040: aa4f 193e 93b5 33bd 6ffb 29bd 088b 673e
00000050: e470 05be 3483 37bd 2af6 ff3d 9e4d 4abe
00000060: 7246 53bd 94ff f0bb d3d0 44bd c7f8 94bd
00000070: febe 09be ac96 b0bd cb84 183e 9654 3abe
00000080: 8d08 413c 8850 b13d 5b6d bbbd d39e 743c
00000090: 1a4d 083e 9e1c ef3d 064a 3c3e 28ee 333d
000000a0: 9017 6dbe b9ea cebd 1ae8 dbbd c221 b93d
000000b0: da57 3cbe ebd8 e7bb 68dd 4e3d 9675 b8bd
000000c0: 13d9 fd3d 4553 723d 1b20 1abc 8188 d3bd
000000d0: c329 97bd 8d40 1d3e d6fd 50bc bb2d 20bd
000000e0: 75d9 17be 09ea 9ebd 9417 623e 4b47 693e
000000f0: 9a6b d3bd 4b59 273c 1be4 67be 81a9 55bd
00000100: d27f 4c3d 951f 21be f651 263c ee94 b93c
00000110: 7013 cb3d e999 c8bd 909a 9b3c 1f5e 513d
00000120: 2bf0 aebd aacb 643d 5181 25be ab7d 55bd
00000130: d75c 6d3c 8507 ceba e291 06be 7ecc 61be
00000140: cc26 ac3d 3157 eabd 2ac3 a7bd fd11 16be
00000150: d999 c5bc cd2a bc3d 97d5 023e b97c 18bd
00000160: c488 c53d 0ce6 a9bd 842c 733e 4958 843e
00000170: ec3f 0dbe 7750 193e fc18 ca3d fcbd b13d
00000180: 2fe9 5cbe 2881 81bd f7ce 60be cdba a73d
00000190: 7bb1 4d3d 09d6 9a3e 4a8f 2bbd 46bf fc3d
000001a0: 380e 993c bc8f 1fbc 54c8 523e 1201 803e
000001b0: 3180 67be c1c6 25bd c974 9cbd 57ec 1d3d
000001c0: ed7e 2c3e 4906 09bd 017f 17bd 7931 f0bd
000001d0: 13e1 533e 9c75 bdbd 5869 e7bb e51c c03d
000001e0: 7df9 7a3b a972 6dbd 84fd c4bb f15b 2dbd
000001f0: c7be 1b3d dfff 0ebd f5a5 ab3d 1fe3 21be
00000200: 44e3 12be 6b0e 0fbd f597 8abd f83e 8b3b
00000210: ec97 d3bd 6df2 df3d d64c 973d f3bd 67be
00000220: 2636 b23d 330e 153e 3045 2abb 49a3 6a3e
00000230: 95cc 33bd 5bc0 5f3d fe82 a63e 3e2c 143d
00000240: a34b ecbd 9499 ff3d 7ce8 b1bc 1193 c4bd
00000250: ecff fabd b562 62bd 96eb 003e 4dfd 54bd
00000260: a190 073e 9b3a 7ebd 362f 883e 1f87 1fbe
00000270: b18f 8f3d fc5c 563d d1e6 413e 94a4 56be
00000280: 1fa0 d93c a1da ac3d 6f52 f5bc 03d4 253d
00000290: ded8 6b3e 36a5 923d a06f 6bbe 87be 593d
000002a0: 1554 c93d b781 913d 58bb ee3c 2d05 ad3d
000002b0: a67f d33d cc43 6bbc b5a4 30bc 2a79 853c
000002c0: 6e31 853c c8c2 3fbe b6c4 163d 338c c63c
000002d0: 0278 c33d 0e64 23bd c151 62bc 4c5e 7fbc
000002e0: b6a7 293e 8ebb 66be 2322 413e fa44 32be
000002f0: dbb8 25be e2a8 203e d18c 88bd 86ad d9bd
00000300: 52b5 373e 4aae b6bd 3964 9ebd 3e0c a5bd
00000310: 12d2 263b 954e 453e 268e 4e3d 36c7 3dbe
00000320: 6cb6 b63d f2f5 28bd 159b 513e f117 0cbe
00000330: 5c76 38be c606 37bd c716 253c 4a78 98be
00000340: 43ce 9fbd 8202 58be 43d5 0fbd 42d0 21be
00000350: 3fa9 3bba 9a02 033e d9d9 aa3c 9e63 75bc
00000360: b14c 173e 48a3 a2bd 44d7 14bd e60e 77be
00000370: 4ff0 a6bd 0d5a cd3d a88b 87be fc91 813d
00000380: a825 a73d 5937 25be c329 4bbe 28ab 36bc
00000390: 37e6 09bd a50c 573e 8745 2bbe 78c1 113e
000003a0: 5380 863e cc0c 72bd 0d63 5cbe 2e9e e9bd
000003b0: a60c 073e dc85 263e ad7a 963d 4d7a 543e
000003c0: 583a 77be cac2 223e a5cc 2ebe a660 c93c
000003d0: afe2 acbd 70ca 023e 9d52 7dbd 4c19 b1bd
000003e0: 7755 30be d707 253e 7e82 213e 9a5b 903e
000003f0: abc3 c13d 9fa5 333e a4db 113e 11df 54bc
-0.056286085 0.120999515 -0.28437093 0.11934184 -0.23306596 0.11810406 -0.05054436 0.1043426
0.12666555 0.10468629 0.02035288 -0.12861392 0.091619894 -0.110303745 -0.058108866 0.103956126
0.14971796 -0.043874335 -0.04149955 0.2261163 -0.13031346 -0.04480286 0.12498124 -0.19756171
-0.051580854 -0.007354686 -0.048050713 -0.07274013 -0.13451764 -0.086224884 0.14894406 -0.1819633
0.011781824 0.08657938 -0.09151717 0.014930445 0.13310662 0.1167538 0.18387613 0.043928295
-0.2315352 -0.101033635 -0.10737629 0.09039642 -0.18392888 -0.007075419 0.05050412 -0.09006803
0.12394919 0.059161443 -0.009407069 -0.103287704 -0.07381012 0.15356655 -0.012755832 -0.039106112
-0.14829047 -0.077594824 0.22079307 0.22781102 -0.10323258 0.01021416 -0.22645609 -0.052163605
0.049926586 -0.15734704 0.010151377 0.022654023 0.09915817 -0.09794981 0.0189946 0.05111515
-0.08541902 0.05585829 -0.16162612 -0.0521218 0.014487467 -0.0015718794 -0.13141587 -0.22050664
0.084058374 -0.11442412 -0.081915215 -0.146553 -0.024121212 0.09187851 0.1277679 -0.03722832
0.096452266 -0.08295831 0.2374745 0.25848606 -0.13793916 0.14972101 0.09868047 0.08678815
-0.21573327 -0.06323463 -0.21953951 0.08189926 0.050218087 0.3024142 -0.041884698 0.1234117
0.018683538 -0.009738859 0.20584232 0.25000817 -0.22607495 -0.04047275 -0.076394625 0.03855547
0.16845293 -0.03345326 -0.036986355 -0.11728186 0.20691328 -0.09250948 -0.0070621185 0.09380511
0.003829568 -0.057970677 -0.0060116667 -0.04232401 0.038023736 -0.034911986 0.08381263 -0.15809296
-0.14344507 -0.03492586 -0.06767265 0.00424945 -0.10331711 0.10934911 0.07387702 -0.22631054
0.08701734 0.14556198 -0.002598118 0.22913851 -0.043896277 0.054626804 0.32521814 0.036175005
-0.11537864 0.124804646 -0.021717303 -0.09598363 -0.122558445 -0.055269916 0.12589869 -0.05199938
0.13238765 -0.06206761 0.2659852 -0.15578888 0.07009829 0.05233477 0.18935706 -0.20961219
0.02656561 0.08440138 -0.029946534 0.040485393 0.23031947 0.07160418 -0.229918 0.053160217
0.098304905 0.07104819 0.029142067 0.08448253 0.103270814 -0.014359426 -0.010781457 0.016293127
0.016258921 -0.18726647 0.036808692 0.024236774 0.09544374 -0.03989034 -0.013813437 -0.015586447
0.16567883 -0.22532484 0.18860678 -0.17409125 -0.16183798 0.15689424 -0.066674836 -0.106288
0.17940262 -0.08919962 -0.0773396 -0.08058976 0.0025454802 0.19268258 0.050428532 -0.18533024
0.08921513 -0.041250177 0.20469315 -0.13681008 -0.180139 -0.044684194 0.010076231 -0.29779273
-0.07803013 -0.21094707 -0.03511549 -0.158021 -0.00071587035 0.12793961 0.020855831 -0.014977364
0.14775349 -0.079413 -0.036338106 -0.24126777 -0.08151304 0.100269414 -0.26473737 0.063266724
0.08161479 -0.16134395 -0.1984015 -0.011149205 -0.033666816 0.21000917 -0.16725741 0.14233959
0.2626978 -0.059094235 -0.2152216 -0.114071235 0.13188419 0.16262001 0.07347617 0.20749779
-0.2414335 0.15894619 -0.17070253 0.024582218 -0.08441674 0.12772536 -0.061846364 -0.08647403
-0.17220102 0.16116272 0.15772435 0.28194886 0.09461149 0.17543648 0.14243942 -0.012992636

lv_mlp_net.0.bias f4 [29]
00000000: 00d4 6bbe 9950 9dbe 3a9a 16be 813b 8cbe
00000010: d410 9bbe a72d 98bc 68ca 893d 90fb 4abe
00000020: 5ecb 2cbe b944 39be 76ec 71be b609 36bd
00000030: b436 c9be c0d7 c4be b406 6d3c 116c f1ba
00000040: e832 91be b8e0 7ebe 25a4 01be d926 ddbe
00000050: d639 b3be 97c1 b9be acf9 8bbe a93c 0a3e
00000060: c9d1 28be 582e 93be 5da2 abbe e450 20be
00000070: f59a d9be
-0.2303009 -0.30725554 -0.1470727 -0.27389148 -0.30286276 -0.018576456 0.06728059 -0.19822526
-0.16874453 -0.18092622 -0.23625359 -0.044442855 -0.39299548 -0.38445854 0.01446693 -0.0018419047
-0.2835915 -0.24890411 -0.12660272 -0.431937 -0.35005063 -0.3628051 -0.27338922 0.13499703
-0.16486277 -0.28746295 -0.3352231 -0.15655857 -0.42501035

lv_mlp_net.3.weight f4 [1, 29]
00000000: 43d2 4ebe 6760 7fbe 8d7a 833e 93c1 9b3e
00000010: d5d6 59be 82bb e23d 0fe0 5a3e 807e 7cbe
00000020: 0692 803e 1346 58be 7072 22be c30d 3d3e
00000030: 0ccd 04be 13a5 53be 7234 4e3e 6e78 5f3e
00000040: 9ac2 72be a2f3 9f3e 93ef 3b3e 9fba 82be
00000050: 50b4 c9be f826 a3be 4433 3d3e 6a4f 363e
00000060: 083f 2fbe a297 5cbe 5db2 7dbe aba6 e1bd
00000070: a216 8ebe
-0.20197396 -0.24939118 0.25679436 0.30421123 -0.21273358 0.110709205 0.21374534 -0.24657631
0.25111407 -0.21120481 -0.15863967 0.18462281 -0.12968844 -0.2066844 0.20137194 0.21823284
-0.23707047 0.31240565 0.18353109 -0.25533006 -0.3939538 -0.31865668 0.18476588 0.17803732
-0.17113888 -0.21542218 -0.24775071 -0.110181175 -0.27751642
