model/checkpoints/janardhan2016/cddd/model_000.onnx (onnx, 125589 bytes, 12 tensors)

lv_onnx::MatMul_4 f4 [512, 31]
0	0x00000000	0.0
1	0x00000000	0.0
2	0x00000000	0.0
3	0x00000000	0.0
4	0x00000000	0.0
5	0x00000000	0.0
6	0x00000000	0.0
7	0x00000000	0.0
8	0x00000000	0.0
9	0x00000000	0.0
10	0x00000000	0.0
11	0x00000000	0.0
12	0x00000000	0.0
13	0x00000000	0.0
14	0x00000000	0.0
15	0x00000000	0.0
16	0x00000000	0.0
17	0x00000000	0.0
18	0x00000000	0.0
19	0x00000000	0.0
20	0x00000000	0.0
21	0x00000000	0.0
22	0x00000000	0.0
23	0x00000000	0.0
24	0x00000000	0.0
25	0x00000000	0.0
26	0x00000000	0.0
27	0x00000000	0.0
28	0xbf5ab6ca	-0.85435164
29	0x00000000	0.0
30	0x00000000	0.0
31	0x00000000	0.0
32	0x00000000	0.0
33	0x00000000	0.0
34	0x00000000	0.0
35	0x00000000	0.0
36	0x00000000	0.0
37	0x00000000	0.0
38	0x00000000	0.0
39	0x00000000	0.0
40	0x00000000	0.0
41	0x00000000	0.0
42	0x3f5ab6ca	0.85435164
43	0x00000000	0.0
44	0x00000000	0.0
45	0x00000000	0.0
46	0x00000000	0.0
47	0x00000000	0.0
48	0x00000000	0.0
49	0x00000000	0.0
50	0x00000000	0.0
51	0x00000000	0.0
52	0x00000000	0.0
53	0x00000000	0.0
54	0x3f5ab6ca	0.85435164
55	0x00000000	0.0
56	0x00000000	0.0
57	0x00000000	0.0
58	0x00000000	0.0
59	0x00000000	0.0
60	0x00000000	0.0
61	0x00000000	0.0
62	0x00000000	0.0
63	0x00000000	0.0
64	0x00000000	0.0
65	0x00000000	0.0
66	0x00000000	0.0
67	0x00000000	0.0
68	0x00000000	0.0
69	0x00000000	0.0
70	0x00000000	0.0
71	0x00000000	0.0
72	0x00000000	0.0
73	0x00000000	0.0
74	0x00000000	0.0
75	0x00000000	0.0
76	0x00000000	0.0
77	0x00000000	0.0
78	0x00000000	0.0
79	0x00000000	0.0
80	0x00000000	0.0
81	0x00000000	0.0
82	0x00000000	0.0
83	0x00000000	0.0
84	0x00000000	0.0
85	0x00000000	0.0
86	0xbf5ab6ca	-0.85435164
87	0x00000000	0.0
88	0x00000000	0.0
89	0x00000000	0.0
90	0x00000000	0.0
91	0x00000000	0.0
92	0x00000000	0.0
93	0x00000000	0.0
94	0x00000000	0.0
95	0x00000000	0.0
96	0x00000000	0.0
97	0x00000000	0.0
98	0x00000000	0.0
99	0x00000000	0.0
100	0x00000000	0.0
101	0x00000000	0.0
102	0x00000000	0.0
103	0x00000000	0.0
104	0x00000000	0.0
105	0x00000000	0.0
106	0x00000000	0.0
107	0x00000000	0.0
108	0x00000000	0.0
109	0x00000000	0.0
110	0x00000000	0.0
111	0x00000000	0.0
112	0x00000000	0.0
113	0x00000000	0.0
114	0x00000000	0.0
115	0x00000000	0.0
116	0x00000000	0.0
117	0x00000000	0.0
118	0x00000000	0.0
119	0x00000000	0.0
120	0x00000000	0.0
121	0x00000000	0.0
122	0x00000000	0.0
123	0x00000000	0.0
124	0x00000000	0.0
125	0x00000000	0.0
126	0x00000000	0.0
127	0x00000000	0.0
128	0x00000000	0.0
129	0x00000000	0.0
130	0x00000000	0.0
131	0x00000000	0.0
132	0x00000000	0.0
133	0x00000000	0.0
134	0x00000000	0.0
135	0x00000000	0.0
136	0x00000000	0.0
137	0xbf5ab6ca	-0.85435164
138	0x00000000	0.0
139	0x00000000	0.0
140	0x00000000	0.0
141	0x00000000	0.0
142	0x00000000	0.0
143	0x00000000	0.0
144	0x3f5ab6ca	0.85435164
145	0x00000000	0.0
146	0x00000000	0.0
147	0x00000000	0.0
148	0x00000000	0.0
149	0x00000000	0.0
150	0x00000000	0.0
151	0x00000000	0.0
152	0x3f5ab6ca	0.85435164
153	0x00000000	0.0
154	0x00000000	0.0
155	0x00000000	0.0
156	0x00000000	0.0
157	0xbf5ab6ca	-0.85435164
158	0x00000000	0.0
159	0x00000000	0.0
160	0x00000000	0.0
161	0x00000000	0.0
162	0x00000000	0.0
163	0x00000000	0.0
164	0x00000000	0.0
165	0x00000000	0.0
166	0x00000000	0.0
167	0x00000000	0.0
168	0x00000000	0.0
169	0x00000000	0.0
170	0x00000000	0.0
171	0x00000000	0.0
172	0x00000000	0.0
173	0x00000000	0.0
174	0x00000000	0.0
175	0x00000000	0.0
176	0x00000000	0.0
177	0x00000000	0.0
178	0x00000000	0.0
179	0x00000000	0.0
180	0x00000000	0.0
181	0x00000000	0.0
182	0x00000000	0.0
183	0x00000000	0.0
184	0x00000000	0.0
185	0x00000000	0.0
186	0x00000000	0.0
187	0x00000000	0.0
188	0x00000000	0.0
189	0x00000000	0.0
190	0x00000000	0.0
191	0x00000000	0.0
192	0x00000000	0.0
193	0x00000000	0.0
194	0x00000000	0.0
195	0x00000000	0.0
196	0x3f5ab6ca	0.85435164
197	0x00000000	0.0
198	0x00000000	0.0
199	0x00000000	0.0
200	0x00000000	0.0
201	0x00000000	0.0
202	0x00000000	0.0
203	0x00000000	0.0
204	0x00000000	0.0
205	0x00000000	0.0
206	0x00000000	0.0
207	0x00000000	0.0
208	0x00000000	0.0
209	0x00000000	0.0
210	0x00000000	0.0
211	0x00000000	0.0
212	0x00000000	0.0
213	0xbf5ab6ca	-0.85435164
214	0x00000000	0.0
215	0x00000000	0.0
216	0x00000000	0.0
217	0x00000000	0.0
218	0x00000000	0.0
219	0x00000000	0.0
220	0x00000000	0.0
221	0x00000000	0.0
222	0x00000000	0.0
223	0x00000000	0.0
224	0x00000000	0.0
225	0x00000000	0.0
226	0x00000000	0.0
227	0x00000000	0.0
228	0x00000000	0.0
229	0x00000000	0.0
230	0x00000000	0.0
231	0x00000000	0.0
232	0x00000000	0.0
233	0x00000000	0.0
234	0x00000000	0.0
235	0x00000000	0.0
236	0x00000000	0.0
237	0x00000000	0.0
238	0x00000000	0.0
239	0x00000000	0.0
240	0x00000000	0.0
241	0x00000000	0.0
242	0x00000000	0.0
243	0x00000000	0.0
244	0x00000000	0.0
245	0x00000000	0.0
246	0x00000000	0.0
247	0x00000000	0.0
248	0x00000000	0.0
249	0x00000000	0.0
250	0x00000000	0.0
251	0x00000000	0.0
252	0x00000000	0.0
253	0x00000000	0.0
254	0xbf5ab6ca	-0.85435164
255	0x00000000	0.0

lr_lr_W f4 [512, 1]
0	0x3ce51617	0.027964635
1	0xbd481c7e	-0.048855297
2	0xbd548e85	-0.05189373
3	0xbd1422bc	-0.036165938
4	0x3c88b426	0.016687464
5	0x3d5c0a62	0.05372084
6	0xbd9a3ffb	-0.075317346
7	0x3daede41	0.08538485
8	0x3d9a4294	0.0753223
9	0x3d139d1b	0.0360385
10	0x3d55c0fa	0.05218599
11	0xbcc2fb32	-0.02380142
12	0x3cee37e7	0.02907939
13	0xbcd26f7d	-0.025687927
14	0x3dc1edc5	0.09469179
15	0xbc8fdc13	-0.017560994
16	0xbcc5099f	-0.02405244
17	0xbd4c389e	-0.04985868
18	0xbdb5e2da	-0.08881159
19	0x3d88ee0c	0.06686029
20	0xbda5719d	-0.08078311
21	0xbaaa8ce0	-0.0013011955
22	0xbd4be849	-0.04978207
23	0x3dbaf265	0.09128264
24	0xbdc67a56	-0.096913025
25	0xbdaf1c91	-0.085503705
26	0x3d7d4e9b	0.061842542
27	0xbd3ee516	-0.046605192
28	0xbc8ff9c4	-0.017575152
29	0xbaefd938	-0.0018298989
30	0xbd10c2a5	-0.035341877
31	0xbd0794ed	-0.03310101
32	0x3cdd0cfa	0.026983727
33	0xbd31066c	-0.043219015
34	0xbc7c2130	-0.015388772
35	0xbae756ef	-0.001764981
36	0xbcb1a83a	-0.021686662
37	0x3ce3119f	0.027718363
38	0xbdb32b72	-0.08748521
39	0x3daf8627	0.085705094
40	0x3c7b1cc2	0.015326681
41	0xbc1b1331	-0.009465025
42	0xbb8131fa	-0.0039427252
43	0xbd205738	-0.03914568
44	0xbd9a221d	-0.07526038
45	0x3ccc0c1a	0.024908114
46	0xbd59aa07	-0.053140666
47	0xbd2cc9db	-0.042184692
48	0x3d39f92a	0.045403637
49	0x3d2f1e09	0.042753253
50	0x3ca14041	0.019683959
51	0xbc240010	-0.0100097805
52	0xbc8b3b6b	-0.016996106
53	0x3dcd6fba	0.10031076
54	0xbce57a2e	-0.028012361
55	0x3e003d74	0.12523443
56	0x3cc26692	0.02373055
57	0xba579c19	-0.00082248595
58	0x3d887545	0.066629924
59	0xbd194305	-0.03741743
60	0xbcd4155c	-0.025889091
61	0x3d7c94b1	0.06166524
62	0x3d851975	0.06498996
63	0x3d486c72	0.048931547
64	0xbb7c3c2e	-0.0038488018
65	0xbd27c115	-0.04095562
66	0x3cc08da7	0.023505045
67	0x3d7e75b2	0.06212396
68	0xbb8c878f	-0.004288621
69	0xbcd814c8	-0.026377097
70	0xbe0ec25c	-0.1394133
71	0xbcd600be	-0.0261234
72	0xbd58e8bf	-0.05295634
73	0x3d0cfc60	0.03442037
74	0xbd149b61	-0.036280993
75	0x3c18f771	0.009336338
76	0xbdaedf3d	-0.08538673
77	0x3aad3567	0.0013214768
78	0xbbd59c6c	-0.006518891
79	0xbe05f463	-0.13081507
80	0x3dcbec2a	0.09957154
81	0x3c72fd00	0.014830828
82	0xbc8e19df	-0.01734632
83	0xbd21dead	-0.039519
84	0x3db27c05	0.08715061
85	0x3c9a418a	0.01883008
86	0x3cc9e2e3	0.02464432
87	0x3c58778b	0.013212095
88	0xbd164cdc	-0.036694393
89	0xbcc71bf0	-0.024305314
90	0x3cf9e398	0.030504033
91	0xbcb1ce61	-0.021704854
92	0xbd2cc386	-0.042178653
93	0x3cef890c	0.029240154
94	0xb8adb965	-8.283815e-05
95	0xbcd9efbf	-0.026603578
96	0xbc4151d7	-0.011799297
97	0x3c67212d	0.014107031
98	0xbd5edb70	-0.05440849
99	0x3d38c9fa	0.045114495
100	0x3d09056b	0.033452433
101	0x3d193c27	0.03741088
102	0xbdbdfe99	-0.09277076
103	0xbca4d901	-0.020123007
104	0x3dbc7ff1	0.092040904
105	0xbdcf9e83	-0.101376556
106	0x3d932d86	0.07186417
107	0x3d66fe0c	0.05639462
108	0x3d53b40b	0.051685374
109	0x3d41dddb	0.04733072
110	0x3cefe9da	0.029286314
111	0x3cc3d31d	0.023904378
112	0xbc379c47	-0.011206693
113	0x3d80ad59	0.062830634
114	0xbdacb370	-0.084326625
115	0xbc7b7987	-0.015348799
116	0xbcb15d7e	-0.021651026
117	0xbcf005d3	-0.029299652
118	0xbd2dd344	-0.042437807
119	0xbd1a7dff	-0.037717815
120	0xbd88d337	-0.06680911
121	0x3dbc8f7e	0.092070565
122	0xbd8bb291	-0.06821168
123	0x3db4cde5	0.08828334
124	0x3de0870c	0.10963258
125	0x3c2d3d23	0.010573658
126	0x3d8888bc	0.06666705
127	0xbdb2e1f7	-0.087345056
128	0x3e0cfe6b	0.13768928
129	0x3d7bd4fe	0.061482422
130	0x3e572cde	0.21013209
131	0x3d60c10b	0.0548716
132	0x3c7c9498	0.015416287
133	0x3d8e1965	0.06938437
134	0xbd2a5bfc	-0.04159163
135	0xbd1961cf	-0.037446793
136	0xbd5bd0c3	-0.053665888
137	0xbdbf65b6	-0.09345572
138	0xbca4259b	-0.020037463
139	0x3d0ed543	0.03487135
140	0xbd8c92f2	-0.06863965
141	0xbd6b2959	-0.05741248
142	0xbd6a7c80	-0.05724764
143	0xbc012602	-0.007882597
144	0xb99b4cd1	-0.00029621136
145	0xbd242111	-0.040070597
146	0x3d39ec47	0.045391347
147	0xb8a3020e	-7.7728284e-05
148	0x3ccacc6a	0.024755675
149	0x3cf5545a	0.029947449
150	0xbda64805	-0.081192054
151	0xbc7adbb4	-0.01531117
152	0xbd1bb0eb	-0.03801052
153	0x3da7039c	0.08154985
154	0x3bdd08dc	0.006745441
155	0xbca03ec2	-0.019561175
156	0xbd965be2	-0.07341744
157	0xbc3fb1f9	-0.011700147
158	0xbc059788	-0.008153804
159	0x3bc0c63b	0.005883006
160	0x3d25b3bb	0.040454607
161	0x3d0d98b2	0.03456945
162	0xbc855f8b	-0.01628091
163	0xbd1956d9	-0.03743634
164	0xbd7838c2	-0.060601003
165	0xba5d962f	-0.000845286
166	0x3d792aad	0.060831714
167	0x3d78987f	0.060692307
168	0x3d8c2cb9	0.06844468
169	0xbc4fc5a4	-0.012681399
170	0x3da53f3e	0.08068703
171	0x3d15d378	0.036578625
172	0xbb4ac3b5	-0.0030939404
173	0x3d815369	0.06314737
174	0x3c83508a	0.016029615
175	0x3cfa6b31	0.030568691
176	0x3d2c02a5	0.04199471
177	0xbd45bc13	-0.048275065
178	0x3d9e044c	0.07715663
179	0x3d1e3376	0.038623296
180	0xbbd16e3b	-0.0063913143
181	0xbd4c8a08	-0.049936324
182	0xbd16b080	-0.036789417
183	0x3cb79ce5	0.02241368
184	0x3d5e553d	0.05428051
185	0x3b9fb51e	0.004873886
186	0x3d497b81	0.049190048
187	0xbc04e74a	-0.008111784
188	0x3cb3892c	0.021915995
189	0x3bd9e7ed	0.006649962
190	0xbd95ae99	-0.073086925
191	0x3d7c1302	0.061541565
192	0x3d258f47	0.040419843
193	0xbd00ff0a	-0.031493224
194	0xbc853f61	-0.016265573
195	0x3db6483e	0.08900498
196	0x3d01accd	0.031658936
197	0xbcc67e3c	-0.024230115
198	0xbc7ec404	-0.015549663
199	0x3d9b6d0e	0.0758916
200	0x3c0240c7	0.007950014
201	0xbd12bdd0	-0.03582555
202	0xbcddd45e	-0.027078804
203	0xbdabc4ea	-0.08387168
204	0x3b381446	0.0028088256
205	0xbd8a7251	-0.067600854
206	0xbda8035f	-0.08203768
207	0x3d54fb36	0.051997386
208	0xbdee98ec	-0.11650261
209	0x3db1e1f7	0.086856775
210	0xbcad76c0	-0.021174788
211	0xbd926756	-0.07148616
212	0x3d37af64	0.044845
213	0xbd685298	-0.056719393
214	0xbe169e19	-0.14708747
215	0x3deb5245	0.11490301
216	0x3ce88e49	0.02838816
217	0xbdad3924	-0.08458164
218	0x3d8256fd	0.06364248
219	0xbd802376	-0.06256764
220	0xbc54d7d5	-0.0129909115
221	0x3c93d949	0.018047946
222	0x3d25c802	0.040473945
223	0xbd89373d	-0.06699989
224	0xbdc8711b	-0.09787198
225	0xbd2160fe	-0.03939914
226	0x3a7c3eb9	0.00096223835
227	0x3db34fc9	0.08755452
228	0x3de52d27	0.11190253
229	0xbd31d51f	-0.04341614
230	0xbd7e8bc1	-0.062145
231	0xbd9a8c1a	-0.075462535
232	0xbcc900b5	-0.02453647
233	0x3cfbd79f	0.030742465
234	0xbd7179bd	-0.05895399
235	0x3cc7c3f6	0.024385434
236	0xbcb1d07c	-0.021705858
237	0xbd8af09b	-0.06784173
238	0xbc6e5d29	-0.014548578
239	0xbd09b7e9	-0.033622656
240	0x3dc4a328	0.09601432
241	0xbd2ecb77	-0.042674508
242	0x3d8186ac	0.06324515
243	0x3d5e6d2f	0.054303344
244	0xbd92764b	-0.07151469
245	0x3c984565	0.018587777
246	0xbd7a1338	-0.061053485
247	0xbd45b667	-0.048269656
248	0xbd58d60e	-0.052938513
249	0x3afa2a63	0.0019086119
250	0xbc71a8e9	-0.014749744
251	0xbd14b4a6	-0.036305092
252	0x3dcdc24c	0.10046825
253	0x3ced2797	0.028949542
254	0x3d61933f	0.055072065
255	0xbcc0ad47	-0.023520125

svc_W2_svc f4 [512, 1]
0	0x3d2f5185	0.042802352
1	0xbd37ed81	-0.044904236
2	0x3c019009	0.007907876
3	0xbd326ec4	-0.043562666
4	0x3d3c287e	0.045937054
5	0x3d2aacc0	0.041668653
6	0xbd66ce83	-0.05634929
7	0x3d8e1e19	0.069393344
8	0x3d8a3ee8	0.0675028
9	0xbc28c322	-0.01030043
10	0x3d07e13f	0.033173796
11	0xbc7bb1e7	-0.015362239
12	0x3d4e2757	0.050330486
13	0xbd04b742	-0.03240133
14	0x3da07ec8	0.078366816
15	0xbc902649	-0.01759638
16	0xbd454af0	-0.04816717
17	0xbc3381c2	-0.01095623
18	0xbd882d54	-0.06649271
19	0x3d9c7f3d	0.07641456
20	0xbdcb203f	-0.0991826
21	0xbc1f9171	-0.009739266
22	0xbd7f04ce	-0.06226044
23	0x3d95238c	0.07282171
24	0xbcf7f50e	-0.030268218
25	0xbd580f68	-0.052749068
26	0x3d3f4f49	0.04670647
27	0xbcd8fd20	-0.026487887
28	0xbb317d93	-0.0027082905
29	0xbd0b3abc	-0.03399156
30	0xbce25cec	-0.0276322
31	0xbd42d887	-0.047569778
32	0x3d95a3d6	0.0730664
33	0xbd7eccf3	-0.062207174
34	0xbb81cdb9	-0.0039612916
35	0x3bb62380	0.005558431
36	0x3ca36ef9	0.019950377
37	0x3da5f9e2	0.08104302
38	0xbd8ce6f9	-0.06879992
39	0x3d5e01fd	0.054201115
40	0x3b3f80e6	0.0029221117
41	0xbb553103	-0.0032530434
42	0xbc0cf38b	-0.008602987
43	0x3bc1b118	0.005911004
44	0xbd49aa79	-0.04923484
45	0x3cd22982	0.025654558
46	0xbcf84fd6	-0.030311506
47	0xbcda5053	-0.02664963
48	0x3d68a2c9	0.05679587
49	0x3d1fbbfa	0.038997628
50	0x3cd324e5	0.025774429
51	0xbd08d09e	-0.033402078
52	0x3b9e6df7	0.004834886
53	0x3dcdc0d6	0.10046546
54	0xbd4659f1	-0.04842562
55	0x3da86f78	0.08224386
56	0x3caa403e	0.020782586
57	0xbc87c63f	-0.016574023
58	0x3db688de	0.08912824
59	0xbcea530f	-0.028604059
60	0xbd434b83	-0.047679435
61	0x3d1d417d	0.038392533
62	0x3da243de	0.07923101
63	0x3db23fce	0.08703576
64	0x3cd5d034	0.026100256
65	0xbca3b382	-0.019983057
66	0xbb1eed7f	-0.0024250445
67	0x3da6dc3f	0.08147477
68	0x3bb65147	0.0055638882
69	0xbb50952c	-0.0031827195
70	0xbe012e34	-0.12615281
71	0x3b0de3e8	0.0021650735
72	0xbcae030a	-0.021241684
73	0x3d38f84a	0.045158662
74	0xbcd152fa	-0.025552262
75	0xbaf614ea	-0.0018774543
76	0xbd99d72b	-0.07511743
77	0xbbbf2788	-0.00583357
78	0x3d01d152	0.031693764
79	0xbd99eba9	-0.07515652
80	0x3db798fe	0.08964728
81	0x3d0d950b	0.034565967
82	0x3bc42552	0.0059858942
83	0xbcf0aaac	-0.029378258
84	0x3d290127	0.041260865
85	0x3c98555d	0.018595392
86	0x3d057c86	0.032589458
87	0x3cea2794	0.028583325
88	0xba7641f8	-0.00093939854
89	0xbd0bb702	-0.034110077
90	0x3bf003f3	0.0073246895
91	0xbc0861ae	-0.00832407
92	0xbdac84f6	-0.08423798
93	0x3d18b960	0.037286162
94	0x3b19c76b	0.002346481
95	0xbd1b91fa	-0.03798101
96	0xbcca75a4	-0.024714299
97	0xbc73075b	-0.014833297
98	0xbda61a6c	-0.08110508
99	0x3d6a2ca7	0.05717149
100	0x3b960fe4	0.004579531
101	0x3cd18775	0.025577286
102	0xbdc10cb3	-0.0942625
103	0xbc903734	-0.017604448
104	0x3d911f68	0.070860684
105	0xbd993570	-0.074808955
106	0x3d602622	0.054723866
107	0x3d86b735	0.06577913
108	0x3d15d4d7	0.036579933
109	0x3d82e224	0.06390789
110	0x3d051b2e	0.032496624
111	0x3d8c1256	0.06839435
112	0xbcc79ee7	-0.024367763
113	0x3c99325c	0.018700771
114	0xbd74ae31	-0.059736434
115	0x3cb5820e	0.022156741
116	0xbcaf99be	-0.021435615
117	0xbd245b75	-0.040126283
118	0xbd2124ce	-0.03934174
119	0xbd837f8e	-0.064208135
120	0xbda914b2	-0.082559004
121	0x3db2ed6f	0.08736693
122	0xbd8a27e3	-0.06745889
123	0x3de2010f	0.11035358
124	0x3ddb4163	0.10705831
125	0x3c7ed2eb	0.015553216
126	0x3d16db7c	0.03683041
127	0xbda00463	-0.07813337
128	0x3dc6de78	0.09710401
129	0x3d153d74	0.03643556
130	0x3e2662b1	0.16248585
131	0x3d9d3e1c	0.07677862
132	0xbc8e5395	-0.01737384
133	0x3d860c4f	0.065453164
134	0xbc0a9c09	-0.008460053
135	0xbbe35601	-0.0069377427
136	0xbd207f34	-0.03918381
137	0xbdaf9ff1	-0.08575428
138	0xbc7c7278	-0.015408151
139	0xbc150b91	-0.009096996
140	0xbd309ba0	-0.043117166
141	0xbd7016fa	-0.058615662
142	0xbd1f62fb	-0.038912755
143	0xbbe4aea7	-0.006978828
144	0xbc808558	-0.015688583
145	0xbd6f3e66	-0.058409117
146	0x3ce49666	0.027903747
147	0x3c1b4c6d	0.009478671
148	0x3c2e6613	0.010644454
149	0xbd1270a3	-0.03575195
150	0xbd9c6915	-0.0763723
151	0xbd597354	-0.0530885
152	0xbd64f016	-0.055893026
153	0x3cd90ff1	0.02649686
154	0x3caacadb	0.020848682
155	0xbc631fb8	-0.013862543
156	0xbd9a098c	-0.07521352
157	0xbc98a05a	-0.01863115
158	0xbce38c33	-0.027776813
159	0xbbe39a49	-0.0069458825
160	0x3d1eb87b	0.038750153
161	0x3d382471	0.04495663
162	0xbd00c520	-0.031437993
163	0xbd7437b8	-0.05962345
164	0xbd4f1490	-0.05055672
165	0xbbeb6734	-0.0071839336
166	0x3d6a7d9a	0.05724869
167	0x3cc2346e	0.023706641
168	0x3d11c6dd	0.03559004
169	0x3b8e68e3	0.0043459996
170	0x3d20c274	0.039247945
171	0x3ca6917a	0.02033304
172	0x3c8e75ce	0.017390158
173	0x3d6697b1	0.056297008
174	0xbbc92ee5	-0.0061396235
175	0xbc37cbc5	-0.011218016
176	0x3c681067	0.014164067
177	0xbd79f9ba	-0.061029173
178	0x3db2bed9	0.087278076
179	0x3d0f93a5	0.035052914
180	0x3d338d69	0.04383603
181	0xbd284584	-0.04108192
182	0x3d025eab	0.031828564
183	0x3c935fc0	0.017989993
184	0x3d517407	0.051136043
185	0x3c1889cc	0.009310197
186	0x3d25d46a	0.040485777
187	0xbbc03683	-0.0058658733
188	0x3ce2b023	0.02767188
189	0xbcf00593	-0.029299533
190	0xbdc11693	-0.09428134
191	0x3d289fdb	0.041168075
192	0xbc9ea61a	-0.019366313
193	0xbd40b60c	-0.047048613
194	0xbcc9faed	-0.024655784
195	0x3db828dd	0.08992169
196	0x3d375053	0.044754338
197	0xbd055c25	-0.03255858
198	0xbcfe58c2	-0.031048182
199	0x3db05947	0.08610778
200	0xbc4a0dc3	-0.012332383
201	0xbc4ddc17	-0.012564681
202	0x3c3bb9ca	0.01145787
203	0xbda00de0	-0.078151464
204	0x3ce8092f	0.028324692
205	0xbd7aa557	-0.061192837
206	0xbdd467e0	-0.10371375
207	0x3cbb23d0	0.022844225
208	0xbdb1aec6	-0.086759135
209	0x3d8ce95d	0.06880448
210	0xbd5113ae	-0.05104416
211	0xbd51d8d2	-0.051232167
212	0x3ce80f96	0.028327744
213	0xbcc17723	-0.02361638
214	0xbde83bef	-0.113395564
215	0x3dd70838	0.104996145
216	0x3d1aad51	0.037762944
217	0xbd765c66	-0.06014671
218	0x3d65ddab	0.056119602
219	0xbd6b31e1	-0.057420615
220	0xbc8f6184	-0.017502554
221	0x3c8345b2	0.016024444
222	0x3c9358b4	0.017986633
223	0xbd96105a	-0.073273376
224	0xbc7ba775	-0.015359749
225	0xbd630437	-0.05542394
226	0x3cf56b9f	0.029958544
227	0x3d847b60	0.064688444
228	0x3df67297	0.12033575
229	0xbce920b4	-0.028457977
230	0xbd9b85bc	-0.07593867
231	0xbd7ba3cb	-0.061435502
232	0xbc206b01	-0.009791137
233	0x3d37ea2a	0.04490105
234	0xbdb2079f	-0.0869286
235	0x3c6068ee	0.013696892
236	0x3d113784	0.035453334
237	0xbd744b5a	-0.059642173
238	0xbd3297ce	-0.043601803
239	0xbd088189	-0.03332666
240	0x3e27290f	0.16324256
241	0x3c208b95	0.009798904
242	0x3d77c40f	0.06048971
243	0x3ceef66c	0.029170237
244	0xbd4f1cd7	-0.050564613
245	0xba5cf434	-0.0008428723
246	0xbd0f3aaa	-0.034968056
247	0xbd5ce50a	-0.053929366
248	0xbd61d945	-0.055138845
249	0xbcf80361	-0.030275049
250	0x3bcef831	0.006316208
251	0xbd2b3858	-0.04180178
252	0x3d800f88	0.06252962
253	0x3cc5a3cb	0.024125954
254	0x3cf4d15f	0.029884992
255	0xbcad01e1	-0.02111906

fs_lr_fs_lr_W f4 [276, 1]
0	0xbca567a4	-0.020191021
1	0x3c0558c9	0.008138844
2	0xbd4c24fb	-0.049839955
3	0x3dc8f1a5	0.09811715
4	0xbdbef892	-0.09324755
5	0x3deb03b8	0.11475319
6	0x3d75157e	0.05983495
7	0x3b961d71	0.0045811464
8	0x3e27f7ca	0.16403118
9	0xbc4e9237	-0.0126081025
10	0xbdd9b36d	-0.10629926
11	0xbe34db54	-0.17661792
12	0xbe025cca	-0.12730709
13	0xbcfd40a8	-0.03091462
14	0xbd2b655b	-0.041844707
15	0x3e227a34	0.1586693
16	0xbe1bb6a5	-0.15206392
17	0x3e1ab0ef	0.15106557
18	0xbe133ac3	-0.14377885
19	0x3d45fb8e	0.048335604
20	0xbc0da999	-0.008646392
21	0x3d45a270	0.048250616
22	0xbd979ec1	-0.07403327
23	0xbd554ec2	-0.052077062
24	0xbd3c3654	-0.04595025
25	0xbc998d79	-0.018744217
26	0x3cc93008	0.024559036
27	0xbdabc825	-0.08387784
28	0xbd8bb963	-0.06822469
29	0x3ccef13e	0.025261518
30	0xbd9717f1	-0.07377613
31	0xbccb7d00	-0.024839878
32	0x3da24aff	0.079244606
33	0xbc1e7d00	-0.009673357
34	0xbcbf141c	-0.023325019
35	0x3e32bb4a	0.17454258
36	0xbd89bd11	-0.06725515
37	0x3d45f1d8	0.048326343
38	0x3da8ddb4	0.082454115
39	0xbde7afd1	-0.11312831
40	0x3cba3435	0.022729972
41	0x3e17622b	0.14783542
42	0x3d8717f9	0.06596369
43	0x3d8e2b35	0.06941835
44	0xbdd5ce00	-0.10439682
45	0x3c8917ec	0.01673504
46	0x3c8f24df	0.017473636
47	0xbe82c78a	-0.2554286
48	0xbdd96e4a	-0.10616739
49	0xbc8af308	-0.01696159
50	0xbd1e9020	-0.038711667
51	0x3dfb705c	0.1227729
52	0x3d34e7cb	0.044166368
53	0xbdaabaa4	-0.0833638
54	0x3decf401	0.115699776
55	0xbcfd4e16	-0.030921023
56	0xbd074499	-0.033024404
57	0xbd066b3b	-0.032817107
58	0x3ce4fee5	0.027953574
59	0x3da42538	0.080149114
60	0xbc770aff	-0.015078305
61	0x3c9fb27d	0.01949429
62	0xbdd0d674	-0.10197154
63	0xbe027b1e	-0.12742278
64	0x3cfef6ae	0.031123485
65	0x3de11554	0.10990396
66	0xbd1026e2	-0.03519333
67	0xbce72e4f	-0.028220324
68	0xbda21ab7	-0.07915252
69	0xbdb41f95	-0.08795086
70	0xbdab46c5	-0.083631076
71	0x3dd28975	0.10280124
72	0x3e0e69f8	0.13907611
73	0x3e34f0a4	0.17669922
74	0xbdd729d9	-0.10506029
75	0x3e4743c3	0.19459443
76	0x3ecde2d7	0.40212128
77	0xbd6db006	-0.058029197
78	0xbda225a3	-0.07917335
79	0xbe2b0c2d	-0.16703863
80	0xbd7df5d1	-0.062002007
81	0x3dad4d3b	0.08461996
82	0xbdc8f364	-0.09812048
83	0x3dddf24a	0.108372286
84	0xbe2e2632	-0.17006758
85	0xbc844da0	-0.016150296
86	0xbd3bd30d	-0.04585557
87	0xb9d056ac	-0.00039737427
88	0x3d8c8a61	0.06862331
89	0x3d7b5e12	0.06136901
90	0xbd05e3bf	-0.0326879
91	0xbdb1466b	-0.08656009
92	0x3e11d8e2	0.1424289
93	0x3dcc5fe2	0.09979226
94	0x3daba429	0.083809204
95	0x3d91405a	0.07092352
96	0xbd95606d	-0.072937824
97	0x3a77c5bf	0.0009451769
98	0xbd3c512b	-0.045975845
99	0xbdac7517	-0.084207706
100	0x3d2bb130	0.041917026
101	0xbc8206de	-0.015872415
102	0xbd3fa8f9	-0.046792004
103	0xbde0c48c	-0.10974988
104	0x3d9b901d	0.07595847
105	0xbca9a272	-0.020707343
106	0x3e1e5f5f	0.15466069
107	0x3da75a19	0.08171482
108	0xbde0a79f	-0.10969471
109	0xbdea42b4	-0.11438504
110	0xbd99d0ef	-0.07510554
111	0x3e1f2792	0.15542439
112	0xbe2ab20f	-0.16669486
113	0x3e04d7c2	0.1297293
114	0xbe5b6a25	-0.2142721
115	0x3e508a78	0.20365322
116	0x3d8586d8	0.0651986
117	0x3df03dcf	0.11730539
118	0xbd675e7a	-0.056486584
119	0xbcc7b5c1	-0.02437866
120	0x3c5ae292	0.013359683
121	0x3d302226	0.043001316
122	0xbe2cd829	-0.16879334
123	0x3d596fc1	0.053085092
124	0x3e0c4cfd	0.13701244
125	0x3e22b497	0.15889202
126	0xbd4d1cd3	-0.050076317
127	0x3b1b14c3	0.0023663498
128	0xbda76605	-0.081737556
129	0xbd264fe5	-0.040603537
130	0xbdadc493	-0.08484759
131	0x3dbb1da0	0.0913651
132	0xbddde225	-0.10834149
133	0x3dc06180	0.09393597
134	0xbe0a8ca8	-0.13530219
135	0x3d461d12	0.048367567
136	0xbe0312da	-0.1280016
137	0x3b5bcbba	0.0033538179
138	0xbd2b49bf	-0.041818377
139	0x3e1c4091	0.15259005
140	0x3939b186	0.00017709107
141	0x3cdf2b6a	0.027242381
142	0x3d1c8e02	0.038221367
143	0xbdaebff8	-0.08532709
144	0x3e15d5a4	0.14632279
145	0xbc12d5cb	-0.008962105
146	0x3c82b484	0.015955217
147	0x3c67dc5e	0.014151661
148	0x3e019e3b	0.12658016
149	0x3de0e342	0.10980846
150	0xbc5acfaf	-0.01335518
151	0x3d27fbc7	0.041011598
152	0xbd829343	-0.06375744
153	0xbd7b2a5f	-0.061319705
154	0xbde0a27a	-0.1096849
155	0xbe249e77	-0.16076075
156	0x3c5814ce	0.013188554
157	0x3cddc981	0.027073624
158	0x3dcb9dac	0.09942183
159	0x3e141dc0	0.14464474
160	0x3e260f2c	0.16216725
161	0xbc1913ba	-0.009343082
162	0x3dc0df22	0.09417559
163	0x3d17c28e	0.037050776
164	0xbe0e1fb5	-0.13879283
165	0x3c582d91	0.013194458
166	0x3cd4e528	0.025988176
167	0xbe609c86	-0.21934709
168	0xbdc1bc8d	-0.09459791
169	0x3cbbea1b	0.022938779
170	0xbde6cb0e	-0.11269198
171	0x3da19579	0.07889838
172	0xbe1f11cc	-0.15534133
173	0xbcd485a9	-0.02594264
174	0xbddb1059	-0.106964774
175	0x3db2cf35	0.08730928
176	0xbd9795e9	-0.0740164
177	0x3c3c3f5c	0.011489715
178	0x3d509031	0.05091876
179	0xbd02dac8	-0.031946927
180	0x3b3d4dc4	0.0028885463
181	0x3dc1c8b0	0.09462106
182	0xbd01122c	-0.03151147
183	0x3dced5de	0.10099386
184	0x3e064e8e	0.13115904
185	0x3dd066f8	0.1017589
186	0x3dc3744b	0.095436655
187	0xbdb89c3f	-0.090141766
188	0x3ced4aa3	0.028966254
189	0xbd85837e	-0.06519221
190	0xbd423f5c	-0.047423705
191	0x3e02be84	0.12767988
192	0x3d81b234	0.06332818
193	0x3e03a87a	0.12857237
194	0x3d42c811	0.04755408
195	0xbd353935	-0.04424401
196	0xbcc92864	-0.024555393
197	0x3dfe780c	0.12425241
198	0xbe92f4b7	-0.28702328
199	0x3c3f5703	0.01167846
200	0x3dcbb926	0.09947424
201	0x3cb150fc	0.021645062
202	0xbe091db6	-0.1339024
203	0xbe8c6b01	-0.27425388
204	0x3d6f60dc	0.05844198
205	0x3d156deb	0.03648178
206	0xbc9135c2	-0.017725829
207	0x3de4d861	0.111740835
208	0x3e41cf25	0.18926676
209	0x3d9dd8e5	0.07707385
210	0xbc98d811	-0.018657716
211	0x3daf3665	0.08555297
212	0xbe029313	-0.12751417
213	0xbbce10fe	-0.0062886467
214	0x3e0de044	0.13855082
215	0x3e22e5b8	0.15907943
216	0x3d007dbe	0.031369917
217	0x3cc251c5	0.023720631
218	0xbc74125e	-0.014896957
219	0x3d3dffcb	0.04638652
220	0xbc4a22d9	-0.01233741
221	0x3d69c25d	0.057070125
222	0x3d2b1a14	0.041772917
223	0x3d647f3d	0.055785406
224	0xbdf8d831	-0.1215061
225	0x3c9c9fc0	0.019119143
226	0xbe3be275	-0.18348105
227	0x3d9f9253	0.07791581
228	0xbd8f1e02	-0.069881454
229	0x3ce5f82c	0.02807244
230	0x3b993600	0.0046756268
231	0x3ba59b99	0.005053949
232	0x3e060c38	0.13090599
233	0xbd24fd2b	-0.040280502
234	0xbddb82ff	-0.10718345
235	0x3df661e1	0.12030388
236	0x3da6d800	0.081466675
237	0xbdfc3442	-0.12314655
238	0x3c65750c	0.014004957
239	0xbda8845a	-0.08228369
240	0x3dcd5033	0.100250624
241	0xbd5a1938	-0.053246707
242	0x3d4600be	0.04834055
243	0xbd9ce09d	-0.07660029
244	0xbd15cfb2	-0.036575027
245	0xbddcca79	-0.10780806
246	0x3dd170da	0.10226603
247	0xbae59fdc	-0.0017518955
248	0xbdfa98c9	-0.12236173
249	0xbd690f93	-0.05689962
250	0x3e74cf7d	0.23907275
251	0xbcf0b34a	-0.029382367
252	0x3d32b896	0.043633066
253	0x3e125326	0.14289531
254	0x3c60a948	0.013712235
255	0xbdab9703	-0.083784126

fs_svc_W2_fs_svc f4 [276, 1]
0	0x3c171308	0.009220846
1	0xbd076e5c	-0.03306423
2	0x3b9dc34a	0.00481454
3	0x3da3167f	0.07963275
4	0xbd6a5253	-0.057207417
5	0x3d8b632f	0.06806027
6	0x3ca577aa	0.020198662
7	0x3c8a0de7	0.016852332
8	0x3dff6877	0.12471097
9	0x3c42f71a	0.011899734
10	0xbd900580	-0.07032299
11	0xbdc2ef79	-0.09518332
12	0xbe06f758	-0.13180292
13	0xbd4c87a9	-0.049934063
14	0xbd7fa19a	-0.062409975
15	0x3ddfb12e	0.10922466
16	0xbd502152	-0.050813027
17	0x3db8c639	0.09022183
18	0xbd9f17bc	-0.07768199
19	0xbafd3f7e	-0.001932129
20	0xbd643e9d	-0.055723775
21	0x3dd906dc	0.105970114
22	0xbda95316	-0.082678005
23	0xbd5595a8	-0.052144676
24	0xbd3aee22	-0.045637257
25	0x3da47e06	0.080318496
26	0x3baf9aa7	0.005359012
27	0xbcb7e930	-0.02245006
28	0xbcf0a703	-0.029376512
29	0x3cce5c87	0.025190605
30	0xbce93055	-0.02846543
31	0x3b467c82	0.0030286615
32	0x3dbfae57	0.093594246
33	0xbbde7324	-0.006788628
34	0x3c0ada76	0.008474937
35	0x3e203fac	0.15649289
36	0xbdd3d247	-0.103428416
37	0x3c25a466	0.010109996
38	0x3db1cca9	0.08681614
39	0xbda5a1cf	-0.08087503
40	0xbb1ed9aa	-0.0024238625
41	0x3e186738	0.14883125
42	0x3de0887f	0.109635346
43	0x3dad9a38	0.084766805
44	0xbdab5ef6	-0.08367722
45	0xbd123655	-0.035696346
46	0x3d2ed62d	0.042684723
47	0xbe48502f	-0.19561838
48	0xbd846bbc	-0.06465861
49	0xbcf82147	-0.030289305
50	0xbd8114a4	-0.06302765
51	0x3dec86d9	0.11549158
52	0x3da67ec9	0.08129651
53	0xbda6ed7b	-0.081507646
54	0x3d361e60	0.04446256
55	0x3c570cac	0.01312558
56	0xbd009b9c	-0.0313984
57	0xbdddd1fe	-0.108310685
58	0x3d18678b	0.03720812
59	0x3c7f7e45	0.01559407
60	0xbdcf3cc2	-0.101190105
61	0x3cff34c9	0.0311531
62	0xbdc3278a	-0.09529026
63	0xbda4125b	-0.080113135
64	0x3c34e4cc	0.011040878
65	0x3dffbb61	0.124869116
66	0xbd068b8d	-0.03284793
67	0x3cd1e4e4	0.025621839
68	0xbdd51697	-0.10404699
69	0xbdaa1646	-0.083050296
70	0xbdb6b711	-0.08921636
71	0x3db682bf	0.089116566
72	0x3e0bc0fc	0.13647836
73	0x3e40be47	0.18822585
74	0xbda96e5d	-0.08273003
75	0x3e147e3a	0.14501277
76	0x3e949502	0.29019934
77	0xbc55d235	-0.013050606
78	0xbcecd9ac	-0.028912388
79	0xbe05d401	-0.13069154
80	0xbd68b589	-0.05681375
81	0xba5633de	-0.0008171181
82	0xbd3ea6b9	-0.046545718
83	0x3d90d258	0.0707137
84	0xbe163f96	-0.14672694
85	0xbd4addc4	-0.0495279
86	0xbd85a3d2	-0.06525387
87	0xbc15e69a	-0.009149218
88	0x3d103ffe	0.035217278
89	0x3d690be5	0.05689611
90	0xbd825458	-0.063637435
91	0xbd301fce	-0.04299908
92	0x3e01bafb	0.12668984
93	0x3d6a1703	0.057150852
94	0x3d823b3f	0.063589565
95	0x3cbc933a	0.023019422
96	0xbd520626	-0.051275395
97	0x3d470160	0.048585296
98	0xbd6c23ca	-0.05765132
99	0xbb51b126	-0.0031996458
100	0x3d44fa4d	0.048090268
101	0xbc43543d	-0.011921939
102	0xbd451941	-0.048119787
103	0xbdf8a082	-0.121399894
104	0x3ca869f7	0.02055834
105	0xbd42b946	-0.04753997
106	0x3dd24b9f	0.1026833
107	0x3db92c8c	0.090417
108	0xbd9f5dfc	-0.07781598
109	0xbdd9068d	-0.105969526
110	0xbd694290	-0.056948245
111	0x3df3b974	0.11900607
112	0xbdffdba8	-0.12493068
113	0x3dd03e4b	0.101681314
114	0xbe20f982	-0.1572018
115	0x3e281f48	0.16418183
116	0x3d06d68a	0.032919444
117	0x3dea8ca4	0.11452606
118	0xbd42eb1f	-0.04758751
119	0xbc97310f	-0.01845601
120	0x3ccccb1c	0.024999194
121	0xbae5934d	-0.0017515213
122	0xbcff98cc	-0.031200789
123	0x3da16125	0.07879857
124	0x3d7de879	0.06198928
125	0x3e0d4764	0.13796765
126	0xbdbf94e4	-0.093545705
127	0x3ce60c67	0.028082086
128	0xbe084c0f	-0.13310264
129	0xbd5eb100	-0.05436802
130	0xbde22aae	-0.11043297
131	0x3e5e62f3	0.21717434
132	0xbcf6faca	-0.030148882
133	0x3d9f79f1	0.0778693
134	0xbdc874ec	-0.09787926
135	0x3aca01b1	0.0015411881
136	0xbdf3571b	-0.118818484
137	0xbd5cfbb6	-0.053950988
138	0x3cab2a17	0.020894093
139	0x3dca46f4	0.098768145
140	0xbc91100f	-0.017707853
141	0x3cb13aad	0.021634424
142	0x3cac7f4b	0.021056792
143	0x3c0da631	0.00864558
144	0x3dee8b2d	0.116476394
145	0xbd489fb9	-0.04898045
146	0x3be88768	0.00709622
147	0x3ca74e16	0.020422976
148	0x3d664c8c	0.056225345
149	0x3d7923ce	0.06082516
150	0xbc9bf7f4	-0.019039132
151	0x3dab3bf5	0.08361045
152	0xbd764713	-0.060126375
153	0xbd4f132e	-0.0505554
154	0xbd882d8c	-0.066493124
155	0xbe188cc9	-0.14897455
156	0x3c4b7940	0.012419045
157	0x3d154bf6	0.036449395
158	0x3d79db1a	0.060999967
159	0x3d9a61d7	0.07538193
160	0x3e2dd1e1	0.16974594
161	0xbd0eb851	-0.034843747
162	0x3d31855a	0.043340065
163	0x3c822909	0.015888708
164	0xbdc90640	-0.09815645
165	0x3ce91a59	0.028454946
166	0xbc74a45d	-0.014931765
167	0xbe2a79eb	-0.1664807
168	0xbd1e609d	-0.038666356
169	0x3d11bd2f	0.03558081
170	0xbdad7110	-0.084688306
171	0x3d237a8f	0.039911803
172	0xbe0f05bf	-0.13967036
173	0xbc532141	-0.012886346
174	0xbd6d0e54	-0.057874992
175	0x3e0cfabc	0.13767523
176	0xbca50cb6	-0.020147663
177	0xbc222ee4	-0.009898875
178	0x3ba9e4ed	0.005184761
179	0xbd5fa5ad	-0.05460136
180	0xbc63b7bc	-0.013898786
181	0x3cccc57b	0.02499651
182	0x3b90a1a3	0.0044138
183	0x3d9693a6	0.073523805
184	0x3dc8d619	0.09806461
185	0x3db77184	0.08957198
186	0x3e067fb5	0.13134654
187	0xbd234fbf	-0.039870974
188	0x3d55153a	0.052022196
189	0xbd45d442	-0.048298128
190	0xbd6e0807	-0.058113124
191	0x3e226a28	0.15860808
192	0x3b8a0f5f	0.004213258
193	0x3e13cc17	0.14433323
194	0x3da8e8d4	0.082475334
195	0xbd43361f	-0.047659036
196	0xba709297	-0.0009177117
197	0x3d883170	0.066500545
198	0xbe55e4a9	-0.20888008
199	0x3d03146e	0.032001905
200	0x3d915250	0.07095778
201	0x3cb97bea	0.022642095
202	0xbd5f02ba	-0.05444596
203	0xbe22cfe1	-0.15899612
204	0x3c7d05d6	0.015443286
205	0x3c9fe12e	0.019516554
206	0xbd294d06	-0.04133322
207	0x3d704504	0.05865957
208	0x3e2387a2	0.15969709
209	0xbb467fd0	-0.0030288585
210	0xbc950bf6	-0.01819418
211	0x3d911528	0.07084113
212	0xbd7e099c	-0.062020883
213	0x3d5271c8	0.05137804
214	0x3dc9730b	0.09836396
215	0x3e4e6ba5	0.2015825
216	0x3d274865	0.040840525
217	0x3da8c58c	0.08240804
218	0xbd52b913	-0.05144603
219	0x3df52efe	0.11971854
220	0xbd8c6cc1	-0.06856681
221	0x3d4c115e	0.04982125
222	0x3d1c99bb	0.038232546
223	0xbd4505d9	-0.04810128
224	0xbdd39d19	-0.103326984
225	0x3c88bebf	0.016692517
226	0xbe04116a	-0.12897268
227	0x3d50081d	0.050788987
228	0xbd68d3af	-0.056842502
229	0x3c97d085	0.018532047
230	0x3bf8d81d	0.007594122
231	0xbd79dc7b	-0.061001282
232	0x3de4ad2c	0.111658424
233	0xbd7155aa	-0.058919586
234	0xbdaffd81	-0.08593274
235	0x3df79a06	0.120899245
236	0x3d935eac	0.071957916
237	0xbde2e52b	-0.110788666
238	0xbc4d1566	-0.012517309
239	0xbd6c6d71	-0.05772156
240	0x3d8edd59	0.069758125
241	0xbd02a525	-0.031895775
242	0x3d1928ab	0.0373923
243	0xbda86655	-0.08222643
244	0x3cdba96d	0.026814187
245	0xbdfcb77d	-0.12339685
246	0x3d9ebd6e	0.077509746
247	0xbd00376b	-0.03130285
248	0xbde4ac85	-0.11165718
249	0xbd203328	-0.039111286
250	0x3e6c4ed2	0.23076943
251	0xbcd1008a	-0.025512952
252	0x3cef41a5	0.029206106
253	0x3e0c06cc	0.13674468
254	0x3c197bbf	0.009367882
255	0xbdae72a1	-0.085179575

mfs_lr_mfs_lr_W f4 [63, 1]
0	0xbd74c7da	-0.059760906
1	0xbd563c51	-0.052303616
2	0x3e6bb975	0.23019965
3	0xbe2a24cd	-0.16615601
4	0x3dc18973	0.094500445
5	0x398a9858	0.00026434916
6	0x3d31ae26	0.04337897
7	0x3d603896	0.054741465
8	0x3e92a716	0.286431
9	0xbde0a0de	-0.10968183
10	0xbc81a992	-0.015827928
11	0xbe80f40f	-0.25186202
12	0x3e03ec78	0.12883174
13	0x3eab761f	0.33488557
14	0x3f1e743a	0.618961
15	0xbe600307	-0.21876155
16	0xbe48d618	-0.1961292
17	0xbe93b6ee	-0.28850502
18	0x3d8e318e	0.069430456
19	0xbd4e9d10	-0.050442755
20	0x3e6ad8f5	0.22934325
21	0xbe777f5a	-0.24169675
22	0xbee48029	-0.44629028
23	0x3eb4ea40	0.3533497
24	0xbd3e419e	-0.046449296
25	0x3e5557ef	0.20834325
26	0x3e3a5e67	0.18200074
27	0x3e08d221	0.13361408
28	0x3c18f993	0.009336847
29	0xbcaf308e	-0.021385457
30	0x3e35e4c7	0.17763053
31	0x3dd5531e	0.10416244
32	0xbe1ae04a	-0.15124622
33	0x3d1278cc	0.035759732
34	0xbe24adce	-0.16081926
35	0x3e247210	0.16059136
36	0x3d4464e6	0.047947787
37	0xbd96502e	-0.07339512
38	0x3e5d1a49	0.21592058
39	0x3dacd270	0.08438575
40	0x3df8276e	0.121168956
41	0xbef4dad6	-0.4782321
42	0x3c97fb9c	0.018552594
43	0x3db368d5	0.087602295
44	0x3d9b9426	0.075966164
45	0x3e1ce9f6	0.15323624
46	0x3e831a9b	0.25606236
47	0xbdb7b7ac	-0.089705795
48	0x3e0fa086	0.14026079
49	0x3e47ed7e	0.1952419
50	0xbd779426	-0.06044402
51	0x3e6a7e7b	0.22899811
52	0xbe18af18	-0.14910543
53	0x3e73c4ad	0.23805495
54	0x3e5b3356	0.21406302
55	0x3bf072e1	0.0073379134
56	0x3e6659ee	0.22495243
57	0x3e456d93	0.1928008
58	0xbde7a1ff	-0.11310195
59	0x3e75d3a6	0.24006519
60	0xbd44e3ba	-0.04806874
61	0xbe701d3c	-0.23448652
62	0x3e7b1cfb	0.24522774

mfs_svc_W2_mfs_svc f4 [63, 1]
0	0xbd1417c5	-0.03615548
1	0xbddfc25d	-0.10925744
2	0x3e44554c	0.19173163
3	0xbd15a3ab	-0.03653304
4	0x3cd02075	0.025406102
5	0xbe313439	-0.17305078
6	0x3c28837f	0.010285257
7	0xbe0f1028	-0.13971007
8	0x3ea37183	0.3192254
9	0xbe1c6ec3	-0.15276627
10	0xbe10d826	-0.14144954
11	0xbe9d5ef7	-0.30736515
12	0x3e058e75	0.13042624
13	0x3eaf7b12	0.34273583
14	0x3f1d9f95	0.6157163
15	0xbe660efc	-0.22466654
16	0xbd822bae	-0.063559875
17	0xbee26489	-0.44217327
18	0x3d05df13	0.032683443
19	0xbe524d5d	-0.20537324
20	0x3e281d6a	0.1641747
21	0xbe83e963	-0.25763997
22	0xbecdc7ef	-0.401916
23	0x3eb1706e	0.3465609
24	0xbdc320eb	-0.09527763
25	0x3e1f8c6f	0.15580915
26	0x3e248402	0.16065982
27	0x3dc5564c	0.096356004
28	0xbdb72364	-0.08942297
29	0xbdc6fdbf	-0.09716367
30	0x3e061886	0.13095292
31	0x3e3a21a5	0.18176897
32	0xbe65442a	-0.22389284
33	0x3ded9b4c	0.11601886
34	0xbe4660ee	-0.19372913
35	0x3e2ab8f7	0.16672121
36	0x3d43d8c5	0.04781415
37	0xbc4dc346	-0.012558764
38	0x3e8a59a4	0.27021515
39	0x3dbbb384	0.09165099
40	0x3d846c74	0.06465998
41	0xbef826e2	-0.48467165
42	0x3e127dc6	0.14305791
43	0x3d4908cf	0.049080666
44	0xbbc5b70d	-0.0060337842
45	0x3d244f38	0.04011461
46	0x3e81e1f4	0.253677
47	0xbd48a870	-0.04898876
48	0x3e3c46f6	0.18386444
49	0x3ec879d6	0.39155453
50	0xbd8e70e8	-0.06955129
51	0x3e5e1685	0.21688278
52	0xbd99a8cc	-0.075028986
53	0x3e6a5f47	0.22887908
54	0x3e40c70b	0.18825929
55	0xbd9f57ae	-0.077803954
56	0x3e4563b6	0.19276318
57	0x3e8c84fa	0.27445203
58	0xbe0a0ad9	-0.134807
59	0x3e7c32f5	0.24628814
60	0xbe06b692	-0.13155583
61	0xbdb93773	-0.09043779
62	0x3e8d6865	0.2761871

lv_lr_lv_lr_W f4 [31, 1]
0	0x3d4e9027	0.050430443
1	0x3e4d85ad	0.20070525
2	0x3e85f27d	0.26161566
3	0x3d91fa0b	0.0712777
4	0x3da9a089	0.08282573
5	0xbb570c8e	-0.003281388
6	0xbbb7cb2f	-0.005608938
7	0xbde03886	-0.10948281
8	0x3bcb9617	0.0062129605
9	0x3de3dd7d	0.1112623
10	0x3d869b5d	0.06572602
11	0x3ce69f9d	0.028152281
12	0x3e923a16	0.2855994
13	0xbea10bb5	-0.31454244
14	0xbc298e94	-0.010348935
15	0x3e772ba0	0.24137735
16	0x3def0971	0.11671723
17	0xbe23b92d	-0.15988608
18	0xbe0565af	-0.1302707
19	0x3e26c5cd	0.16286393
20	0x3dc6aff1	0.09701527
21	0x3e3d98e8	0.1851536
22	0xbdc74832	-0.09730567
23	0x3dc2a4b6	0.09504072
24	0xbd7e125a	-0.06202922
25	0x3ca1f6de	0.019771036
26	0xbd936af5	-0.07198135
27	0x3df83ea7	0.12121325
28	0x3e1a99ef	0.15097784
29	0xbd13011d	-0.035889734
30	0xbdbceafc	-0.09224507

lv_svc_W2_lv_svc f4 [31, 1]
0	0x3d7227d5	0.059120018
1	0x3e62ab4d	0.22135659
2	0x3e88baf6	0.2670514
3	0x3d1c5ef4	0.03817649
4	0x3cb928e4	0.022602506
5	0xbd69d193	-0.05708463
6	0xbcae4ccb	-0.021276852
7	0xbd3eda14	-0.046594694
8	0x3d6dc086	0.058044933
9	0x3d712af0	0.05887884
10	0x3df6ce08	0.12051016
11	0x3cfb3e8b	0.030669471
12	0x3e80e776	0.2517659
13	0xbea8b5fa	-0.32951337
14	0x3d371b83	0.04470397
15	0x3e553d8b	0.20824258
16	0x3dfda1eb	0.12384399
17	0xbe424d57	-0.18974815
18	0xbdee10de	-0.11624311
19	0x3dfefaa1	0.124501474
20	0x3dea39d3	0.1143681
21	0x3e27f683	0.1640263
22	0xbdea432e	-0.11438595
23	0x3db34b77	0.08754628
24	0xbdd4c389	-0.10388858
25	0x3cb8b925	0.022549221
26	0xbe0db4f0	-0.13838553
27	0x3dd0a37e	0.10187434
28	0x3e10d0d2	0.14142159
29	0x3bc6222a	0.006046553
30	0xbcd4dc8d	-0.025984073

lv_mlp_net.0.weight f4 [15, 31]
0	0xbe339632	-0.17537764
1	0xbbf9ec64	-0.007627057
2	0xbc1d0bea	-0.00958536
3	0xbe044526	-0.12917003
4	0x3d4e4afb	0.050364476
5	0x3e06149d	0.13093801
6	0x3b47b5ce	0.0030473354
7	0x383ab06c	4.451016e-05
8	0xbd7505a0	-0.059819818
9	0xbd0fd2d0	-0.035113156
10	0xbd435ded	-0.047696996
11	0xbd4afd11	-0.04955775
12	0xbc07f1f1	-0.008297429
13	0xbd5bb05b	-0.053634983
14	0x3cfa4a2a	0.030552942
15	0xbd037e72	-0.03210301
16	0xbd89f8a1	-0.06736875
17	0xbdbf4920	-0.09340119
18	0xbe2ed21c	-0.17072338
19	0xbe29f0ff	-0.16595839
20	0xbd027e4e	-0.031858735
21	0x3defe858	0.11714238
22	0xbe5c37b6	-0.21505627
23	0x3d9bb7fc	0.076034516
24	0x3d042f91	0.032271925
25	0x3ce79b1b	0.028272202
26	0xbcd6b1ff	-0.026207922
27	0x3dabecc8	0.08394772
28	0x3d850408	0.064949095
29	0xbe21f82d	-0.15817328
30	0xbc533195	-0.012890239
31	0x3df0751f	0.11741089
32	0xbc33f9e1	-0.010984869
33	0x3e29597a	0.16538039
34	0x3e3355b7	0.17513166
35	0x3cf996c8	0.030467406
36	0x3d836097	0.064149074
37	0x3cdccb47	0.026952399
38	0xbc0c968c	-0.008580815
39	0x3e01bec9	0.12670435
40	0xbc97cd70	-0.018530577
41	0xbdaef7d7	-0.085433654
42	0x3e1e67d9	0.15469302
43	0xbdde0bab	-0.10842069
44	0xbdc20b8f	-0.09474861
45	0xbda51324	-0.080602914
46	0x3e37e69c	0.17959064
47	0x3cd74cee	0.0262818
48	0xbe2eaf8a	-0.1705915
49	0x3cd6a842	0.026203278
50	0xbddc5099	-0.1075756
51	0x3e302da5	0.17204912
52	0xbdd4867e	-0.10377215
53	0xbde90848	-0.11378533
54	0x3d7e82a3	0.062136304
55	0x3dc0d9e1	0.09416557
56	0x3df69603	0.12040331
57	0x3dd97403	0.106178306
58	0xbddabe25	-0.106807984
59	0x3de4feb8	0.11181396
60	0xbc6f7c78	-0.014617078
61	0xbd837a09	-0.06419761
62	0xbe04b290	-0.12958741
63	0xbdb0052d	-0.08594737
64	0xbe87e1f5	-0.2653958
65	0xbe3e4f02	-0.18584827
66	0x3ce49026	0.027900767
67	0xbd94af5e	-0.07260011
68	0x3d2f495a	0.042794563
69	0xbd07ebd0	-0.033183873
70	0x3e1705cd	0.14748307
71	0xbe029380	-0.1275158
72	0xbcad47c4	-0.021152385
73	0x3d0b5dda	0.03402505
74	0xbe749ee3	-0.23888735
75	0x3e4eaaca	0.20182338
76	0x3e005dd3	0.12535791
77	0xbdbeaae5	-0.09309939
78	0xbe159eae	-0.14611313
79	0x3e8b09e8	0.27155995
80	0x3d53cf65	0.05171146
81	0xbdccf1f7	-0.10007089
82	0xbdb2bf67	-0.08727913
83	0xbe6810ee	-0.22662708
84	0x3da8ba90	0.08238709
85	0xbe46b8b6	-0.19406399
86	0x3cdf6ad8	0.027272627
87	0xbe62d69f	-0.22152184
88	0xbda14750	-0.0787493
89	0x3ca2045c	0.01977747
90	0xbd7b702c	-0.061386272
91	0x3cd29c23	0.025709217
92	0x3da7b6fb	0.08189198
93	0xbbd74382	-0.006569327
94	0xbe416b2a	-0.18888536
95	0xbe2ac418	-0.16676366
96	0xbd6cd60d	-0.057821322
97	0x3dc75cd0	0.097344995
98	0xbe1d677e	-0.1537151
99	0xba5f5341	-0.00085191807
100	0xbe50656d	-0.20351191
101	0x3e69fe72	0.2285097
102	0xbdf87c13	-0.1213304
103	0xbdc79a7c	-0.097462624
104	0xbe0fc5ac	-0.1404025
105	0xbe02fb2b	-0.12791125
106	0x3defea7e	0.11714648
107	0xbdea7d8e	-0.11449729
108	0xbd4f531e	-0.050616376
109	0xbcf296f0	-0.029612988
110	0x3e8dfa2b	0.27729926
111	0x3d66912e	0.056290798
112	0x3db9fa6b	0.090809666
113	0xbd2525cc	-0.04031925
114	0xbca2aa92	-0.019856725
115	0x3e00641e	0.12538192
116	0xbdc68ba7	-0.09694605
117	0x3e364038	0.17797935
118	0x3d713e20	0.058897138
119	0x3d9dd9e4	0.07707575
120	0xbcf9f3bc	-0.03051173
121	0xbd976354	-0.07391992
122	0x3e27e125	0.1639448
123	0x3e1ba52a	0.15199724
124	0xbdaeaeb1	-0.085294135
125	0xbe38001e	-0.17968795
126	0xbe4c3457	-0.19941841
127	0xbe069161	-0.13141395
128	0xbd3e342b	-0.04643647
129	0xbe607028	-0.21917784
130	0xbd87f22d	-0.06637988
131	0xbd8c1846	-0.06840567
132	0xbc420105	-0.011841063
133	0x3d641865	0.055687327
134	0xbe556cfc	-0.20842355
135	0xbdcb45ef	-0.09925448
136	0x3c7c817f	0.015411734
137	0x3dba3b15	0.090933
138	0x3d828d49	0.06374604
139	0xbe2f387d	-0.17111392
140	0xbe8acb0f	-0.27108046
141	0xbd249de9	-0.040189657
142	0xbca36b3d	-0.019948596
143	0x3c96ef03	0.018424517
144	0x3d6c6e69	0.057722483
145	0x3d9ae8ac	0.0756391
146	0x3ced3e92	0.0289605
147	0xbdc455ab	-0.09586652
148	0x3d298adc	0.041392192
149	0xbd8d1a58	-0.0688979
150	0xbdb6a122	-0.089174524
151	0x3d9b9490	0.075966954
152	0xbda931d8	-0.0826146
153	0x3dec9448	0.1155172
154	0x3ccfc189	0.02536084
155	0x3ddd00ef	0.10791194
156	0x3c267f48	0.010162182
157	0x3d2ab21c	0.041673765
158	0xbe16f7aa	-0.14742914
159	0x3e25644e	0.16151544
160	0x3daf2c06	0.08553319
161	0x3d20948c	0.039204165
162	0xbd2e90c2	-0.04261852
163	0x3e0c28c8	0.13687432
164	0x3deec18a	0.116580084
165	0xbd111f4f	-0.03543025
166	0x3d9add5c	0.07561752
167	0x3dcc4cf6	0.09975617
168	0xbe083a69	-0.13303532
169	0x3ccd5221	0.025063576
170	0xbd398786	-0.04529526
171	0x3e40dacc	0.18833464
172	0xbe1d6813	-0.15371732
173	0x3babeb29	0.005246539
174	0x3de2347c	0.11045167
175	0xbd106df1	-0.0352611
176	0xbdfaaf99	-0.12240524
177	0xbe1cacb1	-0.15300252
178	0xbdd0a160	-0.1018703
179	0x3e0180c0	0.1264677
180	0xbd09c846	-0.03363826
181	0x3e1faa8a	0.15592399
182	0x3e0492de	0.1294665
183	0x3e439ce2	0.19102815
184	0xbdaf3742	-0.085554615
185	0x3d56bbfe	0.052425377
186	0xbd85f482	-0.06540777
187	0xbca5ef09	-0.020255582
188	0xbbea1de5	-0.007144677
189	0xbe0dc640	-0.13845158
190	0xbe0c53d2	-0.1370385
191	0x3e208d2b	0.15678851
192	0xbd1cdd93	-0.038297247
193	0xbd233b34	-0.039851382
194	0x3d6ab94e	0.057305627
195	0x3e0257bf	0.12728785
196	0x3cc444c7	0.023958577
197	0x3d950513	0.072763585
198	0x3e8fe031	0.28100732
199	0xbdc89e00	-0.09795761
200	0xbda720f3	-0.081605814
201	0x3e3f1dc1	0.18663694
202	0x3c22df71	0.009940968
203	0xbe3c1ec8	-0.18371117
204	0xbe95c90b	-0.29254946
205	0xbbb194e0	-0.0054193586
206	0x3e0a3d9a	0.13500062
207	0xba5ce0e0	-0.0008425843
208	0xbdbec86f	-0.093155734
209	0xbe0dfcb8	-0.13865936
210	0x3c9d57cc	0.019206904
211	0xbde116a0	-0.109906435
212	0xbdf96c10	-0.121788144
213	0x3e396209	0.18103804
214	0x3dc03fc7	0.093871646
215	0xbd192e5d	-0.03739773
216	0xbc71fe3d	-0.014770088
217	0xbd637812	-0.05553443
218	0x3e199c52	0.15001038
219	0x3d151279	0.03639457
220	0x3de5f039	0.112274595
221	0x3c2a18c2	0.010381879
222	0x3e0a3eca	0.13500515
223	0x3e32a73a	0.17446604
224	0xbcc86a02	-0.024464611
225	0x3da06407	0.07831579
226	0x3da4a1ca	0.08038671
227	0x3d924c7a	0.07143493
228	0x3e296e39	0.16545953
229	0x3d61b559	0.055104587
230	0x3e0e9724	0.13924843
231	0xbd92eec3	-0.071744464
232	0x3ce6dd9a	0.02818184
233	0x3d9f0211	0.07764066
234	0x3d2c705e	0.04209935
235	0x3d9866d7	0.0744149
236	0xbe6c2beb	-0.23063628
237	0x3e354341	0.17701437
238	0x3dac416d	0.084109165
239	0x3e7bba05	0.2458268
240	0x3dc9f21c	0.09860632
241	0x3cbf5c93	0.023359573
242	0x3dbc03f6	0.09180443
243	0xbd34a4f3	-0.04410262
244	0x3e4df33e	0.20112321
245	0x3d67890f	0.056527194
246	0xbdb625a0	-0.08893895
247	0x3a869b23	0.0010269623
248	0x3dd3422f	0.10315358
249	0xbdb842e7	-0.089971356
250	0x3e14bce3	0.1452518
251	0xbd95f78c	-0.073226064
252	0x3d520e14	0.051282957
253	0xbe354786	-0.17703065
254	0xbd57b3ab	-0.05266158
255	0x3e0be395	0.13661034

lv_mlp_net.0.bias f4 [15]
0	0xbdaa89d7	-0.08327072
1	0xbdec81f4	-0.11548224
2	0xbc1c58d9	-0.009542667
3	0x3daf7221	0.0856669
4	0x3d39ce38	0.04536268
5	0x3df1ea3f	0.11812257
6	0x3e357203	0.17719273
7	0x3e011c96	0.12608561
8	0x3e388c5a	0.1802229
9	0xbb7942cd	-0.00380342
10	0x3e15c53a	0.14626017
11	0x3e04674f	0.12930034
12	0x3d60b780	0.0548625
13	0x3dd666ae	0.10468803
14	0x3dd2b998	0.102893054

lv_mlp_net.3.weight f4 [1, 15]
0	0x3d822843	0.063553356
1	0x3de3b036	0.11117594
2	0xbdfb4a48	-0.122700274
3	0xbdc64e22	-0.096828714
4	0xbe1de697	-0.15419994
5	0x3cc8da5d	0.024518186
6	0x3e99a465	0.30008236
7	0x3e9579a0	0.29194355
8	0x3eca16b2	0.3947044
9	0x3d905761	0.07047916
10	0x3e300f1c	0.17193264
11	0x3eb36e35	0.3504502
12	0x3e7866b8	0.24257934
13	0x3e8e3798	0.2777679
14	0xbe60edb0	-0.2196567
