model/checkpoints/valitalo2016/cddd/model_000.onnx (onnx, 103252 bytes, 12 tensors)

lv_onnx::MatMul_4 f4 [512, 23]
00000000: 0000 0000 0000 0000 0000 0000 0000 0000
00000010: 0000 0000 0000 0000 0000 0000 0000 0000
00000020: 0000 0000 0000 0000 0000 0000 0000 0000
00000030: 0000 0000 0000 0000 0000 0000 0000 0000
00000040: 0000 0000 0000 0000 0000 0000 0000 0000
00000050: 0000 0000 0000 0000 0000 0000 0000 0000
00000060: 0000 0000 0000 0000 0000 0000 0000 0000
00000070: 0000 0000 0000 0000 0000 0000 0000 0000
00000080: 0000 0000 0000 0000 04eb 7d3f 0000 0000
00000090: 0000 0000 0000 0000 0000 0000 0000 0000
000000a0: 0000 0000 0000 0000 0000 0000 0000 0000
000000b0: 0000 0000 0000 0000 0000 0000 0000 0000
000000c0: 0000 0000 0000 0000 0000 0000 0000 0000
000000d0: 0000 0000 0000 0000 0000 0000 0000 0000
000000e0: 0000 0000 0000 0000 0000 0000 0000 0000
000000f0: 0000 0000 0000 0000 0000 0000 0000 0000
00000100: 0000 0000 0000 0000 0000 0000 0000 0000
00000110: 0000 0000 0000 0000 0000 0000 0000 0000
00000120: 0000 0000 0000 0000 0000 0000 0000 0000
00000130: 0000 0000 0000 0000 0000 0000 0000 0000
00000140: 0000 0000 0000 0000 0000 0000 0000 0000
00000150: 0000 0000 0000 0000 0000 0000 0000 0000
00000160: 0000 0000 0000 0000 0000 0000 0000 0000
00000170: 0000 0000 0000 0000 0000 0000 0000 0000
00000180: 0000 0000 0000 0000 0000 0000 0000 0000
00000190: 0000 0000 0000 0000 0000 0000 0000 0000
000001a0: 0000 0000 04eb 7dbf 0000 0000 0000 0000
000001b0: 0000 0000 0000 0000 0000 0000 0000 0000
000001c0: 04eb 7dbf 0000 0000 0000 0000 0000 0000
000001d0: 0000 0000 04eb 7d3f 0000 0000 0000 0000
000001e0: 0000 0000 0000 0000 0000 0000 0000 0000
000001f0: 0000 0000 0000 0000 0000 0000 0000 0000
00000200: 0000 0000 0000 0000 0000 0000 0000 0000
00000210: 0000 0000 0000 0000 0000 0000 0000 0000
00000220: 0000 0000 0000 0000 0000 0000 0000 0000
00000230: 0000 0000 0000 0000 0000 0000 0000 0000
00000240: 0000 0000 0000 0000 0000 0000 0000 0000
00000250: 04eb 7d3f 0000 0000 0000 0000 0000 0000
00000260: 0000 0000 0000 0000 0000 0000 0000 0000
00000270: 0000 0000 0000 0000 0000 0000 0000 0000
00000280: 0000 0000 0000 0000 0000 0000 0000 0000
00000290: 0000 0000 0000 0000 0000 0000 0000 0000
000002a0: 0000 0000 0000 0000 0000 0000 0000 0000
000002b0: 0000 0000 0000 0000 0000 0000 0000 0000
000002c0: 0000 0000 0000 0000 0000 0000 0000 0000
000002d0: 0000 0000 0000 0000 0000 0000 0000 0000
000002e0: 0000 0000 0000 0000 0000 0000 0000 0000
000002f0: 0000 0000 0000 0000 04eb 7dbf 0000 0000
00000300: 0000 0000 0000 0000 0000 0000 0000 0000
00000310: 0000 0000 0000 0000 0000 0000 0000 0000
00000320: 0000 0000 0000 0000 0000 0000 0000 0000
00000330: 0000 0000 0000 0000 0000 0000 0000 0000
00000340: 0000 0000 0000 0000 0000 0000 0000 0000
00000350: 0000 0000 0000 0000 0000 0000 0000 0000
00000360: 0000 0000 0000 0000 0000 0000 0000 0000
00000370: 0000 0000 0000 0000 0000 0000 0000 0000
00000380: 0000 0000 0000 0000 0000 0000 0000 0000
00000390: 0000 0000 0000 0000 04eb 7d3f 0000 0000
000003a0: 0000 0000 0000 0000 0000 0000 0000 0000
000003b0: 0000 0000 0000 0000 0000 0000 0000 0000
000003c0: 0000 0000 0000 0000 0000 0000 0000 0000
000003d0: 0000 0000 0000 0000 0000 0000 0000 0000
000003e0: 0000 0000 0000 0000 0000 0000 0000 0000
000003f0: 0000 0000 0000 0000 0000 0000 0000 0000
0.0 0.0 0.0 0.0 0.0 0.0 0.0 0.0
0.0 0.0 0.0 0.0 0.0 0.0 0.0 0.0
0.0 0.0 0.0 0.0 0.0 0.0 0.0 0.0
0.0 0.0 0.0 0.0 0.0 0.0 0.0 0.0
0.0 0.0 0.9918673 0.0 0.0 0.0 0.0 0.0
0.0 0.0 0.0 0.0 0.0 0.0 0.0 0.0
0.0 0.0 0.0 0.0 0.0 0.0 0.0 0.0
0.0 0.0 0.0 0.0 0.0 0.0 0.0 0.0
0.0 0.0 0.0 0.0 0.0 0.0 0.0 0.0
0.0 0.0 0.0 0.0 0.0 0.0 0.0 0.0
0.0 0.0 0.0 0.0 0.0 0.0 0.0 0.0
0.0 0.0 0.0 0.0 0.0 0.0 0.0 0.0
0.0 0.0 0.0 0.0 0.0 0.0 0.0 0.0
0.0 -0.9918673 0.0 0.0 0.0 0.0 0.0 0.0
-0.9918673 0.0 0.0 0.0 0.0 0.9918673 0.0 0.0
0.0 0.0 0.0 0.0 0.0 0.0 0.0 0.0
0.0 0.0 0.0 0.0 0.0 0.0 0.0 0.0
0.0 0.0 0.0 0.0 0.0 0.0 0.0 0.0
0.0 0.0 0.0 0.0 0.9918673 0.0 0.0 0.0
0.0 0.0 0.0 0.0 0.0 0.0 0.0 0.0
0.0 0.0 0.0 0.0 0.0 0.0 0.0 0.0
0.0 0.0 0.0 0.0 0.0 0.0 0.0 0.0
0.0 0.0 0.0 0.0 0.0 0.0 0.0 0.0
0.0 0.0 0.0 0.0 0.0 0.0 -0.9918673 0.0
0.0 0.0 0.0 0.0 0.0 0.0 0.0 0.0
0.0 0.0 0.0 0.0 0.0 0.0 0.0 0.0
0.0 0.0 0.0 0.0 0.0 0.0 0.0 0.0
0.0 0.0 0.0 0.0 0.0 0.0 0.0 0.0
0.0 0.0 0.0 0.0 0.0 0.0 0.9918673 0.0
0.0 0.0 0.0 0.0 0.0 0.0 0.0 0.0
0.0 0.0 0.0 0.0 0.0 0.0 0.0 0.0
0.0 0.0 0.0 0.0 0.0 0.0 0.0 0.0

lr_lr_W f4 [512, 1]
00000000: 7154 363c 4482 69bc 51b9 d33b 5e79 19bd
00000010: fc89 6cbd fa86 7d3d c6a5 5e3b 0226 e03c
00000020: 22e1 59bd dce1 98bc 9791 6abd deea 823d
00000030: 81c0 6c3d a07c d4bb 064a 50bd e298 17bc
00000040: 77ad 46bd 183d 0a3c da17 3a3c 3952 2dbd
00000050: e833 3dbd 92db 8d3d fb37 a5bd 8911 993b
00000060: d9fd 2a3c e19b 1b3c d459 283c 8109 aabc
00000070: ea27 69bc 0db8 b13b 1560 093d 51c6 b2ba
00000080: 3883 2dbc c5ba 2d3d 9e24 04bd e32e 463c
00000090: c068 2e3d c597 dabc 0d47 45bc aae2 a3bc
000000a0: 2fea aebc 988c 203d 53b1 91bc e6b3 39bd
000000b0: 12d6 5c3d 0b3d a13c 49e0 103d 1767 2b3d
000000c0: 811e c23c c760 2eba 9c3f 4f3d 1a0e 84bd
000000d0: 52e4 c0bc ae9e a5bb b9df 1cbc 3c11 363b
000000e0: edbd e5bc 221e 94bb 9780 92bc ef2d c83b
000000f0: 4658 3dbd 773a 5fbb a432 b8bc 2c02 003d
00000100: adca 993d 28e3 b63d 7dcf 2b3d 83ce de3c
00000110: 625d 813b dfd8 613d b78e 553d 805b 833c
00000120: f013 fd3c 6bdd afbc fcb3 df3a bcf4 a93c
00000130: a687 6b3c a227 76bd 82a4 5e3b 0a6a b5bc
00000140: 23fc ea3c 4fc2 a13c 7ed9 9cbc 9dc4 0eb9
00000150: a2cc 933d 0a0c 2ebd 42f7 da3c 6f44 43bc
00000160: 088b 60bd 1d62 503c ba97 aa3d 6ec2 2e3c
00000170: 84d6 6abd 3763 8cbd ff61 02bd 4551 88bc
00000180: 2584 7f3d bc4b 993c dfdb 1e3b 1d4c 13bd
00000190: 8c2b 72bd 5667 a03b 266b 4f3d ab5f 093d
000001a0: 3463 d93b 79ba ac3c f976 2c3c 3ce8 12bd
000001b0: 67b3 d13d 3292 c03a 9aa5 26bd 6567 243d
000001c0: 2746 efbc 418a 0b3d dce2 1c3d 47d5 4c3c
000001d0: 8b69 1ebc 12f2 cebc 2209 2fbc d65a 9abc
000001e0: 7a56 45bd eb5d 5e3b c27c 653d f7dc bb3c
000001f0: 1f79 d2bb 12b4 62bd 2518 15bd b2f1 f8bc
00000200: 78cf 193d 12b9 a53c 207f debc 6d57 663c
00000210: c0e1 14bc c139 57bc e5de ed3c 22bb 0bbc
00000220: 23c8 803c 4abd 57bc b25f 66bb 2fff f1bc
00000230: b416 403d 719b f13c b4c8 b7b9 90d8 b43a
00000240: 8965 09bb 5558 8ebc 35ba 383d 36ee bdbc
00000250: f35c 79bb 94e2 8e3c bb56 12bd 6568 0fbd
00000260: f1c3 13bb 636c 8e3d b00a 823a 4e0a e4bc
00000270: 2834 acbb 907d 81bc 9bf0 4abb 9a3c 91bd
00000280: 1338 453c 69d6 b5bd bd90 423c 181f 08bc
00000290: 990c 793b 485d 9e3c 3eee 96ba ef03 943c
000002a0: 87c0 ad3c 7773 863d 1cdd 58bc b6ab 57bd
000002b0: b307 92bc 924a ccbc 30b4 97bd ab33 ba3c
000002c0: 1baf 703c 0751 963b d1db 5cbb 7373 dbbd
000002d0: afc6 463d 0590 1a3d b663 95bc 88bb b63c
000002e0: 8bd5 4dbc 3912 a3bc 7620 41bc bcf9 10bd
000002f0: f3df 1dbd 8417 503d ad9f 033c cdea dcb9
00000300: 7a6e 17bd 3a9f a2bc 3c08 993d a1dc 7ab9
00000310: 1a11 1a3b 02be 0abd 6276 97bc 8ada be3c
00000320: b8d2 603c d79b f1bc 8428 f63b 58c1 75bc
00000330: 0a42 fdbb 6f36 243d 70f2 23bc 3a44 c6bd
00000340: ab75 82bd 009b 0d3d f1c0 8dbc 8cc9 19bc
00000350: b1e9 263c 34e1 283d 8ab5 67bc eb0d 383d
00000360: 25c5 0b3d a724 093c 0fd2 d0bc 9506 ab3c
00000370: 14e1 94bc 7ca7 81bd 861e 773c 9b92 b03c
00000380: 2c7d 293d 6c75 67bd 3745 803b 28f8 693c
00000390: fba3 bbbc c5fe 543c b640 8d3c 2718 c6bb
000003a0: b773 6a3d 78a3 88bd 590d 4e3d d42b 31bc
000003b0: f546 c33a b46c 913d c33b 2f3c d47b 4a3c
000003c0: 8e0d e23c 64e7 553d 9ad5 4b3d de60 d1bc
000003d0: 30bf cb3c 0c9c 1b3d e568 0b3d 6b81 813c
000003e0: a9c9 c7bc 553d 103d 26b8 79bc 7e19 df3c
000003f0: aacf 2e3d a067 393c 48f2 643d 4816 0c3c
0.011128531 -0.014252249 0.0064613004 -0.03746926 -0.05774878 0.0618963 0.003397332 0.027361874
-0.05319322 -0.018662386 -0.05726775 0.063924536 0.057800774 -0.006484583 -0.050851844 -0.009252759
-0.048505273 0.008437417 0.011358226 -0.04231474 -0.04619208 0.06926645 -0.08067318 0.00467128
0.010436499 0.009497614 0.010275323 -0.020756485 -0.014230708 0.005423552 0.033538897 -0.0013639425
-0.010590367 0.042414445 -0.032261483 0.01209614 0.042580366 -0.026683697 -0.012040866 -0.020005543
-0.021351902 0.03919658 -0.01778475 -0.04533758 0.05391509 0.019682428 0.035370145 0.04184636
0.023696186 -0.0006651994 0.050597772 -0.06448002 -0.023546372 -0.0050543165 -0.009574824 0.0027781269
-0.028044665 -0.0045201937 -0.017883582 0.0061089913 -0.046226762 -0.0034061947 -0.022485085 0.03125207
0.075093605 0.08930045 0.041945923 0.027198082 0.0039478997 0.055138465 0.052138057 0.016034842
0.030893296 -0.021467885 0.0017067189 0.020746581 0.014375603 -0.06009639 0.0033972566 -0.02214529
0.028684681 0.019745974 -0.019146677 -0.0001361542 0.07216765 -0.04249195 0.02672923 -0.011918171
-0.05482009 0.0127187045 0.08329721 0.010666473 -0.057333484 -0.06854861 -0.031831738 -0.016640315
0.062381882 0.01871287 0.002423994 -0.03596126 -0.05912356 0.004895131 0.050639294 0.0335385
0.0066341404 0.02108501 0.010526412 -0.035866007 0.102392964 0.0014692007 -0.040685274 0.040137667
-0.029208256 0.034067396 0.038302287 0.012502021 -0.009668718 -0.025261912 -0.01068333 -0.018842142
-0.048178174 0.0033930491 0.05602718 0.022932513 -0.00642313 -0.05534751 -0.03639998 -0.030388687
0.037551373 0.02022985 -0.027160227 0.01405893 -0.009087026 -0.013136328 0.029036948 -0.008528503
0.015720433 -0.013167689 -0.0035152254 -0.029540626 0.04689665 0.029493066 -0.00035054015 0.0013797451
-0.002096506 -0.017376104 0.045099456 -0.023184877 -0.0038049787 0.017442025 -0.035727244 -0.035011668
-0.002254721 0.06954267 0.0009921398 -0.027836945 -0.005255241 -0.015806943 -0.0030966166 -0.07091637
0.012037295 -0.08878786 0.011875329 -0.008308195 0.0038001894 0.01933159 -0.0011515094 0.018068282
0.021209968 0.06564992 -0.01323631 -0.05265399 -0.017825937 -0.024937902 -0.07407415 0.022729715
0.014690186 0.004587296 -0.0033700357 -0.107153796 0.048529323 0.037735004 -0.018236022 0.022306219
-0.01256312 -0.01990615 -0.011787524 -0.035394415 -0.038543653 0.050803676 0.008033675 -0.0004213661
-0.036970593 -0.019851316 0.07472274 -0.00023924049 0.0023508728 -0.03387261 -0.018489067 0.023297567
0.013722114 -0.029493256 0.007512154 -0.01499971 -0.0077288197 0.040090974 -0.010006532 -0.09680982
-0.063701 0.034571648 -0.017303916 -0.009386431 0.010187552 0.041230395 -0.014142403 0.04493515
0.03412356 0.008370555 -0.025490789 0.020877162 -0.018173732 -0.06330773 0.015082961 0.021554282
0.04137914 -0.056508467 0.003914501 0.0142803565 -0.02290534 0.013000195 0.01724277 -0.0060453597
0.05723926 -0.06671804 0.050305698 -0.010813672 0.0014898466 0.071008116 0.010695401 0.0123586245
0.027594354 0.052222624 0.049764253 -0.025558885 0.024871439 0.037990615 0.034035582 0.015808782
-0.024388151 0.03521474 -0.015241658 0.027233835 0.042678513 0.01131621 0.05589512 0.008550234

svc_W2_svc f4 [512, 1]
00000000: 946c 653b a39c 00bc e710 ccbb 868e cfbc
00000010: 1899 18bd 9d7b 2f3d 92c7 9c3b bc34 053d
00000020: 0e1c 38bd 7c0c 0abc ed4f 20bd 3a28 3f3d
00000030: affc 223d b031 f13b d218 09bd 6ac9 1ebc
00000040: b1da f6bc aabc 5b3c 5699 8d3c ab03 b2bc
00000050: 0597 e1bc 0433 863d 985f 96bd d9b0 afbb
00000060: 9fc1 d93b b529 b23c bf24 453c d8d3 d2bb
00000070: 3e51 2fbc 7b40 5a3c 9d2b 1a3d 78c4 0bbb
00000080: 7da7 49ba 7873 213d 5872 88bc 8846 033c
00000090: dc27 1e3d ce2e 8bbc 758d 6e3b de0e 2fbc
000000a0: b844 d0bb c0d1 053d f886 ae3b be00 7dbc
000000b0: 9edf c33c fe0a 973c 039d 123d a32f d33c
000000c0: da0b aa3c c662 2abb fa9f 633d e72f 59bd
000000d0: ccfe c9bc 6e3a 133b b2e7 4cba f6ae 03bc
000000e0: 5e67 b2bc 4205 bdbb 3cbe 0cbc cda2 973b
000000f0: 77f3 01bd 4a8e 04bb b493 7cbc c21a 083d
00000100: 2fee 803d b59d a13d 5d1f 163d 2940 5b3c
00000110: a5a5 0a3c fdb4 083d 6bbb 0f3d 09cf ce3c
00000120: 3bb5 643c 00a3 13bc 2751 193b 75a3 e83c
00000130: 3542 533c 66c3 7dbd 71d4 663b 59f1 d8bc
00000140: edf1 df3c acdb 633c 91ad c9bb b137 aa3c
00000150: 723a 703d fb4d 09bd d310 e03c bfbb 0bbb
00000160: 9164 5fbd e08a 453c 577a 853d d700 d03c
00000170: f390 4fbd e2ba 91bd 33ff 0bbd a8b6 bfbc
00000180: 3c48 693d d202 b83c 9db6 dc3a edf8 39bd
00000190: df8c 78bd 73d6 6eba c0c2 253d 58e4 1c3d
000001a0: ed24 08bb a5aa dc3c 23a4 b63b c311 28bd
000001b0: 4c6e a83d 4543 8abc 5c20 03bd 9374 2b3d
000001c0: ce8f dbbc e037 023d 823d 173d 736a 073c
000001d0: 3107 cabc 360f 52bc 733e 51bc 784c 88bc
000001e0: 216b 2cbd 6b5e 6dbb 1754 5b3d c50b c83c
000001f0: 0678 3abc 54c3 37bd 5341 0ebd 4b04 56bd
00000200: 6b02 113d 2878 063c 9587 d4bc 846b c83b
00000210: 662f 94bc fc4a 50bc df0d 193d 927d 5dbc
00000220: b0c8 5a3c 3c7c a5bc d2e4 153c 22c5 60bc
00000230: a4db da3c 6f5e b33c 4bd7 fbbb 029e 31bc
00000240: 3bd9 833b 59b0 2abc c599 133d ba9a d0bc
00000250: db74 89bb a3b1 d43c 572c f6bc 8f27 bebc
00000260: c7f5 1d3c dda0 633d dfd2 753b d28c 81bc
00000270: 7e0c 00bc cb4b 7ebc 7922 0fbc b5b4 81bd
00000280: 4868 6a3c 932e 98bd 804f 833c 44e0 65bc
00000290: fe9b afbb ef2d 433c 6e4c f33a 3503 df3b
000002a0: a71f 6f3c d8d0 693d eb30 30ba 3fb4 65bd
000002b0: 50f7 a5bc 4906 84bc 8e4f 65bd 203c 413c
000002c0: cc22 663c 08d0 dd3b a82f e43b 89cd dcbd
000002d0: 7e66 4c3d 0b63 233d 320a b6bb b1a7 c53c
000002e0: ab7d 6ab9 e0f8 64bc 47ae 0dbc 3b8a 14bd
000002f0: d637 06bd 4a62 433d 4347 02bc 911c ec39
00000300: 02b5 fdbc c890 81bc be03 493d a6f3 bcbc
00000310: a724 413b b379 7bbc 1ebc d6bc d15c f43c
00000320: 3f2b 7c3c c702 89bc 85ff 203c a177 8abc
00000330: 1e07 c339 3671 213d c550 d2bb 737c a2bd
00000340: 6339 3dbd 8428 3f3c 4f14 17bb 7367 2abc
00000350: 6be4 deb9 3c7f fa3c 5a3f 7fbc bcc5 f53c
00000360: e4eb fe3c a35e 203c 1ec4 dbbc 6ed1 423b
00000370: 8afe bcbc 8f71 02bd 6867 483c bc5c b13c
00000380: 36bb 2a3d 309f 47bd c648 203c 18c1 b13c
00000390: 084e 96bb 93a8 a03c 5be1 b23b 29c5 d4bb
000003a0: e6e3 423d 8abb 63bd 6a9e 2a3d 1f5d 9ebb
000003b0: 15df 283c 08b5 7e3d 3399 8f3c af22 423c
000003c0: 95d8 b53c 58a8 3f3d f109 263d b37c 0cbd
000003d0: c782 683c 3ca2 0a3d 918d 193d 2473 423c
000003e0: de39 91bc acff e23c 0f36 a6bb e252 843c
000003f0: d6e8 103d d4d9 e43b ea12 723d 3de2 d83b
0.0035007345 -0.007849845 -0.006227601 -0.025336515 -0.037255377 0.042842496 0.004784533 0.032520995
-0.04494863 -0.008425828 -0.039138723 0.046669222 0.03979176 0.0073606595 -0.033470936 -0.009691576
-0.030133577 0.01341168 0.01728503 -0.021730265 -0.027537832 0.06552699 -0.07342452 -0.005361658
0.006645396 0.021748403 0.012032687 -0.006433945 -0.010700522 0.013321037 0.03763925 -0.0021326821
-0.0007692499 0.03941676 -0.016656086 0.008012421 0.03861223 -0.016990092 0.0036400233 -0.010684697
-0.006355848 0.032670736 0.005326148 -0.0154420715 0.02391034 0.018437859 0.03579427 0.02577955
0.020757604 -0.0025998815 0.055572487 -0.0530242 -0.02465763 0.0022465247 -0.0007816508 -0.008037319
-0.021777805 -0.005768449 -0.008590277 0.0046275617 -0.031726327 -0.0020226412 -0.015416075 0.033228643
0.0629543 0.07891408 0.036651004 0.013381996 0.008462344 0.03337573 0.035090845 0.025245206
0.013959224 -0.00901103 0.0023394318 0.028398255 0.012894203 -0.061953925 0.003522184 -0.026482271
0.027337039 0.013907354 -0.006154724 0.020778509 0.058649488 -0.033521634 0.027351772 -0.0021321622
-0.054539267 0.012057036 0.06517475 0.025391025 -0.050675344 -0.07115723 -0.034178924 -0.023402527
0.056953654 0.022462282 0.0016839091 -0.04540341 -0.06068122 -0.0009110935 0.04046893 0.038303703
-0.0020773963 0.026936838 0.005573766 -0.041032564 0.082241625 -0.01687778 -0.032013282 0.04185922
-0.02680197 0.031791568 0.036923893 0.008265126 -0.024661632 -0.012821009 -0.012771237 -0.016638026
-0.042094354 -0.0036219608 0.05354699 0.024419675 -0.011381155 -0.044864014 -0.034730267 -0.052250188
0.035402697 0.008207358 -0.025943557 0.0061163325 -0.018089008 -0.01271319 0.037366744 -0.013518708
0.013353512 -0.020200841 0.009148793 -0.013718875 0.026716061 0.021895615 -0.007685577 -0.010840895
0.0040236986 -0.010418021 0.036035318 -0.025464404 -0.0041948385 0.02596361 -0.03005044 -0.023212222
0.009641117 0.055573333 0.0037509722 -0.015814219 -0.007815478 -0.015521 -0.008736246 -0.06333295
0.014307089 -0.07430758 0.01602912 -0.01403052 -0.005359172 0.011912807 0.0018562207 0.006805802
0.014594949 0.057083935 -0.00067211565 -0.0560801 -0.02025953 -0.016116278 -0.055984072 0.01179412
0.014046382 0.006769184 0.006963689 -0.1078139 0.04990243 0.039889377 -0.0055554146 0.024127813
-0.00022362794 -0.013975352 -0.008647508 -0.03626464 -0.032768093 0.047701158 -0.00795156 0.0004503471
-0.0309701 -0.015816107 0.049075834 -0.0230654 0.002947131 -0.01534884 -0.026212748 0.029829415
0.01539117 -0.016724957 0.009826546 -0.016902747 0.000371986 0.039414607 -0.00641832 -0.07933893
-0.046197306 0.0116673745 -0.0023052876 -0.010400641 -0.00042513324 0.030578248 -0.015579069 0.030001514
0.03111834 0.009788188 -0.026826914 0.002972688 -0.023070592 -0.03184658 0.012231685 0.021650665
0.041682445 -0.048735797 0.009782976 0.02169852 -0.004586939 0.019611632 0.0054589934 -0.00649323
0.047580622 -0.055598773 0.04165498 -0.0048328782 0.010307093 0.062184364 0.017529106 0.0118490895
0.022198 0.046791404 0.040536825 -0.03429861 0.014191336 0.033846125 0.037488524 0.011868272
-0.017727789 0.027709804 -0.0050723623 0.016152803 0.0353783 0.006983975 0.05910007 0.0066187666

fs_lr_fs_lr_W f4 [137, 1]
00000000: 036c 84bd 61f7 00be 2e00 1f3e f17c a33d
00000010: 0422 45be f3bd 1ebe b86e ff3d 7066 b03b
00000020: 91c1 01be 1daa 8b3d 7c21 a7bd 94c6 8a3e
00000030: 5802 983d 6906 56be 7d59 573d d666 84bc
00000040: 9003 8c3e 1c9d 603d 09a6 0e3d 3875 0dbe
00000050: 8a94 a33e 294b 97bd 6093 6a3e 8af3 8dbe
00000060: d68c 353e 2557 c33e f50f e5bd 96ca 393c
00000070: 29c7 213d 78d0 20bd 83be c03d f6f4 ac3d
00000080: 2d95 1bbe 5509 05be 6cd0 0f3e 9a55 debc
00000090: 0817 663e 44ea 8abc 41c3 97be 14b1 97bd
000000a0: 5844 5b3d f370 2cbd 2815 623e 6a48 b23c
000000b0: 4a0a bcbd 48d9 953e a42c 30be d17c 09be
000000c0: 4eab 37bd 69d2 aabe 028c 5dbe 0d3f 843c
000000d0: 9097 70be 0188 8cbe 2d77 52be 6ffa f13d
000000e0: 2838 b53d deb6 8e3e cdb9 a7bc fcd8 133d
000000f0: 5a12 6fbc 1931 5f3d 9fbf 283d 899c c83d
00000100: e3b4 703e 5a70 e73d 4b83 ae3d 431f 88bb
00000110: f29c 9fbe ce2a e7bc 81b5 823c 1a6d c43d
00000120: 42cd 31bc fc03 c4bd 57c9 763e 4bb4 853d
00000130: c568 fe3d 1ffe f2bd 0912 003e dec2 88bd
00000140: 1fab 083e 0828 28be df3b a53d d0ba 613e
00000150: 6288 98be 1f13 bf3c 7cee 69be 549f d43c
00000160: 9b12 113d 99d9 163e 8600 c7bc 67cc 5abc
00000170: fadb 023e 832c f63e 6a8f bc3c 1ede ddbd
00000180: ba32 cabd ce11 08be 1425 f6bd efdf 21be
00000190: 8f3d da3c 1e3a c13d 25b8 bbbc e6ed c73d
000001a0: 3bc5 31be b5ec bc3e 7d36 653c 605a 08bd
000001b0: 885b 96bd ce49 503e 17fb 57bd 9277 333d
000001c0: 465a f43c 161d dabd c9a7 3e3f 6f57 bfbb
000001d0: 0efe 45bc bd0c 6fbe e666 9dbd ea77 ab3c
000001e0: 3697 143d f03a 423e 4c47 38bd ec7e 8c3e
000001f0: 8446 283d c953 fdbd df10 5f3d 8d41 933c
00000200: 03aa 8b3d 601f 0c3d 22b3 40bc ff60 88be
00000210: 5ce9 4d3d bad1 113f d914 aebd b364 4b3d
00000220: 03fc a0be
-0.06465914 -0.12594368 0.15527412 0.07982815 -0.19251257 -0.15502147 0.1247229 0.0053833053
-0.12671496 0.06819556 -0.081606835 0.27104628 0.07422322 -0.20900883 0.052575577 -0.016162317
0.27346468 0.05483733 0.034826312 -0.13814247 0.31949264 -0.073873825 0.22907782 -0.27724868
0.17729506 0.38152424 -0.11184684 0.011339804 0.039496575 -0.03926131 0.09411337 0.0844516
-0.15193625 -0.12991841 0.1404435 -0.027140427 0.22469723 -0.01695741 -0.29641154 -0.07406822
0.053531975 -0.042099904 0.22078383 0.021763045 -0.0918165 0.29267335 -0.17204529 -0.1342652
-0.044841103 -0.33363655 -0.2163544 0.016143346 -0.23495317 -0.27447513 -0.20553274 0.118153445
0.088486016 0.27873892 -0.020474339 0.036095604 -0.014591778 0.054490183 0.04119837 0.09795482
0.23506503 0.11300726 0.08521136 -0.0041541173 -0.31174427 -0.028218653 0.015955688 0.09591122
-0.01085216 -0.095710725 0.24100243 0.06528529 0.12422327 -0.11864876 0.1250688 -0.06677793
0.13346528 -0.1642152 0.0806806 0.2204392 -0.29791552 0.023324547 -0.22844881 0.02595488
0.035418134 0.14731444 -0.024292242 -0.013354397 0.12779227 0.48080835 0.023017604 -0.10833381
-0.098729566 -0.13288042 -0.12018791 -0.1580808 0.026640682 0.09434913 -0.022914955 0.097621724
-0.17360394 0.36899343 0.013990042 -0.033289313 -0.07341677 0.20340654 -0.052729692 0.043815203
0.029828202 -0.10650079 0.7447477 -0.0058392803 -0.012084497 -0.23344703 -0.07685642 0.020931203
0.03627702 0.18967795 -0.04498987 0.27440584 0.041082874 -0.123694964 0.05445945 0.017975593
0.068195365 0.03420961 -0.011761459 -0.26636502 0.050271377 0.5696064 -0.0850007 0.04965658
-0.3144227

fs_svc_W2_fs_svc f4 [137, 1]
00000000: 15bd bcbc 1a7c 55bd c13a a43d a830 34bc
00000010: beef 47bd 45a2 43bd 5233 073d 31c4 dabc
00000020: 667f 0d3c 2456 d63c 5301 06bd f601 9e3d
00000030: 242c d53c e689 9cbd 56ca 763c 5303 bdbb
00000040: 4d71 933d c96d f03c a305 843c dec0 e6bc
00000050: 2c56 943d 5a0e 2cbd dae5 a83d 67a0 afbd
00000060: c445 493d f08d f13d ce5c 6ebc c493 d33c
00000070: 5d50 0abc 3822 97bb 6dba 1ebc c8c8 7a3c
00000080: 36e1 3bbd a49b 40bb c905 983d 8e97 ffbc
00000090: 2c42 9e3d b22c 91bc 51a4 bfbd 2115 d1bc
000000a0: 341f 4a3c 0a0a b2bc 7b79 823d 918e 953c
000000b0: 2a6d 4ebd 6ff4 8a3d a1df 8ebc f56f 23bd
000000c0: 40f9 a2bc 7d63 dcbd a0fd 3fbd f165 02bb
000000d0: f763 4dbd f612 a8bd 9292 81bd 93d9 113c
000000e0: 2db5 de3b b3a5 833d 02b9 95ba 6201 cb3c
000000f0: 4ed3 733c 0c9f 33bb 9a2d ac3c d112 773c
00000100: f46e 883d d7b1 f03c f8d1 db3c 5232 993c
00000110: 9d35 b8bd f80e babb 83d2 2fbb fc31 263d
00000120: 5112 f13c 6981 44bb 1fc3 633d e4c3 003c
00000130: 44b4 d83c a464 9dbd 398f 143d 1e9f aabc
00000140: 6c79 263d 3129 76bd da81 d33c 9742 a13d
00000150: 8411 98bd 2189 e13b 2885 33bd 5f53 ad3c
00000160: 8bcc 85b9 ed61 4b3d 4f9c 1ebd 7eda 9f3c
00000170: c612 143d cb01 e03d 566e 1abc 091b 2bbd
00000180: 3061 9b3b 29b3 65bd 90ef 3bbd 4c6a 2bbd
00000190: 4ba8 81bc 4961 d23c 1697 52bc 0ac3 073c
000001a0: da0d 86bd 2ae2 bf3d cae5 6dbc 06ae 33bc
000001b0: 94d9 f4bb c72a 3b3d baae 10bd a460 223c
000001c0: ca0f 353c e444 0bbc f0f4 553e 34fb d0bc
000001d0: 16be d53b 4379 debc 86d7 d2bc e8ea 94ba
000001e0: 298c 83bc 3943 833d 628b adbc 0f18 c53d
000001f0: 08fb 913c 057e 64bd bbc3 c13c ce1c 573c
00000200: 0db4 c93c db92 593c 707f 553c 1464 6cbd
00000210: 9ad4 023d 77e1 423e 06f1 02bd 3963 083d
00000220: d442 e2bd
-0.02303938 -0.052120306 0.08019019 -0.010997929 -0.04881262 -0.047762174 0.033007927 -0.02670488
0.008636331 0.026164122 -0.032716107 0.07715218 0.026022024 -0.076434895 0.015062889 -0.0057682185
0.07199345 0.029349225 0.016115969 -0.028168138 0.072429985 -0.042005874 0.08246966 -0.08575516
0.0491388 0.117946506 -0.014548494 0.025827296 -0.008442012 -0.0046122335 -0.009688002 0.015306659
-0.045869075 -0.0029389644 0.074229784 -0.031200197 0.07727465 -0.017721508 -0.09357513 -0.02552277
0.012336541 -0.021733303 0.06370827 0.018256458 -0.050397076 0.06784903 -0.017440619 -0.039901692
-0.019894242 -0.107611634 -0.046872735 -0.0019897188 -0.050144162 -0.082067415 -0.06326784 0.008901971
0.0067965 0.06428089 -0.0011422934 0.024780933 0.014881922 -0.0027408032 0.021017838 0.01508017
0.06661788 0.029381676 0.02683352 0.018700752 -0.08994601 -0.005678054 -0.0026828356 0.040575013
0.02942768 -0.002998436 0.055606004 0.007859204 0.026453145 -0.07685211 0.0362694 -0.020827826
0.04064314 -0.060097877 0.025818754 0.07874029 -0.07425216 0.006882802 -0.04382816 0.021157918
-0.00025520133 0.049653936 -0.038723286 0.019513365 0.036150716 0.10937842 -0.00942572 -0.04177383
0.0047418103 -0.056079064 -0.04588276 -0.04184942 -0.015827319 0.025681155 -0.0128534045 0.008286247
-0.06545611 0.09369309 -0.014520118 -0.010966783 -0.0074722264 0.045695093 -0.035322882 0.009910736
0.011051128 -0.0085003115 0.20894217 -0.025510408 0.006522904 -0.027157431 -0.025737535 -0.0011361511
-0.016058045 0.06409306 -0.021184627 0.096237294 0.017819896 -0.055784244 0.023652902 0.013129426
0.024621988 0.013279642 0.013030872 -0.05771263 0.031941034 0.1903132 -0.03196814 0.03329775
-0.11047903

mfs_lr_mfs_lr_W f4 [111, 1]
00000000: 40d9 e0bd 3157 d1bd cef5 d13d c325 dabd
00000010: b211 1c3e 5e79 253d 9add bc3b 5885 e4bc
00000020: 48d4 9bbd 9bb0 a0bd cadf f5bd 00da af3c
00000030: 8e28 d4bd dec3 053e 6965 c33d ab7d 00be
00000040: 9ce7 93bc 19f4 473e c505 eebd 14db ef3d
00000050: 0359 043d 2046 9fbd a9cc 90bd 11de 04bb
00000060: 38ba a2bd 4afd 063d 774f 57bd 6670 47bc
00000070: a568 45bd 3693 53bc 5f75 2dbe c0f0 55be
00000080: ab28 8e3d d774 dcbc 7a97 95bd 7774 1fbd
00000090: 7317 54be cb5c 753d 057a 5ebd 7d0f 473e
000000a0: 3363 d4b9 1d0b 61be b873 00be f420 16be
000000b0: 6c68 7b3d e03c 45bd 42f5 da3d c0ba 803d
000000c0: ac4f 0abd 4941 1bbd 4131 213d af45 edbd
000000d0: e24a b9bc ee20 9c3d c235 cabd c090 aa3d
000000e0: e103 543c f224 263e fdfd cb3d 1f7c 9fbd
000000f0: 5890 91bd 0adf df3d 98c3 283e 6bd1 893b
00000100: 60ae 593d b2eb ea3c b4dd 0f3e cb5a 813c
00000110: 1a65 423d 9607 d13b fb3a e63c 7560 f03c
00000120: 6ec1 d1bd efee c7bd 9178 52bd de8b cabc
00000130: 3fc6 e7bc 9567 3b3d 3319 9fbd 0d18 fdbb
00000140: 59eb 3c3e 072f 1cbe 8f3c 433d c469 803d
00000150: cfd3 d1bd 18c3 3ebd 9679 3bbd 33c7 cb3e
00000160: 77ed 1a3d 3987 62bb bb9c 403e 98d2 ff3c
00000170: 725b b4bd 43b5 0b3e f657 d0bc f2d6 b93d
00000180: ef13 0d3d 9db5 09be 4315 973d d60f b43d
00000190: 8a89 9b3c d38b 58bd 7377 ac3c d580 b53d
000001a0: f99d 5dbe 3339 34bd 4489 61bd 7a3f 36bc
000001b0: 694b d9bd a350 aa3e 6450 e8bd
-0.10978937 -0.102217086 0.10251962 -0.10651734 0.15241125 0.040398948 0.0057637217 -0.027895615
-0.07608849 -0.07846185 -0.12005575 0.021466255 -0.10359298 0.13062999 0.09540827 -0.12547939
-0.018054776 0.1952671 -0.11622194 0.11711708 0.03231145 -0.07777047 -0.07070286 -0.0020273963
-0.07945675 0.0329564 -0.052566018 -0.012172794 -0.0481955 -0.012913516 -0.16939305 -0.2089262
0.069413505 -0.026911182 -0.073042825 -0.03892943 -0.2071207 0.059902947 -0.054315586 0.19439502
-0.000405097 -0.21976896 -0.12544143 -0.14661008 0.06137888 -0.048153758 0.106913105 0.0628562
-0.033767387 -0.037904058 0.039353613 -0.11585557 -0.022618715 0.07623468 -0.09873535 0.0832839
0.012940378 0.16225031 0.09960554 -0.07787346 -0.071076095 0.10931213 0.16480863 0.004205873
0.053144813 0.028676841 0.14049417 0.015790364 0.0474597 0.006379078 0.028104296 0.02934287
-0.10241972 -0.0976237 -0.051384512 -0.024724897 -0.028292773 0.04575308 -0.07768478 -0.0077238143
0.18449153 -0.15252315 0.047665175 0.06270173 -0.102454774 -0.046572775 -0.04577025 0.39800414
0.03782412 -0.0034565462 0.18809788 0.031228349 -0.08806504 0.13643365 -0.025432568 0.09074201
0.03444284 -0.13448186 0.07377102 0.08792083 0.018986482 -0.05286772 0.021053052 0.088624634
-0.21642293 -0.043999862 -0.055062547 -0.011123532 -0.106100865 0.33264646 -0.11343458

mfs_svc_W2_mfs_svc f4 [111, 1]
00000000: dd1b 15bd 3f2d 69bd 0681 763d 76c3 63bd
00000010: f0df 8c3d 3ac5 a43c 0510 d93c f0f6 8fbc
00000020: f52a 6bbd f428 25bd d9c5 88bd c208 453c
00000030: 4ad9 3abd de2c 8f3d 288b 543d 119e 7dbd
00000040: 2a72 84bc 4cb4 c03d 67db 4abd 53c2 7b3d
00000050: b49b 983c 61da abbc ceac 1fbd e511 413c
00000060: 0faa 02bd 9008 b23c 7e17 13bd 593a ee3b
00000070: a356 29bd 4f08 903c b851 91bd 4081 c6bd
00000080: ffc9 1f3d 91ef 7ebc 8bde 19bd 2e04 c8bb
00000090: 05c7 a4bd ffb2 213d 7f2e a9bc a51a a23d
000000a0: 2597 af3c 02ef e0bd ef1d 5dbd e9b4 81bd
000000b0: 8442 0e3d ce6e eabc 3219 3e3d c220 143d
000000c0: 5931 c8bc 89fe abbb 8bef 0a3d 45e0 8abd
000000d0: 04cd f8bc 79f7 253d 01ab 2ebd ac8a 6c3d
000000e0: fe2c ab3c b254 a53d a4ba 433d 68dd 5cbd
000000f0: ece6 0abd 9201 7b3d 2cb1 a13d 4ae5 e2bb
00000100: 523a 0e3d 66fb 843c afe6 8b3d 65a6 cd3c
00000110: cd5d 0a3d 767a 853b e7db 843c ad5a cf3a
00000120: 0acf 58bd 0140 65bd 4de9 bdbc 3206 ecbc
00000130: 9d56 17bc 130a be3c 62f4 11bd 8925 85bc
00000140: 32bd aa3d b17f 8cbd d2e8 123d 5260 093d
00000150: fb3b 48bd a99e d2bc 5648 aebc 1533 2f3e
00000160: 1d85 bd3c 2566 5a3b f952 be3d d14f 3f3c
00000170: 955a 48bd f241 903d 36e4 5dbc ed83 083d
00000180: 21dc 293c 50b7 8abd 301f 2e3d dce0 1d3d
00000190: 93fc 993c fe07 7fbc 0679 9e3b 39fb 2d3d
000001a0: fb6d a3bd 6014 81bc dfb7 e6bc 31d1 91bc
000001b0: 3fd0 1ebd 9e30 253e 4bd7 67bd
-0.036403526 -0.056927916 0.06018164 -0.055606328 0.0687865 0.020113576 0.026496897 -0.017573804
-0.057414014 -0.04032226 -0.066783614 0.012026014 -0.04561738 0.069909796 0.051890522 -0.061918322
-0.016167719 0.09409389 -0.049525645 0.06146462 0.018628933 -0.020978155 -0.03898316 0.011784052
-0.03190046 0.021732599 -0.035911076 0.007270139 -0.04134239 0.017582087 -0.07095665 -0.09692621
0.039010998 -0.015560047 -0.03756575 -0.006104014 -0.080457725 0.039477345 -0.020652054 0.07915238
0.021434376 -0.10983087 -0.053983625 -0.06333334 0.034731403 -0.028617289 0.046410747 0.036164053
-0.024437593 -0.005248849 0.033919852 -0.06781057 -0.030371197 0.04051921 -0.04264355 0.057749435
0.020895477 0.08072795 0.047785416 -0.053922087 -0.03391163 0.061280794 0.07895121 -0.006924306
0.034723587 0.016233157 0.06831109 0.025103757 0.03378086 0.0040734364 0.016218139 0.001581987
-0.052931823 -0.055969242 -0.023182536 -0.028811548 -0.009236959 0.023198163 -0.035633452 -0.01625325
0.083368674 -0.06860293 0.035866566 0.033539124 -0.048885327 -0.02571042 -0.021274727 0.1710933
0.023134762 0.0033325043 0.092931695 0.011676745 -0.04891451 0.07043828 -0.013543179 0.03332894
0.010367424 -0.06773245 0.04251021 0.03854452 0.018797195 -0.01556587 0.0048362045 0.042475913
-0.079799615 -0.015756786 -0.028163848 -0.017799946 -0.038772818 0.16131827 -0.056601804

lv_lr_lv_lr_W f4 [23, 1]
00000000: 5dca b7bb 9837 c03c 484f 56bb d67b baba
00000010: 23a8 74bb 8db0 723c 84bf ab3b b312 d93b
00000020: e3a5 d53b 15cb 62bc 5aa7 8d3a 648d 55bc
00000030: c632 2dbc d669 1b3c e991 963c 2390 3fbc
00000040: 7aec 44bc 75b7 503c bb28 4f3c 60a6 5f3c
00000050: 4431 9fbb 0a6c 1cbb 04a9 54ba
-0.0056088404 0.02346401 -0.0032701064 -0.001422758 -0.0037331663 0.014812601 0.0052413363 0.0066245436
0.0065200194 -0.013842364 0.0010807321 -0.013034198 -0.010571187 0.0094856825 0.018380122 -0.01169208
-0.012019271 0.012739052 0.012643988 0.013650507 -0.004858168 -0.0023868107 -0.00081123435

lv_svc_W2_lv_svc f4 [23, 1]
00000000: fbb4 2abc 9859 ba3b fc93 9a3b f144 303b
00000010: 44d2 943b ef4f df3b 1cc7 e638 6cbe 873b
00000020: c1b7 c63b 1fc9 65bc 34b8 14bc beb6 a93b
00000030: 72e1 013a 69d0 e43b 2fb8 273b 9a32 adb9
00000040: fbac 3cbb 82c9 833a e44c 003c 66fe 4eba
00000050: 8103 8abb 85e1 d4b9 af1c c1ba
-0.010419126 0.00568695 0.004717348 0.002689656 0.004541667 0.0068149487 0.00011004342 0.004142573
0.0060643856 -0.014025002 -0.009077121 0.0051792553 0.00049545534 0.0069828522 0.002559196 -0.00033034832
-0.0028789628 0.0010054561 0.007830832 -0.00078961847 -0.0042118435 -0.00040603816 -0.001473328

lv_mlp_net.0.weight f4 [11, 23]
00000000: 5a60 39bd fb33 383e 1769 aebd 082f 43be
00000010: 4395 2e3d 4dd6 15be b9f7 453d 887e 2a3e
00000020: 121c 133e 4b9b 383d a07b b33d 4a32 cc3c
00000030: 9dd4 fdbd e884 6c3e b0f0 50be 2824 373d
00000040: 0ed5 55be 0a86 1a3e f1ff cebd f5f6 863d
00000050: a4e3 d73d 8e80 bcbd 8273 013c ddc6 0f3e
00000060: ca1c 9dbd 4f1a 273d f449 583e 9128 02be
00000070: 2270 8ebc a3f7 7f3c 44ed 183e 7301 e43d
00000080: b3d0 99bc e935 82bd b0cd 233d 22b8 153e
00000090: 5607 113d 390f 91bc 68d7 123e 2c57 38be
000000a0: b7db bd3d efb6 913d eb0f 823b 5dea a6bb
000000b0: ecd1 453e b4b6 163e 8ba0 84bc f620 a83d
000000c0: 979c ed3d 7640 41be c920 a53d 731b bb3d
000000d0: 3bc6 5dbb 1bab 60bd 8eaf 093e 07eb aebd
000000e0: 659e 7bbe 62c4 003e dcce 52be be5e 963d
000000f0: eab7 9fbc bd64 e63d a526 ae3c e825 a0bd
00000100: 9497 43be f537 bebd 6db2 00bd 01c1 673e
00000110: 44d5 afbd 3119 4a3e 416c f73d 51f5 26be
00000120: 932a f23d eaa3 cebd c8fa 57bd 9216 933d
00000130: e31f 9ebc 37ac 083e 90a4 f03d f1ba 4c3c
00000140: 0e9d 423e 0ac3 ebbd 76a7 503d 7b1f aa3d
00000150: c86e 13be 7d97 473d f6d6 c43d a208 023e
00000160: c9c1 08bd eb20 ab3d 07dd db3c bb46 6bbc
00000170: 23bc 01be b95f 1dbe 1512 01be 2434 18bd
00000180: 548f 163e a882 2a3d 6dc8 99bc 7cec 1bbe
00000190: f9fc ce3d ba26 92bd 5b70 6abd 3d9b 62be
000001a0: 148a 03be 336e 213e bc8e ecbd b312 debc
000001b0: 25ed 843d a409 a4bd 5494 8abc ac72 04be
000001c0: 682d e8bd d6d4 973c 8dfd 7cba d4b7 213e
000001d0: 868d 773e be24 2b3e e4f8 13bd 8257 ff3c
000001e0: 1a04 4a3b 6baf e13c 4004 0ebe 3949 033e
000001f0: 5ac3 36bd f4e2 26bd 0137 b6bd 9d35 a93d
00000200: 172a edbd 7d61 0e3d fed4 053e cd48 40be
00000210: 83aa 403e 738d 0ebe 4fa6 15bd 13ee 88bd
00000220: 6072 47bc 9c5e b03d b8c1 28be f7a8 293e
00000230: f8d7 1c3e 76fd 52bc fad1 2ebe 08ff f0bd
00000240: 7be0 0dbe 5c8c 9bbc 1ad3 32be 7ead 2ebe
00000250: d96d 823d 1231 81ba efb8 7dbd 38ea 37bd
00000260: 2034 b53d cf7b babc 5a2a a3bc f5a4 0a3e
00000270: f624 5b3d e5b4 823d 6048 213e 6cdf 253d
00000280: d53e 17be 78d8 303e 2123 9bbd 3dea b63d
00000290: bef9 1f3d 981b 11bd 48f4 623e ce92 9bbd
000002a0: 446f f8bd e8d9 b33c 60b3 63be 800e 96bc
000002b0: 335b e8bd 3ebd fa3c 89e3 6cbd abd9 e13d
000002c0: 6a9a 9cbd 406f 3fbe 2e5b bf3d e9d5 d4bc
000002d0: 11ce 973d 7604 0ebd 3b6b d1bd af00 3a3e
000002e0: 197f e0bd be33 3f3c a489 403e 3aa7 dbbd
000002f0: 69ef b0bd c82d 36be e4fa 70be d9d9 70be
00000300: 4eb0 77bd c2ff 05bd 413f 35be 7233 ff3d
00000310: b122 a93d 8251 f5bd 03ac 47be 4d44 663e
00000320: f33d 693e fe52 0c3e 2e3c d2bd 5772 5d3d
00000330: 24cb b2bc a55f 733d 4ea7 66bd 6a8f bfbc
00000340: f143 993b 9936 373e afdd 41bd fecf 5dbd
00000350: 3071 0f3d 66d6 643d 643a 333e cb3f ccbb
00000360: 2f94 10be c0e1 d93d 3975 9cbc d2fa 1ebe
00000370: ec39 bcbd c0ac fa3d 944d ccbc 0995 a73d
00000380: 8c97 323e 8cfd 023d cb35 dc3d 7fc7 3fbd
00000390: 8a78 b2bc c00b 8bbd 2dbb f13d 7ff2 9a3a
000003a0: f2b2 da3d dfd4 19be 800a c9bd cf73 783d
000003b0: 7442 d73d 6352 123e d1b4 7a3e 23e7 2cbe
000003c0: c0b4 783e 1dcb 30be e129 60be 95f4 f6bd
000003d0: 0d6f 5a3e 43f2 57be 29b8 82bd 9a59 98bd
000003e0: b3ed 4b3d f66f c4bd c0d2 553e 360b 30be
000003f0: 14ce eebd
-0.045257904 0.17988579 -0.08516138 -0.1906091 0.042622816 -0.1463253 0.04833195 0.1664983
0.14366177 0.045069974 0.08763814 0.024926323 -0.123940684 0.23097575 -0.20404315 0.044712216
-0.20882055 0.15090194 -0.10107411 0.06590072 0.10541466 -0.09204207 0.007901074 0.14040704
-0.07671507 0.040796574 0.21121961 -0.12710787 -0.017387453 0.015623006 0.1493426 0.11133089
-0.018776273 -0.06357939 0.03999108 0.14621022 0.035407387 -0.017707454 0.14339983 -0.18002003
0.09270423 0.0711497 0.0039691827 -0.0050938562 0.1931836 0.14718133 -0.016189834 0.08209412
0.11602133 -0.18872246 0.08062894 0.09136095 -0.0033840078 -0.05485068 0.13445875 -0.08540922
-0.24572141 0.12574914 -0.20586723 0.073422894 -0.019496877 0.11249683 0.021258662 -0.0781973
-0.19100791 -0.09288017 -0.03142016 0.22632219 -0.08585599 0.19736172 0.12081195 -0.16304518
0.11824527 -0.10089858 -0.052729398 0.07182039 -0.019302314 0.13346945 0.11750138 0.012495742
0.19005224 -0.1151181 0.050940953 0.08306786 -0.14397728 0.048728455 0.09611313 0.12698606
-0.033387933 0.08355888 0.026838792 -0.014360125 -0.12669425 -0.15368547 -0.12604554 -0.0371591
0.14703113 0.04162851 -0.018772328 -0.1522693 0.101068445 -0.07136293 -0.057236057 -0.22129531
-0.12845641 0.15764694 -0.11550662 -0.027108526 0.06490544 -0.08009651 -0.016916431 -0.12934369
-0.113367856 0.018534105 -0.0009650819 0.15792781 0.2417508 0.16713235 -0.036126032 0.031169657
0.0030825199 0.027549466 -0.13868809 0.12820901 -0.044619896 -0.040743783 -0.0889721 0.08262179
-0.115802936 0.03476094 0.13069531 -0.18777771 0.18815045 -0.13921146 -0.036535557 -0.06686034
-0.012173265 0.08611795 -0.16480148 0.16568361 0.1531676 -0.012877813 -0.17072287 -0.11767393
-0.13855164 -0.018987827 -0.17463341 -0.1705837 0.06368608 -0.0009856543 -0.061943945 -0.044901103
0.08847833 -0.022764115 -0.019917656 0.13539489 0.053502046 0.06382159 0.15750265 0.040496275
-0.14770062 0.17270076 -0.0757506 0.08931396 0.039056532 -0.035426706 0.22163498 -0.0759636
-0.12130597 0.021954492 -0.22236395 -0.018317461 -0.1134552 0.030607816 -0.057834182 0.11027845
-0.0764664 -0.18694782 0.09343563 -0.025980907 0.07412351 -0.034672223 -0.10225531 0.18164323
-0.10961742 0.011670051 0.18802506 -0.10725255 -0.08639414 -0.17790902 -0.23533207 -0.23520602
-0.06047087 -0.032714613 -0.1769991 0.12460984 0.0825857 -0.11978437 -0.19499211 0.22486992
0.22777538 0.13703534 -0.102653846 0.05406412 -0.02182538 0.059417386 -0.056311898 -0.023383815
0.0046772887 0.17891921 -0.047330555 -0.054153435 0.035020053 0.05586853 0.17502743 -0.0062331907
-0.14119028 0.106387615 -0.019098865 -0.15525368 -0.09190735 0.12239981 -0.024939336 0.08182723
0.17440623 0.031980082 0.10752448 -0.046821114 -0.021785993 -0.067893505 0.11803279 0.0011821537
0.10678662 -0.1502261 -0.09816456 0.06065732 0.10510722 0.1428924 0.24483038 -0.16885047
0.242877 -0.17264982 -0.21890976 -0.12058369 0.21331425 -0.2108851 -0.06382782 -0.07438965
0.049787235 -0.09591667 0.20881176 -0.17191777 -0.116604

lv_mlp_net.0.bias f4 [11]
00000000: c84c 2abe 9fc1 733c 4939 64bd 5aeb 113e
00000010: 0c4d 2dbd 877d 17be be1c 4bbe daeb 193e
00000020: 7226 2c3e 292f 41bd bc25 973d
-0.16630852 0.014877706 -0.055718694 0.14249936 -0.042309806 -0.14793979 -0.19835183 0.15031376
0.1681154 -0.047164116 0.07380244

lv_mlp_net.3.weight f4 [1, 11]
00000000: dfdb 293e 4f71 813e 757d 45bd 744d 493e
00000010: ac21 823d 6ef1 893d 0b87 043e 2ddf ec3c
00000020: 1d5f efbd e588 173e 4a00 b7bd
0.1658778 0.2528176 -0.04821535 0.19658452 0.06354079 0.06735502 0.1294214 0.028915012
-0.11688063 0.14798315 -0.08935602
