model/checkpoints/lepori2025_mtb/rdkit/model_000.onnx (onnx, 74536 bytes, 14 tensors)

lv_onnx::MatMul_4 f4 [193, 46]
00000000: 0000 0000 0000 0000 0000 0000 0000 0000
00000010: 0000 0000 0000 0000 0000 0000 0000 0000
00000020: 93af 0c3f 0000 0000 0000 0000 93af 0c3f
00000030: 0000 0000 0000 0000 0000 0000 0000 0000
00000040: 0000 0000 0000 0000 0000 0000 0000 0000
00000050: 0000 0000 0000 0000 0000 0000 93af 0c3f
00000060: 0000 0000 93af 0cbf 0000 0000 0000 0000
00000070: 93af 0cbf 0000 0000 0000 0000 0000 0000
00000080: 0000 0000 0000 0000 0000 0000 0000 0000
00000090: 0000 0000 0000 0000 0000 0000 0000 0000
000000a0: 0000 0000 0000 0000 0000 0000 0000 0000
000000b0: 0000 0000 0000 0000 0000 0000 0000 0000
000000c0: 0000 0000 93af 0cbf 0000 0000 0000 0000
000000d0: 0000 0000 0000 0000 0000 0000 0000 0000
000000e0: 0000 0000 0000 0000 0000 0000 0000 0000
000000f0: 0000 0000 0000 0000 0000 0000 0000 0000
00000100: 93af 0c3f 0000 0000 0000 0000 0000 0000
00000110: 0000 0000 0000 0000 0000 0000 0000 0000
00000120: 0000 0000 0000 0000 0000 0000 0000 0000
00000130: 0000 0000 0000 0000 0000 0000 0000 0000
00000140: 0000 0000 0000 0000 0000 0000 0000 0000
00000150: 0000 0000 0000 0000 0000 0000 0000 0000
00000160: 0000 0000 0000 0000 0000 0000 0000 0000
00000170: 0000 0000 0000 0000 0000 0000 0000 0000
00000180: 0000 0000 0000 0000 93af 0cbf 0000 0000
00000190: 0000 0000 0000 0000 0000 0000 0000 0000
000001a0: 0000 0000 0000 0000 0000 0000 0000 0000
000001b0: 93af 0cbf 0000 0000 0000 0000 0000 0000
000001c0: 0000 0000 0000 0000 0000 0000 0000 0000
000001d0: 0000 0000 0000 0000 0000 0000 0000 0000
000001e0: 0000 0000 0000 0000 0000 0000 0000 0000
000001f0: 0000 0000 0000 0000 0000 0000 0000 0000
00000200: 0000 0000 0000 0000 0000 0000 0000 0000
00000210: 0000 0000 0000 0000 0000 0000 0000 0000
00000220: 0000 0000 93af 0cbf 0000 0000 0000 0000
00000230: 0000 0000 0000 0000 0000 0000 0000 0000
00000240: 0000 0000 0000 0000 0000 0000 0000 0000
00000250: 0000 0000 0000 0000 0000 0000 0000 0000
00000260: 0000 0000 0000 0000 0000 0000 0000 0000
00000270: 0000 0000 0000 0000 0000 0000 0000 0000
00000280: 0000 0000 0000 0000 0000 0000 0000 0000
00000290: 0000 0000 0000 0000 0000 0000 0000 0000
000002a0: 0000 0000 93af 0c3f 0000 0000 0000 0000
000002b0: 93af 0c3f 93af 0cbf 0000 0000 0000 0000
000002c0: 0000 0000 0000 0000 0000 0000 0000 0000
000002d0: 93af 0cbf 0000 0000 0000 0000 93af 0cbf
000002e0: 0000 0000 93af 0c3f 0000 0000 0000 0000
000002f0: 0000 0000 0000 0000 0000 0000 0000 0000
00000300: 0000 0000 0000 0000 0000 0000 0000 0000
00000310: 0000 0000 0000 0000 0000 0000 0000 0000
00000320: 0000 0000 0000 0000 0000 0000 0000 0000
00000330: 0000 0000 0000 0000 0000 0000 0000 0000
00000340: 0000 0000 93af 0cbf 0000 0000 0000 0000
00000350: 0000 0000 0000 0000 93af 0cbf 0000 0000
00000360: 0000 0000 0000 0000 93af 0cbf 0000 0000
00000370: 0000 0000 0000 0000 0000 0000 0000 0000
00000380: 0000 0000 0000 0000 0000 0000 0000 0000
00000390: 0000 0000 0000 0000 0000 0000 0000 0000
000003a0: 0000 0000 0000 0000 0000 0000 0000 0000
000003b0: 0000 0000 0000 0000 0000 0000 0000 0000
000003c0: 0000 0000 0000 0000 0000 0000 0000 0000
000003d0: 0000 0000 0000 0000 0000 0000 0000 0000
000003e0: 0000 0000 0000 0000 0000 0000 0000 0000
000003f0: 0000 0000 0000 0000 93af 0cbf 0000 0000
0.0 0.0 0.0 0.0 0.0 0.0 0.0 0.0
0.54955405 0.0 0.0 0.54955405 0.0 0.0 0.0 0.0
0.0 0.0 0.0 0.0 0.0 0.0 0.0 0.54955405
0.0 -0.54955405 0.0 0.0 -0.54955405 0.0 0.0 0.0
0.0 0.0 0.0 0.0 0.0 0.0 0.0 0.0
0.0 0.0 0.0 0.0 0.0 0.0 0.0 0.0
0.0 -0.54955405 0.0 0.0 0.0 0.0 0.0 0.0
0.0 0.0 0.0 0.0 0.0 0.0 0.0 0.0
0.54955405 0.0 0.0 0.0 0.0 0.0 0.0 0.0
0.0 0.0 0.0 0.0 0.0 0.0 0.0 0.0
0.0 0.0 0.0 0.0 0.0 0.0 0.0 0.0
0.0 0.0 0.0 0.0 0.0 0.0 0.0 0.0
0.0 0.0 -0.54955405 0.0 0.0 0.0 0.0 0.0
0.0 0.0 0.0 0.0 -0.54955405 0.0 0.0 0.0
0.0 0.0 0.0 0.0 0.0 0.0 0.0 0.0
0.0 0.0 0.0 0.0 0.0 0.0 0.0 0.0
0.0 0.0 0.0 0.0 0.0 0.0 0.0 0.0
0.0 -0.54955405 0.0 0.0 0.0 0.0 0.0 0.0
0.0 0.0 0.0 0.0 0.0 0.0 0.0 0.0
0.0 0.0 0.0 0.0 0.0 0.0 0.0 0.0
0.0 0.0 0.0 0.0 0.0 0.0 0.0 0.0
0.0 0.54955405 0.0 0.0 0.54955405 -0.54955405 0.0 0.0
0.0 0.0 0.0 0.0 -0.54955405 0.0 0.0 -0.54955405
0.0 0.54955405 0.0 0.0 0.0 0.0 0.0 0.0
0.0 0.0 0.0 0.0 0.0 0.0 0.0 0.0
0.0 0.0 0.0 0.0 0.0 0.0 0.0 0.0
0.0 -0.54955405 0.0 0.0 0.0 0.0 -0.54955405 0.0
0.0 0.0 -0.54955405 0.0 0.0 0.0 0.0 0.0
0.0 0.0 0.0 0.0 0.0 0.0 0.0 0.0
0.0 0.0 0.0 0.0 0.0 0.0 0.0 0.0
0.0 0.0 0.0 0.0 0.0 0.0 0.0 0.0
0.0 0.0 0.0 0.0 0.0 0.0 -0.54955405 0.0

lr_lr_W f4 [193, 1]
00000000: 12ac 813d 2762 9c3e 6a50 04bc 6f56 85be
00000010: dc26 853e e8e7 0b3e bd11 f33d 8b1e 30be
00000020: 9333 4f3d bb26 ffbe 8ff9 1fbf afa6 703c
00000030: 6a5d 893d 858c 593d f3b1 e5bc 2709 bb3d
00000040: 6c24 563e d7b8 373e 7156 9d3e a07a 74be
00000050: 269d 84be 6a07 67bd 7e43 c73d 7734 92be
00000060: 63be bb3e 98ed bb3d a1eb 8d3e b9df 3fbe
00000070: 2f49 c4be d5ad f93d 396d 333e e30d f93d
00000080: 79a9 7fbd 4747 c4bd 81ad 74be e39f 5cbd
00000090: 060e 8b3e fbdb ddbe 45ac 703d 65b0 993c
000000a0: 3c3d 0cbe dbda e9bd 0ead 3a3e d50b 293d
000000b0: 7de9 ddbb f125 563d 471f 553e 82c1 c43e
000000c0: 471f 553e 12b4 91be 79e6 ccbd 0944 51bd
000000d0: f286 be3e e2eb 1cbf 4aed 303c 2588 013e
000000e0: 1b8e c5bd 2cd3 363d 37c6 75bd 1ca6 a5bd
000000f0: 9697 393e b89d 883d d259 1e3d 2412 83be
00000100: 105d fd3d 445e 11be 9ec0 8ebe 130f a8bd
00000110: b97f 533d d3bc 403e 83e0 9dbc 4626 703e
00000120: ab38 873e cb12 89bd bee5 e2be 86d3 babe
00000130: d039 973e 03fb 023e 0ad9 ab3d e1d4 9f3e
00000140: 0cce bbbd 7c10 e93e 6410 60bd 47b5 e8be
00000150: c4bb a83e bda4 84be 39a4 a63e 7b9c c43d
00000160: add9 b9bd b3f0 96be 14c0 d3bb e1aa 373d
00000170: 8f74 913e ad95 4c3d e59a 9abd bb22 79be
00000180: f3b9 37be e747 b73d 4163 3b3e 31ff ec3e
00000190: a3e8 af3d eb67 9f3e 1dce 03be f641 4ebc
000001a0: e36b 32bd d4e5 963e c74a eabe 5efb e8bc
000001b0: f18e 303e 64cd 013d efa0 aa3e 44e8 95bd
000001c0: d12f 4cbd fe15 59bd 1446 b8bd 9d07 c03e
000001d0: f66a a2bd 2004 4dbe cc81 1c3e bef4 e4be
000001e0: 1dc5 5d3e 0aff 943e 4681 c8bd 8e31 173f
000001f0: 2e86 663e 63c9 50be 9ce5 6abe 0b90 12bf
00000200: e84a fa3e 5807 06bf 4e28 963d 7fc9 dd3d
00000210: 5fa3 83be 1ccb 253b 4fed 203e 0aae d2be
00000220: 0aae d2be 4f04 783d f274 613e 3ad5 21be
00000230: f2e2 b9bd ea5e 963e 7ee0 4ebc 6bde d4be
00000240: a739 11bd 13d2 5dbe b2b2 773e 1ccb 253b
00000250: 99e5 ad3d 85db 9a3e 7bdb 123f 8d41 f03d
00000260: d259 1e3d f2e2 b9bd 74aa a33e 43af 8d3d
00000270: 477f 09be 2412 83be 7d7c c63e dd36 7abe
00000280: 0088 2d3e d3b9 84bf 3180 5cbe 5986 b03d
00000290: 3016 21be 6b24 46be f68e de3d 4d7e b43d
000002a0: dbb0 0abe d8d6 37be 5ed1 703e 66f7 a63c
000002b0: 620d 983d 9c99 723e 53ec 193e ba85 df3e
000002c0: c0f4 453e 10f8 64be fc08 113e fc08 113e
000002d0: 490f 9fbd c3cb 3c3e 580c 9a3e f7e4 56bd
000002e0: 870a c03d aa89 f1bd 9f5a 28be a8ac 1dbe
000002f0: 50ec 003e 41d9 28bd 94d7 193e aa34 01be
00000300: acca 433f
0.06331648 0.30543634 -0.008075813 -0.26042506 0.2600621 0.13662684 0.11868618 -0.17199151
0.050586294 -0.49834237 -0.6249017 0.014688178 0.067072704 0.053112525 -0.028038954 0.09132605
0.20912331 0.17941605 0.30730012 -0.23874903 -0.25901145 -0.056403555 0.0972967 -0.28555652
0.3666869 0.09176177 0.27718833 -0.18737687 -0.38337085 0.12191359 0.17522134 0.12160852
-0.06241748 -0.095839076 -0.23894311 -0.053863417 0.27159137 -0.43331894 0.05875804 0.01876087
-0.13695234 -0.114186965 0.18230078 0.04127105 -0.0067722187 0.052282277 0.20812713 0.38428885
0.20812713 -0.28457695 -0.10004897 -0.051090274 0.3721233 -0.6129743 0.010798762 0.12649591
-0.09646245 0.044634983 -0.060003486 -0.080883235 0.18124232 0.066707075 0.038659878 -0.25599778
0.12371266 -0.14196116 -0.2788133 -0.08206 0.051635478 0.1882203 -0.019272095 0.234521
0.26410422 -0.066930376 -0.44315904 -0.36489505 0.29536295 0.12791066 0.08391006 0.312171
-0.0917016 0.4552039 -0.05470313 -0.45450804 0.32955754 -0.25906935 0.32547167 0.09600159
-0.090747215 -0.29480514 -0.0064621065 0.044840697 0.2840924 0.04994743 -0.07549075 -0.24329655
-0.17942028 0.08949261 0.18299581 0.46288446 0.08589294 0.3113397 -0.12871595 -0.0125889685
-0.04355992 0.2947222 -0.45760176 -0.028440174 0.17242028 0.031690016 0.33325908 -0.07319692
-0.04985029 -0.05299949 -0.08997741 0.37505808 -0.079305574 -0.20021105 0.15283889 -0.44717973
0.21657224 0.2910083 -0.09790282 0.5905999 0.22512123 -0.20389323 -0.22939152 -0.5725104
0.48885274 -0.52354956 0.07331906 0.10829448 -0.2571058 0.0025298065 0.15715526 -0.41148406
-0.41148406 0.060550984 0.22017267 -0.15803996 -0.090764895 0.2936929 -0.012626765 -0.4157594
-0.035455372 -0.21662168 0.2418926 0.0025298065 0.08491058 0.30245605 0.5736615 0.11731253
0.038659878 -0.090764895 0.31965983 0.06918194 -0.13427459 -0.25599778 0.38766852 -0.24434991
0.16946411 -1.0369209 -0.21533276 0.08619375 -0.1573112 -0.1934983 0.108671114 0.088131525
-0.13544028 -0.1795305 0.23517367 0.02038164 0.074244276 0.2369141 0.15031557 0.43656713
0.19331646 -0.22360253 0.14163584 0.14163584 -0.07766587 0.18437104 0.30087543 -0.05246445
0.09377008 -0.117938355 -0.16440819 -0.15397894 0.12590146 -0.041222814 0.15023643 -0.12617746
0.7648113

svc_W2_svc f4 [193, 1]
00000000: ac42 37be 941d c03f 1eb4 86bd 5023 51bf
00000010: 4855 053f 19d7 8ebe 13fa 5f3d bfac 053f
00000020: bf6a 053e 7326 46bf be61 b6bf e130 543f
00000030: 3afb 893e 4109 3d3d 5ee9 80bf 91e2 85bf
00000040: b7a6 2d3f 4966 b3bf b0ad b93e c2fe a1be
00000050: 264f 60bf 55cb 27bf 22fd d73e 2ab1 33be
00000060: 5f7a 183f 43fb 393d e7e4 633e 691a ddbd
00000070: a9dc 85be 9d8d b33d c73a 6d3d 1c84 a23d
00000080: 9d92 8d3d 00c9 89bf 7009 02bf 4ca2 7e3e
00000090: 28fa 163e 7618 68bf 0efe b4be 8064 703e
000000a0: 2e60 93bf 07ac 4b3d fe5e 1440 2fab ffbe
000000b0: 0628 83be ea02 f53d ed39 7c3e eb64 f53d
000000c0: ed39 7c3e e6b4 15bf f84a fcbd eb06 1bbe
000000d0: 7789 633f d0c6 0cbf 2103 573f b45f bc3e
000000e0: 4407 89bf bb3f 353e 6243 5c3e 566b 823e
000000f0: fd1f df3e 44c1 013f c759 ecbd 0aee 4b3a
00000100: 5f51 8dbd 374e 2fbd 41a7 bfbd 9115 84bd
00000110: ca89 bbbd 51e9 393f 26bc 733f 4db9 903e
00000120: efb4 77bd 37de 1ebe 22a0 d0be 6e85 d0be
00000130: c839 823e 6a4d 8a3d 86af e23e c22d b83f
00000140: 07e8 f9bd 34c7 a03e 4c0c 28bd db6b a3be
00000150: 0183 ad3e 05fb ac3e 07e2 463f 30c6 c83e
00000160: e564 2c3d db73 febe 31ad 8dbe f392 8abd
00000170: 6d94 ef3d 8031 d33e 3f1f be3e f56a febf
00000180: e7eb dabe b5fb e2bc 1372 b7be d9f3 033f
00000190: 0225 863f ffac 5d3f 68b5 69be 3fd7 debe
000001a0: 4260 10be 63bd 3c3f 5f32 94be 8c64 38bc
000001b0: eb7c a13f 87cb 9abe f3d9 6c3e fa29 363e
000001c0: e43a 55bc 4e77 b0be 9266 4e3e 249b 493f
000001d0: 469d 8d3f 43bb 993f 5a51 00bf 456c 8ebf
000001e0: 28e1 afbd af4b 4d3f 4282 7d3e 7ce6 1940
000001f0: 6bf8 8d3f 2992 033f 1cd9 723e f8f7 babe
00000200: 54e1 483f cf3d 59bf c841 dd3d 0c0b 243e
00000210: a989 8dbe 3e38 f73d 12cc fd3d a51d 57be
00000220: a51d 57be 2ab5 403f 776a 5f3f ba49 23be
00000230: 1a85 6cbd 435d d03e cff1 5ebf db03 d2bf
00000240: 4e85 813b 17ad 1abe 4d56 073e 3e38 f73d
00000250: b3b0 773c 714a 203e f864 763f 522c af3c
00000260: c759 ecbd 1a85 6cbd cbfa 4dbd f2a8 8d3c
00000270: a181 89bf 0aee 4b3a e0bf 953e c995 08be
00000280: 9d8f db3d d60c a5bf 4381 43be b944 583c
00000290: 09ae f2be 7dff 5dbe 6ca8 f83d b15e cb3e
000002a0: c645 9fbe 75ce c5bd caa5 5f3e 6898 ce3c
000002b0: f457 fcbc 017b a43d aaed 9b3d fcc1 8e3e
000002c0: aa08 773d c624 1cbe 3ba4 013e 3ba4 013e
000002d0: 5dca acbd 1e9d 9c3d 1086 9e3e 9515 553d
000002e0: 1a01 35be 05ca 203c a6c1 a4bc 5472 42bd
000002f0: 8359 8abc 4187 f3bc dd59 953d 5d20 e8bd
00000300: 5b2b de3e
-0.17896527 1.5009027 -0.065773234 -0.8169451 0.52083254 -0.2789848 0.05468185 0.52216715
0.13029002 -0.7740242 -1.4248579 0.82887083 0.26949483 0.046151403 -1.0071218 -1.0459768
0.6783251 -1.401559 0.36265326 -0.31639677 -0.8762077 -0.65544635 0.42185313 -0.17548051
0.59561723 0.045405637 0.22255288 -0.10796053 -0.26144913 0.08767245 0.057917383 0.07935354
0.0691273 -1.0764465 -0.5079565 0.24866599 0.14743865 -0.90662324 -0.35350078 0.23475838
-1.1513727 0.049724605 2.3182979 -0.4993529 -0.25616473 0.119634464 0.24631472 0.11982139
0.24631472 -0.58479154 -0.12318987 -0.15139358 0.8888163 -0.54990864 0.8398915 0.36791766
-1.0705342 0.17700092 0.2151008 0.25472516 0.43579093 0.50685525 -0.11540561 0.0007779306
-0.06900286 -0.0427992 -0.09358073 -0.06449426 -0.091571406 0.7262164 0.95208967 0.28266373
-0.060475286 -0.15514456 -0.40747172 -0.407268 0.2543471 0.06753047 0.4427454 1.4388964
-0.12202459 0.3140198 -0.041027352 -0.31918225 0.3388901 0.33785263 0.7768864 0.39213705
0.042088408 -0.49697766 -0.27671197 -0.067663096 0.11698232 0.41248703 0.37133214 -1.9876391
-0.42758104 -0.027707914 -0.3582922 0.51543957 1.0480044 0.86592096 -0.22823107 -0.43523595
-0.1409922 0.7372648 -0.2894468 -0.011254441 1.2616247 -0.30233404 0.23130016 0.1778945
-0.013014529 -0.34466022 0.20156315 0.7875235 1.1063621 1.2010273 -0.5012413 -1.1126791
-0.08587867 0.8019361 0.2475672 2.4046926 1.1091436 0.513949 0.23715633 -0.3651731
0.78468823 -0.8485994 0.108035624 0.16019839 -0.2764409 0.12071274 0.12392439 -0.21007402
-0.21007402 0.75276434 0.8727183 -0.15946093 -0.057744123 0.40696153 -0.8708772 -1.6407427
0.0039526587 -0.15105091 0.13216515 0.12071274 0.015117812 0.15653397 0.96247816 0.021383438
-0.11540561 -0.057744123 -0.050288003 0.017292473 -1.0742685 0.0007779306 0.29247952 -0.13338389
0.107207514 -1.2894542 -0.19092278 0.0131999785 -0.47398403 -0.21679492 0.12141499 0.3972068
-0.3110792 -0.09658519 0.21840587 0.025219157 -0.030803658 0.08031274 0.0761369 0.27882373
0.060310997 -0.15248403 0.12660305 0.12660305 -0.08437035 0.07647155 0.30961657 0.052022535
-0.17676201 0.00981379 -0.02011187 -0.047472313 -0.016888386 -0.02972758 0.07292531 -0.11334298
0.43392453

fs_lr_fs_lr_W f4 [110, 1]
00000000: ae22 273e c4e7 6f3c ce22 fbbe 0b27 c0bf
00000010: 91d7 aabd b546 80be 4217 58be 3d70 05be
00000020: 691e b6bd 05d9 633f cb79 c83e fd66 833f
00000030: ea26 81bd dbf9 0dbe 9948 41be b738 cd3e
00000040: ea75 f4be e838 653f 277f 343c 8ea5 f1be
00000050: db7a 20bf 54ed 29be 34f4 b2bd 01b3 4abd
00000060: e7dd dbbe 221d 2a3e 939a 0dbf 5fbb 8fbe
00000070: b0ae 7abd 2859 f6be c43e 02be 79c5 a93e
00000080: d8e1 f83c 986e 10bd 8594 1bbd 313b cd3d
00000090: 72c7 7f3e b095 44bf 4954 fbbc 1f07 dfbe
000000a0: a620 503d 7d6a 4fbf 826b 77bb 5538 4bbd
000000b0: 1771 eb3d 1e5d 893e 3dbc c9be a9d7 92bd
000000c0: ab0c a4be f75e e53e adaa d33d 8db4 2b3e
000000d0: d669 6a3e 4268 39be 55cc 05bd 4b5f e33d
000000e0: af2b 003f b4f9 b23e 1db5 5c3e 9b8f eb3e
000000f0: b0e7 983e 20e2 c7be b7b5 a13e b69a 0f3f
00000100: 5878 c73e f934 ce3d edb7 b3be 8472 e23e
00000110: f1fa 87be 3a00 10bf d0ff ec3e 4c32 51bf
00000120: 4d6c d9be 5118 053f 776e e63d 4d17 343d
00000130: 1aa2 df3e 531b 573f 7b70 8e3e 5a79 013e
00000140: 1b61 a13f 6887 383f 5fe7 45bf bff4 573e
00000150: 2a78 83bd fddd 4f3e 3f82 6bbe 3f82 6bbe
00000160: 7902 1b3f c856 0cbe b678 633e 2a78 83bd
00000170: 4412 af3e f174 b43e 1771 eb3d 05e1 2c3e
00000180: 8bcd cf3e 707d eb3e b3ba c43d 0bcd 723c
00000190: 89b9 903d 9cf3 033f d507 dd3e 053c 3cbe
000001a0: e324 1f3e e324 1f3e 3dd2 99bd 5eef 513e
000001b0: 32a9 463e 9e96 333f
0.16321823 0.01464266 -0.4904999 -1.5011915 -0.08341897 -0.25053945 -0.21102622 -0.13031097
-0.08892519 0.8900302 0.3915542 1.0265805 -0.063062504 -0.13864844 -0.1887535 0.40082332
-0.4774621 0.8953996 0.011016644 -0.4719662 -0.6268746 -0.1659444 -0.08737984 -0.049487118
-0.42942736 0.16612676 -0.55313987 -0.2807264 -0.06120175 -0.48114896 -0.12719256 0.33158472
0.030381128 -0.03526172 -0.037983436 0.100210555 0.24978426 -0.76790905 -0.030679839 -0.4356012
0.050812386 -0.81021863 -0.0037753289 -0.04961427 0.114961796 0.26828855 -0.39401427 -0.0717004
-0.32040915 0.44799015 0.10335288 0.16768093 0.22891936 -0.18106177 -0.03266557 0.1110216
0.50066656 0.34956133 0.21553464 0.46008 0.29864264 -0.39039707 0.3158395 0.56095445
0.38959002 0.100686975 -0.35101262 0.44227993 -0.2655864 -0.56250346 0.4628892 -0.8171737
-0.4246544 0.5199023 0.11251538 0.043967534 0.4367836 0.8402607 0.2782019 0.12643948
1.2607759 0.72081614 -0.7730617 0.21089457 -0.06419404 0.20299526 -0.22998904 -0.22998904
0.6055065 -0.1370498 0.22214016 -0.06419404 0.34193623 0.3524547 0.114961796 0.16882713
0.40586504 0.4599414 0.096059225 0.014819394 0.07066638 0.51543593 0.43170038 -0.1838227
0.15541415 0.15541415 -0.07510803 0.20501468 0.1940048 0.701517

fs_svc_W2_fs_svc f4 [110, 1]
00000000: 2a9d 023e 1fde 3c3e 2c0c ddbe be94 e2bf
00000010: 46ce 793c b235 9ebe a2bb 86be 2f2c 2ebe
00000020: 8a3b 8cbe 0985 853f 0ab6 da3e 475c 6a3f
00000030: fdf5 a03e 2152 a6be b32e cdbe 5119 ef3e
00000040: 2efa a7be 62e4 403f 9242 303d ba9f aabe
00000050: af1b ecbe 4378 bcbd 6cbb 27bd 3ee6 b9bc
00000060: 3d0d 13bf 6ead 043e b93c 0bbf ac2e 25bf
00000070: c685 d73c d32d 22bf 7ac0 7ebd 5ddf 3e3f
00000080: 6db7 89be c41a c8bd 4ae0 dc3c a92e 9b3d
00000090: 9198 5c3e 7e6c 20bf 21dc 08be 4d23 15bf
000000a0: 7729 14be 592c 6fbf 1bbf bc3c ae57 14bb
000000b0: 5dee 8d3d 1efb 2f3e aa9c 90be 9106 16bc
000000c0: e956 47be 627a 0e3f bd5d 683e 4344 053e
000000d0: caa1 243e 89eb 1fbe a2f7 9dbc d6dc 283e
000000e0: 6478 cd3e c0d0 923e 877d 783e c968 cf3e
000000f0: c6ba 0c3f 9b70 7abe 0780 e73e f08d ef3e
00000100: d938 1a3f 2049 853c 664e 8ebe 0590 d93e
00000110: 1b4a 5ebe 7fbd 22bf c743 a63e 6c70 88bf
00000120: 98a3 c3be 4b21 033f ec2e 843e a0a7 0f3e
00000130: 2875 f23e fe44 1b3f c5fb 293e b9af c53d
00000140: 03a4 9a3f f67d 153f a222 0ebf 199b 163e
00000150: 6277 31bd 469f 133e d9e1 40be d9e1 40be
00000160: b868 d73e dc79 6ebe 3128 4a3e 6277 31bd
00000170: 50d0 6d3e 3b3f a73e 5dee 8d3d b542 373e
00000180: c7b8 a93e e3ea b43e 1be9 dbbd d07f 04ba
00000190: 782a 1a3d c3fb 9b3e 1d83 883e 21bb 12be
000001a0: 606d 143e 606d 143e 8be9 8dbd 781f 1c3e
000001b0: 4969 003e fa28 093f
0.12755266 0.18444107 -0.4317335 -1.7701643 0.015246933 -0.3090034 -0.26315027 -0.17009042
-0.27389175 1.0431224 0.4271701 0.91547054 0.31437674 -0.32484534 -0.4007469 0.46699002
-0.3280806 0.75348485 0.043032236 -0.33324987 -0.4611487 -0.092026256 -0.040950224 -0.022692796
-0.57442075 0.12956783 -0.5438953 -0.6452434 0.026308905 -0.6335117 -0.06219528 0.74559575
-0.26897755 -0.0977073 0.026962418 0.07577259 0.21542574 -0.62665546 -0.13365223 -0.5825699
-0.14468943 -0.93427044 0.023040345 -0.002263527 0.0693023 0.17185637 -0.28244525 -0.009156839
-0.19466747 0.5565549 0.22692008 0.13014321 0.16077343 -0.15617193 -0.01928312 0.16490492
0.40130913 0.2867489 0.24266635 0.40509632 0.54972494 -0.24457018 0.45214865 0.46787977
0.6024299 0.01627022 -0.27794188 0.4249269 -0.21707956 -0.635704 0.32473585 -1.0659308
-0.3821075 0.51222676 0.2581705 0.14028788 0.47355008 0.6065215 0.16599949 0.09652657
1.2081302 0.58395326 -0.55521595 0.14707603 -0.043326743 0.14416227 -0.18836154 -0.18836154
0.42072082 -0.23288673 0.19741894 -0.043326743 0.23223996 0.3266543 0.0693023 0.1789654
0.33148786 0.35335454 -0.10737821 -0.0005054446 0.037638158 0.30465516 0.26662531 -0.14329197
0.14494848 0.14494848 -0.069293104 0.1524638 0.12540163 0.5357815

mfs_lr_mfs_lr_W f4 [83, 1]
00000000: aea3 3f3e b186 3c3f d889 283d 2b80 ebbe
00000010: 86c5 2b3f ea09 823e 3ceb 9fbd c14c 9dbe
00000020: db74 85be 4b5e fdbe 9f29 a6bf a3fb 94bc
00000030: 0a3f 95be e000 6abe f45f 77be ccd8 613e
00000040: 04d5 5e3f f56d 013f b3cb 6a3f bf98 87be
00000050: 008a 3fbf 56c5 aabd a9b3 ff3e 9786 50bd
00000060: d80e 5f3e 6b5a b83b 1ffe 483e b4ed 213e
00000070: c087 f23c 08e7 af3c 65a5 70be 62e3 b63e
00000080: df6c d7bd ccd4 97be c34a 0bbd c021 d0be
00000090: 4b33 cb3e a36b a2be 91db 5e3d bf53 14be
000000a0: a9a8 1f3e 79b4 d43e a9a8 1f3e bc1a 97bd
000000b0: eda1 7dbe f4ab 37be 62ce 6e3d db2a a6be
000000c0: ce20 33bf 64b5 6b3e 996a 013d 68cd 25bf
000000d0: a0a6 1e3f b568 75be 0e31 323e 94a1 b53e
000000e0: 7fac 1f3f b712 1f3e 4d30 be3e f5cb a43e
000000f0: 9d65 063f d5e6 8abf 3b0d 073f 92b6 3fbe
00000100: e03b 693e f9c0 eabe 4030 84bf fea5 9abf
00000110: cbba 113e 7e8d 5bbe 9d5b b1be 2951 06bf
00000120: ac93 2d3f 4d6d 063f f8a8 903f 4e11 213f
00000130: 01c7 293e 7c9b bd3e 3b8d 413e fe1f 68be
00000140: 8759 4bbe b7f6 993e 6f54 293e
0.18714783 0.7364302 0.041147083 -0.45996222 0.6709827 0.2539819 -0.07808539 -0.3072262
-0.26065716 -0.49486002 -1.2981452 -0.018186396 -0.29149657 -0.22851896 -0.24157697 0.22055358
0.87043786 0.50558406 0.9171707 -0.26483724 -0.74819946 -0.0833842 0.49941757 -0.050909605
0.21783006 0.005626013 0.1962819 0.15813333 0.029605746 0.021472469 -0.23500593 0.35720354
-0.105188124 -0.2965454 -0.034006845 -0.4065075 0.3968757 -0.31722745 0.054408614 -0.14485072
0.15591682 0.4154394 0.15591682 -0.07378146 -0.24768801 -0.17936689 0.05830229 -0.3245457
-0.6997193 0.23018414 0.0315958 -0.6476655 0.61973 -0.23965724 0.17401525 0.35474837
0.62372583 0.15534483 0.37146226 0.32186857 0.524988 -1.0851694 0.52754563 -0.18721989
0.22776747 -0.4585035 -1.0327225 -1.2081907 0.14231412 -0.21440694 -0.34640208 -0.5246759
0.67803454 0.5251053 1.1301565 0.6291703 0.1657982 0.37032688 0.18901531 -0.22668454
-0.1985837 0.3007104 0.16536115

mfs_svc_W2_mfs_svc f4 [83, 1]
00000000: a911 10be 810c a33f 4119 f73d 5f57 1bbf
00000010: 6183 5e3f f74e 4dbe e7ec 0fbe c823 9a3d
00000020: ded3 57be cbbf 69bf 50d8 e0bf 9b84 30c1
00000030: 4420 7bc0 64d2 1b40 6159 36c0 7b07 10bf
00000040: 580f 893f 904a 533e fa6b 343f 8d28 553f
00000050: 8be9 a4bf 695f 31be 72d8 5e3f 07cc 983d
00000060: 340a 133e 3b11 6dbc 08a1 2c3e 22e1 ef3d
00000070: 6a92 1cc1 f5a6 a33d 2bc1 afbe 56eb d63e
00000080: 67a0 90be 3843 28c0 7e38 3e41 7d80 9abe
00000090: 522b 8c40 e3fb 86c0 9c5e adbe e696 12c0
000000a0: e815 b33d de83 343e e815 b33d 912a 75be
000000b0: f775 1abe 9d79 8dbd f6ad c33e 07f7 b0be
000000c0: eae8 8fbf c5f9 b040 d5cc 83c0 30b5 04bf
000000d0: f729 fc3e 7cd8 b8be efc3 ea3d 604b 2241
000000e0: ea69 243f ece7 053e 9056 a63e 12b6 b23e
000000f0: 5f18 7e40 2dd5 2bbf 9736 a73e bf6a 08bf
00000100: d653 3bbe 23b3 18bf a91b 51bf 0675 98bf
00000110: dbde cd3d 6f2b 4a3e 36b1 babe f5da 4fbf
00000120: 4dcd aa3f 575d 553f ffed 8d3f 62af 093f
00000130: f490 1c3e c1a4 463f c533 7c3e 901b 0a3d
00000140: ce7e 30be 3203 043f 8ab9 c63d
-0.14069237 1.2738191 0.12065364 -0.6068019 0.8691922 -0.20049654 -0.14055215 0.07526356
-0.21076915 -0.9130828 -1.7566013 -11.032374 -3.9238443 2.4347162 -2.8492053 -0.56261414
1.0707808 0.20633912 0.7047726 0.83265 -1.2883772 -0.17321552 0.8704902 0.0746079
0.14359361 -0.01446944 0.16858304 0.117128626 -9.785746 0.07990829 -0.34327063 0.41976422
-0.28247377 -2.6291027 11.888792 -0.30176154 4.380288 -4.218248 -0.33861244 -2.29046
0.08744413 0.17628428 0.08744413 -0.23942019 -0.15084063 -0.069079615 0.3821866 -0.34563467
-1.1242955 5.5304894 -4.118754 -0.5183897 0.49250767 -0.36102664 0.114631526 10.143402
0.6422411 0.13076752 0.32487917 0.34904534 3.9702375 -0.67122155 0.32658836 -0.5328788
-0.182937 -0.5964834 -0.8168283 -1.1910713 0.10052272 0.19743131 -0.36463326 -0.81193477
1.3343903 0.8334555 1.1088256 0.5378324 0.1528967 0.77595145 0.24629124 0.033717692
-0.17235872 0.51567376 0.097033575

lv_lr_lv_lr_W f4 [46, 1]
00000000: 15c2 01be 4953 52bd b0c5 c03c 1f21 d8bd
00000010: f9fb de3c 5e1c 89bd 6bfa e8bd e0e1 313e
00000020: 7f93 ecbc b2fb c1be 368e 4ebe 2580 a03e
00000030: fbef 04bf 40ea 373e 0fea 4e3d e2de 2f3e
00000040: 8efd ce3d f9cb 8abe 4c6c 8f3e ba48 083e
00000050: dad8 373e cbd3 e9be 7807 993d 1b1b 563e
00000060: 2f70 10be 0597 9e3d bf57 02bf 439e 00be
00000070: 97e7 d93d cf0b 55bd 0874 b3be 4a98 ccbe
00000080: 931d 773e 828e 84bd 1c95 ef3d 196a abbd
00000090: 5db1 d93e 1a05 02bf 2735 37be 3b87 5ebc
000000a0: 8596 9f3e 31ac e5bd 48d8 823e def8 05be
000000b0: e07e 293d ee2e ef3d
-0.12671693 -0.05134896 0.023531765 -0.10553192 0.02721976 -0.06694864 -0.113758884 0.1737132
-0.028878925 -0.3788734 -0.20171437 0.31347767 -0.5192868 0.17960453 0.050516184 0.17174867
0.101069555 -0.27108744 0.2801231 0.13308993 0.17953816 -0.45669398 0.07472128 0.20908777
-0.14105295 0.077436484 -0.5091514 -0.12560372 0.106398754 -0.052013215 -0.35049462 -0.39959937
0.24132375 -0.06472494 0.11698362 -0.08369846 0.4251813 -0.50789034 -0.1789137 -0.013582046
0.31169525 -0.112144835 0.25555634 -0.13083217 0.041380763 0.11678873

lv_svc_W2_lv_svc f4 [46, 1]
00000000: 84f6 f2bd c5f8 85bd 1c45 ef3c 2566 5fbd
00000010: 43cb 143d 4a99 0dbd b215 d3bd 45c0 f83d
00000020: 192a 18bd e687 8cbe baf6 14be 8149 413e
00000030: d18f afbe 32c8 053e 330e 293d a679 083e
00000040: ef5e 9f3c f1ba 4bbe 7acf 4b3e 900a b83d
00000050: adaa bf3d ea76 9dbe 1760 8d3d 0ede 1a3e
00000060: 3159 10be 197a bc3d cadc c2be fa61 e3bd
00000070: 793a 9d3d 0f60 34bd 01a8 84be f77d 8dbe
00000080: 033c 333e 6e20 16bd 9f3d a43d f1c8 83bd
00000090: d4d2 9e3e 3fea b7be 997e b4bd 82cf 09bb
000000a0: a5b6 663e 9827 adbd 5d4d 3c3e 1000 10bd
000000b0: 660b 313c b21d 9d3d
-0.118634254 -0.0654159 0.029207759 -0.054540772 0.036326658 -0.034570016 -0.103068724 0.121460475
-0.037149522 -0.27447432 -0.14547244 0.18875696 -0.3428941 0.1306465 0.041273307 0.13327655
0.019454448 -0.19895531 0.19903365 0.0898639 0.09358726 -0.30754787 0.06903093 0.1512377
-0.14096524 0.09202976 -0.38059074 -0.11102672 0.076771684 -0.04403692 -0.25909427 -0.27635166
0.17503361 -0.03665202 0.08019566 -0.06434811 0.31020224 -0.35920903 -0.08813209 -0.0021028225
0.22530611 -0.084548175 0.18388887 -0.03515631 0.01080594 0.076716796

lv_mlp_net.0.weight f4 [21, 46]
00000000: 6208 8bbd 588d babb 497e 08be 56aa 0dbd
00000010: 0f82 3dbd 5ea4 87bc 3e64 a6bd ebea 0cbe
00000020: 045e 5fbc ae25 03be e403 14be 3e02 da3d
00000030: 596b b03c 9d07 22be 49b0 c8bc 2f34 b23d
00000040: 04f2 3bbb e848 e1bd 3aa6 2abd b9ba b93c
00000050: d7a7 a43d 3e00 dbbe 1041 843e b0e3 493e
00000060: 6207 a1bb 9dee d4bd 3e26 9abd 5b75 ffbd
00000070: 6ba2 803d 8be4 79be 60e8 f53b 46c2 25bd
00000080: cc73 f13d 4d41 493e fb10 2fbd 534f 823e
00000090: f985 05be 3f38 c8bd a976 5dbc fbcf c2bd
000000a0: 5fff d03d 9e96 90bc ec69 c23c 19f9 983e
000000b0: 1655 a03a 8ed9 0fbc 2d86 ffbd f8b5 863d
000000c0: 85a1 78bc 8c72 83be beb6 393d 2742 403e
000000d0: 34af e2bd 4591 843e f6a1 5abd dae4 fa3c
000000e0: 3571 23bc 6634 adbd 10e7 b33d 4381 2dbe
000000f0: 6892 58be 785e abbb d86c debd 910a 0fbe
00000100: c7cb 84be e1c8 ddbd 4080 13be 5a49 b33e
00000110: 023e 1dbe f9fb ffbd 3a98 923e 05d7 e53d
00000120: 0e12 cc3d 8d75 9a3d 531a db3c 8889 99bd
00000130: d7dc 423d 9b3c 3e3e 0755 9d3d 2ecc bebc
00000140: c7e3 9bbd 04d3 14bd 8b21 1dbd 4707 9c3d
00000150: 3c1d 663e 5c23 023e cad4 613e 089e 3dbe
00000160: 98d6 95be 887d 4b3d 4cc9 fe3d 8a8b 01bc
00000170: 748b 6dbd 32cb d63d e9d0 183d c597 a4be
00000180: f1c4 663c dc55 733d 5f80 ad3d 435f 99bd
00000190: 8ed3 603c 060a 13bd 8f7b 3fbc d5f7 ac3c
000001a0: 61d1 0dbe d4ad 843d bc3c a13d b584 003e
000001b0: b73c 063e e405 bfbd 5c9d 58bd 18e9 9fbd
000001c0: f853 39b9 cd68 453d c02c a5bd 42a6 8abd
000001d0: adcc 973d 77b8 7a3d ee47 0f3e 1e8a 403d
000001e0: 43b0 5dbc e140 c43d db75 433d 4af4 e53d
000001f0: 53af 0e3e d1da d73c 5ec2 bd3d fcc8 053e
00000200: bfb6 9cbd 6d46 153e 3753 7c3c 4feb 42be
00000210: b28e a43d 64b5 493d 455a 883c 1ab1 1f3e
00000220: f1f2 7e3d 20f9 0dbd af62 bbbd 45aa b8bd
00000230: 5e6f a8bd ec02 cc3a a692 6b3d f63b e3bd
00000240: 5c39 c2ba 5649 2e3e 57ab fa3d 9241 7bbd
00000250: 2472 183e 1b47 d03d 0421 9b3c 0dab a83d
00000260: d2f5 bebd 5abb 453e 24ae 533e 8727 36be
00000270: d05c 5d3d 3f0b 3bbe 5b87 22bd 3003 eabd
00000280: 7b35 a43d b1cb 433e 26ea 8a3d d49f f3bd
00000290: 591a a6be ded4 523e 0f9e 2b3e 2c96 47be
000002a0: 1158 e03d 99fd 06be a9a3 923d 6491 21bd
000002b0: db20 e7bd 07a3 513d 88d2 923c d734 893c
000002c0: f518 6abc 4aa8 44bd 3d8f bf3d ca94 f13c
000002d0: 1d80 85bc 59c5 863e 1b36 af3d 1cd0 4bbd
000002e0: 0caf e6bd ef61 f1bd bfaa 8c3c 264c 9e3d
000002f0: 0422 b6bd 8730 8f3c d191 ac3d e335 903e
00000300: 8297 5a3e d3af c2bd 6594 b3bd a715 533e
00000310: d928 55be 99cb 09be 3f01 263a 81f9 933d
00000320: 7266 2dbe 262d 5dbd 4438 78bd a9d7 db3d
00000330: 3e1d 323e 0377 c3bd fb85 00be ad65 f0bc
00000340: dc62 1a3e e38c a73d 24fa 243e e013 0c3d
00000350: b846 69be bf23 363c b786 17bd b260 9abc
00000360: c04a 8fbd 01a1 413a f95a 7d3c 6c5e 7b3d
00000370: da8e 0d3f d194 06bd 21d1 bfbc f687 913a
00000380: 478a 193e 0b7e 0a3e 1468 16bd df83 71be
00000390: 736d c3bd ce21 843d 4a54 323d edd6 3e3c
000003a0: 2779 0b3e 3508 17bd 0690 9a3c b977 c73c
000003b0: 628f e5bb ea56 023e 5e1f d53d 02cf de3d
000003c0: 82dc 9b3d 2aae 90be 90e7 2cbe 2c7f 823d
000003d0: b8b6 7b3d 1c95 8bbe 643e 88bd ceb1 adbd
000003e0: b5e9 56be f521 a5bd fa04 80be 5813 8e3e
000003f0: 523d 163e c72e 8fbd 7646 183e 3167 8abd
-0.06788708 -0.005693119 -0.13329424 -0.034586273 -0.04626661 -0.016557869 -0.081245884 -0.13761489
-0.013633255 -0.12807342 -0.14454609 0.10644959 0.021535562 -0.15823217 -0.024498122 0.087013595
-0.0028678188 -0.11000234 -0.041662432 0.022672044 0.080398254 -0.42773622 0.2583089 0.19715762
-0.00491421 -0.10397074 -0.07526825 -0.12473556 0.06280979 -0.24403588 0.007504508 -0.040468477
0.117896646 0.19653817 -0.042740803 0.25451145 -0.13039388 -0.09776353 -0.01351706 -0.095123254
0.10204958 -0.017649945 0.023732148 0.29877546 0.0012232389 -0.008779896 -0.12476764 0.065776765
-0.015175228 -0.2567333 0.045340292 0.18775235 -0.110685736 0.25892082 -0.053377114 0.030626703
-0.009975721 -0.0845726 0.08784306 -0.1694384 -0.211496 -0.0052297674 -0.10860604 -0.13968875
-0.2593672 -0.1082933 -0.14404392 0.350169 -0.15355685 -0.12499232 0.28631765 0.11222652
0.09964381 0.07541952 0.02674595 -0.07496935 0.04757389 0.18577807 0.07682233 -0.02329072
-0.076118045 -0.036334053 -0.038362067 0.076185755 0.2247209 0.12708801 0.22053829 -0.18517315
-0.29265285 0.049680263 0.12440738 -0.007906804 -0.05799432 0.10487975 0.037308607 -0.3214704
0.01408504 0.059408054 0.084717505 -0.07488873 0.013722314 -0.03589823 -0.0116871735 0.02111427
-0.13849403 0.064784676 0.07872912 0.12550624 0.13109098 -0.093272954 -0.052884445 -0.07808131
-0.00017674256 0.04819565 -0.08065176 -0.067699924 0.07412086 0.061211076 0.13992283 0.04700672
-0.013530794 0.09582687 0.047719818 0.11228235 0.13934068 0.026349457 0.09265588 0.1306495
-0.076520436 0.14577647 0.015400699 -0.19035076 0.080350295 0.049245253 0.016644606 0.15594903
0.062243406 -0.034661412 -0.09149682 -0.09016851 -0.082243666 0.0015564836 0.0575129 -0.11095421
-0.001481812 0.17020163 0.12239712 -0.06134183 0.14887291 0.10169812 0.018936642 0.0823575
-0.0932423 0.1930975 0.20671898 -0.17788516 0.05404359 -0.18266009 -0.039679866 -0.11426389
0.08018013 0.19120671 0.067829415 -0.11895719 -0.32441977 0.20589015 0.16759513 -0.1949088
0.10954297 -0.13182677 0.07160122 -0.039445296 -0.112855636 0.051180866 0.017922655 0.016748829
-0.014288177 -0.048012055 0.093534924 0.029489893 -0.01629644 0.2632244 0.08555242 -0.049759015
-0.11263856 -0.117862575 0.017171262 0.07729368 -0.08893207 0.017479194 0.0842625 0.28166112
0.21346858 -0.09506192 -0.087685384 0.20613728 -0.20816363 -0.13456573 0.0006332583 0.072253235
-0.16933611 -0.053998135 -0.060600534 0.10734493 0.17393968 -0.09544184 -0.1255111 -0.029345358
0.15076774 0.08181169 0.16111046 0.03419864 -0.22780883 0.011116921 -0.03699371 -0.018844936
-0.06996679 0.0007386357 0.015463584 0.061369345 0.552961 -0.032856766 -0.02341515 0.0011103142
0.14994155 0.13524644 -0.03672035 -0.23585461 -0.0954236 0.0645176 0.043537416 0.011647922
0.13620435 -0.03687306 0.018867504 0.02434908 -0.007005618 0.12728468 0.104063734 0.10879327
0.07610418 -0.28257877 -0.16885209 0.06371912 0.06145355 -0.272622 -0.06652525 -0.08481179
-0.2098759 -0.080631174 -0.25003797 0.27749133 0.1467183 -0.06991344 0.14870629 -0.067579634

lv_mlp_net.0.bias f4 [21]
00000000: 2a7c bfbd cd4e 513d 64d7 0cbd 306e 9fbe
00000010: 6ef9 97be 6878 43be c698 41bd 60b4 7dbe
00000020: 51ef 4fbe ad90 64be 385e 9cbe c28c 85be
00000030: e15a ffbd cada 29bd fc8c b23d ff95 b7be
00000040: 238b 75bd 5a6e be3c 9de1 6fbe e2e8 8cbe
00000050: 32a9 3cbe
-0.09349854 0.05110054 -0.0343851 -0.31138754 -0.29682487 -0.190889 -0.047264837 -0.24775839
-0.20306136 -0.22320814 -0.30540633 -0.26083952 -0.12468506 -0.04146842 0.08718297 -0.35856625
-0.059947144 0.02324598 -0.23425908 -0.27521425 -0.18423918

lv_mlp_net.3.weight f4 [9, 21]
00000000: f0ac adbe 0346 a73d d913 323e bf95 8fbe
00000010: a64f f9bd b597 173e b116 c93d 6b87 2cbe
00000020: f441 543b 1354 7b3d 6b07 0fbe 48d0 ac3d
00000030: 9183 91be 80fc 8d3d 5a5a 80bd 0251 dc3d
00000040: 9a02 4b3e 015f 463e c9c2 443e f4bd 78be
00000050: a9c7 fd3d d35e 30bd 3799 b43d f23d 1a3e
00000060: 0263 c6bd 5ef1 1ebd 9be5 22be 06c7 b63d
00000070: e736 73be baac d33d d233 4fbe 89f4 9abd
00000080: 3553 91be e4e3 a93e 32b5 053d 7847 4ebd
00000090: 9791 483d da12 6dbd b926 8f3e cff0 d5bd
000000a0: f3a1 48bd 6be3 3b3d 56a1 c0be d736 3b3e
000000b0: 6fde 603e 1226 88be 832c 12be b923 bc3d
000000c0: 06ec bb3d a4ed b5bd ea78 16be 9360 1cbe
000000d0: 6f3b a3bd c6a9 30bd e772 0c3e d91d 65bd
000000e0: 88bf 55bb ff3c 993e aa8f fe3d 661c 4d3e
000000f0: 419a 8f3e 17d9 24be 4f31 eb3d 20f3 dc3b
00000100: 0608 7a3e 0492 acbd 8548 cabd 794b eebd
00000110: 0ad7 373e 7294 583e 4184 10be 9572 ae3d
00000120: 7661 39bc 6ace 53be 1771 1cbe 948e 3f3c
00000130: 0ebe ca3d eaa9 3fbc 2c57 5a3e 99d0 193e
00000140: f611 f63d 2f8e 023e e0cb c7be 5aa5 4f3e
00000150: 774d 943d 7675 9fbc d462 123e f7d1 bf3e
00000160: a6d5 ad3e 6f1f 3dbe e040 36be 9754 c13e
00000170: e65d 91be 7b2f d4be 2e34 b73e d23d 88bd
00000180: 26bc 87be 09e0 2b3e 7c52 f03e 07be acbe
00000190: bdab 79be f19e 57be 3551 42be f397 a13e
000001a0: 5880 6bbe 6599 debd 0237 043e 779e 133e
000001b0: e2e8 22be 8ba0 1dbe e88d 2f3e 2064 913e
000001c0: d70d 8fbd 4d6c 813e 78bc ae3d c914 fbbd
000001d0: 97e8 89be 44a0 623e 8ce6 19be c571 853b
000001e0: f3d7 9f3e 2c85 433e 02f7 db3d 187d 943e
000001f0: 2ad8 63be fc1f 5f3d ca70 34be 328e 483e
00000200: 821a f63d 8a5a 77bd 6e77 dabd 0322 5d3e
00000210: 8326 693d 54fa 63be 10c8 d93d 8392 a4bd
00000220: b686 15be 614b 64be 6bce 223e 9cc0 51be
00000230: 7a75 83bd f626 1c3e a5b4 303e ff2f 463e
00000240: 6ae2 a73d 1faf 95be f612 6f3e adbe 86be
00000250: 39c9 913e 252a f33d e9f7 eebd adb5 06be
00000260: a332 ae3e 0f08 133e 8a6c 62be 55e9 9dbd
00000270: 4504 653c bd92 41be 7be3 89be c0a1 953e
00000280: fa58 09bd b2b1 5ebd 3bff bb3e 4b06 cb3c
00000290: b9d8 ba3d 4383 12be 1e7e 8cbe e1fa fe3d
000002a0: a8a4 59be 004f 483d d5bc b73d 0456 b5bd
000002b0: c8bb f9bd 1c4a 4bbd 7750 3b3e 6102 fcbc
000002c0: 9376 283e d9cd 7d3e a8a3 40be c6b3 c3bd
000002d0: ca05 c0be ee47 fe3b af5e e1bd 6c64 cebd
000002e0: cec2 043e b741 8c3e cb2a 443e ea55 c4be
000002f0: ea4f 7c3e
-0.33921003 0.081676506 0.17390384 -0.28043935 -0.12173395 0.14803965 0.09818781 -0.16848533
0.0032387944 0.061359476 -0.13967673 0.08438164 -0.2842069 0.06932926 -0.06267233 0.107576385
0.19825211 0.19372179 0.1921493 -0.24291211 0.12391598 -0.04305918 0.08818286 0.15062693
-0.09686853 -0.038804404 -0.159079 0.089246795 -0.23751412 0.10335679 -0.20234612 -0.07566173
-0.28383794 0.3318168 0.032643504 -0.050361127 0.04896697 -0.057879306 0.2795923 -0.10446321
-0.04898257 0.04587118 -0.3762309 0.18282638 0.21959852 -0.26591545 -0.14274792 0.09186501
0.09175877 -0.08883217 -0.14694563 -0.15271215 -0.079703204 -0.04313066 0.13715707 -0.055936668
-0.0032615382 0.2992935 0.124297455 0.20030364 0.28047374 -0.16098438 0.11484014 0.00674285
0.24417123 -0.08426288 -0.09877113 -0.11635489 0.17953125 0.21150377 -0.14112951 0.085179485
-0.01131474 -0.2068421 -0.15277515 0.011691708 0.09899531 -0.0116982255 0.21322316 0.1502098
0.120151445 0.12749551 -0.39022732 0.2027792 0.07241338 -0.01946519 0.14295512 0.37464878
0.33952063 -0.18469022 -0.17798185 0.3775985 -0.2839195 -0.41442475 0.35781997 -0.06652416
-0.26510733 0.16784681 0.4693793 -0.3373873 -0.24381919 -0.21056725 -0.1897629 0.3156124
-0.22998178 -0.108691014 0.12911609 0.14415918 -0.1590915 -0.15393274 0.17143977 0.28396702
-0.069850616 0.2527794 0.08532041 -0.12259824 -0.26935264 0.22131449 -0.15029353 0.0040724003
0.31219444 0.1909377 0.107404724 0.2900169 -0.22250429 0.054473862 -0.1762115 0.19585493
0.12016775 -0.06038908 -0.10667311 0.21595006 0.056921493 -0.22263461 0.10633862 -0.080357574
-0.1460217 -0.2229438 0.15899055 -0.20483631 -0.06418891 0.15249237 0.1725641 0.19354247
0.08197482 -0.2923517 0.23347077 -0.2631735 0.28473833 0.11873273 -0.11668379 -0.13155241
0.34023008 0.14358543 -0.22111717 -0.0771052 0.013978069 -0.18903632 -0.26931366 0.29224968
-0.03353212 -0.054368682 0.36718163 0.024783274 0.09123368 -0.14307885 -0.2743997 0.12450195
-0.21254218 0.048903465 0.08971564 -0.08854297 -0.121940196 -0.049631223 0.18292414 -0.030762853
0.16451482 0.24785556 -0.1881243 -0.095557734 -0.37504417 0.0077600395 -0.110043876 -0.10077748
0.12964937 0.27393886 0.19156949 -0.38346797 0.2463986

lv_mlp_net.3.bias f4 [9]
00000000: babb 7a3d 186f 07bd 0425 a9bd d522 abbd
00000010: e3af bf3e 024d d9bd f194 08bb 005c 2bbd
00000020: 9a7a 3a3e
0.061214186 -0.03306493 -0.08259013 -0.08356253 0.37438878 -0.10610391 -0.002084073 -0.041835785
0.18210831

lv_mlp_net.6.weight f4 [1, 9]
00000000: 00a7 c6be 327d 8fbe 75f1 b1be 91b2 bbbe
00000010: e5da 083f 47da 79be 2d45 cebe b6a3 b3be
00000020: 1201 8fbe
-0.38799286 -0.28025204 -0.3475453 -0.36659673 0.53459007 -0.24399672 -0.40287152 -0.3508584
-0.27930504
