model/checkpoints/lepori2025_mtb/rdkit/model_000.onnx (onnx, 92545 bytes, 12 tensors)

lv_onnx::MatMul_4 f4 [193, 49]
000000 00 00 00 00 00 00 00 00 00 00 00 00 00 00 00 00
       0.0 0.0 0.0 0.0
000010 00 00 00 00 00 00 00 00 00 00 00 00 00 00 00 00
       0.0 0.0 0.0 0.0
000020 a5 4f 08 3f 00 00 00 00 00 00 00 00 a5 4f 08 3f
       0.5324653 0.0 0.0 0.5324653
000030 00 00 00 00 00 00 00 00 00 00 00 00 00 00 00 00
       0.0 0.0 0.0 0.0
000040 00 00 00 00 00 00 00 00 00 00 00 00 00 00 00 00
       0.0 0.0 0.0 0.0
000050 00 00 00 00 00 00 00 00 00 00 00 00 a5 4f 08 bf
       0.0 0.0 0.0 -0.5324653
000060 00 00 00 00 a5 4f 08 bf 00 00 00 00 00 00 00 00
       0.0 -0.5324653 0.0 0.0
000070 a5 4f 08 bf 00 00 00 00 00 00 00 00 00 00 00 00
       -0.5324653 0.0 0.0 0.0
000080 00 00 00 00 00 00 00 00 00 00 00 00 00 00 00 00
       0.0 0.0 0.0 0.0
000090 00 00 00 00 00 00 00 00 00 00 00 00 00 00 00 00
       0.0 0.0 0.0 0.0
0000a0 00 00 00 00 00 00 00 00 00 00 00 00 00 00 00 00
       0.0 0.0 0.0 0.0
0000b0 00 00 00 00 00 00 00 00 00 00 00 00 00 00 00 00
       0.0 0.0 0.0 0.0
0000c0 00 00 00 00 00 00 00 00 00 00 00 00 00 00 00 00
       0.0 0.0 0.0 0.0
0000d0 a5 4f 08 3f 00 00 00 00 00 00 00 00 00 00 00 00
       0.5324653 0.0 0.0 0.0
0000e0 00 00 00 00 00 00 00 00 00 00 00 00 00 00 00 00
       0.0 0.0 0.0 0.0
0000f0 00 00 00 00 00 00 00 00 00 00 00 00 00 00 00 00
       0.0 0.0 0.0 0.0
000100 00 00 00 00 00 00 00 00 00 00 00 00 a5 4f 08 3f
       0.0 0.0 0.0 0.5324653
000110 00 00 00 00 00 00 00 00 00 00 00 00 00 00 00 00
       0.0 0.0 0.0 0.0
000120 00 00 00 00 00 00 00 00 00 00 00 00 00 00 00 00
       0.0 0.0 0.0 0.0
000130 00 00 00 00 00 00 00 00 00 00 00 00 00 00 00 00
       0.0 0.0 0.0 0.0
000140 00 00 00 00 00 00 00 00 00 00 00 00 00 00 00 00
       0.0 0.0 0.0 0.0
000150 00 00 00 00 00 00 00 00 00 00 00 00 00 00 00 00
       0.0 0.0 0.0 0.0
000160 00 00 00 00 00 00 00 00 00 00 00 00 00 00 00 00
       0.0 0.0 0.0 0.0
000170 00 00 00 00 00 00 00 00 00 00 00 00 00 00 00 00
       0.0 0.0 0.0 0.0
000180 00 00 00 00 00 00 00 00 00 00 00 00 00 00 00 00
       0.0 0.0 0.0 0.0
000190 00 00 00 00 00 00 00 00 00 00 00 00 00 00 00 00
       0.0 0.0 0.0 0.0
0001a0 a5 4f 08 3f 00 00 00 00 00 00 00 00 00 00 00 00
       0.5324653 0.0 0.0 0.0
0001b0 00 00 00 00 00 00 00 00 00 00 00 00 00 00 00 00
       0.0 0.0 0.0 0.0
0001c0 00 00 00 00 00 00 00 00 a5 4f 08 3f 00 00 00 00
       0.0 0.0 0.5324653 0.0
0001d0 00 00 00 00 00 00 00 00 00 00 00 00 00 00 00 00
       0.0 0.0 0.0 0.0
0001e0 00 00 00 00 00 00 00 00 00 00 00 00 00 00 00 00
       0.0 0.0 0.0 0.0
0001f0 00 00 00 00 00 00 00 00 00 00 00 00 00 00 00 00
       0.0 0.0 0.0 0.0
000200 00 00 00 00 00 00 00 00 00 00 00 00 00 00 00 00
       0.0 0.0 0.0 0.0
000210 00 00 00 00 00 00 00 00 00 00 00 00 00 00 00 00
       0.0 0.0 0.0 0.0
000220 00 00 00 00 00 00 00 00 00 00 00 00 00 00 00 00
       0.0 0.0 0.0 0.0
000230 00 00 00 00 00 00 00 00 00 00 00 00 a5 4f 08 3f
       0.0 0.0 0.0 0.5324653
000240 00 00 00 00 00 00 00 00 00 00 00 00 00 00 00 00
       0.0 0.0 0.0 0.0
000250 00 00 00 00 00 00 00 00 00 00 00 00 00 00 00 00
       0.0 0.0 0.0 0.0
000260 00 00 00 00 00 00 00 00 00 00 00 00 00 00 00 00
       0.0 0.0 0.0 0.0
000270 00 00 00 00 00 00 00 00 00 00 00 00 00 00 00 00
       0.0 0.0 0.0 0.0
000280 00 00 00 00 00 00 00 00 00 00 00 00 00 00 00 00
       0.0 0.0 0.0 0.0
000290 00 00 00 00 00 00 00 00 00 00 00 00 00 00 00 00
       0.0 0.0 0.0 0.0
0002a0 00 00 00 00 00 00 00 00 00 00 00 00 00 00 00 00
       0.0 0.0 0.0 0.0
0002b0 00 00 00 00 00 00 00 00 00 00 00 00 00 00 00 00
       0.0 0.0 0.0 0.0
0002c0 00 00 00 00 00 00 00 00 a5 4f 08 bf 00 00 00 00
       0.0 0.0 -0.5324653 0.0
0002d0 00 00 00 00 a5 4f 08 3f a5 4f 08 bf 00 00 00 00
       0.0 0.5324653 -0.5324653 0.0
0002e0 00 00 00 00 00 00 00 00 00 00 00 00 00 00 00 00
       0.0 0.0 0.0 0.0
0002f0 00 00 00 00 a5 4f 08 3f 00 00 00 00 00 00 00 00
       0.0 0.5324653 0.0 0.0
000300 a5 4f 08 3f 00 00 00 00 00 00 00 00 00 00 00 00
       0.5324653 0.0 0.0 0.0
000310 00 00 00 00 a5 4f 08 bf 00 00 00 00 00 00 00 00
       0.0 -0.5324653 0.0 0.0
000320 00 00 00 00 00 00 00 00 00 00 00 00 00 00 00 00
       0.0 0.0 0.0 0.0
000330 00 00 00 00 00 00 00 00 00 00 00 00 00 00 00 00
       0.0 0.0 0.0 0.0
000340 00 00 00 00 00 00 00 00 00 00 00 00 00 00 00 00
       0.0 0.0 0.0 0.0
000350 00 00 00 00 00 00 00 00 00 00 00 00 00 00 00 00
       0.0 0.0 0.0 0.0
000360 00 00 00 00 00 00 00 00 00 00 00 00 00 00 00 00
       0.0 0.0 0.0 0.0
000370 00 00 00 00 a5 4f 08 3f 00 00 00 00 00 00 00 00
       0.0 0.5324653 0.0 0.0
000380 00 00 00 00 00 00 00 00 a5 4f 08 3f 00 00 00 00
       0.0 0.0 0.5324653 0.0
000390 00 00 00 00 00 00 00 00 a5 4f 08 bf 00 00 00 00
       0.0 0.0 -0.5324653 0.0
0003a0 00 00 00 00 00 00 00 00 00 00 00 00 00 00 00 00
       0.0 0.0 0.0 0.0
0003b0 00 00 00 00 00 00 00 00 00 00 00 00 00 00 00 00
       0.0 0.0 0.0 0.0
0003c0 00 00 00 00 00 00 00 00 00 00 00 00 00 00 00 00
       0.0 0.0 0.0 0.0
0003d0 00 00 00 00 00 00 00 00 00 00 00 00 00 00 00 00
       0.0 0.0 0.0 0.0
0003e0 00 00 00 00 00 00 00 00 00 00 00 00 00 00 00 00
       0.0 0.0 0.0 0.0
0003f0 00 00 00 00 00 00 00 00 00 00 00 00 00 00 00 00
       0.0 0.0 0.0 0.0

lr_lr_W f4 [193, 1]
000000 53 61 d2 3d 45 40 37 3e 6c 6f 82 3b 69 fe 35 be
       0.10272469 0.1789561 0.0039805677 -0.17772831
000010 78 d7 4d 3e 18 cd f2 3d 92 52 dc 3d fb eb 22 be
       0.20101726 0.11855525 0.107579365 -0.15910332
000020 4c a8 a2 3c b7 b6 e5 be 4e e0 f1 be c7 ae c6 3b
       0.01985564 -0.44865963 -0.47241443 0.0060633156
000030 dc 02 51 3d cb f4 25 3d 3c 06 67 bc a6 20 aa 3d
       0.051028118 0.040516656 -0.0141006075 0.083070084
000040 20 20 27 3e 55 f6 2a 3e 81 b7 7a 3e 61 3a 32 be
       0.16320848 0.1669553 0.24484064 -0.17405082
000050 c8 29 49 be c9 29 3c bc dc 53 bd 3d 3d 7b 7a be
       -0.19644845 -0.011484572 0.092445105 -0.24461074
000060 ff f8 87 3e d9 49 ca 3d 59 45 8b 3e 8b 5d 23 be
       0.26557156 0.098773666 0.27201346 -0.15953653
000070 fa 9c b9 be 58 09 e9 3d 3b ca 29 3e ac 46 d6 3d
       -0.36252576 0.11378735 0.16581051 0.10462698
000080 2b a4 d7 bd 09 0b 8a bd 08 d9 49 be ca 67 33 bd
       -0.105293594 -0.06740386 -0.19711697 -0.043800153
000090 2b 8f 79 3e e1 77 a6 be ec d2 4f 3d 84 93 7a 3c
       0.2437102 -0.32513335 0.05073826 0.0152939595
0000a0 c1 11 cc bd 8b b2 11 be 08 26 01 3e 47 de 40 3d
       -0.09964324 -0.14228265 0.12612164 0.04708698
0000b0 5f f9 1f 3d 9c d2 2d 3d d1 2d 2e 3e ec 03 c0 3e
       0.03905618 0.04243718 0.17009665 0.37502992
0000c0 d1 2d 2e 3e 4e 84 50 be fb 29 c0 bd 07 b4 e2 bc
       0.17009665 -0.2036297 -0.09383007 -0.027673734
0000d0 2c e2 8f 3e 22 df 0b bf c6 3f ef bc 4d c2 cd 3d
       0.28102243 -0.5463735 -0.029205214 0.100468256
0000e0 0c ff 8a bd 8b 3e 47 3d ac 57 6b bd 16 1a a7 bd
       -0.067869276 0.04864363 -0.057456657 -0.081592724
0000f0 6b 96 0b 3e 6e ec 0b 3d 8d e4 42 3d 33 20 5d be
       0.13631599 0.034161024 0.047581244 -0.21594314
000100 5f 67 01 3e 45 d8 d8 bd 62 ac 8a be 54 a5 a9 bd
       0.12637089 -0.10588125 -0.27084643 -0.08283487
000110 b6 40 0f 3d 66 40 23 3e b5 f7 bc bc 08 cf 4e 3e
       0.034973823 0.15942535 -0.023067335 0.20196164
000120 f2 2e 80 3e 38 72 82 bd 06 f0 c2 be df f0 a2 be
       0.25035816 -0.06369442 -0.38073748 -0.31824395
000130 ed eb 87 3e b9 d6 fa 3d 50 9f 85 3d 68 51 69 3e
       0.26547185 0.12247986 0.06524527 0.2278496
000140 ee 86 e8 bd 82 83 cb 3e 10 95 6a bd 3e c3 df be
       -0.11353861 0.3974877 -0.057271063 -0.43703645
000150 75 2f 80 3e eb 6f 7a be 82 47 8a 3e 63 92 af 3d
       0.25036207 -0.24456756 0.2700768 0.08572843
000160 f8 53 b8 bd 59 b8 75 be 12 00 c1 3c fa 49 2e 3d
       -0.09000391 -0.23996104 0.023559604 0.04255102
000170 e6 1e 7f 3e 87 a5 2d 3d 83 2a 8d bd 24 3c 58 be
       0.2491413 0.042394187 -0.06892874 -0.21116692
000180 01 2a 3a be fa 80 af 3d 2e 77 2a 3e a0 e5 d2 3e
       -0.18180086 0.08569522 0.16647026 0.41190815
000190 41 8c 5a 3d 62 aa 86 3e 65 e4 b9 bd 16 13 a2 3a
       0.053356413 0.26301867 -0.09076766 0.0012365307
0001a0 56 e5 60 bd 56 40 76 3e 8b 23 d1 be cb 54 d0 bc
       -0.05490621 0.2404798 -0.4084743 -0.025431057
0001b0 9d e8 13 3e 41 4a 43 3d 11 77 9f 3e db 88 87 bd
       0.14444204 0.047678236 0.31145528 -0.066179
0001c0 f5 ae 7e bd 52 dc 41 bd 0b 02 95 bd f9 00 9b 3e
       -0.06217857 -0.047329254 -0.0727578 0.3027418
0001d0 c8 92 98 bd 1a 77 40 be 2f c8 08 3e fc 26 ac be
       -0.07449871 -0.18795434 0.13357614 -0.33623493
0001e0 3f d2 63 3e 98 80 71 3e 26 a0 b8 bd 8f ed db 3e
       0.22248171 0.23584211 -0.09014921 0.4295468
0001f0 89 fe 35 3e fc 23 3b be 4d f7 47 be 9e 3c 05 bf
       0.17772879 -0.18275446 -0.19527932 -0.5204562
000200 08 b6 c8 3e ea e7 c8 be 17 c4 94 3d 8f 01 aa 3d
       0.3920138 -0.39239436 0.07263964 0.083010785
000210 f0 71 41 be 3c eb 6c bc 30 d6 1c 3e 82 11 c4 be
       -0.1889112 -0.014460381 0.15316081 -0.38294607
000220 82 11 c4 be 00 a7 f9 3c 46 e9 35 3e 4c 1c 0f be
       -0.38294607 0.03047514 0.17764768 -0.13975638
000230 4c 92 a9 bd a9 ab 81 3e 7b 05 ff 3c 9d 5c a0 be
       -0.08279857 0.2532628 0.031130543 -0.31320658
000240 d1 19 02 bd ba 9a 55 be f9 8c 71 3e 3c eb 6c bc
       -0.0317629 -0.20859805 0.23588933 -0.014460381
000250 fb 23 a1 3d e7 ce 8f 3e 2f 59 e6 3e 9e 19 ec 3d
       0.07868191 0.2808754 0.44989917 0.115283236
000260 8d e4 42 3d 4c 92 a9 bd 6a c9 99 3e 9d c3 26 3d
       0.047581244 -0.08279857 0.3003648 0.040713895
000270 fc bd 98 bd 33 20 5d be 89 50 ba 3e cf 90 62 be
       -0.07458112 -0.21594314 0.36389568 -0.22125553
000280 d0 62 12 3e 4f d0 5c bf 3f c6 3d be a7 9a 9b 3d
       0.14295506 -0.86255354 -0.18532656 0.07597857
000290 ee 0e d0 bd 85 0e 27 be 9c 9b b6 3d 84 fa 23 3d
       -0.101590976 -0.16314133 0.08916399 0.040033832
0002a0 34 12 c4 bd 8c 0e 29 be 66 2a 3e 3e 24 a4 92 3c
       -0.095737845 -0.16509455 0.18570861 0.017900534
0002b0 7b 3b 94 3d 68 f4 5b 3e c3 fd 17 3e 3a 7f c5 3e
       0.072379075 0.21479952 0.14842896 0.3857363
0002c0 15 b6 37 3e ff 03 51 be 12 8f 0f 3e 12 8f 0f 3e
       0.17940553 -0.2041168 0.1401942 0.1401942
0002d0 fc ec 84 bd a4 e2 40 3e 7d c7 82 3e 23 4a 2a bd
       -0.06490514 0.18836457 0.25542822 -0.04157461
0002e0 4d 48 d1 3d 86 61 e8 bd 7d 06 0b be d5 64 16 be
       0.102188684 -0.11346726 -0.13576694 -0.14686902
0002f0 7c 4e 13 3e a9 02 f7 bc 10 6c 11 3e f8 c5 e5 bd
       0.14385408 -0.030152636 0.14201379 -0.112194
000300 c6 da 36 3f
       0.7142757

svc_W2_svc f4 [193, 1]
000000 ac 42 37 be 94 1d c0 3f 1e b4 86 bd 50 23 51 bf
       -0.17896527 1.5009027 -0.065773234 -0.8169451
000010 48 55 05 3f 19 d7 8e be 13 fa 5f 3d bf ac 05 3f
       0.52083254 -0.2789848 0.05468185 0.52216715
000020 bf 6a 05 3e 73 26 46 bf be 61 b6 bf e1 30 54 3f
       0.13029002 -0.7740242 -1.4248579 0.82887083
000030 3a fb 89 3e 41 09 3d 3d 5e e9 80 bf 91 e2 85 bf
       0.26949483 0.046151403 -1.0071218 -1.0459768
000040 b7 a6 2d 3f 49 66 b3 bf b0 ad b9 3e c2 fe a1 be
       0.6783251 -1.401559 0.36265326 -0.31639677
000050 26 4f 60 bf 55 cb 27 bf 22 fd d7 3e 2a b1 33 be
       -0.8762077 -0.65544635 0.42185313 -0.17548051
000060 5f 7a 18 3f 43 fb 39 3d e7 e4 63 3e 69 1a dd bd
       0.59561723 0.045405637 0.22255288 -0.10796053
000070 a9 dc 85 be 9d 8d b3 3d c7 3a 6d 3d 1c 84 a2 3d
       -0.26144913 0.08767245 0.057917383 0.07935354
000080 9d 92 8d 3d 00 c9 89 bf 70 09 02 bf 4c a2 7e 3e
       0.0691273 -1.0764465 -0.5079565 0.24866599
000090 28 fa 16 3e 76 18 68 bf 0e fe b4 be 80 64 70 3e
       0.14743865 -0.90662324 -0.35350078 0.23475838
0000a0 2e 60 93 bf 07 ac 4b 3d fe 5e 14 40 2f ab ff be
       -1.1513727 0.049724605 2.3182979 -0.4993529
0000b0 06 28 83 be ea 02 f5 3d ed 39 7c 3e eb 64 f5 3d
       -0.25616473 0.119634464 0.24631472 0.11982139
0000c0 ed 39 7c 3e e6 b4 15 bf f8 4a fc bd eb 06 1b be
       0.24631472 -0.58479154 -0.12318987 -0.15139358
0000d0 77 89 63 3f d0 c6 0c bf 21 03 57 3f b4 5f bc 3e
       0.8888163 -0.54990864 0.8398915 0.36791766
0000e0 44 07 89 bf bb 3f 35 3e 62 43 5c 3e 56 6b 82 3e
       -1.0705342 0.17700092 0.2151008 0.25472516
0000f0 fd 1f df 3e 44 c1 01 3f c7 59 ec bd 0a ee 4b 3a
       0.43579093 0.50685525 -0.11540561 0.0007779306
000100 5f 51 8d bd 37 4e 2f bd 41 a7 bf bd 91 15 84 bd
       -0.06900286 -0.0427992 -0.09358073 -0.06449426
000110 ca 89 bb bd 51 e9 39 3f 26 bc 73 3f 4d b9 90 3e
       -0.091571406 0.7262164 0.95208967 0.28266373
000120 ef b4 77 bd 37 de 1e be 22 a0 d0 be 6e 85 d0 be
       -0.060475286 -0.15514456 -0.40747172 -0.407268
000130 c8 39 82 3e 6a 4d 8a 3d 86 af e2 3e c2 2d b8 3f
       0.2543471 0.06753047 0.4427454 1.4388964
000140 07 e8 f9 bd 34 c7 a0 3e 4c 0c 28 bd db 6b a3 be
       -0.12202459 0.3140198 -0.041027352 -0.31918225
000150 01 83 ad 3e 05 fb ac 3e 07 e2 46 3f 30 c6 c8 3e
       0.3388901 0.33785263 0.7768864 0.39213705
000160 e5 64 2c 3d db 73 fe be 31 ad 8d be f3 92 8a bd
       0.042088408 -0.49697766 -0.27671197 -0.067663096
000170 6d 94 ef 3d 80 31 d3 3e 3f 1f be 3e f5 6a fe bf
       0.11698232 0.41248703 0.37133214 -1.9876391
000180 e7 eb da be b5 fb e2 bc 13 72 b7 be d9 f3 03 3f
       -0.42758104 -0.027707914 -0.3582922 0.51543957
000190 02 25 86 3f ff ac 5d 3f 68 b5 69 be 3f d7 de be
       1.0480044 0.86592096 -0.22823107 -0.43523595
0001a0 42 60 10 be 63 bd 3c 3f 5f 32 94 be 8c 64 38 bc
       -0.1409922 0.7372648 -0.2894468 -0.011254441
0001b0 eb 7c a1 3f 87 cb 9a be f3 d9 6c 3e fa 29 36 3e
       1.2616247 -0.30233404 0.23130016 0.1778945
0001c0 e4 3a 55 bc 4e 77 b0 be 92 66 4e 3e 24 9b 49 3f
       -0.013014529 -0.34466022 0.20156315 0.7875235
0001d0 46 9d 8d 3f 43 bb 99 3f 5a 51 00 bf 45 6c 8e bf
       1.1063621 1.2010273 -0.5012413 -1.1126791
0001e0 28 e1 af bd af 4b 4d 3f 42 82 7d 3e 7c e6 19 40
       -0.08587867 0.8019361 0.2475672 2.4046926
0001f0 6b f8 8d 3f 29 92 03 3f 1c d9 72 3e f8 f7 ba be
       1.1091436 0.513949 0.23715633 -0.3651731
000200 54 e1 48 3f cf 3d 59 bf c8 41 dd 3d 0c 0b 24 3e
       0.78468823 -0.8485994 0.108035624 0.16019839
000210 a9 89 8d be 3e 38 f7 3d 12 cc fd 3d a5 1d 57 be
       -0.2764409 0.12071274 0.12392439 -0.21007402
000220 a5 1d 57 be 2a b5 40 3f 77 6a 5f 3f ba 49 23 be
       -0.21007402 0.75276434 0.8727183 -0.15946093
000230 1a 85 6c bd 43 5d d0 3e cf f1 5e bf db 03 d2 bf
       -0.057744123 0.40696153 -0.8708772 -1.6407427
000240 4e 85 81 3b 17 ad 1a be 4d 56 07 3e 3e 38 f7 3d
       0.0039526587 -0.15105091 0.13216515 0.12071274
000250 b3 b0 77 3c 71 4a 20 3e f8 64 76 3f 52 2c af 3c
       0.015117812 0.15653397 0.96247816 0.021383438
000260 c7 59 ec bd 1a 85 6c bd cb fa 4d bd f2 a8 8d 3c
       -0.11540561 -0.057744123 -0.050288003 0.017292473
000270 a1 81 89 bf 0a ee 4b 3a e0 bf 95 3e c9 95 08 be
       -1.0742685 0.0007779306 0.29247952 -0.13338389
000280 9d 8f db 3d d6 0c a5 bf 43 81 43 be b9 44 58 3c
       0.107207514 -1.2894542 -0.19092278 0.0131999785
000290 09 ae f2 be 7d ff 5d be 6c a8 f8 3d b1 5e cb 3e
       -0.47398403 -0.21679492 0.12141499 0.3972068
0002a0 c6 45 9f be 75 ce c5 bd ca a5 5f 3e 68 98 ce 3c
       -0.3110792 -0.09658519 0.21840587 0.025219157
0002b0 f4 57 fc bc 01 7b a4 3d aa ed 9b 3d fc c1 8e 3e
       -0.030803658 0.08031274 0.0761369 0.27882373
0002c0 aa 08 77 3d c6 24 1c be 3b a4 01 3e 3b a4 01 3e
       0.060310997 -0.15248403 0.12660305 0.12660305
0002d0 5d ca ac bd 1e 9d 9c 3d 10 86 9e 3e 95 15 55 3d
       -0.08437035 0.07647155 0.30961657 0.052022535
0002e0 1a 01 35 be 05 ca 20 3c a6 c1 a4 bc 54 72 42 bd
       -0.17676201 0.00981379 -0.02011187 -0.047472313
0002f0 83 59 8a bc 41 87 f3 bc dd 59 95 3d 5d 20 e8 bd
       -0.016888386 -0.02972758 0.07292531 -0.11334298
000300 5b 2b de 3e
       0.43392453

fs_lr_fs_lr_W f4 [157, 1]
000000 9c 9a 23 3e 99 3b 9c 3d ea ce 0d 3e bf 16 40 be
       0.15976948 0.07628555 0.13848463 -0.18758677
000010 56 56 d1 be 47 f8 d8 be a3 e7 ba bc 70 3b 80 bb
       -0.40886182 -0.4237692 -0.022815531 -0.0039133355
000020 4f cf 9a bb 21 7f 41 bd 94 7e 10 3d 1b 56 53 3e
       -0.00472442 -0.04724038 0.035276964 0.20638315
000030 e7 c4 42 3e 04 8e a1 3e 1e d8 d7 bd 82 6a 76 bd
       0.19020425 0.31553662 -0.10539268 -0.060160168
000040 ac 5d 56 3c 1c 26 2d 3e 51 d7 bf be 36 4f 39 3e
       0.013083857 0.16909069 -0.3746896 0.18096623
000050 a2 2a 2f 3e a2 7c 38 be cf 89 ad be a0 a2 cb 3d
       0.17106107 -0.18016294 -0.33894202 0.09943128
000060 87 75 38 3e a5 38 c6 3d 05 df 7c be 31 a6 fb bd
       0.18013583 0.09678773 -0.2469445 -0.12287558
000070 d7 c2 eb bd f4 85 fe bb 26 f3 26 3e 3a ff 7f be
       -0.11511772 -0.0077674333 0.16303691 -0.24999705
000080 11 17 8a 3d a0 83 b3 bc fd 77 1c be ac 24 09 be
       0.06742681 -0.02191335 -0.15280147 -0.13392895
000090 70 12 af 3d 51 84 7c 3d 6c ac 60 3d bc 4d 59 3b
       0.085484385 0.061649624 0.054851934 0.0033157906
0000a0 a3 a3 0b 3e e7 14 c1 3e a3 a3 0b 3e 1a a6 3c bd
       0.13636641 0.3771126 0.13636641 -0.046056844
0000b0 3d 9d 9a bd cc e1 33 3e af 07 e7 be ea 0c 1e bd
       -0.07549522 0.17566603 -0.4512305 -0.038586535
0000c0 44 12 c5 3d a0 82 fe bd 2b fc 43 3e 72 cf 45 be
       0.096226245 -0.124272585 0.19139163 -0.19317415
0000d0 40 6d 66 bd a7 97 f5 3d 32 81 ad 3d 07 9d 42 be
       -0.056256533 0.11991816 0.08471908 -0.19005214
0000e0 50 57 fa 3c fc 73 13 be a1 d6 49 be a9 5b 6b bd
       0.030559212 -0.14399713 -0.1971078 -0.05746046
0000f0 6b c0 40 bd 8d 9a a4 3e 73 41 f7 bc 34 2b ed 3d
       -0.047058504 0.32149163 -0.030182576 0.11580506
000100 f5 ce 9e 3e 13 3b 46 be 59 7b 9b be 00 01 ba be
       0.3101727 -0.19358473 -0.30367544 -0.36328888
000110 57 7a 5d 3e ec db 5c 3c 0e ee 8e bc d9 27 c1 3e
       0.216287 0.013480168 -0.017447498 0.37725714
000120 99 03 d9 3d 8f 21 9d be 07 99 a8 3e 00 92 89 3e
       0.10596389 -0.30689666 0.3292925 0.26869202
000130 6a 30 2a be 6b 93 21 be dd a8 fa 3d c8 49 fd 3d
       -0.16620031 -0.15778892 0.12239239 0.12367588
000140 0b 2a 94 3e 2e 82 84 3d db 56 c7 bd 60 b9 a3 be
       0.28938326 0.06470142 -0.09733363 -0.31977367
000150 4c a5 7e bd 1d 51 02 3e 06 30 47 3e 24 43 bd bd
       -0.062169358 0.12726255 0.19451913 -0.09241322
000160 fe f8 4a bb b3 8d 9b bd 42 2b 31 3e f2 11 c0 be
       -0.0030971165 -0.07595386 0.17301658 -0.3751369
000170 6d 09 0b be d5 20 8c 3e b0 da fd bd 12 3e 93 3e
       -0.13577814 0.273688 -0.12395227 0.28758293
000180 6f e1 98 3e 2f 99 83 bd de 33 be bd 70 5b 99 3e
       0.29859492 -0.06425702 -0.09287237 0.29952574
000190 ba 6d 76 bd f1 89 67 be ac fb 0c 3e 20 68 be be
       -0.060163237 -0.22611214 0.1376788 -0.37188816
0001a0 99 63 e8 3e 64 91 64 3e 1d c7 d3 bb ea df b9 3e
       0.45388487 0.22321087 -0.006462945 0.36303645
0001b0 8a af 5b 3e a1 09 97 be a3 9f e6 bd 7b 1a f5 be
       0.21453682 -0.29499534 -0.11260917 -0.47871765
0001c0 96 8a 34 bb ef 70 c0 3d 3e e2 df 3c 21 be 63 bd
       -0.0027548424 0.093965404 0.02732956 -0.055601243
0001d0 4e b9 27 3e 06 29 af be 06 29 af be 6e e3 3a 3e
       0.16379282 -0.34210986 -0.34210986 0.1825082
0001e0 37 aa 93 bd f5 e3 af 3e 43 6f 12 bd 3b 7b 0d bd
       -0.072102 0.34353605 -0.03575064 -0.03454135
0001f0 18 fb 5f 3e 21 be 63 bd c7 2d 8b 3e 1d 5b 0e 3f
       0.21873128 -0.055601243 0.27183363 0.5560778
000200 32 81 ad 3d 37 aa 93 bd 0c 77 8e 3e e1 f3 e0 bd
       0.08471908 -0.072102 0.278252 -0.10984016
000210 a5 6b 88 3c 07 9d 42 be a7 05 95 3e f4 97 0a be
       0.016652891 -0.19005214 0.29105875 -0.13534528
000220 6d 6f 19 3d c0 b0 6a 3d 57 e7 7b bd 05 6d 56 bd
       0.03745978 0.05729747 -0.06149992 -0.052350063
000230 3d e5 1d be 75 9f 11 3d 3e 53 09 3e a9 ee b7 3d
       -0.15419479 0.03555246 0.1341066 0.08981068
000240 ab f0 ae 3e cf f8 5a 3e 05 45 40 be 4c e7 1a 3e
       0.3416799 0.21383975 -0.18776329 0.15127295
000250 4c e7 1a 3e 2d 5a 32 bc dc c9 3e 3e 62 a5 40 bd
       0.15127295 -0.010885757 0.1863169 -0.04703272
000260 ad f1 b3 bd ea b2 19 be 72 06 2b 3e 29 30 ae 3d
       -0.0878633 -0.15009657 0.16701677 0.085052796
000270 02 84 1d 3f
       0.6152955

fs_svc_W2_fs_svc f4 [157, 1]
000000 b6 a8 c8 3c 24 b2 e1 3e 90 da 30 3e 27 c6 1f 3f
       0.02449451 0.44081223 0.17270875 0.6241173
000010 62 b3 4f bf 17 8a c7 bf 58 92 3c 3c 90 38 28 bf
       -0.8113309 -1.5589017 0.0115095 -0.6571131
000020 48 03 40 bf 93 aa e8 bf a4 17 88 bf 34 64 1b 40
       -0.75005007 -1.8177055 -1.0632215 2.427991
000030 8f 54 fb be 01 2c 79 3e 4c bb 8c 3e 03 48 91 bf
       -0.4908795 0.24333192 0.27486646 -1.1350101
000040 e6 87 4c bf 13 d1 5b 3f 45 63 65 be 20 57 a0 3e
       -0.79894865 0.85865897 -0.2240115 0.3131647
000050 12 3f 21 3e 53 27 25 be 17 09 92 be 0e 28 c2 3b
       0.15746716 -0.16128282 -0.2852256 0.005925185
000060 4d c9 83 bd 52 75 0e 39 0e 2f 8e be a8 ad ba bf
       -0.064348795 0.0001358588 -0.27770275 -1.4584246
000070 de 9d 1f bf 54 a5 f7 3e d3 0e 2b bd 6b 23 12 bf
       -0.6235026 0.48368323 -0.041762184 -0.57085294
000080 6e 0f 75 bf 74 d4 4d 3d 33 20 c8 bf 30 c1 e0 3d
       -0.9572667 0.05025144 -1.5634826 0.109743476
000090 eb 22 70 40 b4 93 03 bf 01 5d 68 be 97 50 90 be
       3.7521312 -0.5139725 -0.22691728 -0.28186485
0000a0 25 2d 68 3e 3d f2 ec be 25 2d 68 3e ee 18 5f bd
       0.22673471 -0.46278563 0.22673471 -0.054467134
0000b0 5f 28 13 bf d8 e5 2c 3f 25 05 9d bf f5 eb 5d 3f
       -0.57483476 0.67538214 -1.2267195 0.86688167
0000c0 97 40 21 3f d5 c0 b9 bf 4b 28 2a c0 76 30 48 be
       0.6298918 -1.4511973 -2.6587093 -0.19549736
0000d0 86 7f 3e 3f 5f e8 1e 3f 87 c7 35 be 50 95 96 bd
       0.74413335 0.6207332 -0.17751895 -0.07352698
0000e0 e2 23 7e bd 2d 64 d1 bd 94 a9 b5 3c e5 4f 13 be
       -0.06204594 -0.10224185 0.022175588 -0.14385946
0000f0 46 14 df be 34 c3 7c 40 16 d5 f2 3f bf 61 dc 3e
       -0.43570155 3.9494143 1.8971279 0.43043324
000100 3f ad 1f 3e 47 f5 b4 be 7b 2e a4 be bf e6 fe be
       0.15593432 -0.35343382 -0.32066712 -0.4978542
000110 ab f7 53 3e a1 ae 41 3e 68 b0 ad 3e 05 8a d4 3e
       0.20699947 0.18914272 0.3392365 0.4151155
000120 d7 b3 3c 3e e5 19 1f be 5d 2a 30 3f 9e 25 be 3e
       0.18427978 -0.15537222 0.6881464 0.37138075
000130 ab bf 4a be 05 db 74 be 52 66 fa 3c a2 61 0e 3e
       -0.19799678 -0.23911674 0.030566368 0.13904431
000140 25 95 b6 3e aa 3d 04 3f 43 b8 3a 3f 64 be ea bf
       0.35660663 0.5165659 0.7293741 -1.8339353
000150 f3 a4 27 bd 5b 62 11 3f 68 7f ea 3d 1f 04 04 be
       -0.040928792 0.56790704 0.11450082 -0.12892197
000160 83 d8 46 be c5 b8 3c be 6a 5f 4f 3f d1 e0 3f bf
       -0.1941853 -0.18429859 0.81004965 -0.7495242
000170 50 06 e8 be 60 ea 14 3e e8 36 8c be e7 75 c7 3e
       -0.45317316 0.14542532 -0.2738564 0.3895714
000180 80 71 e7 3e 7a ce 56 bf 6b e1 da bc 43 09 09 3f
       0.4520378 -0.8390881 -0.026718816 0.5352976
000190 41 96 7d 3f 78 0f 83 3f fb db 76 3e c1 2c 2f bf
       0.99057394 1.0239096 0.24107353 -0.68427664
0001a0 de 7a b9 3e d5 86 78 3e fd 38 15 3e 5f 8d 2b 40
       0.36226553 0.24270184 0.1457252 2.6805036
0001b0 4c 06 90 3f 0a f7 5d 3f f0 25 1d 3f d0 48 c5 be
       1.1251922 0.86705077 0.61386013 -0.38532114
0001c0 57 16 64 bd d2 ff 0e 3e 54 28 4c bc ef 7f 2f 3d
       -0.055685367 0.13964775 -0.012460787 0.042846616
0001d0 52 e1 1b 3e 71 49 74 be 71 49 74 be f5 71 d8 3f
       0.15222672 -0.2385614 -0.2385614 1.6909777
0001e0 70 ca fa bc 9f 81 c8 be 84 ee c6 bf 41 a2 1a 3b
       -0.030614108 -0.39161393 -1.5541539 0.0023595246
0001f0 7e 8a 43 3e ef 7f 2f 3d d9 e1 21 3e 1c 1b 96 3f
       0.190958 0.042846616 0.1580881 1.1727023
000200 87 c7 35 be 70 ca fa bc 99 54 a1 3e d0 53 84 bd
       -0.17751895 -0.030614108 0.31509855 -0.064612985
000210 10 b9 41 be 50 95 96 bd 7d cd 8d 3e c4 33 c5 bd
       -0.18918252 -0.07352698 0.27695838 -0.09629014
000220 f4 75 9c be 87 94 95 3c 26 67 33 bd c6 af e3 bd
       -0.3055874 0.0182593 -0.043799542 -0.111175105
000230 31 20 c2 bd a0 b0 ae 3d 3f ac df 3d 22 be e7 3d
       -0.09478796 0.08529782 0.10921525 0.11315562
000240 15 26 94 3e a4 fc 14 3e 63 72 2d be d6 b4 1d 3e
       0.28935304 0.145495 -0.16938166 0.15401015
000250 d6 b4 1d 3e ea 1f a8 bc 71 b5 17 3e e4 f9 ba bc
       0.15401015 -0.02052303 0.14815308 -0.022824235
000260 c3 4d 9b bd 4b ef d6 bd 03 83 07 3e e5 4f e8 3b
       -0.07583191 -0.1049486 0.13233571 0.0070896023
000270 87 4b ff 3e
       0.4986231

mfs_lr_mfs_lr_W f4 [52, 1]
000000 df 79 3b 3d 75 89 9c 3f 5f a4 8f 3d e5 39 64 bf
       0.045770522 1.2229449 0.07013773 -0.8915084
000010 5a e3 45 3f e1 d3 31 3e 59 42 ef 3d 4f 7c d5 be
       0.77300036 0.17365982 0.11682577 -0.41696402
000020 a7 a8 a8 be aa c5 0d bf cd 2d 10 c0 41 0e cb bf
       -0.32941172 -0.55379736 -2.2527955 -1.5863725
000030 07 9c fb 3f e1 55 a1 3e b1 9e 6a 3e e2 32 30 3f
       1.9656991 0.31510833 0.22912098 0.6882764
000040 f3 80 d0 be 53 68 2a 3f 13 47 44 bf 6b 1a 3a 3e
       -0.4072338 0.66565436 -0.7667095 0.1817414
000050 5e 56 f7 be 61 04 09 c0 06 f2 df 3e 2c 02 82 be
       -0.4830808 -2.1408923 0.43739337 -0.25392282
000060 f6 7e 40 3e 6f a4 26 3f f6 7e 40 3e fc b3 b3 3d
       0.18798432 0.65094656 0.18798432 0.08774564
000070 54 2d 96 be f8 ce f0 be 7f 0f 40 3e 95 ce 10 be
       -0.29331458 -0.47032905 0.18755911 -0.14141305
000080 7a c2 84 bf 8f 9f 0e 40 5e da 14 be 07 49 cf 3e
       -1.037185 2.2284887 -0.14536425 0.40485403
000090 22 ea 30 3f bb 18 87 3e 42 0d ce 3f 91 32 dd 3e
       0.6910726 0.26386055 1.6097796 0.43202642
0000a0 29 b9 ee be 6e 7f 58 bf 42 e5 b7 bf fe dc 77 bf
       -0.4662564 -0.8456944 -1.4366839 -0.9682158
0000b0 37 6c 81 3c b9 c5 40 3f 7c b5 03 3f d5 28 7f 3d
       0.015798671 0.753017 0.514488 0.0622948
0000c0 fb 96 66 be e9 38 4f be a9 8e 25 3f 8a 73 62 3e
       -0.22518532 -0.20236553 0.6467081 0.22114387

mfs_svc_W2_mfs_svc f4 [52, 1]
000000 b8 77 f5 bc e2 eb 8e 3f ac e2 e2 3c c0 03 5c bf
       -0.029964313 1.1165736 0.027695976 -0.8594322
000010 ba 30 41 3f c8 2c 3c 3d db c1 82 3d 0a 96 1a bf
       0.75464976 0.045941144 0.06384631 -0.6038519
000020 23 07 63 be 72 39 31 bf 62 33 24 c0 d2 9c 90 bf
       -0.22170691 -0.6922828 -2.5656362 -1.1297858
000030 e9 f4 b9 3f 74 58 ad 3e 6f 73 39 3e 28 7c b5 3f
       1.4527866 0.33856547 0.1811044 1.4178514
000040 7b 30 e9 be 3e 37 39 3f 4c a5 80 bf 00 85 ac 3f
       -0.455448 0.7234992 -1.0050445 1.3478088
000050 d9 0d cb be 56 95 85 c0 5e 94 38 3e 31 80 2c c0
       -0.39659002 -4.1744795 0.18025348 -2.6953242
000060 b2 23 03 3e b1 74 e8 3e b2 23 03 3e b3 39 64 bd
       0.12806585 0.45401528 0.12806585 -0.05571909
000070 63 23 5c be ae a3 9d be 40 5d 2e 3e cf 85 6b be
       -0.21497874 -0.3078894 0.1702776 -0.23000263
000080 2b 24 65 bf d7 c0 58 40 95 f8 9f be 67 23 c3 3e
       -0.8950831 3.38677 -0.3124434 0.38112947
000090 22 61 03 3f 70 8a 4f 3e b5 4e 66 40 5b c3 a0 3e
       0.5132009 0.20267653 3.598554 0.31399044
0000a0 7c db e1 be dc 9e 2f bf 25 b9 a4 bf 08 ef 24 bf
       -0.44112766 -0.68601775 -1.2869002 -0.6442723
0000b0 f3 9b de 3c c0 ca 11 3f 4a c3 c7 3e 92 b0 40 3d
       0.027173972 0.56949997 0.3901618 0.04704339
0000c0 f0 ce 41 be 5b 30 77 be fd 1b 12 3f 45 f7 35 3e
       -0.18926597 -0.2413954 0.57073957 0.17770107

lv_lr_lv_lr_W f4 [49, 1]
000000 d3 32 b7 be 9a 23 46 bd b7 80 4e 3e 8f b5 d9 bd
       -0.35780963 -0.048373796 0.20166288 -0.10630333
000010 bc 58 64 3e 34 75 85 3d 58 a3 da be 04 0c 05 3d
       0.22299474 0.06516495 -0.42702746 0.032482162
000020 37 2c 8b 3e c7 b5 25 be 02 1c 2e be 09 69 80 3e
       0.2718217 -0.16182624 -0.17002872 0.25080135
000030 0f da 44 3e 03 d3 53 3e 39 f7 63 3e 68 45 07 3e
       0.19223808 0.20685963 0.22262277 0.1321007
000040 2d aa 2e 3e c5 69 81 bd 33 1a b5 bc bc 41 31 3e
       0.17057104 -0.06319002 -0.02210722 0.17310232
000050 8e cc dc 3c 12 fe 09 3e 81 ce 8e 3c f3 ba f3 be
       0.026953008 0.13475826 0.017432453 -0.47603568
000060 eb 2f 36 3d 0a 94 0c 3d 5f c4 c1 bd b8 a4 e1 3e
       0.044479292 0.03432087 -0.09461283 0.44070983
000070 42 60 43 3b 70 3d f9 3c 3e e4 28 be 07 43 2d 3e
       0.0029812013 0.030424803 -0.16493317 0.169201
000080 2e a8 0f be 35 55 c9 3d 48 ed 05 3d 62 b9 17 be
       -0.14028999 0.09830705 0.032696992 -0.14816812
000090 e7 b4 8b bb 74 2f 9e be f1 98 c3 bd 1b 0a 1e be
       -0.0042635086 -0.3089558 -0.09550656 -0.15433542
0000a0 f4 4a 19 3e d5 e5 15 3e 71 5c d0 bd bc 16 0d bd
       0.14969999 0.14638455 -0.10173882 -0.03444551
0000b0 1c e6 f3 3e 2a 8d 5b 3e 0d 08 6e 3e 37 af f9 3d
       0.47636497 0.21440569 0.23245259 0.12191623
0000c0 7d ab ab be
       -0.33529273

lv_svc_W2_lv_svc f4 [49, 1]
000000 d9 35 82 be 93 2c a7 bc 2c 2d 01 3e 30 ee 80 bd
       -0.25431708 -0.020406997 0.12614888 -0.06295431
000010 94 f0 18 3e c3 ae 48 3d 17 ed 8f be fd 17 db bc
       0.14935523 0.04899479 -0.28110573 -0.026744837
000020 61 34 3a 3e a0 82 e8 bd 04 97 e5 bd 22 b8 15 3e
       0.18184043 -0.1135304 -0.112104446 0.14621022
000030 a7 f3 ec 3d 9d ed 08 3e ed 76 08 3e 58 c1 c6 3d
       0.115699105 0.13371892 0.13326617 0.09704846
000040 82 45 c8 3d 9c 4e 21 bd fe 35 26 bd 00 fe d9 3d
       0.097788826 -0.03938161 -0.040578835 0.1064415
000050 4a f7 a7 3c ce 12 d9 3d 00 a2 3b 3a b5 0f a1 be
       0.020503659 0.1059929 0.0007157624 -0.31457296
000060 7c 17 ca 3c c7 f8 9f 3c 1d 2d 85 bd 50 ca 97 3e
       0.024669401 0.019527806 -0.06502745 0.2964654
000070 b8 cd 4e bc 35 01 54 3c 74 3f d5 bd a7 f4 c8 3d
       -0.012622289 0.012939741 -0.10412493 0.09812289
000080 9b 06 ff bd c9 5a b8 3d 68 9a 73 3c ea 10 d1 bd
       -0.12452432 0.09001691 0.014868356 -0.10208304
000090 b3 ae 26 bd 26 e4 52 be 0b 58 8c bd 08 6d d6 bd
       -0.04069395 -0.20594844 -0.0685273 -0.10470015
0000a0 24 d3 da 3d 03 93 c7 3d 76 5c 99 bd 89 b9 ef bc
       0.10684803 0.09744837 -0.07488339 -0.029263275
0000b0 15 20 b1 3e 77 bf 35 3e 35 74 f9 3d 0b 86 4c 3d
       0.3459479 0.1774882 0.12180368 0.04993252
0000c0 80 b6 74 be
       -0.23897743

lv_mlp_net.0.weight f4 [24, 49]
000000 7e 23 91 3d 7a 1f dc 3a 1b 53 7c bd 66 5d 9e be
       0.07086848 0.0016794049 -0.061602693 -0.30930632
000010 9f e0 11 bd 89 40 82 bc 97 bc 10 3e 3f 4c 46 3e
       -0.035614606 -0.015899913 0.14134441 0.19365023
000020 4f dc 29 bd f4 52 bb 3c 78 7c 3f 3c af e8 4c bd
       -0.04146987 0.022866704 0.0116873905 -0.050026592
000030 69 a4 28 3e db a9 87 3e b4 8a 55 bd 63 1b c8 bc
       0.16468967 0.26496777 -0.05213423 -0.024427122
000040 69 f2 f4 bd c3 ab b3 bd 4e 05 24 3e f4 67 0c be
       -0.119602986 -0.08772995 0.16017649 -0.1371153
000050 78 e4 4f 3e b3 2a c4 bd 27 85 c6 3d c9 70 25 3e
       0.20301998 -0.09578457 0.096933655 0.16156305
000060 08 7d a4 3d b0 a5 91 bd 48 60 1a be 6c 66 1c be
       0.0803166 -0.071116805 -0.15075791 -0.15273446
000070 b3 c2 bf 3d 1a 77 0c bc ff 5a c6 3d 03 c3 a7 be
       0.09363308 -0.008573318 0.09685325 -0.3276597
000080 e8 fe 23 bd e0 72 ed bd 05 ed 3e bd 44 36 92 bd
       -0.04003802 -0.11594176 -0.04661276 -0.071392566
000090 2b 6d 77 bd 71 c6 83 3e b1 bb ea bd 14 01 19 bd
       -0.060406845 0.25737336 -0.114615805 -0.037354544
0000a0 6d f4 ef bd 20 ea 9c bd 08 15 05 be 1a e4 0b be
       -0.117165424 -0.07661843 -0.12996304 -0.13661233
0000b0 fc e9 81 be 00 8e 6a 3e a8 53 a9 bd e6 b0 36 3d
       -0.25373828 0.22905731 -0.08267909 0.044602297
0000c0 b2 d7 fb bc 8d 17 89 3e f3 a4 b7 bc 3e 02 ab 3d
       -0.0307425 0.2677578 -0.022417521 0.08350037
0000d0 33 12 22 bc a1 18 06 bd 9f ce ce bc 28 eb b4 3c
       -0.009892034 -0.03273833 -0.025245009 0.022084787
0000e0 48 72 0e be 1c c1 cc bd b6 1b 1a 3c cc 81 0e bd
       -0.13910782 -0.0999777 0.009406021 -0.034791753
0000f0 39 aa 8f bd 68 91 a1 3e df b9 35 3d 39 8c 76 bd
       -0.07014889 0.3155625 0.044366714 -0.06019232
000100 fc d5 2c be 01 54 99 be 4e 37 dd bd 21 97 93 bd
       -0.16878504 -0.29946902 -0.10801564 -0.0720656
000110 07 3a 18 be 11 89 c6 3b 77 28 c6 3b eb a9 a9 bd
       -0.14865886 0.00605882 0.0060473043 -0.082843624
000120 de fe 97 3e 0c d5 b1 3d 66 c5 e7 bd 1a 68 94 be
       0.29686636 0.086832136 -0.11316948 -0.28985673
000130 d7 be 18 3c 0e 66 ac bd a5 6c 9a bd cf a3 29 be
       0.0093228435 -0.08417903 -0.075402535 -0.16566394
000140 55 eb 99 bc 8e f7 6c 3e 4d cc 17 be 1e e7 d7 bd
       -0.018788973 0.2314131 -0.14824028 -0.10542129
000150 c1 78 87 bd 0f f2 da 3d 0c e5 52 3e 9f 98 b1 bd
       -0.06614829 0.106907 0.20595187 -0.08671688
000160 28 4d 56 3e b4 b3 f3 3c 1d d0 11 3c 5f fe 8a 3d
       0.2092787 0.029748775 0.008899716 0.06786799
000170 3c ce 9b be 8a 8b 43 be aa 00 1a be 83 97 3d bc
       -0.30430782 -0.19096199 -0.15039316 -0.011571768
000180 41 3c 17 bc 57 9d 5f bc fc 43 e4 3d b2 53 40 bd
       -0.009230674 -0.013648353 0.111457795 -0.046954818
000190 19 84 01 be 84 33 cc bd 31 a6 94 3d 51 cd 27 be
       -0.12648048 -0.09970763 0.07258261 -0.16386916
0001a0 17 d0 08 3e 26 b1 2d 3d 43 95 5d bd 4b a2 c4 3d
       0.1336063 0.04240527 -0.054097425 0.096012674
0001b0 95 ad 09 3c d2 c2 ab 3c 6a e0 e5 3d b2 0f 43 be
       0.008403202 0.020966921 0.11224444 -0.19048956
0001c0 95 f7 27 3c e1 f5 15 3b a9 f8 7b be d5 ad 24 be
       0.010251899 0.002288215 -0.24606575 -0.16081937
0001d0 80 fe 9f 3d c4 5d e8 bd 03 19 89 3e 0d a6 4e 3c
       0.07812214 -0.113460094 0.26776895 0.012612832
0001e0 d0 5a 36 3c 80 66 89 bc b1 e1 7e 3c b0 7b c2 3d
       0.01113005 -0.016772509 0.015556739 0.09496248
0001f0 98 c8 8b bd a5 aa 14 be d6 3c 31 3e b1 9e 4c bd
       -0.068253696 -0.1451822 0.17308363 -0.049956027
000200 d7 a1 40 3d 06 37 9b 3d 06 84 1b 3c f6 4f f7 bb
       0.047029343 0.07578854 0.009491926 -0.007547374
000210 ff cd 51 3d 48 95 81 3d 25 00 50 3c 52 c7 be 3d
       0.051221844 0.06327301 0.012695347 0.09315361
000220 e3 b1 09 3d 39 ae e0 3d fc 59 02 3e fe b8 7a 3b
       0.03361691 0.1097073 0.12729639 0.0038257237
000230 4a ef 0f be c0 0b 0d 3e 11 68 80 3c 2c 23 0b be
       -0.14056125 0.13774014 0.015674623 -0.13587636
000240 cb f3 67 ba be 58 45 3e 73 e1 04 3e 53 62 74 3e
       -0.00088482787 0.19272134 0.12976627 0.23865633
000250 2c 5d 06 3d 3c 86 ba bd ed 86 19 be 4d ba c9 3a
       0.0328037 -0.091076344 -0.14992876 0.0015390605
000260 fc c9 4e 3e 2d 42 30 3e 57 2b bf 3d 72 8c 80 be
       0.20194238 0.17212744 0.09334438 -0.2510715
000270 33 dd 97 bd 8b 3b e9 bd 34 00 1e 3e 3c 1c b6 bd
       -0.07415237 -0.1138831 0.15429765 -0.08892104
000280 68 31 c9 bc 77 e3 fc 3c f1 e4 23 be 4f 5f 0c bc
       -0.024559692 0.030870182 -0.16005303 -0.008567645
000290 da 7a df 3d c5 06 82 3d fc 4e 29 3d 3a f1 6b 3e
       0.10912104 0.063489474 0.04133509 0.2304124
0002a0 26 3f a8 bd 9f 51 55 bd e4 e9 7b 3d aa 63 90 3d
       -0.082151696 -0.052079793 0.061502352 0.070502594
0002b0 e7 43 ef bd 83 f8 33 3e 9e b4 d2 bd bc 10 9b 3e
       -0.11682873 0.17575268 -0.10288356 0.30286205
0002c0 7b 86 dd bd 5d 55 3e bd 2b aa 30 be 52 02 0c be
       -0.10816666 -0.046468128 -0.17252414 -0.1367276
0002d0 d5 87 dc 3c fa ab 00 bd a7 21 8d bd 53 4d 12 be
       0.026920239 -0.03141401 -0.06891184 -0.1428731
0002e0 78 07 50 bc f3 44 e2 bd 75 94 0f 3d 83 3f 7c 3d
       -0.012697093 -0.11048307 0.03505369 0.061584007
0002f0 de 03 0b be 25 2c a7 bd d0 62 37 3e 34 1a 2c be
       -0.13575694 -0.08162717 0.17908788 -0.1680687
000300 52 80 16 3d 14 cb 79 bd dc e8 b0 3d db c3 ae 3e
       0.03674347 -0.060984686 0.086381644 0.341338
000310 56 87 c9 3d b8 a2 2f be a3 61 00 3e 3f 9f 0c 3d
       0.098402664 -0.17151916 0.12537245 0.034331556
000320 6d 03 0e 3e cd 3b c9 3d 0c e8 94 bd 6b 32 c3 ba
       0.13868494 0.09825859 -0.07270822 -0.0014892345
000330 77 ab 0d 3e d6 80 ce bd e9 34 87 bd 43 11 90 3d
       0.1383494 -0.10083167 -0.06601889 0.070345424
000340 81 9f fc bd 7c 69 99 3d 32 fc 51 3d bf 91 9a 3e
       -0.123351105 0.07490823 0.051265903 0.3018932
000350 66 21 1f 3e 92 05 f7 3d 08 0b 1e bd 45 12 bc 3d
       0.15540084 0.12061609 -0.03858474 0.09183172
000360 2b 5d ca bc 0f 11 33 3e f2 f6 25 be 1b 51 be bd
       -0.02470263 0.17486976 -0.16207483 -0.092928134
000370 6a 5b 71 3d 47 6e 6d 3e 1f ff 7b bc aa 9d d9 bb
       0.05892507 0.23186599 -0.01538065 -0.0066411095
000380 22 2d 85 bd 73 89 89 bc 46 1d 90 3d 5b 1e 14 3e
       -0.06502749 -0.016789174 0.070368335 0.14464705
000390 79 49 8c bd bf 22 45 bd cd 72 d4 3d 06 10 17 bd
       -0.06849951 -0.04812884 0.10373459 -0.036880516
0003a0 ff 67 6e 3e b9 b5 e6 bd db 75 04 be 83 e3 a0 bd
       0.23281859 -0.112651296 -0.12935583 -0.078558944
0003b0 f8 cf 95 bc ee e7 e7 3c 9f a5 20 be 5e 6e 09 3e
       -0.018287644 0.028308835 -0.1568818 0.13421008
0003c0 3e 4f 90 bd e2 94 d4 3d 0a 81 4e 3e 22 fc 31 3d
       -0.07046364 0.1037996 0.20166412 0.043453343
0003d0 da 70 26 bd 6b e1 60 3d c6 51 1b bd d2 d7 37 3c
       -0.040634967 0.054902475 -0.037919782 0.011220889
0003e0 9f d7 4b 3e 9a fc a6 bd 15 83 c5 bd 31 4d e4 bd
       0.19906472 -0.08153649 -0.096441425 -0.111475356
0003f0 22 59 60 bd d3 31 64 3d 0b 7e a0 3d 1b 16 60 3b
       -0.054772504 0.05571158 0.07836541 0.0034192863

lv_mlp_net.0.bias f4 [24]
000000 59 8d fd bd 85 aa 83 bd 7e f4 21 3d c3 51 75 bd
       -0.123804756 -0.064290084 0.039539807 -0.059892427
000010 30 eb 5b 3d 11 8d c1 bd 5a 65 15 bc 11 f8 01 be
       0.05369109 -0.094507344 -0.009118402 -0.12692286
000020 72 63 48 be d8 f6 9c 3d a7 03 ca ba e3 3b 91 3e
       -0.19569185 0.07664269 -0.0015412465 0.28366002
000030 fa 8b bc 39 00 75 0a 3d b7 52 4e 3d 6f 8b b6 bd
       0.00035962445 0.033802986 0.05037185 -0.089133136
000040 bb 6a 9f bc ca bc 27 3b f1 74 c7 3c 29 f0 98 3b
       -0.019460073 0.0025594705 0.024347754 0.004667301
000050 4c ec ca 3d 9f 4d 1e bd ee 67 27 3d f2 90 61 3d
       0.09908351 -0.038648244 0.0408706 0.05506987

lv_mlp_net.3.weight f4 [1, 24]
000000 22 5d be be 92 bd bf be da e0 70 be d0 65 89 be
       -0.3718043 -0.37449318 -0.23523274 -0.2683549
000010 d8 a9 3c 3e f5 84 6d be d5 c0 92 3e c8 90 8c 3e
       0.18424165 -0.2319525 0.28662744 0.2745421
000020 a5 57 98 be 20 32 6b 3e 7e 50 73 3e 16 df 4d 3e
       -0.29754367 0.2296834 0.23761174 0.20104632
000030 96 08 91 be 71 4c 82 3e f6 d4 a3 be e2 0e 99 be
       -0.28326863 0.25448945 -0.31998414 -0.29894167
000040 0f fd 7b be 58 07 a5 3e 85 7b 79 be 06 32 58 be
       -0.24608253 0.32232165 -0.24363525 -0.21112832
000050 c8 cc 63 3e dd ef ba be 42 0d 9a 3e 7b 14 3f 3e
       0.22246087 -0.36511126 0.3008824 0.18660156
