model/checkpoints/sarathy2016/chemeleon/model_000.onnx (onnx, 583197 bytes, 14 tensors)

lv_onnx::MatMul_4 f4 [1882, 63]
0.0 0.0 0.0 0.0 0.0 0.0 0.0 0.0
0.0 0.0 0.0 0.0 0.0 -0.8298214 0.0 0.0
0.0 0.0 0.0 0.0 0.0 0.0 0.0 -0.8298214
0.0 0.0 0.0 0.0 0.0 0.0 0.0 0.0
0.0 0.0 0.0 0.0 0.0 0.0 0.0 0.0
0.0 0.0 0.0 0.0 0.0 0.0 0.0 0.0
0.0 0.0 0.0 0.0 0.0 0.0 0.0 0.0
0.0 0.0 0.0 0.0 0.0 0.0 0.0 0.0
0.0 0.0 0.0 0.0 0.0 0.0 0.0 0.0
0.0 0.0 0.0 0.0 0.0 0.0 0.0 0.0
0.0 0.0 0.0 0.0 0.0 0.0 0.0 0.0
0.0 0.0 0.0 0.0 0.0 0.0 0.0 0.0
0.0 -0.8298214 0.0 0.0 0.0 0.0 0.0 0.0
0.0 0.0 0.0 0.0 0.0 0.0 0.0 0.8298214
0.0 0.0 0.0 0.0 0.0 0.0 0.0 0.0
0.0 0.0 0.8298214 0.0 0.0 0.0 0.0 0.0
0.0 0.0 0.0 0.0 0.0 0.0 0.0 0.0
0.0 0.0 0.0 0.0 0.0 0.0 0.0 0.0
0.0 0.0 0.0 0.0 0.0 0.0 0.0 0.0
0.0 0.0 0.0 0.0 0.0 0.0 0.0 0.0
0.0 0.0 0.0 0.0 0.0 0.0 0.0 0.0
0.0 0.0 0.0 0.0 0.0 0.0 0.0 0.0
0.0 0.0 0.0 0.0 0.0 0.0 0.0 0.0
0.0 0.0 0.0 0.0 0.0 0.0 0.0 0.0
0.0 0.0 0.0 0.0 0.0 0.0 0.0 0.0
0.0 0.0 0.0 0.0 0.0 0.0 0.0 0.0
0.0 0.0 0.0 0.0 0.0 0.0 0.0 0.0
0.0 0.0 0.0 0.0 0.0 0.0 0.0 0.0
0.0 0.0 0.0 0.0 0.0 0.0 0.0 0.0
0.0 0.0 0.0 0.0 0.0 0.0 0.0 0.0
0.0 0.0 0.0 0.0 0.0 0.0 0.0 0.0
0.0 0.0 0.0 0.0 0.0 0.0 0.0 0.0
00000000: 0000 0000 0000 0000 0000 0000 0000 0000
00000010: 0000 0000 0000 0000 0000 0000 0000 0000
00000020: 0000 0000 0000 0000 0000 0000 0000 0000
00000030: 0000 0000 2d6f 54bf 0000 0000 0000 0000
00000040: 0000 0000 0000 0000 0000 0000 0000 0000
00000050: 0000 0000 0000 0000 0000 0000 2d6f 54bf
00000060: 0000 0000 0000 0000 0000 0000 0000 0000
00000070: 0000 0000 0000 0000 0000 0000 0000 0000
00000080: 0000 0000 0000 0000 0000 0000 0000 0000
00000090: 0000 0000 0000 0000 0000 0000 0000 0000
000000a0: 0000 0000 0000 0000 0000 0000 0000 0000
000000b0: 0000 0000 0000 0000 0000 0000 0000 0000
000000c0: 0000 0000 0000 0000 0000 0000 0000 0000
000000d0: 0000 0000 0000 0000 0000 0000 0000 0000
000000e0: 0000 0000 0000 0000 0000 0000 0000 0000
000000f0: 0000 0000 0000 0000 0000 0000 0000 0000
00000100: 0000 0000 0000 0000 0000 0000 0000 0000
00000110: 0000 0000 0000 0000 0000 0000 0000 0000
00000120: 0000 0000 0000 0000 0000 0000 0000 0000
00000130: 0000 0000 0000 0000 0000 0000 0000 0000
00000140: 0000 0000 0000 0000 0000 0000 0000 0000
00000150: 0000 0000 0000 0000 0000 0000 0000 0000
00000160: 0000 0000 0000 0000 0000 0000 0000 0000
00000170: 0000 0000 0000 0000 0000 0000 0000 0000
00000180: 0000 0000 2d6f 54bf 0000 0000 0000 0000
00000190: 0000 0000 0000 0000 0000 0000 0000 0000
000001a0: 0000 0000 0000 0000 0000 0000 0000 0000
000001b0: 0000 0000 0000 0000 0000 0000 2d6f 543f
000001c0: 0000 0000 0000 0000 0000 0000 0000 0000
000001d0: 0000 0000 0000 0000 0000 0000 0000 0000
000001e0: 0000 0000 0000 0000 2d6f 543f 0000 0000
000001f0: 0000 0000 0000 0000 0000 0000 0000 0000
00000200: 0000 0000 0000 0000 0000 0000 0000 0000
00000210: 0000 0000 0000 0000 0000 0000 0000 0000
00000220: 0000 0000 0000 0000 0000 0000 0000 0000
00000230: 0000 0000 0000 0000 0000 0000 0000 0000
00000240: 0000 0000 0000 0000 0000 0000 0000 0000
00000250: 0000 0000 0000 0000 0000 0000 0000 0000
00000260: 0000 0000 0000 0000 0000 0000 0000 0000
00000270: 0000 0000 0000 0000 0000 0000 0000 0000
00000280: 0000 0000 0000 0000 0000 0000 0000 0000
00000290: 0000 0000 0000 0000 0000 0000 0000 0000
000002a0: 0000 0000 0000 0000 0000 0000 0000 0000
000002b0: 0000 0000 0000 0000 0000 0000 0000 0000
000002c0: 0000 0000 0000 0000 0000 0000 0000 0000
000002d0: 0000 0000 0000 0000 0000 0000 0000 0000
000002e0: 0000 0000 0000 0000 0000 0000 0000 0000
000002f0: 0000 0000 0000 0000 0000 0000 0000 0000
00000300: 0000 0000 0000 0000 0000 0000 0000 0000
00000310: 0000 0000 0000 0000 0000 0000 0000 0000
00000320: 0000 0000 0000 0000 0000 0000 0000 0000
00000330: 0000 0000 0000 0000 0000 0000 0000 0000
00000340: 0000 0000 0000 0000 0000 0000 0000 0000
00000350: 0000 0000 0000 0000 0000 0000 0000 0000
00000360: 0000 0000 0000 0000 0000 0000 0000 0000
00000370: 0000 0000 0000 0000 0000 0000 0000 0000
00000380: 0000 0000 0000 0000 0000 0000 0000 0000
00000390: 0000 0000 0000 0000 0000 0000 0000 0000
000003a0: 0000 0000 0000 0000 0000 0000 0000 0000
000003b0: 0000 0000 0000 0000 0000 0000 0000 0000
000003c0: 0000 0000 0000 0000 0000 0000 0000 0000
000003d0: 0000 0000 0000 0000 0000 0000 0000 0000
000003e0: 0000 0000 0000 0000 0000 0000 0000 0000
000003f0: 0000 0000 0000 0000 0000 0000 0000 0000

lr_lr_W f4 [1882, 1]
0.0010501564 -0.00071902614 -0.00014798228 0.00010117427 -0.0017790237 -0.0003103668 0.00023802201 -0.0022029367
-0.00087179005 -0.00061366137 -0.0005028984 -0.00031887807 0.0024968951 -6.0041715e-05 -0.0018235841 0.00072225643
-0.0005098563 0.000388913 0.0023643686 -0.00076009525 -0.0010137991 -0.0015030092 7.754198e-07 0.0015786005
-0.0002384433 -0.0014749634 -0.00085307227 -0.0016623908 -0.00020949931 0.0026949504 -0.0012377427 0.0034433862
-0.00010343322 -0.0006221662 0.0019367862 0.00046107493 0.0015796648 -0.0004994379 -0.0005818068 0.0003133268
-0.0015224081 0.0010268203 -0.0017400687 0.0010120105 -0.00040749798 0.0012024681 -0.0020512745 0.001521393
0.00011436511 0.001532007 -0.00072921306 -0.0010818972 -0.00038963667 0.00060768984 -0.00092653424 -0.0012667223
0.0018117212 0.00078232563 0.0014264585 -0.0015620011 0.0012985991 0.00028610812 -6.210326e-05 -0.0002040452
-0.00046888817 0.0006998137 -0.001345404 -0.00031032265 0.0028979424 0.0011138639 0.00022749238 -0.0006901365
-0.0006390474 -0.00057988515 -0.0014681773 0.0013046674 0.0010348791 -0.00014878678 0.002457989 0.0015688619
0.0006916405 -0.00050393003 -0.002019452 -0.00070693763 0.0013999729 0.0022656957 -0.002010341 -0.0009459216
0.0021411409 -0.00062096975 -0.0023104567 0.0007636514 0.0009215347 -0.0009822012 0.0012193575 -0.00092614477
-0.0007100675 0.0029766038 -0.00035986694 -0.0004530117 -0.0006303474 -0.0027223795 0.00028032676 0.0018436881
0.0025489738 0.00084132707 0.0007443563 -0.0008721815 -0.0014512398 -0.0008074396 0.00052331673 -0.0005206879
0.0023802163 -0.0012956483 0.0020916495 -0.0004994379 -0.0015198668 -0.00047112248 0.0023083736 -0.0015409285
0.0019225226 -0.00064910244 -0.0012847515 -0.00034411522 0.0023237157 0.001985378 -0.00066523755 -0.0022802323
-0.0002817604 -0.0002815407 0.0014240787 -0.00024336038 0.0008517447 2.0077432e-05 0.002257471 -0.000420518
-0.00092682615 0.0009807296 -0.0015260156 -0.0022191126 0.0012836899 -0.0016649151 0.0009972407 -0.000648734
-0.0004185156 -0.0012470311 0.0010570468 -0.000629611 -0.00046313182 -0.0014506179 -0.00049081986 0.00021212536
-0.001071607 -0.000304902 -0.00080129196 -0.000353348 0.0025098869 -0.00079283136 0.0021921834 -0.00033653819
0.0032802222 -0.0011243513 -0.0010647838 0.0011007119 -0.002543152 0.0015075965 0.0029763205 0.0015218484
0.0013900283 3.8833474e-05 -0.0008147437 -0.00034320122 0.0016683048 4.4787663e-05 -0.00035334803 0.0008073936
-0.0008792025 -0.000769515 -0.0016317609 -0.0005965659 5.3375792e-05 0.00078620965 0.0011599872 0.0011661737
-0.00063651265 -0.00066901004 -0.00068944675 -0.00030835712 -0.002417295 -0.0013354662 0.00046422496 7.963868e-05
0.00017126504 0.0002264582 -0.00076532684 0.0013692304 0.00066266535 0.0013507004 -0.0004339806 0.0012867021
0.0023142698 -0.001203199 -0.002218587 -0.0007741078 -0.00018305515 -0.0006324144 -0.00114326 -0.0003547669
-0.00039871968 -5.1135634e-05 0.0014650323 0.0006253139 -0.00083357195 0.00024502096 -0.0006760017 -0.0021659154
-0.0017899404 -0.00054213015 -0.0020357186 -0.0003126954 0.0007098113 6.635695e-05 0.0019479111 0.0021101176
-0.0030603101 0.00043926062 -0.00089013396 -0.0016944086 0.0019246743 -0.00067835813 5.810108e-06 0.00095718395
-0.0007171049 -0.00086783094 0.00075651833 0.00025485034 -0.00046762772 -0.0005477636 -0.00050359016 -0.0006214354
0.0026070876 -0.0009297016 0.0005717728 0.00047101374 -0.0012069662 -0.001181905 0.00334653 -0.0016325802
0.0009808934 -0.0015517772 0.0008794822 0.0018326251 0.0036023469 0.0008433005 -0.0016768232 -0.0002421048
00000000: 67a5 893a 077d 3cba b12b 1bb9 862d d438
00000010: 212e e9ba bab8 a2b9 8c95 7939 255f 10bb
00000020: d788 64ba 1ede 20ba f1d4 03ba 172f a7b9
00000030: f3a2 233b 4dd5 7bb8 5405 efba cf55 3d3a
00000040: e1a7 05ba 05e7 cb39 86f3 1a3b 2141 47ba
00000050: 74e1 84ba 9f00 c5ba 7126 5035 0be9 ce3a
00000060: a306 7ab9 8f53 c1ba b6a0 5fba 94e4 d9ba
00000070: 0bad 5bb9 c49d 303b c13b a2ba 6faa 613b
00000080: 4aea d8b8 de18 23ba c3db fd3a 6ebc f139
00000090: c10c cf3a b6ec 02ba 6584 18ba 0346 a439
000000a0: 8a8b c7ba 5f96 863a 0413 e4ba 70a5 843a
000000b0: 74a5 d5b9 229c 9d3a ad6e 06bb 7a69 c73a
000000c0: 4dd7 ef38 a0cd c83a a928 3fba 72ce 8dba
000000d0: 2648 ccb9 604d 1f3a a9e2 72ba 2608 a6ba
000000e0: 4777 ed3a fc14 4d3a 01f8 ba3a 0fbc ccba
000000f0: c135 aa3a c800 9639 6f3d 82b8 f7f4 55b9
00000100: 1bd5 f5b9 b473 373a 4458 b0ba cdb2 a2b9
00000110: 68eb 3d3b 12ff 913a 058b 6e39 47ea 34ba
00000120: bf85 27ba 6f03 18ba db6f c0ba 6001 ab3a
00000130: c8a4 873a a603 1cb9 3616 213b 45a2 cd3a
00000140: 354f 353a 2c1a 04ba c858 04bb c851 39ba
00000150: 4c7f b73a 117c 143b edbf 03bb b9f7 77ba
00000160: 6252 0c3b 93c8 22ba 086b 17bb c72f 483a
00000170: 2693 713a 34bd 80ba d9d2 9f3a 86c8 72ba
00000180: d323 3aba 2013 433b 86ac bcb9 3382 edb9
00000190: e63d 25ba f369 32bb d2f8 9239 e8a7 f13a
000001a0: af0c 273b 818c 5c3a e820 433a 1ca3 64ba
000001b0: 8737 beba 5baa 53ba 312f 093a c67e 08ba
000001c0: 67fd 1b3b bed2 a9ba 0e14 093b b6ec 02ba
000001d0: 4436 c7ba fd00 f7b9 1548 173b fbf8 c9ba
000001e0: 27fd fb3a 8728 2aba 1b65 a8ba 5d6a b4b9
000001f0: 7b49 183b 1e1d 023b 5663 2eba f36f 15bb
00000200: 3eb9 93b9 c19b 93b9 27a8 ba3a 8e2e 7fb9
00000210: 9f47 5f3a f56b a837 14f2 133b f878 dcb9
00000220: 40f6 72ba d38b 803a 9604 c8ba 886e 11bb
00000230: 7c41 a83a 4839 daba d8b5 823a cd0f 2aba
00000240: 376c dbb9 6c73 a3ba 9b8c 8a3a 7b0c 25ba
00000250: 80d0 f2b9 a922 beba 5daa 00ba f86d 5e39
00000260: 2a75 8cba 41db 9fb9 cb0d 52ba 9141 b9b9
00000270: ea7c 243b 03d6 4fba bcaa 0f3b 6471 b0b9
00000280: fff8 563b f85e 93ba 3790 8bba c345 903a
00000290: 03ab 26bb 8b9a c53a 5f0e 433b c278 c73a
000002a0: 9c31 b63a 20e1 2238 8694 55ba b0ef b3b9
000002b0: 05ab da3a 63da 3b38 9241 b9b9 44a7 533a
000002c0: 487a 66ba 47b9 49ba cfe0 d5ba dc62 1cba
000002d0: d2df 5f38 a319 4e3a b60a 983a 4cda 983a
000002e0: a4db 26ba 8160 2fba fdbb 34ba feaa a1b9
000002f0: 7b6b 1ebb cf0a afba 3863 f339 b103 a738
00000300: 9c95 3339 6975 6d39 37a0 48ba c077 b33a
00000310: b8b6 2d3a fc09 b13a e487 e3b9 8fa6 a83a
00000320: 01ab 173b a9b4 9dba b765 11bb 7fed 4aba
00000330: 7ef2 3fb9 9dc8 25ba 71d9 95ba 0200 bab9
00000340: 400b d1b9 787a 56b8 5406 c03a 1bec 233a
00000350: 1184 5aba 2876 8039 b535 31ba 08f2 0dbb
00000360: 6f9c eaba bd1d 0eba b169 05bb 44f1 a3b9
00000370: a112 3a3a 1e29 8b38 0d51 ff3a e649 0a3b
00000380: 7c8f 48bb 904c e639 e157 69ba eb16 deba
00000390: 5a45 fc3a d8d3 31ba 73f4 c236 87eb 7a3a
000003a0: 18fc 3bba 267f 63ba 1651 463a 6f9d 8539
000003b0: ee2b f5b9 cb97 0fba 5d03 04ba d3e7 22ba
000003c0: acdb 2a3b 38b7 73ba 06e3 153a 65f2 f639
000003d0: 1133 9eba 27ea 9aba 7551 5b3b 4dfc d5ba
000003e0: 5291 803a 0165 cbba 0d8d 663a b234 f03a
000003f0: 5a15 6c3b f010 5d3a dac8 dbba 83dd 7db9

svc_W2_svc f4 [1882, 1]
0.0034732583 -0.0033342603 -0.0007392995 -0.0006370533 -0.0032195204 0.0010398444 -0.0011884575 -0.003427285
-0.0011385808 -0.001413486 -0.00016548732 -2.148345e-05 0.0024511009 -0.001655178 -0.0031567314 0.0011666662
-0.0017715606 -0.00041336098 0.0070305327 -0.0011498233 -0.0018483689 -0.002525315 -0.00046331837 0.00586968
-0.0009944597 -0.0031327966 -0.0020136312 -0.0042113387 -0.0009605286 0.0020152514 -0.0027543115 0.0069756703
0.0013626886 -0.0016837944 0.004749886 0.0011165405 0.0028006553 -0.0010676726 -0.0005659652 0.0013474171
-0.0020972025 0.005134228 -0.0026331341 0.004423655 0.000101556536 0.0015876947 -0.0048620384 0.0043989825
0.000422843 0.0025502897 -0.0009808714 -0.00075748883 -0.0003173623 0.0027048734 -0.002038194 -0.003110584
0.005792648 -0.00014727606 0.0010322123 -0.0025638118 0.003507061 -0.0014937177 0.0020314772 0.00068204163
-0.0014754734 -0.00144921 -0.0023451163 -0.0013647904 0.007283904 0.0002067526 0.0007514635 -0.0011285717
-0.0022374513 -0.001610644 -0.0040361206 0.00023218068 0.003950458 0.0005982344 0.0053106574 0.00043791032
0.0006991172 -0.0011777197 -0.0042415108 -0.00014474156 0.0008930111 0.005642346 -0.0034319237 -0.004162984
0.0062959054 -0.0018208426 -0.005917364 -0.00015259678 0.004334215 -0.0026512335 0.0005081338 -0.0027062558
-0.0016997202 0.0034821283 -0.0011028006 -0.0004422299 -0.0010374861 -0.0050816443 0.0023031258 0.0050729904
0.0069654305 0.00035392682 0.0017556291 -0.0012148474 -0.0017510236 -0.0018727985 0.0008301579 -0.002144383
0.0025796855 -0.0054143816 0.0014562742 -0.0010676726 -0.002143156 -0.0010832037 0.005224363 -0.0024496096
0.002848274 -0.001948585 -0.0009962217 -0.0018077623 0.0014190596 0.0032693185 -0.002043335 -0.0051149856
-0.00032612504 -0.0003353516 0.0029867855 -0.00040374746 0.0019000279 0.001015651 0.0052527273 -0.00064717897
-0.0035008523 0.00027152698 -0.002073212 -0.0046185204 0.0013198867 -0.0039546485 0.00061308447 -0.0005803154
-0.0014951973 -0.0026920324 0.001395122 -0.0005403902 -0.00065215613 -0.0029687716 -0.0008399256 0.001023462
-0.0033851403 -0.001067669 -0.0018473305 -0.00048779536 0.0036525228 -0.0025170983 0.0034380148 -0.00020590515
0.005892539 -0.0015963307 -0.0016188563 -7.16681e-06 -0.0054715504 0.0034770223 0.00642346 0.006737537
0.00046552686 0.0011311733 -0.0007376527 -0.00065816764 0.0055129766 7.860266e-05 -0.0004877954 0.002641508
-0.002355929 -7.3973847e-06 -0.0034722912 -0.0012573143 0.0012982329 0.0030267932 0.00094305986 0.0029123963
-0.000281386 -0.0010838291 -0.0032647327 -0.0010676672 -0.00583437 -0.0019191069 0.0027218289 0.00078501017
0.0011459673 0.0010661369 -0.0015713417 0.004412685 0.002168609 0.0019198061 -0.0014534411 0.004700872
0.0013442067 -0.0017597158 -0.004440159 -0.0023441166 0.0018132811 -0.00022638388 -0.0025370093 -0.0010143988
-0.0005243659 -0.0015964009 0.0036231456 -0.00045403375 -0.00071216346 0.00053381926 -0.0018201242 -0.0042243805
-0.0042703846 -0.00235808 -0.00419706 0.00038781005 0.00088919175 0.0007341678 0.0066548614 0.0049733785
-0.0052855983 0.001932337 -0.0005594169 -0.0030475939 0.0055384003 -0.0015364584 0.0008382624 -0.0005524284
-0.0013405302 -0.002098404 0.00029444555 -0.00077238627 -0.0015386844 0.0007046291 -0.000958452 -0.00061035226
0.006534139 -0.0012894501 0.0016280188 0.0012544503 -0.0017671981 -0.0017125045 0.008264834 -0.0037131524
0.00076848187 -0.0046041254 0.0038745962 0.0031879316 0.0035646523 0.00074499723 -0.0023397545 0.000112686306
00000000: 9b9f 633b 9b83 5abb 8dcd 41ba ecff 26ba
00000010: 97fe 52bb 634b 883a 04c6 9bba 4d9c 60bb
00000020: 6f3c 95ba b844 b9ba aa86 2db9 5c37 b4b7
00000030: a6a2 203b 8ff2 d8ba 2ae1 4ebb d2ea 983a
00000040: b633 e8ba 5fb8 d8b9 6260 e63b abb5 96ba
00000050: f844 f2ba c17f 25bb 8ae9 f2b9 7256 c03b
00000060: 8858 82ba 9b4f 4dbb 20f7 03bb 45ff 89bb
00000070: fccb 7bba 4f12 043b ae81 34bb 2a94 e43b
00000080: 3e9c b23a c4b2 dcba efa4 9b3b e258 923a
00000090: 338b 373b 26f1 8bba 485d 14ba d19b b03a
000000a0: 3871 09bb 073d a83b a990 2cbb 4ff4 903b
000000b0: c0fa d438 321a d03a bc51 9fbb 5725 903b
000000c0: 07b1 dd39 c322 273b 9590 80ba 3792 46ba
000000d0: a663 a6b9 3f44 313b 3993 05bb f1da 4bbb
000000e0: 41d0 bd3b 1e6e 1ab9 4c4b 873a a005 28bb
000000f0: b8d6 653b d9c8 c3ba 8822 053b 0acb 323a
00000100: ac64 c1ba 6bf3 bdba 86b0 19bb c4e2 b2ba
00000110: d1ad ee3b bacb 5839 ddfd 443a 95ec 93ba
00000120: 34a2 12bb 3f1c d3ba 6f41 84bb 8775 7339
00000130: d872 813b d5d2 1c3a 0605 ae3b 5497 e539
00000140: f644 373a b75d 9aba 5ffc 8abb c4c5 17b9
00000150: f618 6a3a 6ee3 b83b 20ea 60bb a469 88bb
00000160: e24d ce3b 57a9 eeba 72e6 c1bb 6302 20b9
00000170: 0806 8e3b 51c0 2dbb 4834 053a 705b 31bb
00000180: 25c9 deba 6b34 643b d98b 90ba 18db e7b9
00000190: 42fc 87ba ec83 a6bb 0af0 163b 543b a63b
000001a0: 443e e43b 418f b939 231d e63a 843b 9fba
000001b0: 9a82 e5ba b178 f5ba f49e 593a c788 0cbb
000001c0: f10f 293b 206b b1bb 74e0 be3a 26f1 8bba
000001d0: 3174 0cbb 49fa 8dba 2231 ab3b a189 20bb
000001e0: 1caa 3a3b aa67 ffba a793 82ba 70f2 ecba
000001f0: bdff b93a 1042 563b 79e9 05bb 9c9b a7bb
00000200: c3fb aab9 21d2 afb9 f2bd 433b 11ae d3b9
00000210: 5b0a f93a 981f 853a 121f ac3b 72a7 29ba
00000220: 8e6e 65bb bc5b 8e39 bade 07bb f556 97bb
00000230: 0c00 ad3a ff95 81bb 67b7 203a 4f20 18ba
00000240: 7ffa c3ba cf6c 30bb 87dc b63a f9a8 0dba
00000250: 75f5 2aba b98f 42bb 742e 5cba b025 863a
00000260: 3bd9 5dbb 07f1 8bba 2022 f2ba c9be ffb9
00000270: 2a5f 6f3b e7f5 24bb 5150 613b 3ee8 57b9
00000280: 3316 c13b f83b d1ba ce2f d4ba 6e7a f0b6
00000290: b14a b3bb c1de 633b e37b d23b 8fc6 dc3b
000002a0: f511 f439 e143 943a 095f 41ba e288 2cba
000002b0: 33a6 b43b 7bd7 a438 cabe ffb9 261d 2d3b
000002c0: ee65 1abb 0d37 f8b6 618f 63bb 78cc a4ba
000002d0: 7829 aa3a 2a5d 463b ad37 773a e7dd 3e3b
000002e0: fd86 93b9 450f 8eba 20f5 55bb f7f0 8bba
000002f0: 3e2e bfbb 8b8a fbba b660 323b 24c9 4d3a
00000300: 4834 963a 9ebd 8b3a 7af5 cdba 4998 903b
00000310: 391f 0e3b 01a2 fb3a 6481 beba c609 9a3b
00000320: 1830 b03a 44a6 e6ba c17e 91bb c09f 19bb
00000330: 9eab ed3a 7661 6db9 f443 26bb 93f5 84ba
00000340: 9a75 09ba 533e d1ba 4c72 6d3b 610b eeb9
00000350: 7bb0 3aba 01f0 0b3a 3c91 eeba ac6c 8abb
00000360: 95ee 8bbb 048a 1abb 7e87 89bb fc52 cb39
00000370: a618 693a 2b75 403a 0611 da3b b9f7 a23b
00000380: d032 adbb 7846 fd3a d5a5 12ba 24ba 47bb
00000390: 787b b53b fd62 c9ba d6be 5b3a d8d0 10ba
000003a0: bbb4 afba 6185 09bb d05f 9a39 f779 4aba
000003b0: aead c9ba dcb6 383a a040 7bba 0c00 20ba
000003c0: 551c d63b c402 a9ba 3f63 d53a 5e6c a43a
000003d0: 54a1 e7ba 1e76 e0ba 3a69 073c 5c58 73bb
000003e0: f273 493a 34de 96bb f0ec 7d3b 9eec 503b
000003f0: f19c 693b eb4b 433a 9156 19bb 0052 ec38

fs_lr_fs_lr_W f4 [908, 1]
-0.0012114769 -0.0014304752 -0.0006794065 0.001834865 -0.0012479662 0.0014689745 -0.0010291535 -0.0009096407
-0.0010600282 0.0020044732 -0.0008071163 0.0022706636 0.0011924935 0.0010783831 -0.0004414649 -0.0010525804
-0.0011662903 0.00095463224 -0.0013007536 0.0009253867 0.0010246929 -0.00059600716 -0.0008210636 -0.0008549071
0.0005725351 0.0009356429 -0.0011009295 0.0008410788 0.0004108486 0.000561035 -0.0008210904 0.0018398435
0.0007856338 -0.00092155195 0.0009439443 0.0014888006 0.0012022929 -0.0013002811 -0.00057997624 0.0010034844
0.0012991437 -0.0013403835 0.001194379 -0.0014513709 0.0005688182 0.00089530775 0.0021305813 -0.0017751222
0.0011574801 0.0015230605 -0.00062281813 -0.0010742577 0.0016788966 0.001554503 -0.0010258604 0.001457477
-0.0010882 0.0012400623 -0.00093869196 0.0017019978 0.001347547 -0.0014766526 0.00091968745 0.001472217
0.0007398554 -0.0010567489 -0.0014435237 -0.0011283394 0.00073854614 -0.00083319674 0.0007505801 -0.00097205525
-0.0007160003 0.001785245 0.0015625879 0.0022028661 -0.00076057366 -0.00067984516 0.0008204967 -0.0015987398
0.0008842143 0.001863725 0.0010690483 -0.0006251332 0.0010404541 0.0005779116 -0.0006246586 -0.0010688211
-0.0015423874 -0.0009206047 0.0016961342 -0.00077886775 -0.0014724433 0.0009987394 0.00054672774 -0.00047619024
-0.0014417503 -0.0011483078 -0.001323678 0.0013602474 -0.0020382407 -0.0006474391 -0.0011347636 0.0011928446
0.00078553095 0.0005620402 0.001564454 -0.0006811453 -0.00073496357 -0.00079608336 0.0019902003 -0.001040379
0.0007758461 -0.0009548296 0.001336773 0.002570151 0.00062895776 -0.0011452286 0.0008810276 -0.0010390093
0.0007325745 -0.0008543734 -0.00091929286 0.0006034672 -0.0013037672 -0.0011837026 0.0009081592 0.0026015341
-0.0009407987 -0.0021593978 -0.00055678387 -0.0017481036 -0.0008542788 -0.0018279485 -0.0007092751 -0.0014088439
0.0018024588 0.001786583 0.0017422563 0.0021115383 -0.0008032652 0.00270676 0.0010053231 -0.00093113683
-0.00062319246 -0.0010561661 -0.0017172463 0.00070589344 0.0006551266 0.0011042492 -0.0009699371 0.0011855861
-0.0008868579 -0.0008196217 0.0014325334 -0.0016837314 -0.0013580389 -0.0012974457 0.001555849 -0.0006665071
0.0012436204 0.0011201525 -0.001076205 0.000859235 -0.0005756593 -0.0006994699 -0.0018270363 -0.0008159213
0.0015972712 -0.0007114959 -0.0012753055 0.0025250867 -0.0013390126 -0.00059943553 0.0018413642 0.000912163
-0.0007790089 0.0015899292 -0.0010876813 0.0021477204 0.00075137615 -0.0014893324 0.0024050246 -0.0016048837
-0.0012864774 0.0011718862 0.0013486544 -0.00087985204 -0.00079638243 -0.0011510759 0.001565916 0.0009564056
0.0009865307 0.0013614142 -0.00066548295 0.0012114603 0.0013493643 0.0010375852 -0.001949524 0.0014110431
0.0012147109 0.0016318982 -0.0007269977 -0.0018353815 -0.0011238207 -0.0011043615 -0.0012969503 0.0014434634
-0.0010439818 0.00091145246 -0.0019128148 0.0013033856 -0.0008531787 0.0007879019 -0.0005772041 -0.002252546
0.0005890692 -0.0007924 0.0012166532 0.0013036976 -0.0023457692 0.0008062409 -0.0015349551 -0.0021263114
-0.0017616333 -0.0010866123 0.0016215021 -0.00090115034 -0.0013257727 0.002328254 -0.0008768619 -0.0025037818
-0.0015553168 0.0008632565 0.0012909967 0.0026884943 -0.001257535 -0.0012049604 -0.00091430603 -0.0008517911
-0.0010047368 -0.0007750782 0.0010950983 -0.0008321446 -0.0010353193 -0.0009334881 0.0016033046 -0.0015747575
0.001700929 0.00096723053 -0.0012971415 0.0015500847 0.0015802257 0.0011613239 0.0012576473 -0.0007710845
00000000: 6bca 9eba c87e bbba 331a 32ba da7f f03a
00000010: cc92 a3ba 9b8a c03a a9e4 86ba f474 6eba
00000020: a5f0 8aba 7b5d 033b a894 53ba 6acf 143b
00000030: 714d 9c3a 8858 8d3a 6a74 e7b9 bdf6 89ba
00000040: 35de 98ba 4940 7a3a 0c7e aaba a695 723a
00000050: fd4e 863a 5d3d 1cba a53c 57ba d81b 60ba
00000060: 2e16 163a ef45 753a 104d 90ba d87b 5c3a
00000070: 2a67 d739 6c12 133a 723e 57ba e726 f13a
00000080: fef2 4d3a 4e94 71ba 0873 773a dc23 c33a
00000090: 4196 9d3a 326e aaba 8c09 18ba 5987 833a
000000a0: 0748 aa3a cfaf afba b58c 9c3a ed3b beba
000000b0: be1c 153a 16b3 6a3a 39a1 0b3b 38ab e8ba
000000c0: 96b6 973a 6ea1 c73a 9e44 23ba 1bce 8cba
000000d0: 6c0e dc3a 77c0 cb3a 2a76 86ba d008 bf3a
000000e0: efa1 8eba 9689 a23a 8d12 76ba 9215 df3a
000000f0: 2da0 b03a 3d8c c1ba 2e17 713a 68f7 c03a
00000100: dbf2 413a 9c82 8aba 9e34 bdba cae4 93ba
00000110: fe9a 413a e36a 5aba 94c2 443a 86d1 7eba
00000120: f7b1 3bba e2fe e93a c0cf cc3a f65d 103b
00000130: 3c61 47ba a337 32ba 9a16 573a ce8c d1ba
00000140: 9eca 673a 3c48 f43a 4f1f 8c3a fbdf 23ba
00000150: d95f 883a fe7e 173a 21c0 23ba af17 8cba
00000160: ef29 caba bc54 71ba d250 de3a ee2c 4cba
00000170: 00ff c0ba 22e8 823a 4752 0f3a 2ca9 f9b9
00000180: 1df9 bcba d182 96ba 437f adba 544a b23a
00000190: 0194 05bb e7b8 29ba 59bc 94ba 3959 9c3a
000001a0: 17ec 4d3a e155 133a 5e0e cd3a e38e 32ba
000001b0: 92aa 40ba 40b0 50ba 056e 023b 545d 88ba
000001c0: 2762 4b3a 884d 7aba a936 af3a fa6f 283b
000001d0: a4e0 243a 7f1b 96ba c3f4 663a 5e2f 88ba
000001e0: 3e0a 403a 07f8 5fba b3fc 70ba 0032 1e3a
000001f0: 2be3 aaba 7826 9bba 8811 6e3a 807e 2a3b
00000200: ef9f 76ba af84 0dbb 22f5 11ba a020 e5ba
00000210: aef1 5fba c697 efba a5ee 39ba f5a8 b8ba
00000220: 7b40 ec3a c72b ea3a 6c5c e43a bc61 0a3b
00000230: 3792 52ba e663 313b 0cc5 833a 8917 74ba
00000240: bd5d 23ba 0e6f 8aba 3915 e1ba b50b 393a
00000250: cdbc 2b3a 74bc 903a 6043 7eba ab65 9b3a
00000260: 077c 68ba e2db 56ba d8c3 bb3a a7b0 dcba
00000270: 3900 b2ba 0e0f aaba a1ed cb3a 89b8 2eba
00000280: fa00 a33a 15d2 923a 730f 8dba 493e 613a
00000290: d7e7 16ba a15c 37ba 2a79 efba 8de3 55ba
000002a0: 875b d13a ae83 3aba 2728 a7ba ed7b 253b
000002b0: cf81 afba 7023 1dba ee59 f13a 391e 6f3a
000002c0: 6736 4cba 2c65 d03a 8790 8eba c5c0 0c3b
000002d0: 00f8 443a b435 c3ba 9e9d 1d3b f65a d2ba
000002e0: 059f a8ba fa99 993a 55c5 b03a dfa5 66ba
000002f0: 52c4 50ba b3df 96ba 6c3f cd3a 4bb7 7a3a
00000300: 7a4e 813a 7b71 b23a ce73 2eba ddc9 9e3a
00000310: 27dd b03a 95ff 873a 2c87 ffba c0f2 b83a
00000320: ef36 9f3a 6be5 d53a fd93 3eba 2f91 f0ba
00000330: 2a4d 93ba 39c0 90ba 6efe a9ba 9832 bd3a
00000340: 37d6 88ba 8aee 6e3a 6ab7 faba 5dd6 aa3a
00000350: daa7 5fba 348b 4e3a 834f 17ba 739f 13bb
00000360: c46b 1a3a 10b9 4fba 1b78 9f3a d5e0 aa3a
00000370: 7abb 19bb e959 533a 8c30 c9ba 9659 0bbb
00000380: 9be6 e6ba a96c 8eba 9588 d43a 2d3b 6cba
00000390: 8dc5 adba 9f95 183b 35dd 65ba 7d16 24bb
000003a0: c6db cbba 2a4c 623a a936 a93a 7331 303b
000003b0: dfd3 a4ba c3ef 9dba 0aae 6fba bc4a 5fba
000003c0: 5fb1 83ba 9e2e 4bba 6789 8f3a 4724 5aba
000003d0: 8db3 87ba 53b5 74ba fa25 d23a 1868 ceba
000003e0: b5f1 de3a be8d 7d3a d904 aaba 362c cb3a
000003f0: 931f cf3a 9037 983a a4d7 a43a 9b22 4aba

fs_svc_W2_fs_svc f4 [908, 1]
-0.0037379619 -0.0037828612 -0.0016004051 0.0028683038 -0.0032229223 0.007340525 -0.0033472513 -0.0036057294
-0.0050321645 0.0017941258 -0.0039472715 0.008022458 0.005458326 0.0028600998 -0.0010876573 -0.0026505655
-0.0033306247 0.0012106155 -0.005689995 0.0064928085 0.0035896413 0.00016901884 -0.0008026556 -0.002700042
-0.00025060063 0.0011845385 -0.003072119 0.003935218 -0.0017231907 -0.0017114667 -0.0029111076 0.009359118
-8.954174e-06 -0.004117468 8.4080784e-05 0.008235209 6.2916246e-05 -0.0054604635 -0.00064736593 0.0014947408
0.007537566 -0.004287801 0.0070149424 -0.006186209 -0.00035968883 0.00022655373 0.0039168373 -0.005920769
0.006729183 0.006222701 -0.0012872318 -0.0023480868 0.0031659442 0.0013309821 -0.002728082 0.006340237
-0.002849639 0.0036313792 -0.0022004363 0.0008618817 0.0024805495 -0.0050133755 0.0037257485 0.005156524
-0.0004257054 -0.0023377605 -0.0058404133 -0.003902785 0.00033279613 -0.0030401752 0.0024511907 -0.002885691
-0.0028602981 0.0030762225 0.0030509217 0.0063946666 -0.0024651045 -0.0022989216 -0.00018002407 -0.0066748783
0.004678892 0.0072876182 0.00020374922 -0.00027304547 0.005959116 0.002402757 -0.0011451074 -0.0041950895
-0.0060997717 -0.0026727896 0.0008911269 -0.001760527 -0.0052078734 0.0035451995 -0.0011642075 -0.00066267257
-0.004923487 -0.004862783 -0.004812186 0.0060815243 -0.006700898 -0.000586035 -0.0037436332 0.005529528
-0.00057874026 -0.00013579673 0.008658972 -0.00052861753 -0.002487076 -0.0024386933 0.011457686 -0.0041511157
0.00059876416 -0.005555811 0.003331049 0.0032232455 -0.0001894833 -0.0026908906 0.0011583443 -0.0021372952
0.003224083 -0.0013435335 -0.0010337638 -0.00032981878 -0.0037081377 -0.0056546284 0.00034027372 0.004856843
-0.002293843 -0.006434987 -8.296219e-05 -0.006581628 -0.0024387902 -0.0062335697 -0.0017457833 -0.004760431
0.005638753 0.002137842 0.007558277 0.007056864 -0.002519623 0.0071737263 0.006579241 -0.0017284737
-0.0026150788 -0.003371157 -0.0057504685 0.002055362 -5.062792e-05 0.00079288887 -0.005545036 0.007915011
-0.0043794494 -0.0016544908 -0.0010320058 -0.0060255965 -0.005231094 -0.005774529 0.0042650574 -0.0025070913
0.0019280115 0.0017291673 -0.0043414384 0.0007181511 0.0014414376 -0.0020903642 -0.0067236405 -0.0021810352
0.0006847308 -0.003081463 -0.0057286713 0.010271431 -0.003782727 -0.0019679253 0.001753592 -0.0006244409
-0.0036056892 0.0056265336 -0.0051733186 0.0075415773 0.0011666984 -0.0041691246 0.007079728 -0.005582861
-0.0059930244 0.0014300316 0.006726518 -0.0036879473 -0.0034420753 -0.0038698025 0.006342525 0.002452913
0.0038556326 0.010015665 -0.0028309515 0.006054829 0.001538511 0.0011882052 -0.005114954 0.010170389
0.0038059377 0.0018136457 -0.00015279424 -0.007546672 -0.0021892218 -0.0049422947 -0.004197501 0.0057230922
-0.0033435756 0.0035947799 -0.0057141418 0.00399739 -0.00042811278 0.0039991457 -0.0009155689 -0.008294841
0.00086075865 -0.0029128068 0.00306857 0.0058182525 -0.008883544 0.0010168722 -0.005378413 -0.007827131
-0.0060677575 -0.0037639774 0.0016722364 -0.0037646114 -0.0031546876 0.007365878 -0.0023728933 -0.009301735
-0.0057877377 0.0019626678 0.0044062505 0.007485189 -0.0040668645 -0.0048669428 -0.0019953174 -0.004735613
-0.002684716 -0.0035146654 0.004115803 -0.0034313952 -0.0035837106 -0.002237646 0.003981646 -0.004761131
0.004220564 0.0036046633 -0.0032494392 0.00547296 0.0013543488 0.005246718 0.00057210686 -0.0020636104
00000000: 98f8 74bb e1e9 77bb afc4 d1ba 27fa 3b3b
00000010: aa37 53bb c988 f03b 8f5d 5bbb 1a4e 6cbb
00000020: dbe4 a4bb df28 eb3a 1d58 81bb a170 033c
00000030: c2db b23b 8370 3b3b b98f 8eba 1cb5 2dbb
00000040: 9c46 5abb 84ad 9e3a 2373 babb a0c1 d43b
00000050: 3040 6b3b a63a 3139 4e69 52ba 30f3 30bb
00000060: 0c63 83b9 8442 9b3a 9b55 49bb 00f3 803b
00000070: afdc e1ba 4b53 e0ba 48c8 3ebb fc56 193c
00000080: e239 16b7 d3eb 86bb 8754 b038 f8ec 063c
00000090: e7f1 8338 b0ed b2bb feb3 29ba 2eeb c33a
000000a0: b0fd f63b af80 8cbb 9add e53b afb5 cabb
000000b0: 9e94 bcb9 0e8f 6d39 d058 803b 0303 c2bb
000000c0: 7a80 dc3b cde7 cb3b 55b8 a8ba 5ce2 19bb
000000d0: bb7b 4f3b 5974 ae3a 9fc9 32bb c3c1 cf3b
000000e0: 02c1 3abb 6ffc 6d3b 3235 10bb e7ef 613a
000000f0: b790 223b 3e47 a4bb b02b 743b 0ff8 a83b
00000100: 3631 dfb9 1d35 19bb f060 bfbb dec5 7fbb
00000110: 247b ae39 ad3d 47bb 28a4 203b dc1d 3dbb
00000120: d773 3bbb 739a 493b f9f1 473b 5a8a d13b
00000130: 978d 21bb 81a9 16bb d8c4 3cb9 f0b8 dabb
00000140: 6451 993b f9cc ee3b 84a5 5539 8b27 8fb9
00000150: b044 c33b 9377 1d3b 6e17 96ba f676 89bb
00000160: 98e0 c7bb f829 2fbb 849a 693a 7cc1 e6ba
00000170: cfa6 aabb 9456 683b 5298 98ba 34b7 2dba
00000180: 3455 a1bb fb57 9fbb 8baf 9dbb 8647 c73b
00000190: 3593 dbbb 25a0 19ba be57 75bb 0b31 b53b
000001a0: 9ab6 17ba a864 0eb9 5cde 0d3c ec92 0aba
000001b0: 36fe 22bb 7cd2 1fbb 05b9 3b3c 1506 88bb
000001c0: 62f6 1c3a 850d b6bb bb4d 5a3b 163d 533b
000001d0: 09b0 46b9 a759 30bb 96d3 973a dd11 0cbb
000001e0: 234b 533b 8119 b0ba 5b7f 87ba 87eb acb9
000001f0: 3a04 73bb 764a b9bb c466 b239 2726 9f3b
00000200: 4d54 16bb 95dc d2bb fdfb adb8 b3aa d7bb
00000210: 1cd4 1fbb f942 ccbb c4d2 e4ba 64fd 9bbb
00000220: 4ac5 b83b 091b 0c3b 6cab f73b 443d e73b
00000230: 4220 25bb 9411 eb3b ac96 d73b f48d e2ba
00000240: be61 2bbb a1ee 5cbb 6d6e bcbb 41b3 063b
00000250: 5159 54b8 dfd9 4f3a 22b3 b5bb f6ad 013c
00000260: 7c81 8fbb 80db d8ba 5e44 87ba 5e72 c5bb
00000270: 9969 abbb 4338 bdbb e5c1 8b3b 034e 24bb
00000280: 55b5 fc3a 3aa5 e23a a042 8ebb 4e42 3c3a
00000290: 9fee bc3a 7efe 08bb fc51 dcbb b3ef 0ebb
000002a0: 827f 333a 5ff2 49bb 94b7 bbbb 8149 283c
000002b0: a1e7 77bb 4ff8 00bb c9d8 e53a 85b1 23ba
000002c0: 6d4d 6cbb c95e b83b f184 a9bb 561f f73b
000002d0: e7eb 983a 279d 88bb 10fd e73b 6ff0 b6bb
000002e0: 2261 c4bb e66f bb3a 1f6a dc3b 7db1 71bb
000002f0: 7194 61bb 839c 7dbb f5d4 cf3b 0dc1 203b
00000300: c8ae 7c3b be18 243c 7c87 39bb 9667 c63b
00000310: dda7 c93a 8dbd 9b3a 589b a7bb b4a1 263c
00000320: 0a6d 793b dab7 ed3a 6437 20b9 134a f7bb
00000330: 0c79 0fbb f9f2 a1bb 318b 89bb c788 bb3b
00000340: e41f 5bbb 6696 6b3b b23d bbbb 8afc 823b
00000350: 5374 e0b9 440b 833b ca02 70ba 16e7 07bc
00000360: 89a4 613a cae4 3ebb 101a 493b 0aa7 be3b
00000370: 498c 11bc 9248 853a 663d b0bb 5e3d 00bc
00000380: 0ad4 c6bb 10ad 76bb f12e db3a b3b7 76bb
00000390: e0be 4ebb 775d f13b 8b82 1bbb 4e66 18bc
000003a0: 10a7 bdbb 1aa0 003b 4f62 903b 5146 f53b
000003b0: 5543 85bb e07a 9fbb dfc3 02bb 332d 9bbb
000003c0: 0ff2 2fbb 4d56 66bb dcdd 863b 42e1 60bb
000003d0: b0dc 6abb 78a5 12bb 7878 823b 4303 9cbb
000003e0: a84c 8a3b 373c 6c3b 8bf4 54bb 8456 b33b
000003f0: 6884 b13a a9ec ab3b 71f9 153a a33d 07bb

mfs_lr_mfs_lr_W f4 [421, 1]
-0.009638535 0.00054775464 -0.0047036493 -0.010680746 0.012809321 -0.005806895 0.01842372 0.007964573
-0.00012848745 -0.011185523 0.0039060705 0.009921111 0.006451617 -0.004827 0.014665093 0.010224726
-0.0006433041 -0.010170658 -0.014666025 -0.015822008 0.008029817 -0.0050444114 -0.010573851 0.014998628
-0.0070331995 0.009035629 -0.0012237204 -0.00085138716 -0.00096116326 -0.014373144 0.019098856 -0.01012922
0.0048728366 0.005793916 -0.016193205 0.0003398721 0.008129689 -0.012640249 -0.00751647 -0.013856052
-0.011827173 0.0119736185 0.0034782612 0.003215736 0.014756335 0.0008916101 0.00488097 0.019782944
-0.010722048 -0.008668147 0.0036201866 0.0071336296 -0.011044899 -0.016103337 -0.001585402 -0.014941547
-0.01315935 -0.0060084416 -0.0029729244 0.015638858 0.016134342 0.01913403 0.013776623 -0.0050888937
-0.006683475 -0.008303274 -0.009455226 0.0022679113 0.012407592 -0.01304634 -0.013117052 -0.004726601
-0.012884059 0.00823313 -0.01597083 -0.012403874 0.019864975 -0.011240027 -0.0065380186 -0.0031541819
0.008683122 0.013105716 0.0027667999 -0.010960709 0.018551506 0.009660057 0.00788008 0.003748171
-9.9066754e-05 0.008920557 0.0030791666 -0.0003418707 -0.014692778 0.018651742 0.013681408 -0.008390455
-0.014489322 -0.0028616202 -0.009647055 -0.0034151585 -0.015349474 0.013139162 -0.018391661 -0.0006464855
0.004360133 -0.017917246 -0.015646856 -0.0065153684 0.008709909 -0.0073097544 -0.022356367 0.0036409684
-0.00021019943 -0.011731828 0.0013203184 -0.009234735 -0.0030797382 0.010524654 -0.0085215485 0.010718322
0.009415322 -0.0026763852 0.0059156837 0.0057897335 0.01702126 0.011947173 -0.012095287 -0.0020199786
-0.005777674 0.008989655 -0.009453342 0.00602809 -0.009425533 -0.014943924 0.009897182 0.0035333917
-0.013092242 -0.0022618177 -0.012312033 0.01969295 -0.007782792 0.018649442 0.007764327 0.004930441
-0.0020062027 -0.0039026695 -0.012355638 0.009578165 -0.006381749 0.0041752043 -0.015860796 0.010971336
-0.011027008 0.012164702 0.0068397205 -0.008956403 0.01639578 -0.0035467714 -0.025955008 -0.0026420578
-0.0128422 0.00085454766 -0.013980968 0.0026081123 -0.019745003 -0.0027408227 -0.0070417486 0.009911568
-0.011950123 0.017405104 -0.013551447 0.00307677 0.0024461856 -0.010146403 0.0018312051 0.010816068
0.0073626046 0.0034130085 -0.010261139 -0.0078402 0.008308137 -0.014061675 0.013202774 -0.013168623
-0.0015361054 0.016658535 0.0045804554 0.008036285 0.006804463 0.017216133 -0.018721595 -0.007358782
-0.00992479 -0.0166155 -0.009773447 -0.0011454533 0.0062487093 -0.008831485 0.010585483 -0.00830776
-0.01060985 -0.010101655 0.013427915 -0.010202298 -0.012133345 -0.0021201044 -0.0049818004 -0.018571392
-0.0033484169 0.0022206458 -0.014398382 -0.006647678 -0.0071235094 0.012574412 0.004462826 -0.012611633
-0.0075315014 0.0028307352 -0.012962596 -0.014712031 0.014783287 -0.010338797 -0.005003591 -0.007537105
-0.005875053 0.0057662753 -0.008380828 0.012579114 -0.009898813 -0.015105236 0.014138 -0.004388016
-0.001995053 -0.003483359 -0.010217845 0.00022681673 0.0015506272 -0.015807047 0.013764787 0.012208624
0.009369184 0.0068897256 -0.010237588 -0.0065567447 -0.0059797294 0.0043251226 -0.009151685 -0.009119629
0.022202788 0.014200028 -0.012513916 -0.01083957 0.0171988 -0.010600909 -0.0071413266 0.007134467
00000000: f2ea 1dbc 3197 0f3a 1221 9abb 4cfe 2ebc
00000010: 30de 513c c447 bebb 57ed 963c d77d 023c
00000020: 96ba 06b9 7c43 37bc fdfc 7f3b 288c 223c
00000030: 1668 d33b d02b 9ebb dc45 703c 9c85 273c
00000040: 68a3 28ba d5a2 26bc c449 70bc 289d 81bc
00000050: 7e8f 033c 974b a5bb f23d 2dbc cebc 753c
00000060: c176 e6bb 2d0a 143c 3e65 a0ba a02f 5fba
00000070: 93f6 7bba 567d 6bbc 3475 9c3c 07f5 25bc
00000080: 51ac 9f3b e4da bd3b 9da7 84bc dc30 b239
00000090: 6332 053c 0c19 4fbc b84c f6bb 7f04 63bc
000000a0: c2c6 41bc ff2c 443c 8af3 633b 19bf 523b
000000b0: 8ec4 713c f1ba 693a 8bf0 9f3b d70f a23c
000000c0: 87ab 2fbc d804 0ebc a740 6d3b 39c1 e93b
000000d0: aaf5 34bc 25eb 83bc 43cd cfba 64cd 74bc
000000e0: 509a 57bc 76e2 c4bb 65d5 42bb 101d 803c
000000f0: 2b2c 843c f8be 9c3c 58b7 613c bcc0 a6bb
00000100: 0d01 dbbb 750a 08bc 18ea 1abc 3da1 143b
00000110: 3649 4b3c 51c0 55bc e7e8 56bc 9ae1 9abb
00000120: a917 53bc 40e4 063c 42d5 82bc 9e39 4bbc
00000130: dfbb a23c 1728 38bc e03c d6bb 64b6 4ebb
00000140: a743 0e3c 5bb9 563c 3353 353b 8c94 33bc
00000150: 54f9 973c 3745 1e3c 731b 013c e0a3 753b
00000160: 0fc2 cfb8 8727 123c d8cb 493b 1c3d b3b9
00000170: fab9 70bc 8acb 983c fc27 603c 1e78 09bc
00000180: 9f64 6dbc 058a 3bbb ae0e 1ebc dad0 5fbb
00000190: 5c7c 7bbc a445 573c 1caa 96bc e878 29ba
000001a0: 72df 8e3b 30c7 92bc d62d 80bc df7e d5bb
000001b0: 02b4 0e3c aa86 efbb b324 b7bc 509d 6e3b
000001c0: fb68 5cb9 da36 40bc 890e ad3a 494d 17bc
000001d0: 6fd5 49bb 996f 2c3c f79d 0bbc e79b 2f3c
000001e0: b942 1a3c 4b66 2fbb 5ad8 c13b ceb7 bd3b
000001f0: 2b70 8b3c 13be 433c 502b 46bc 9e61 04bb
00000200: a452 bdbb 5949 133c 31e2 1abc 4987 c53b
00000210: 8d6d 1abc 5cd7 74bc ca27 223c 7a90 673b
00000220: d880 56bc 013b 14bb 69b8 49bc 1c53 a13c
00000230: cb06 ffbb b7c6 983c e56b fe3b 898f a13b
00000240: 7f7a 03bb eec3 7fbb 4d6f 4abc bced 1c3c
00000250: fe1d d1bb 27d0 883b 80ee 81bc 1ec1 333c
00000260: a0aa 34bc 754e 473c bc1f e03b e0bd 12bc
00000270: 7150 863c f370 68bb 999f d4bc 6026 2dbb
00000280: 1768 52bc b903 603a 6e10 65bc ddec 2a3b
00000290: 46c0 a1bc 609f 33bb 78be e6bb 2164 223c
000002a0: 73ca 43bc 2695 8e3c e306 5ebc a3a3 493b
000002b0: 2f50 203b 193d 26bc 0c05 f03a e135 313c
000002c0: 0142 f13b c8ac 5f3b 561e 28bc 2f74 00bc
000002d0: da1e 083c f162 66bc 7350 583c 35c1 57bc
000002e0: 2557 c9ba 7b77 883c a517 963b 9faa 033c
000002f0: f9f7 de3b d908 8d3c 085e 99bc f021 f1bb
00000300: 969b 22bc 3b1d 88bc cf20 20bc 0923 96ba
00000310: f9c1 cc3b efb1 10bc bc6e 2d3c 451d 08bc
00000320: f0d4 2dbc 6981 25bc c200 5c3c 8a27 27bc
00000330: f0ca 46bc 73f1 0abb 5f3e a3bb 0823 98bc
00000340: 1d71 5bbb 4188 113b 31e7 6bbc c4d4 d9bb
00000350: 546c e9bb e804 4e3c e63c 923b 06a1 4ebc
00000360: d0ca f6bb db83 393b 1161 54bc bb0a 71bc
00000370: 9a35 723c 0f64 29bc 2af5 a3bb d2f9 f6bb
00000380: 8483 c0bb 06f3 bc3b be4f 09bc a118 4e3c
00000390: a22e 22bc f47b 77bc 12a3 673c 59c9 8fbb
000003a0: 6fbf 02bb 1149 64bb c068 27bc a7d5 6d39
000003b0: 6a3e cb3a c87d 81bc b485 613c ae06 483c
000003c0: 3581 193c 35c3 e13b 8ebb 27bc f6d9 d6bb
000003d0: 9bf1 c3bb c2b9 8d3b f3f0 15bc 7f6a 15bc
000003e0: 9fe2 b53c 3ca7 683c 2b07 4dbc 7498 31bc
000003f0: 7fe4 8c3c 6faf 2dbc ca01 eabb 3fc8 e93b

mfs_svc_W2_mfs_svc f4 [421, 1]
-0.015454467 0.0008151106 -0.0077650445 -0.018148452 0.018993653 -0.00933846 0.031360507 0.014377853
0.0006176316 -0.01889077 0.0066579725 0.01875904 0.010713779 -0.008060331 0.025010306 0.017426705
-0.0008642522 -0.016716838 -0.024231242 -0.025117783 0.014144472 -0.008529529 -0.018831499 0.025173886
-0.011250551 0.0146009745 -0.0029148003 -0.00095275877 -0.0014404886 -0.024312576 0.031175286 -0.016853733
0.008049833 0.009029303 -0.027369361 -0.00087483873 0.013456516 -0.020396763 -0.012597001 -0.022682434
-0.02002847 0.019148923 0.0066176783 0.0050317943 0.025452891 0.0016576394 0.008562587 0.033883654
-0.017728737 -0.012455621 0.0055152616 0.010973823 -0.018293027 -0.025600448 -0.0023611756 -0.024113324
-0.020382185 -0.01091544 -0.004932588 0.02586542 0.026618456 0.031911556 0.024169179 -0.008534452
-0.010853679 -0.014555376 -0.015433849 0.0044307536 0.021054339 -0.020829534 -0.020653205 -0.006071546
-0.021677902 0.01251293 -0.026488101 -0.020732863 0.034327324 -0.017031403 -0.009721115 -0.0041263574
0.015453737 0.020691676 0.004231151 -0.017280921 0.031442832 0.015268301 0.014200577 0.006262242
-0.00063336914 0.0151529135 0.0054039513 0.0007452884 -0.022980899 0.032548502 0.021644946 -0.014894646
-0.02339065 -0.0057012583 -0.016378906 -0.0062594675 -0.02478658 0.02316225 -0.029840918 -0.0010140777
0.0074951723 -0.031006765 -0.02415411 -0.01048048 0.012020016 -0.011665083 -0.035210434 0.005258915
-0.00022854352 -0.01970461 0.0031998914 -0.015511957 -0.004113759 0.016866924 -0.014605681 0.016767414
0.014872132 -0.005192314 0.009595689 0.011205907 0.027020564 0.019191287 -0.02004994 -0.0024684654
-0.00798838 0.012237609 -0.014017804 0.009850395 -0.01621981 -0.024102362 0.014431471 0.0068494473
-0.021002466 -0.0017077584 -0.020165212 0.033631377 -0.011172528 0.031492 0.013684183 0.006365959
-0.0030243986 -0.005267687 -0.01939857 0.013996153 -0.011138419 0.0067297244 -0.025408631 0.019119749
-0.01780499 0.019735781 0.012150695 -0.014075459 0.025755595 -0.0063214614 -0.041306008 -0.0038868529
-0.020697396 0.0016800554 -0.02176086 0.004196873 -0.03270575 -0.004565956 -0.011758995 0.016585855
-0.019387504 0.03015556 -0.022451144 0.005245424 0.0048707426 -0.015366661 0.0024026267 0.016477544
0.013025287 0.005706932 -0.01652924 -0.012330365 0.015001245 -0.022723872 0.022597343 -0.020800974
-0.0024697883 0.028122341 0.008438409 0.012887986 0.011955244 0.026928324 -0.029596454 -0.011017722
-0.016008502 -0.026715996 -0.014902757 -0.0009497279 0.010562447 -0.0130922515 0.018530184 -0.012854984
-0.017151488 -0.01637767 0.019790502 -0.016450027 -0.019055031 -0.0027175716 -0.008182084 -0.030562421
-0.004597044 0.0033343905 -0.02345723 -0.011631788 -0.012643066 0.020334734 0.007862282 -0.02166974
-0.012160387 0.0047173253 -0.022777876 -0.023294171 0.024919635 -0.01731889 -0.0075845756 -0.011874235
-0.009871901 0.00933739 -0.013852852 0.019515635 -0.01611411 -0.024652036 0.0221646 -0.00787258
-0.0022174946 -0.0051093874 -0.017397998 0.0023084974 0.0024682884 -0.024898125 0.021361426 0.022470724
0.013891957 0.012394806 -0.015974894 -0.012511573 -0.008689718 0.007073806 -0.015092344 -0.01566749
0.03647789 0.023451911 -0.019929681 -0.01791296 0.029200487 -0.017026411 -0.011866505 0.010740405
00000000: bc34 7dbc 25ad 553a ea71 febb 10ac 94bc
00000010: 9498 9b3c 5700 19bc e073 003d 1691 6b3c
00000020: 8ee8 213a d1c0 9abc 1f2b da3b 8fac 993c
00000030: d988 2f3c 7b0f 04bc 6ae2 cc3c 73c2 8e3c
00000040: fc8e 62ba c0f1 88bc 9980 c6bc cfc3 cdbc
00000050: 37be 673c 70bf 0bbc 8444 9abc 7739 ce3c
00000060: 3b54 38bc ed38 6f3c 3c06 3fbb 8fc2 79ba
00000070: c7ce bcba 2b2b c7bc 5063 ff3c d710 8abc
00000080: 72e3 033c a4ef 133c b635 e0bc 6f55 65ba
00000090: b878 5c3c 1d17 a7bc a763 4ebc 83d0 b9bc
000000a0: bf12 a4bc 34de 9c3c 1cd9 d83b c0e1 a43b
000000b0: 9582 d03c 2645 d93a 184a 0c3c 96c9 0a3d
000000c0: db3b 91bc a912 4cbc 5eb9 b43b 8dcb 333c
000000d0: 42db 95bc 08b8 d1bc f4bd 1abb 4e89 c5bc
000000e0: 8af8 a6bc acd6 32bc 8ca1 a1bb b8e3 d33c
000000f0: f30e da3c b1b5 023d 71fe c53c 16d4 0bbc
00000100: a1d3 31bc ac79 6ebc 41de 7cbc db2f 913b
00000110: 267a ac3c b3a2 aabc e930 a9bc d2f3 c6bb
00000120: db95 b1bc 0803 4d3c 93fd d8bc f7d7 a9bc
00000130: cf9a 0c3d 7185 8bbc 5045 1fbc 6536 87bb
00000140: ac31 7d3c 9781 a93c 78a5 8a3b b890 8dbc
00000150: 33ca 003d e527 7a3c 89a9 683c 7e33 cd3b
00000160: af08 26ba ed43 783c a113 b13b 755f 433a
00000170: 7042 bcbc 9451 053d be50 b13c ac08 74bc
00000180: c09d bfbc 9fd1 babb 0e2d 86bc 381c cdbb
00000190: 3a0d cbbc c2be bd3c f174 f4bc cdea 84ba
000001a0: 109a f53b e601 febc d7de c5bc 52b6 2bbc
000001b0: 9aef 443c e71e 3fbc d138 10bd fa52 ac3b
000001c0: 2fa5 6fb9 906b a1bc 45b5 513b dd25 7ebc
000001d0: b6cc 86bb 812c 8a3c ab4c 6fbc d15b 893c
000001e0: 3eaa 733c 4924 aabb 3d37 1d3c fb98 373c
000001f0: 3b5a dd3c 0c37 9d3c c63f a4bc fac5 21bb
00000200: b2e1 02bc 4180 483c eeaa 65bc 8d63 213c
00000210: 68df 84bc 5172 c5bc fa71 6c3c 5471 e03b
00000220: 5d0d acbc ddd6 dfba 8431 a5bc 0ec1 093d
00000230: fb0c 37bc c1fd 003d a033 603c 8999 d03b
00000240: fd34 46bb 909c acbb c0e9 9ebc 1f50 653c
00000250: ea7d 36bc 0585 dc3b c325 d0bc 05a1 9c3c
00000260: c5db 91bc efac a13c b513 473c c19c 66bc
00000270: 66fd d23c 4324 cfbb 7d30 29bd 92ba 7ebb
00000280: 968d a9bc 4e35 dc3a d543 b2bc ec85 893b
00000290: 77f6 05bd 049e 95bb cda8 40bc 0fdf 873c
000002a0: 8bd2 9ebc cb08 f73c 76eb b7bc cee1 ab3b
000002b0: c09a 9f3b 73c4 7bbc 6375 1d3b eafb 863c
000002c0: 0368 553c 3701 bb3b 5468 87bc 4d05 4abc
000002d0: c8c7 753c 6a27 babc 101e b93c ce66 aabc
000002e0: 2cdc 21bb d360 e63c 4141 0a3c 2228 533c
000002f0: eddf 433c ca98 dc3c 4374 f2bc ad83 34bc
00000300: 4324 83bc 81db dabc b12a 74bc 29f7 78ba
00000310: 1d0e 2d3c e280 56bc 9dcc 973c b69d 52bc
00000320: 4781 8cbc 772a 86bc b11f a23c 35c2 86bc
00000330: 4c19 9cbc 4919 32bb 260e 06bc 0b5e fabc
00000340: cda2 96bb ca85 5a3b 6029 c0bc 4193 3ebc
00000350: dd24 4fbc 0795 a63c cdd0 003c bd84 b1bc
00000360: 5c3c 47bc cb93 9a3b ab98 babc 6bd3 bebc
00000370: 4324 cc3c 58e0 8dbc 0888 f8bb 278c 42bc
00000380: c1bd 21bc dafb 183c 13f7 62bc 41df 9f3c
00000390: bd01 84bc 11f3 c9bc 8992 b53c fefb 00bc
000003a0: 6353 11bb a66c a7bb 3f86 8ebc 294a 173b
000003b0: 02c3 213b 27f7 cbbc 28fe ae3c 8614 b83c
000003c0: 179b 633c 9613 4b3c c8dd 82bc 57fd 4cbc
000003d0: 525f 0ebc 63cb e73b e145 77bc 1c59 80bc
000003e0: d769 153d 391e c03c 9243 a3bc 33be 92bc
000003f0: dc35 ef3c f97a 8bbc bb6b 42bc 86f8 2f3c

lv_lr_lv_lr_W f4 [63, 1]
0.0041411156 -0.037313115 0.035105824 -0.009001143 -0.0063577616 0.0072943373 -0.020110363 -0.003421884
-0.027376864 0.0033743796 -0.0105337985 -0.006183624 0.0044087293 -0.030014357 -0.010242838 -0.01182804
-0.010006457 0.02716148 -0.011437258 -0.0007280866 -0.005747058 0.0018764657 -0.0022979644 -0.0030639556
0.0013008363 0.02408254 -0.0022249075 0.011024919 0.011122197 -0.0145257935 0.021643814 0.001070861
-0.006609544 -0.011932107 0.01308646 0.010926023 0.0040121903 -0.011461894 0.0031105387 -0.039369192
0.007099099 -0.008419045 0.017128343 -0.0051026493 0.025678018 0.011020046 0.0027580543 -0.0039724
0.009594937 -0.023363234 -0.028696397 0.026770316 0.015320469 0.01222255 0.03215248 0.00042996136
0.0041152146 0.010244012 0.005072237 -0.017732354 -0.0039197053 -0.0017288846 0.003800613
00000000: 32b2 873b a3d5 18bd 20cb 0f3d 8879 13bc
00000010: c554 d0bb 5605 ef3b 7dbe a4bc b041 60bb
00000020: 7245 e0bc b224 5d3b f495 2cbc ff9f cabb
00000030: 1a77 903b abe0 f5bc 94d1 27bc 65ca 41bc
00000040: 1ff2 23bc c181 de3c 5663 3bbc 11dd 3eba
00000050: d151 bcbb bef3 f53a 7299 16bb a5cc 48bb
00000060: d380 aa3a bf48 c53c c1cf 11bb dda1 343c
00000070: e039 363c 98fd 6dbc 5e4e b13c 225c 8c3a
00000080: e094 d8bb e27e 43bc 9768 563c 1003 333c
00000090: b178 833b abca 3bbc 2eda 4b3b 9741 21bd
000000a0: 8f9f e83b 09f0 09bc bd50 8c3c 2034 a7bb
000000b0: b55a d23c 6c8d 343c 79c0 343b e82a 82bb
000000c0: 1534 1d3c 4164 bfbc b514 ebbc 6c4d db3c
000000d0: b402 7b3c 1741 483c 52b2 033d 706c e139
000000e0: ecd8 863b 80d6 273c 0235 a63b 7143 91bc
000000f0: df70 80bb be9b e2ba b513 793b

lv_svc_W2_lv_svc f4 [63, 1]
0.005723393 -0.06892087 0.049205247 -0.011395846 -0.011384303 0.0060653184 -0.047108836 0.0381347
-0.058454618 0.02313915 -0.020198239 0.008964361 -0.00440673 -0.05477265 -0.01589865 -0.045654006
-0.021680292 0.07324939 -0.025363019 0.011611264 -0.0019723051 -0.0014968363 -0.014523598 -0.007878616
-0.016203277 0.05414218 0.032012563 0.0034723764 0.025326002 -0.036931343 0.044601444 0.003096652
-0.022529436 0.0033444331 0.027292011 0.0012132108 0.02808395 -0.031239895 0.015167034 -0.084361196
0.014202123 -0.024449525 0.038802776 -0.0045980583 0.049611647 0.015304618 -0.017496223 -0.0014179364
0.04935037 -0.047357734 -0.037036132 0.03541219 0.024302224 0.04034664 0.059721727 0.0058475877
0.0067857774 0.036861826 0.009911709 -0.056112032 -0.006239584 0.011108713 0.024271179
00000000: 4d8b bb3b 6326 8dbd 718b 493d a4b5 3abc
00000010: 3a85 3abc 94bf c63b 32f5 40bd 2233 1c3d
00000020: 1c6e 6fbd 518e bd3c c776 a5bc 41df 123c
00000030: 5566 90bb 4959 60bd e33d 82bc b2ff 3abd
00000040: de9a b1bc c703 963d 1bc6 cfbc 2c3d 3e3c
00000050: ca41 01bb 7e31 c4ba 63f4 6dbc 5015 01bc
00000060: bcbc 84bc 31c4 5d3d 9b1f 033d cf90 633b
00000070: 7a78 cf3c 5245 17bd 01b0 363d 33f1 4a3b
00000080: a78f b8bc 472e 5b3b 7f93 df3c 9904 9f3a
00000090: 5010 e63c cfea ffbc 277f 783c 90c5 acbd
000000a0: 05b0 683c 5f4a c8bc a9ef 1e3d 4fab 96bb
000000b0: 9535 4b3d 38c0 7a3c 3d54 8fbc 0dda b9ba
000000c0: 9d23 4a3d 2ffa 41bd 33b3 17bd 5f0c 113d
000000d0: 7515 c73c 8542 253d c59e 743d 1f9d bf3b
000000e0: 3a5b de3b 6dfc 163d b964 223c bbd5 65bd
000000f0: 6d75 ccbb 5201 363c 5ad4 c63c
