model/checkpoints/sarathy2016/chemeleon/model_000.onnx (onnx, 819965 bytes, 14 tensors)

lv_onnx::MatMul_4 f4 [1882, 95]
0	0x00000000	0.0
1	0x00000000	0.0
2	0x00000000	0.0
3	0x00000000	0.0
4	0x00000000	0.0
5	0x00000000	0.0
6	0x00000000	0.0
7	0x00000000	0.0
8	0x00000000	0.0
9	0x00000000	0.0
10	0x00000000	0.0
11	0x00000000	0.0
12	0x00000000	0.0
13	0xbf2cfeac	-0.675761
14	0x00000000	0.0
15	0x00000000	0.0
16	0x00000000	0.0
17	0x00000000	0.0
18	0x00000000	0.0
19	0x00000000	0.0
20	0x00000000	0.0
21	0x00000000	0.0
22	0x00000000	0.0
23	0xbf2cfeac	-0.675761
24	0x00000000	0.0
25	0x00000000	0.0
26	0x00000000	0.0
27	0x00000000	0.0
28	0x00000000	0.0
29	0x00000000	0.0
30	0x00000000	0.0
31	0x00000000	0.0
32	0x00000000	0.0
33	0x00000000	0.0
34	0x00000000	0.0
35	0x00000000	0.0
36	0x00000000	0.0
37	0x00000000	0.0
38	0x00000000	0.0
39	0x00000000	0.0
40	0x00000000	0.0
41	0x00000000	0.0
42	0x00000000	0.0
43	0x00000000	0.0
44	0x00000000	0.0
45	0x00000000	0.0
46	0x00000000	0.0
47	0x00000000	0.0
48	0x00000000	0.0
49	0x00000000	0.0
50	0x00000000	0.0
51	0x00000000	0.0
52	0x00000000	0.0
53	0x00000000	0.0
54	0x00000000	0.0
55	0x00000000	0.0
56	0x00000000	0.0
57	0x00000000	0.0
58	0x00000000	0.0
59	0x00000000	0.0
60	0x00000000	0.0
61	0x00000000	0.0
62	0x00000000	0.0
63	0x00000000	0.0
64	0x00000000	0.0
65	0x00000000	0.0
66	0x00000000	0.0
67	0x00000000	0.0
68	0x00000000	0.0
69	0x00000000	0.0
70	0x00000000	0.0
71	0x3f2cfeac	0.675761
72	0x3f2cfeac	0.675761
73	0x00000000	0.0
74	0x00000000	0.0
75	0x00000000	0.0
76	0x00000000	0.0
77	0x00000000	0.0
78	0x00000000	0.0
79	0x00000000	0.0
80	0x00000000	0.0
81	0x00000000	0.0
82	0x00000000	0.0
83	0x00000000	0.0
84	0x00000000	0.0
85	0x00000000	0.0
86	0x00000000	0.0
87	0x00000000	0.0
88	0x00000000	0.0
89	0x00000000	0.0
90	0x00000000	0.0
91	0xbf2cfeac	-0.675761
92	0x00000000	0.0
93	0x00000000	0.0
94	0x00000000	0.0
95	0x00000000	0.0
96	0x00000000	0.0
97	0x00000000	0.0
98	0x00000000	0.0
99	0x00000000	0.0
100	0x00000000	0.0
101	0x00000000	0.0
102	0x00000000	0.0
103	0x00000000	0.0
104	0x00000000	0.0
105	0x00000000	0.0
106	0x00000000	0.0
107	0x00000000	0.0
108	0x00000000	0.0
109	0x00000000	0.0
110	0x00000000	0.0
111	0x00000000	0.0
112	0x00000000	0.0
113	0x00000000	0.0
114	0x00000000	0.0
115	0x00000000	0.0
116	0x00000000	0.0
117	0x00000000	0.0
118	0x00000000	0.0
119	0x00000000	0.0
120	0x00000000	0.0
121	0x00000000	0.0
122	0x00000000	0.0
123	0x00000000	0.0
124	0x00000000	0.0
125	0x00000000	0.0
126	0x00000000	0.0
127	0x00000000	0.0
128	0x00000000	0.0
129	0xbf2cfeac	-0.675761
130	0x00000000	0.0
131	0x00000000	0.0
132	0x00000000	0.0
133	0x00000000	0.0
134	0x00000000	0.0
135	0x00000000	0.0
136	0x00000000	0.0
137	0x00000000	0.0
138	0x00000000	0.0
139	0x00000000	0.0
140	0x00000000	0.0
141	0x00000000	0.0
142	0x00000000	0.0
143	0x3f2cfeac	0.675761
144	0x00000000	0.0
145	0x00000000	0.0
146	0x00000000	0.0
147	0x00000000	0.0
148	0x00000000	0.0
149	0x00000000	0.0
150	0x00000000	0.0
151	0x00000000	0.0
152	0x00000000	0.0
153	0x00000000	0.0
154	0x3f2cfeac	0.675761
155	0x00000000	0.0
156	0x00000000	0.0
157	0x00000000	0.0
158	0x00000000	0.0
159	0x00000000	0.0
160	0x00000000	0.0
161	0x00000000	0.0
162	0x00000000	0.0
163	0x00000000	0.0
164	0x00000000	0.0
165	0x00000000	0.0
166	0x00000000	0.0
167	0x00000000	0.0
168	0x00000000	0.0
169	0x00000000	0.0
170	0x00000000	0.0
171	0x00000000	0.0
172	0x00000000	0.0
173	0x00000000	0.0
174	0x00000000	0.0
175	0x00000000	0.0
176	0x00000000	0.0
177	0x00000000	0.0
178	0x00000000	0.0
179	0x00000000	0.0
180	0x00000000	0.0
181	0x00000000	0.0
182	0x00000000	0.0
183	0x00000000	0.0
184	0x00000000	0.0
185	0x3f2cfeac	0.675761
186	0x00000000	0.0
187	0x00000000	0.0
188	0x00000000	0.0
189	0x00000000	0.0
190	0x00000000	0.0
191	0x00000000	0.0
192	0x00000000	0.0
193	0x00000000	0.0
194	0x00000000	0.0
195	0x00000000	0.0
196	0x00000000	0.0
197	0x00000000	0.0
198	0x00000000	0.0
199	0x00000000	0.0
200	0x00000000	0.0
201	0x00000000	0.0
202	0x00000000	0.0
203	0x00000000	0.0
204	0x00000000	0.0
205	0x00000000	0.0
206	0x00000000	0.0
207	0x00000000	0.0
208	0x00000000	0.0
209	0x00000000	0.0
210	0x00000000	0.0
211	0x00000000	0.0
212	0x00000000	0.0
213	0x00000000	0.0
214	0x00000000	0.0
215	0x00000000	0.0
216	0x00000000	0.0
217	0x00000000	0.0
218	0x00000000	0.0
219	0x00000000	0.0
220	0x00000000	0.0
221	0x00000000	0.0
222	0x00000000	0.0
223	0x00000000	0.0
224	0x00000000	0.0
225	0x00000000	0.0
226	0x00000000	0.0
227	0x00000000	0.0
228	0x00000000	0.0
229	0x00000000	0.0
230	0x00000000	0.0
231	0x00000000	0.0
232	0x00000000	0.0
233	0x00000000	0.0
234	0x00000000	0.0
235	0x00000000	0.0
236	0x00000000	0.0
237	0x00000000	0.0
238	0x00000000	0.0
239	0x00000000	0.0
240	0x00000000	0.0
241	0x00000000	0.0
242	0x00000000	0.0
243	0x00000000	0.0
244	0x00000000	0.0
245	0x00000000	0.0
246	0x00000000	0.0
247	0x00000000	0.0
248	0x00000000	0.0
249	0x00000000	0.0
250	0x00000000	0.0
251	0x00000000	0.0
252	0x00000000	0.0
253	0x00000000	0.0
254	0x00000000	0.0
255	0x00000000	0.0

lr_lr_W f4 [1882, 1]
0	0x3a58d87c	0.0008272005
1	0xba0dc293	-0.0005407717
2	0xb9058f12	-0.00012737166
3	0x3910be91	0.00013803902
4	0xbac5802e	-0.0015068108
5	0xb9a8515b	-0.00032104072
6	0x397f7f1f	0.00024366051
7	0xbaf141b5	-0.0018406423
8	0xba4fad8d	-0.00079222844
9	0xba042bbb	-0.0005041917
10	0xb9db97d7	-0.00041884065
11	0xb9904db4	-0.00027523714
12	0x3b10c0f5	0.0022087668
13	0xb7d76e13	-2.5681255e-05
14	0xbaccd4f7	-0.0015627433
15	0x3a1cf944	0.0005988071
16	0xb9dc4f44	-0.00042020727
17	0x39b03acf	0.00033613152
18	0x3afd1e71	0.001931144
19	0xba221d9f	-0.00061842235
20	0xba5eeeda	-0.00085042196
21	0xbaa77516	-0.0012775983
22	0xb7bf28e1	-2.278801e-05
23	0x3aa0c793	0.0012266509
24	0xb97b63b1	-0.00023974363
25	0xba9dc5e6	-0.0012037128
26	0xba3db06f	-0.00072360685
27	0xbab34573	-0.0013677314
28	0xb91ad64a	-0.00014766413
29	0x3b1ca96b	0.0023904692
30	0xba872c71	-0.0010312927
31	0x3b3df663	0.002898597
32	0xb909f4ab	-0.00013156484
33	0xba077a18	-0.00051680347
34	0x3acd5b19	0.0015667408
35	0x39c00a6f	0.00036628867
36	0x3aafd608	0.0013415227
37	0xb9c421ea	-0.000374093
38	0xba0ad762	-0.0005296377
39	0x3975f7ea	0.00023457376
40	0xbaaa7710	-0.0013005454
41	0x3a47af32	0.00076173537
42	0xbac11ae8	-0.001473275
43	0x3a532ead	0.00080559665
44	0xb9cdf1c6	-0.00039280782
45	0x3a9145e0	0.0011083446
46	0xbadee1fb	-0.0017004603
47	0x3aa25eab	0.0012387832
48	0x387ae6f6	5.9819744e-05
49	0x3aaa051f	0.0012971497
50	0xba32263d	-0.0006795859
51	0xba7e49ec	-0.0009700346
52	0xb9b16a9c	-0.000338395
53	0x39ed26c9	0.0004523306
54	0xba46d6a4	-0.00075850845
55	0xba8d7313	-0.0010791741
56	0x3ababfde	0.0014247855
57	0x3a345e22	0.0006880482
58	0x3a9c2b8d	0.0011914835
59	0xbab05daa	-0.0013455648
60	0x3a8df644	0.0010830839
61	0x39c1f9cb	0.0003699794
62	0xb910351f	-0.000137527
63	0xb947745c	-0.00019021466
64	0xb9c65f1a	-0.0003783636
65	0x3a2a96cd	0.00065074564
66	0xba8f02a0	-0.0010910816
67	0xb9691c18	-0.00022231077
68	0x3b1c8a8c	0.0023886291
69	0x3a7e953f	0.00097115705
70	0x39650c25	0.00021843666
71	0xba168f14	-0.0005743366
72	0xba06f3d4	-0.00051480276
73	0xb9f0798c	-0.00045866927
74	0xba9e2056	-0.001206408
75	0x3a93d3ca	0.0011278328
76	0x3a442ecb	0.00074837793
77	0xb935d4c8	-0.00017340772
78	0x3b022e06	0.0019863858
79	0x3ab95ca7	0.0014141992
80	0x3a1a2b08	0.0005881046
81	0xb9dd4339	-0.0004220249
82	0xbadaf56c	-0.0016705221
83	0xba2d2476	-0.00066048594
84	0x3aa04097	0.001222628
85	0x3aec630f	0.0018034893
86	0xbaded4f8	-0.0017000725
87	0xba3af71b	-0.00071321585
88	0x3adb186e	0.0016715655
89	0xba00d965	-0.0004915207
90	0xbaf88cf1	-0.0018962902
91	0x3a33c46b	0.00068575767
92	0x3a2b78e2	0.0006541145
93	0xba4856ed	-0.00076423475
94	0x3a8c9b04	0.0010727351
95	0xba442449	-0.00074822136
96	0xba1ce146	-0.0005984496
97	0x3b2a4a07	0.0025984065
98	0xb99f1720	-0.00030344073
99	0xb9c58c60	-0.00037679356
100	0xb9f2295e	-0.00046188658
101	0xbb157120	-0.0022803023
102	0x3904c1f6	0.00012660757
103	0x3ac6d2a7	0.001516898
104	0x3b073513	0.0020631
105	0x3a40bc78	0.0007352303
106	0x3a128495	0.0005589214
107	0xba4559b7	-0.0007528322
108	0xbaa86e00	-0.0012850165
109	0xba287788	-0.0006426503
110	0x39eddae4	0.0004536725
111	0xb9db4e3a	-0.00041829218
112	0x3b075d90	0.0020655133
113	0xba83f415	-0.0010067249
114	0x3af3fb60	0.0018614344
115	0xb9c421ea	-0.000374093
116	0xbaa91d42	-0.0012902396
117	0xb9d0d019	-0.00039827896
118	0x3af89098	0.0018963991
119	0xbaae9251	-0.0013318752
120	0x3ad1fc1d	0.001602057
121	0xb9fd189f	-0.00048274265
122	0xba94211c	-0.0011301371
123	0xb955bb55	-0.0002038305
124	0x3b0633bd	0.0020477616
125	0x3adc3935	0.0016801717
126	0xba09a959	-0.000525137
127	0xbaf8dbba	-0.0018986382
128	0xb97d11b4	-0.00024134555
129	0xb9810220	-0.0002460638
130	0x3a9b1f7b	0.0011834943
131	0xb95b6fb0	-0.00020927074
132	0x3a26c3fc	0.00063616014
133	0xb7e2f4e4	-2.7055336e-05
134	0x3af754fb	0.0018869931
135	0xb9bbc89c	-0.00035816885
136	0xba390d4a	-0.000705917
137	0x3a67c09b	0.0008840651
138	0xbaab17e6	-0.0013053387
139	0xbaf26589	-0.0018493395
140	0x3a896309	0.0010481785
141	0xbab89ac5	-0.0014084211
142	0x3a6a9f63	0.0008950142
143	0xba15d7fe	-0.0005716084
144	0xb9aebef6	-0.00033330143
145	0xba899f5a	-0.0010499761
146	0x3a6e2c0f	0.0009085545
147	0xba07df6d	-0.00051831343
148	0xb9c82cc7	-0.00038180334
149	0xbaa0fb7a	-0.0012281977
150	0xb9ecb97c	-0.00045151624
151	0x394b0741	0.00019362291
152	0xba6c8caa	-0.0009023646
153	0xb9816f34	-0.0002468765
154	0xba2ba885	-0.00065482437
155	0xb99cb3f4	-0.00029888714
156	0x3b0f2b07	0.0021845715
157	0xba2828c5	-0.00064147665
158	0x3af8dc16	0.0018986489
159	0xb9a26a94	-0.00030978455
160	0x3b3603dc	0.0027773296
161	0xba780992	-0.00094618753
162	0xba6799cc	-0.0008834868
163	0x3a7caecf	0.00096390856
164	0xbb08b62c	-0.0020860536
165	0x3a9e005c	0.001205455
166	0x3b20b567	0.0024522187
167	0x3a97a0c5	0.0011568299
168	0x3aa48578	0.0012551984
169	0x37836851	1.5664993e-05
170	0xba41c781	-0.0007392094
171	0xb98ad4be	-0.00026479916
172	0x3ab34f50	0.0013680253
173	0x388b2e5c	6.6366716e-05
174	0xb99cb3f5	-0.00029888717
175	0x3a38afb0	0.00070452224
176	0xba429e28	-0.000742408
177	0xba39f534	-0.0007093728
178	0xbab1ea66	-0.0013573884
179	0xba0b5bb2	-0.0005316093
180	0xb850ec74	-4.981128e-05
181	0x3a1b24ba	0.00059182534
182	0x3a8014d2	0.000977183
183	0x3a727377	0.0009248773
184	0xba0c9860	-0.0005363282
185	0xba138164	-0.00056268857
186	0xba089d6a	-0.0005211445
187	0xb98437bb	-0.00025218524
188	0xbb029724	-0.0019926513
189	0xba965148	-0.0011468315
190	0x399b15df	0.000295802
191	0x3890b982	6.9010086e-05
192	0x37d9951c	2.593785e-05
193	0x390afc9f	0.00013254814
194	0xba2702ac	-0.00063709426
195	0x3a8ebfb9	0.0010890878
196	0x3a038838	0.00050175516
197	0x3a8dd80c	0.0010821833
198	0xb9bb12ea	-0.00035681512
199	0x3a8614a7	0.0010229544
200	0x3b05abfc	0.00203967
201	0xba82aaee	-0.0009969154
202	0xbaf4b989	-0.0018671016
203	0xba240184	-0.00062563294
204	0xb97a36bc	-0.00023862248
205	0xba137393	-0.0005624827
206	0xba74d288	-0.0009339233
207	0xb996d793	-0.00028770845
208	0xb9b0c8c4	-0.00033718918
209	0x37fa9b5a	2.9874664e-05
210	0x3aa3f20a	0.0012508046
211	0x3a207c4f	0.0006122039
212	0xba3e563f	-0.00072607765
213	0x392bd171	0.00016385854
214	0xba1ae440	-0.00059086457
215	0xbaef0d63	-0.0018238242
216	0xbac28cb6	-0.001484296
217	0xb9daaa61	-0.00041707142
218	0xbaddc647	-0.0016920053
219	0xb9ac1706	-0.0003282355
220	0x3a142a75	0.00056520785
221	0x382f81dd	4.1844196e-05
222	0x3abee532	0.0014564155
223	0x3ae4631e	0.0017424559
224	0xbb2920fe	-0.0025807018
225	0x39ab675b	0.00032692667
226	0xba4c0a2b	-0.00077834976
227	0xbabb2a26	-0.0014279529
228	0x3acebf62	0.0015773589
229	0xb9fdd2ac	-0.00048412883
230	0xb81fe814	-3.8124694e-05
231	0x3a69df91	0.00089215586
232	0xba1f1a07	-0.0006069247
233	0xba369bb5	-0.0006965951
234	0x3a3192c4	0.0006773884
235	0x39715768	0.00023016112
236	0xb9d02cbb	-0.00039706178
237	0xba0ba35b	-0.0005326771
238	0xb9d79e5d	-0.00041125985
239	0xba08aec3	-0.000521403
240	0x3b09e86c	0.0021043075
241	0xba5553e0	-0.00081378035
242	0x3a015b49	0.0004934562
243	0x39bba8f2	0.00035793294
244	0xba80282d	-0.0009777598
245	0xba82ad71	-0.0009969902
246	0x3b2ff72d	0.002685021
247	0xbab06cad	-0.0013460122
248	0x3a6a880b	0.00089466636
249	0xbaa502fb	-0.0012589389
250	0x3a37cf30	0.00070117693
251	0x3ad3a4a7	0.0016147093
252	0x3b4dd95d	0.0031410076
253	0x3a485d81	0.00076433277
254	0xbabba94c	-0.0014317422
255	0xb957bc8f	-0.00020574241

svc_W2_svc f4 [1882, 1]
0	0x3a87c44d	0.0010358185
1	0xb9b623f6	-0.00034740538
2	0xb9ff3686	-0.00048678013
3	0x38f9a309	0.00011903613
4	0xbb0e0d40	-0.0021675378
5	0xba38a46c	-0.0007043544
6	0x3a4bc2da	0.00077728706
7	0xbb1dbe87	-0.0024069862
8	0xbaac6d20	-0.001315508
9	0xba1b5930	-0.0005926071
10	0xba19e73a	-0.0005870942
11	0xb9dbbc31	-0.0004191115
12	0x3b452c6b	0.003008629
13	0x39775b8e	0.00023589862
14	0xbb0dcbfa	-0.0021636472
15	0x3a84a1ac	0.0010118983
16	0xba0dba2a	-0.0005406464
17	0x3a1cbb85	0.00059788703
18	0x3b333471	0.002734449
19	0xba4de771	-0.0007854617
20	0xbab92dff	-0.0014128088
21	0xbaf53044	-0.0018706401
22	0x36ad011b	5.1559305e-06
23	0x3aac3d57	0.0013140839
24	0xb9f6e0c3	-0.00047088237
25	0xbac24419	-0.001482132
26	0xba74e2cf	-0.00093416584
27	0xbaf4feca	-0.0018691656
28	0xb9d51b99	-0.00040647088
29	0x3b55d828	0.003263006
30	0xbabec80d	-0.0014555469
31	0x3b5941ad	0.0033150718
32	0xb93e46b0	-0.00018146145
33	0xba488916	-0.0007649822
34	0x3b0b7823	0.0021281324
35	0x3a289c21	0.00064319564
36	0x3b12fa18	0.00224269
37	0xb9a32c5c	-0.00031122833
38	0xba27fd9a	-0.0006408334
39	0x38da3123	0.000104042025
40	0xbaf68c56	-0.0018810134
41	0x3a45d440	0.00075465813
42	0xbb051fee	-0.002031322
43	0x3a8d58c2	0.0010783898
44	0xba438507	-0.0007458482
45	0x3ab4916d	0.001377625
46	0xbb10aa87	-0.0022074298
47	0x3aee6794	0.0018188828
48	0xb8b917b1	-8.8259e-05
49	0x3b0b7f9a	0.0021285773
50	0xbaba23f0	-0.0014201384
51	0xbad8ae3c	-0.0016531418
52	0xb9f107b8	-0.00045972853
53	0x39ed7db2	0.00045297813
54	0xba694e86	-0.00088999455
55	0xbac27f1b	-0.0014838906
56	0x3acc0806	0.0015566356
57	0x3ab0e9be	0.0013497395
58	0x3af62f91	0.0018782486
59	0xbb075c06	-0.0020654215
60	0x3ab7b90f	0.0014016944
61	0x3a1eeb88	0.00060623186
62	0xb93c2340	-0.00017942209
63	0xb9a5c4dd	-0.00031617927
64	0xba24bdc4	-0.0006284381
65	0x39d10f88	0.00039875158
66	0xba9b0959	-0.0011828347
67	0xb8c3f993	-9.3448114e-05
68	0x3b39ba4c	0.0028339801
69	0x3ad1a25c	0.0015993821
70	0xb75b4961	-1.3070502e-05
71	0xba4aeccd	-0.00077409745
72	0xba71dbd8	-0.00092261797
73	0xba093bfe	-0.0005235075
74	0xbac7f318	-0.0015254943
75	0x3b01646b	0.0019743692
76	0x3a0e9bf5	0.00054401095
77	0xb9c2b8e3	-0.00037140315
78	0x3b23d2c4	0.0024997452
79	0x3a972a03	0.0011532906
80	0x3a2734df	0.0006378423
81	0xba193dcb	-0.00058456947
82	0xbb0dd055	-0.0021639068
83	0xbaa0bfe4	-0.0012264219
84	0x3ab1ff5e	0.0013580134
85	0x3b0aa660	0.0021156296
86	0xbb18ca9b	-0.0023314122
87	0xb9fce841	-0.00048238228
88	0x3ae99837	0.0017821853
89	0xba4fd058	-0.0007927469
90	0xbb1601d3	-0.002288927
91	0x3a0a0b81	0.00052659964
92	0x3a07203b	0.0005154644
93	0xba1c08b2	-0.00059522234
94	0x3a9aa977	0.0011799772
95	0xba8051b8	-0.0009789979
96	0xba5b625e	-0.0008368845
97	0x3b440ff8	0.0029916745
98	0xb9e8e692	-0.00044422277
99	0xba042ec7	-0.0005042371
100	0xb98d1716	-0.00026910816
101	0xbb47b69e	-0.0030473839
102	0xb99446f6	-0.0002828163
103	0x3adcd615	0.0016848469
104	0x3b3a9ec1	0.0028475972
105	0x3ab783c1	0.0014001058
106	0x3a4e1263	0.0007861016
107	0xbaa3502e	-0.0012459808
108	0xbb039b0a	-0.0020081424
109	0xba612135	-0.0008588017
110	0x3a20e553	0.00061376876
111	0xb9ce4618	-0.00039343606
112	0x3b280a45	0.0025640887
113	0xbaa26907	-0.001239092
114	0x3b30ed23	0.0026996813
115	0xb9a32c5c	-0.00031122833
116	0xbad1db8e	-0.0016010867
117	0xba12230e	-0.00055746816
118	0x3b2796b1	0.0025571997
119	0xbb0018fd	-0.0019546144
120	0x3b15ee0d	0.0022877485
121	0xba072543	-0.0005155394
122	0xbaeaac19	-0.0017904072
123	0x391743a3	0.00014425679
124	0x3b1c7b20	0.00238771
125	0x3b1593f1	0.0022823776
126	0xb9e031f8	-0.0004276184
127	0xbb2b84db	-0.0026171717
128	0xb9bcacf4	-0.00035987014
129	0xb9b97eb2	-0.00035380345
130	0x3a90f612	0.0011059663
131	0xb9a32c51	-0.000311228
132	0x3a040004	0.0005035403
133	0xb83e041f	-4.5303368e-05
134	0x3b2eca9d	0.002667106
135	0xba0f0343	-0.0005455503
136	0xba161ff8	-0.00057268096
137	0x3a3a4c1d	0.00071066787
138	0xbafc0f74	-0.001923068
139	0xbb1de14c	-0.0024090586
140	0x3ad115bf	0.0015951915
141	0xbb00cf96	-0.001965498
142	0x3a7f210d	0.0009732403
143	0xba6dc7a5	-0.0009070582
144	0xba1de46c	-0.0006023112
145	0xbac47d02	-0.0014990869
146	0x3a99ac6d	0.001172436
147	0xba6fb242	-0.0009143689
148	0xb9f251fe	-0.00046218926
149	0xbae6d3ca	-0.0017610725
150	0xba08430f	-0.0005197981
151	0x3a021ba5	0.0004963226
152	0xbaa8b309	-0.001287074
153	0xb9a32c53	-0.00031122807
154	0xba625eef	-0.0008635362
155	0xb9e70da3	-0.00044069914
156	0x3b44a124	0.0030003274
157	0xba46158d	-0.0007556312
158	0x3b17148b	0.0023053016
159	0xba07babe	-0.0005177668
160	0x3b6c5258	0.0036059823
161	0xbab2e35c	-0.0013648081
162	0xba932613	-0.0011226557
163	0x3af672a5	0.0018802477
164	0xbb2f72ee	-0.0026771384
165	0x3a9e4bce	0.0012077035
166	0x3b3a4aa5	0.002842584
167	0x3a9c10d7	0.0011906874
168	0x3a89889e	0.0010492986
169	0xb97fc474	-0.0002439188
170	0xbaaa767a	-0.001300528
171	0xb9b910fa	-0.00035298598
172	0x3adbb857	0.0016763312
173	0x39c28d5d	0.00037107887
174	0xb9e70da3	-0.00044069914
175	0x39d06624	0.00039748952
176	0xbab1753a	-0.0013538965
177	0xbaacdb29	-0.0013187873
178	0xbaec0fa5	-0.0018010034
179	0xba4d34c2	-0.0007827991
180	0xb9a9fbb1	-0.00032421717
181	0x3a1ac919	0.00059045997
182	0x3adc96b8	0.0016829586
183	0x3a885d9e	0.0010403877
184	0xba47041a	-0.0007591859
185	0xba4bb5fd	-0.0007770954
186	0xba000d64	-0.0004884808
187	0xb9a32c54	-0.0003112281
188	0xbb23bbcd	-0.0024983764
189	0xbad9ae3b	-0.0016607711
190	0x38b448d6	8.5966356e-05
191	0xb9bfdf54	-0.0003659675
192	0xba033e78	-0.0005006562
193	0x388b853f	6.6528555e-05
194	0xba6e3ef3	-0.00090883597
195	0x3a5a69ae	0.00083317875
196	0x39bbb96f	0.00035805578
197	0x3ab6a1ec	0.0013933755
198	0xb9ee153d	-0.0004541072
199	0x3a9288a9	0.0011179644
200	0x3b05904a	0.0020380192
201	0xbaa34be1	-0.0012458527
202	0xbb2cc043	-0.0026359714
203	0xba5c06d3	-0.0008393351
204	0xba529adf	-0.0008033942
205	0xba429cf5	-0.0007423901
206	0xba8ef416	-0.0010906484
207	0xb9a68981	-0.00031764436
208	0xba025d3d	-0.0004973
209	0xb667f278	-3.4562818e-06
210	0x3af89acf	0.0018967035
211	0x3a1ee388	0.00060611265
212	0xba8cca78	-0.0010741493
213	0x39433ce1	0.00018619328
214	0xba403f62	-0.00073336635
215	0xbb126540	-0.0022338182
216	0xbb038d0b	-0.0020073082
217	0xba2bc082	-0.0006551818
218	0xbb0b1069	-0.0021219498
219	0xba413f59	-0.0007371805
220	0x3a16becf	0.00057504786
221	0x38126a1c	3.4907935e-05
222	0x3aa19976	0.001232906
223	0x3b182002	0.0023212438
224	0xbb660ea9	-0.0035103953
225	0x39e43474	0.0004352663
226	0xbaa65567	-0.0012690247
227	0xbaf9ca58	-0.0019057496
228	0x3b046702	0.0020203
229	0xb9619d45	-0.0002151626
230	0xb8be6a3c	-9.079694e-05
231	0x3a53fc97	0.000808665
232	0xba661d9d	-0.00087782164
233	0xba5457a5	-0.0008100218
234	0x3a1fad70	0.0006091213
235	0x398033f4	0.0002445277
236	0xba180341	-0.0005798825
237	0xba8b95b6	-0.0010649476
238	0xba0d2863	-0.0005384741
239	0xba54e33a	-0.00081210176
240	0x3b1b81ab	0.0023728411
241	0xbaa1aa2f	-0.0012334044
242	0x39b4108e	0.0003434461
243	0x39ccc846	0.00039059127
244	0xba98e0ea	-0.0011663709
245	0xbab48a22	-0.0013774077
246	0x3b5703e7	0.0032808722
247	0xbae9331c	-0.0017791721
248	0x3a851fe8	0.0010156604
249	0xbadcd4da	-0.0016848103
250	0x3a3e8170	0.00072672125
251	0x3b1d97b2	0.0024046716
252	0x3b80cfbc	0.003931014
253	0x395c097f	0.00020984373
254	0xbb092991	-0.0020929317
255	0xb9a32c55	-0.00031122813

fs_lr_fs_lr_W f4 [585, 1]
0	0xbb1ac8be	-0.0023618187
1	0xbb35b391	-0.0027725438
2	0x3b3fe790	0.002928231
3	0xbb0e531c	-0.0021717018
4	0x3b562d79	0.0032680912
5	0xbb033f84	-0.0020026872
6	0x3b4b6d23	0.0031040392
7	0x3b8bd7eb	0.004267683
8	0x3b0ce7a2	0.0021500369
9	0xbb03f218	-0.0020133313
10	0xbb0db47a	-0.0021622465
11	0x3aa8a2a4	0.0012865853
12	0xbb2ad008	-0.0026063938
13	0xbb08ce3c	-0.0020874878
14	0x3b81e66d	0.0039642365
15	0x3a9de2b8	0.0012045717
16	0x3b5984c8	0.0033190716
17	0x3ae22191	0.0017252435
18	0xbb3c2e52	-0.0028714132
19	0x3ae481b9	0.001743368
20	0xbb2adb82	-0.0026070778
21	0xbb4b45d6	-0.0031016967
22	0x3aa976d3	0.0012929089
23	0x3b675edf	0.003530435
24	0xbb5e9152	-0.003396113
25	0x3b516c86	0.0031955554
26	0xbae5e8b3	-0.0017540663
27	0x3b3912ff	0.0028240082
28	0x3b1f80f4	0.0024338337
29	0xbafea512	-0.0019427857
30	0x3b4b0216	0.0030976585
31	0xbb046251	-0.0020200203
32	0x3b28eafe	0.0025774832
33	0xbadcc675	-0.0016843813
34	0x3b2fb023	0.0026807867
35	0x3b23ccd2	0.0024993909
36	0xbb44a242	-0.003000394
37	0x3aeb2a2b	0.0017941644
38	0x3b3ca663	0.0028785698
39	0x3a80f7d8	0.0009839488
40	0xbaff4dff	-0.0019478201
41	0xbb4027fd	-0.002932071
42	0xbb1022d2	-0.002199341
43	0x3a6d158e	0.00090440444
44	0xbaf84ac8	-0.0018943185
45	0x3b41c94b	0.0029569443
46	0x3b32470a	0.0027202987
47	0x3b8af64a	0.0042407857
48	0xbb648a38	-0.0034872424
49	0x3b74dd5e	0.003736339
50	0x3abf6875	0.0014603274
51	0xbb525f67	-0.0032100321
52	0x3b2eace4	0.0026653344
53	0xbb416b0f	-0.0029513275
54	0x3af5add5	0.0018743823
55	0x39b7c0a2	0.00035048003
56	0xbb378aae	-0.0028006244
57	0xbb19f423	-0.0023491464
58	0xbb37083a	-0.0027928487
59	0x3b3d33b3	0.0028869926
60	0xbb80558d	-0.0039164484
61	0xbb1002ed	-0.00219744
62	0x3b1f6e14	0.0024327086
63	0x3a6a16be	0.00089297805
64	0x3b68b13e	0.0035506035
65	0x3b988a11	0.0046551307
66	0x3a82ae47	0.0009970152
67	0x3b0edaad	0.0021797821
68	0x3b8b795b	0.00425641
69	0x3a49a9ec	0.0007692862
70	0xbb0c0cdb	-0.0021369967
71	0xbaf0dd84	-0.0018376564
72	0xbabd05c3	-0.0014421273
73	0xbac12bed	-0.0014737822
74	0xbb1b6367	-0.0023710371
75	0xbb237bf2	-0.0024945703
76	0x3a984411	0.0011616965
77	0x3b8d92c8	0.004320476
78	0xbad851ec	-0.0016503907
79	0xbb884857	-0.004159014
80	0xbb678703	-0.0035328276
81	0xbb64b700	-0.0034899116
82	0xbb3191dd	-0.0027094998
83	0x3b653e26	0.003497967
84	0x3b30fccf	0.0027006154
85	0x3b73c507	0.0037196295
86	0x3b8a3e50	0.004218854
87	0x3b9d1c7e	0.0047946563
88	0xbadd7cba	-0.0016898133
89	0xbafae9de	-0.0019143184
90	0xbb4eba86	-0.0031544282
91	0x3ad9d1ef	0.0016618351
92	0xbaabe8de	-0.0013115664
93	0x3af7892a	0.0018885483
94	0xbb5477f2	-0.0032420126
95	0xbb39f248	-0.002837317
96	0xbb3e5966	-0.0029044985
97	0x3b296b64	0.0025851363
98	0x3b2fa723	0.0026802502
99	0x3b06e2ce	0.0020581963
100	0xbb12e004	-0.0022411356
101	0x3a92f51b	0.0011211963
102	0xbb770147	-0.003768997
103	0x3b2016af	0.0024427583
104	0xbb36b8d2	-0.0027881158
105	0x3ba05358	0.004892748
106	0xbb29e1dd	-0.0025921979
107	0x3b3474b7	0.0027535388
108	0x3a8396c4	0.0010039438
109	0x3b452025	0.0030078974
110	0x3b971afb	0.0046113706
111	0x3a89d726	0.001051639
112	0xbb388352	-0.0028154445
113	0x3b90790d	0.0044089616
114	0xbb4513a7	-0.0030071528
115	0xbb2f74bd	-0.0026772462
116	0x3b122bbe	0.0022303904
117	0x3b2f89fb	0.0026785124
118	0xbb1a0442	-0.0023501073
119	0x3b58c500	0.0033076406
120	0x3aeb6e40	0.0017961934
121	0x3b48c851	0.0030636976
122	0x3b28af8f	0.0025739407
123	0x3b00f708	0.0019678492
124	0xbb6d048f	-0.0036166047
125	0x3b1c9e69	0.002389813
126	0x3b2588fe	0.0025258656
127	0xbb755ee0	-0.0037440583
128	0xbb093a1f	-0.0020939184
129	0xbb2a71bb	-0.002600773
130	0x3b52be21	0.0032156783
131	0xbb092d8b	-0.0020931687
132	0xbb730c89	-0.003708633
133	0x3b14c61d	0.0022701093
134	0xba91e6cd	-0.0011131406
135	0xbb91bc2f	-0.004447482
136	0x3a12efe2	0.00056052033
137	0x3b09ea32	0.0021044132
138	0x3b37d8fd	0.002805292
139	0xbb9ee203	-0.00484872
140	0x3aa1c67d	0.0012342479
141	0xbb4db5f2	-0.0031388965
142	0xbb86f322	-0.004118339
143	0xbb6b8647	-0.003593819
144	0xbb040758	-0.0020145979
145	0x3b27d8bd	0.0025611364
146	0xbb1a2d34	-0.0023525478
147	0x3b913cf3	0.0044323145
148	0xbba4ed5f	-0.0050331797
149	0xbb48e4f2	-0.003065404
150	0x3aad13c7	0.0013204747
151	0x3b16103f	0.0022897867
152	0x3ba70449	0.0050969464
153	0xbb1f987d	-0.0024352365
154	0xbb28ec4d	-0.0025775612
155	0xbaeb38f6	-0.0017946053
156	0x3b098ce1	0.0020988511
157	0xbb0a4a6b	-0.0021101485
158	0xbadef2b8	-0.0017009592
159	0x3b30bee1	0.0026969241
160	0xbb3f996d	-0.0029235736
161	0x3b37e294	0.0028058635
162	0x3ae4a603	0.0017444495
163	0xbb0bb1d3	-0.0021315708
164	0x3b49c4c5	0.003078745
165	0x3b175cfc	0.0023096194
166	0x3b0ce515	0.0021498848
167	0x3b0da2d1	0.0021611939
168	0x3a8b9ac0	0.0010650977
169	0x3aa4390a	0.0012529206
170	0x3b2c8edd	0.002633027
171	0x3acbf6e7	0.0015561254
172	0x3b6c4981	0.0036054554
173	0x3b13be90	0.0022544004
174	0x3b7bb6da	0.0038408549
175	0x3af8204c	0.0018930524
176	0x3b551eda	0.003251961
177	0x3b41c268	0.0029565338
178	0x3b192e77	0.0023373642
179	0x3b2f241c	0.0026724404
180	0xbaecdbbd	-0.0018070858
181	0xbb4d2481	-0.0031302276
182	0xbadba047	-0.001675614
183	0xbb1e0243	-0.0024110235
184	0x3b4d5456	0.0031330786
185	0x3b5abf0f	0.003337804
186	0xbb8175b8	-0.0039508007
187	0xbafe4749	-0.0019399907
188	0x3b07e919	0.0020738302
189	0xbaf3d6ac	-0.0018603406
190	0xbab4c1eb	-0.0013790702
191	0xbb22c2a3	-0.002483525
192	0xbb0e3496	-0.0021698824
193	0xbb4095c0	-0.0029386133
194	0xbb02b6a3	-0.0019945286
195	0x3aad59ce	0.0013225616
196	0x3b08e495	0.0020888199
197	0xbb49fbda	-0.0030820281
198	0x3b229897	0.002481019
199	0xbb05099d	-0.002029992
200	0xbb5e4ff4	-0.0033922167
201	0xbb28e089	-0.00257686
202	0x3ac017a7	0.0014655486
203	0x3b31b26a	0.00271144
204	0xbb54a243	-0.0032445348
205	0xbaa08cde	-0.0012249013
206	0xbaec6bad	-0.0018037461
207	0x3acf9a7b	0.0015838885
208	0xbb1184a5	-0.0022204306
209	0x3b914138	0.0044328235
210	0x3ad39c65	0.0016144632
211	0x3b9009d3	0.0043957024
212	0x3b4781d1	0.0030442367
213	0x3b0436fc	0.0020174375
214	0xbacbf616	-0.001556101
215	0xbb37b180	-0.0028029382
216	0x3b1c0025	0.0023803797
217	0x3aff7732	0.0019490479
218	0xbb2bc6d4	-0.002621104
219	0xbb000fde	-0.0019540708
220	0xbb344417	-0.0027506405
221	0x3ba3fea1	0.0050047194
222	0xbb708dff	-0.003670573
223	0x3b370513	0.0027926608
224	0xbacd2116	-0.0015650119
225	0xbb421827	-0.0029616447
226	0x3adcb4a0	0.0016838498
227	0xbb2118c0	-0.0024581403
228	0x3b540ab0	0.0032355003
229	0xbb0f4c30	-0.002186548
230	0x3b83a6e6	0.0040176986
231	0xbbcb807a	-0.006210384
232	0xbb2b1fc4	-0.0026111463
233	0xba8ce1e4	-0.0010748473
234	0xbb3388f0	-0.0027394854
235	0xbb6dbe64	-0.0036276812
236	0x3b356403	0.002767802
237	0x3b4965be	0.003073081
238	0xbafbd2dc	-0.0019212621
239	0x3b0fbe13	0.0021933361
240	0xbaed8d35	-0.0018123748
241	0xbb65ed33	-0.0035084009
242	0x3b1ef30e	0.0024253759
243	0x3b16ae5b	0.0022992108
244	0x3af8ed0c	0.0018991544
245	0xbb8c3b76	-0.0042795492
246	0x3b47985d	0.0030455806
247	0xbb248b1f	-0.0025107337
248	0xbb006189	-0.0019589385
249	0xbb14810f	-0.0022659933
250	0x3a33df31	0.0006861566
251	0xbaf3e870	-0.00186087
252	0x3b2e3874	0.0026583942
253	0x3b334ea9	0.0027360118
254	0x3b472700	0.0030388236
255	0xbb2a887c	-0.0026021292

fs_svc_W2_fs_svc f4 [585, 1]
0	0xbba6678d	-0.005078262
1	0xbb812dd5	-0.003942231
2	0x3a9f7d1e	0.0012168025
3	0xbb6169ad	-0.0034395263
4	0x3c30acc3	0.010783377
5	0xbb9f8cd4	-0.004869083
6	0x3aed93fb	0.0018125767
7	0x3c3d2896	0.011545321
8	0x3b4a3ac3	0.0030857779
9	0xbb37ab60	-0.0028025731
10	0xbb5758b9	-0.003285928
11	0x3b209662	0.0024503698
12	0xbbd7fa82	-0.006591142
13	0xbb89d9b5	-0.004206861
14	0x3c690cc4	0.014224235
15	0xb85e8374	-5.305135e-05
16	0x3c2e651d	0.0106442245
17	0x395929cf	0.00020710308
18	0xbc0964c0	-0.008385837
19	0x3b601a57	0.0034195387
20	0xbb8f12a6	-0.0043662367
21	0xbc1f2e0f	-0.009715571
22	0x3a57e97b	0.00082363904
23	0x3b85818d	0.0040742815
24	0xbbb2a722	-0.0054520527
25	0x3c470b82	0.01214874
26	0xbad623c9	-0.0016337569
27	0x3b2d9eff	0.0026492474
28	0x3a6aa390	0.00089507643
29	0xbb5c8e6e	-0.003365423
30	0x3c14843b	0.009064729
31	0xbb5827b5	-0.0032982652
32	0x3bf8db83	0.007594527
33	0xbaa97a7c	-0.001293018
34	0x3ad64186	0.0016346432
35	0x3bc5a1be	0.006031244
36	0xbbf43644	-0.007452758
37	0x3bd0ad06	0.0063682823
38	0x3becd240	0.007227212
39	0xba5fb00b	-0.00085330073
40	0xb9d5739e	-0.00040712667
41	0xbc07f7e4	-0.008298848
42	0xbbfa60b8	-0.0076409243
43	0xb9cbeca7	-0.00038895497
44	0xbb93d233	-0.0045111417
45	0x3b960b7f	0.004579007
46	0x3bb5be8b	0.005546396
47	0x3c1a310e	0.00941111
48	0xbc04fddc	-0.008117165
49	0x3c33767f	0.010953545
50	0x3a1cffe1	0.00059890567
51	0xbc2a1d74	-0.010382999
52	0x3add8681	0.0016901047
53	0xbbc1747d	-0.005903779
54	0x3b9fd03f	0.00487712
55	0xbb265706	-0.002538146
56	0xbbf9105e	-0.007600828
57	0xbbe0a08f	-0.0068550776
58	0xbc0a8615	-0.008454819
59	0x3c1462ff	0.009056806
60	0xbbd61c20	-0.0065341145
61	0xbb960090	-0.004577704
62	0x3c153d23	0.009108814
63	0xbb1d56de	-0.0024008076
64	0x3c5c1b13	0.013434189
65	0x3c87b106	0.016563904
66	0x3a6896e0	0.000887258
67	0x3b10e960	0.0022111759
68	0x3b97b512	0.0046297396
69	0xb9ae1e96	-0.00033210655
70	0xbb2274b6	-0.0024788803
71	0xbb1063fe	-0.0022032256
72	0xbb2e93b2	-0.0026638326
73	0x3a8256e0	0.0009944104
74	0xbb327ae2	-0.0027233888
75	0xbbcd172c	-0.006258866
76	0xb86771dc	-5.518073e-05
77	0x3b9b169b	0.0047329194
78	0xba8479a8	-0.0010107057
79	0xbc04d44e	-0.008107258
80	0xbc0124ed	-0.007882339
81	0xbbea073a	-0.0071419748
82	0xbb8fbe52	-0.0043867016
83	0x3ba1d8a3	0.004939155
84	0x3a9b9d2b	0.0011872401
85	0x3c3e4a80	0.011614442
86	0x3bf17676	0.007368858
87	0x3c02bc4a	0.007979462
88	0xbacd4e66	-0.0015663623
89	0xbb893a31	-0.004187845
90	0xbb95a807	-0.0045671496
91	0xbaaa4655	-0.0012990931
92	0xba74a781	-0.00093328214
93	0xbad40c8c	-0.0016178056
94	0xbbd4ddf6	-0.0064961864
95	0xbbce1079	-0.006288585
96	0xbc14720c	-0.009060394
97	0x3b0f4bb1	0.0021865184
98	0x3b77b7b0	0.0037798695
99	0x3b3318f9	0.0027328117
100	0xbbd75c4b	-0.0065722815
101	0xba2d02a6	-0.0006599821
102	0xbc1f1fa2	-0.009712132
103	0x3ab2d85d	0.0013644804
104	0xbbf69dbc	-0.0075261276
105	0x3c4cb190	0.012493506
106	0xbb6c1dd1	-0.0036028514
107	0x3ad534db	0.0016266363
108	0xbb53fe5f	-0.0032347662
109	0x3c07244f	0.008248403
110	0x3c4ccd42	0.012500109
111	0x39c467a6	0.00037461257
112	0xbb9db825	-0.0048132115
113	0x3c1ecf93	0.009693044
114	0xbbfc2885	-0.00769526
115	0xbbe26256	-0.006908695
116	0x3ad30165	0.0016098438
117	0x3c2021d7	0.009773693
118	0xbbd17582	-0.006392182
119	0x3bf829bd	0.007573335
120	0x3ba8ed56	0.005155246
121	0x3c76630b	0.015038262
122	0x3bf0e401	0.007351399
123	0x3ac28adf	0.0014842412
124	0xbbb7ab0a	-0.0056051062
125	0x3b871edb	0.0041235513
126	0x3b419fff	0.0029544828
127	0xbc109691	-0.00882496
128	0xbb206671	-0.0024475122
129	0xbbc00319	-0.0058597443
130	0x3c43ba87	0.011946327
131	0xbbbd8d09	-0.005784635
132	0xbbf803fe	-0.0075688353
133	0x3ba7b2ab	0.0051177344
134	0x3b3fd093	0.0029268607
135	0xbc27a455	-0.010232051
136	0xba612a81	-0.00085894024
137	0x3b6addbc	0.003583773
138	0x3c0bc676	0.0085312035
139	0xbc2f3741	-0.010694326
140	0xb696a72b	-4.4898093e-06
141	0xbbd68f57	-0.006547849
142	0xbc3c6cfc	-0.011500593
143	0xbc07f1a7	-0.0082973605
144	0xbb9187dc	-0.0044412445
145	0x3ae8d0d5	0.0017762432
146	0xbb6185f5	-0.003441212
147	0x3c27211d	0.010200766
148	0xbc299f80	-0.010352969
149	0xbbf5c762	-0.007500575
150	0xb8ca9153	-9.659179e-05
151	0x3b83ff5c	0.004028244
152	0x3c25c4c7	0.010117716
153	0xbbc2a8e8	-0.0059405454
154	0xbbe639fa	-0.0070259543
155	0xbb851221	-0.004060999
156	0x3c112b0f	0.008860364
157	0xbbade30a	-0.005306606
158	0xbb789d93	-0.0037935718
159	0x3b4804c9	0.003052043
160	0xbb9a1596	-0.0047022803
161	0x3b932e32	0.004491591
162	0x3bd197f6	0.006396289
163	0xbb1a313c	-0.002352788
164	0x3bfd4f3f	0.007730394
165	0x3ab60753	0.0013887681
166	0x3ba697f9	0.0050840345
167	0x3a69fc93	0.0008925881
168	0xba37fa7d	-0.00070182217
169	0x389613d7	7.156253e-05
170	0x3be5967a	0.0070064636
171	0xb8f53dea	-0.00011694043
172	0x3bf55579	0.007486996
173	0x3b081179	0.0020762368
174	0x3b829da1	0.003986076
175	0x3acb3e34	0.0015506209
176	0x3b9822d3	0.0046428232
177	0x3a214a3b	0.0006152724
178	0x3ac98139	0.0015373594
179	0x3ab0eea5	0.0013498856
180	0xbb46de50	-0.003034491
181	0xbbc3ad43	-0.005971582
182	0xbabb5415	-0.0014292026
183	0xbc34b15f	-0.011028617
184	0x3b2e0bec	0.00265574
185	0x3b0bb950	0.0021320172
186	0xbbaf3870	-0.005347304
187	0xba6494a7	-0.00087196607
188	0x3aed817b	0.0018120253
189	0x39696fb3	0.00022262223
190	0x39e3d7b5	0.00043457528
191	0xbb996603	-0.00468135
192	0xbbb5d826	-0.0055494485
193	0xbb8bb60f	-0.0042636464
194	0xbb0e4fb7	-0.0021714994
195	0x39243dc2	0.00015663265
196	0x3b017fc5	0.0019759994
197	0xbc16cb4a	-0.009203741
198	0x3adeeb8c	0.0017007454
199	0xbb6e17f6	-0.00363302
200	0xbbef9b04	-0.0073121805
201	0xbbd94fab	-0.0066318116
202	0x3b1f484e	0.0024304572
203	0x3be51b75	0.0069917985
204	0xbbb49402	-0.005510808
205	0x3aec450d	0.001802595
206	0xb8c120f8	-9.209098e-05
207	0x3a982559	0.001160781
208	0xbba5f987	-0.0050651464
209	0x3c13739a	0.0089997295
210	0x3a09c2eb	0.00052551803
211	0x3bd75af5	0.006572122
212	0x3b164d53	0.0022934272
213	0x3aa995f4	0.0012938366
214	0xbb2d1534	-0.0026410343
215	0xbbf1e339	-0.0073818234
216	0x3ba5796f	0.0050498764
217	0x3b0e83e7	0.00217461
218	0xbbf14abe	-0.0073636463
219	0xbb24191e	-0.0025039385
220	0xbb93ac00	-0.004506588
221	0x3c0e5f49	0.00868971
222	0xbc06d0c9	-0.008228489
223	0x3aa4ed52	0.0012582934
224	0xb98b8317	-0.00026609816
225	0xbbb81b54	-0.005618492
226	0x3a509f32	0.0007958292
227	0xbb641f3a	-0.0034808652
228	0x3c13b244	0.00901467
229	0xbb77cc8d	-0.003781113
230	0x3b83ecba	0.0040260227
231	0xbc4c3367	-0.012463427
232	0xbb8bb49c	-0.0042634737
233	0x3a382bf4	0.00070255925
234	0xbbf0eb4f	-0.0073522697
235	0xbbdc218b	-0.006717866
236	0x3bb34827	0.0054712477
237	0x3aee0d77	0.0018161972
238	0xbafc8d1b	-0.0019268127
239	0x3af7c8fb	0.0018904501
240	0xbb30c92c	-0.0026975377
241	0xbbde233e	-0.0067791035
242	0x3aa6a27c	0.0012713219
243	0xbaad9d2a	-0.0013245691
244	0x3b7472ed	0.0037299946
245	0xbc434a97	-0.011919639
246	0x3bb2544b	0.0054421774
247	0xbbf3e18b	-0.0074426583
248	0xbb8e926e	-0.004350952
249	0xbabe01e2	-0.0014496411
250	0xbac63984	-0.0015123342
251	0xbb74284f	-0.003725547
252	0x3bd61644	0.006533416
253	0x3b1f5678	0.0024313014
254	0x3be1f555	0.006895701
255	0xbc09a1de	-0.008400409

mfs_lr_mfs_lr_W f4 [421, 1]
0	0xbcdd171e	-0.026988562
1	0x3c9baa34	0.019002058
2	0x3d14f709	0.036368404
3	0xbd244d4a	-0.04011277
4	0x3c7474b8	0.014920406
5	0x3cb75b71	0.02238247
6	0x3d8998ec	0.06718621
7	0x3d53ffe3	0.051757704
8	0x3c8a0d16	0.016851943
9	0xbcee3046	-0.029075753
10	0xbce32890	-0.027729303
11	0x3cdd1da9	0.026991682
12	0x3cc380ea	0.023865182
13	0xbd90f0f6	-0.0707721
14	0x3c945a76	0.018109541
15	0x3da88a14	0.08229461
16	0x3c914157	0.017731352
17	0xbc8730b3	-0.016502714
18	0xbd526693	-0.051367354
19	0xbda85ded	-0.0822104
20	0xbc36b8ab	-0.011152427
21	0x3c903b2b	0.017606338
22	0xbd9ad000	-0.07559204
23	0x3db26715	0.087110676
24	0xba928f65	-0.0011181651
25	0x3d7f4df3	0.062330198
26	0xbcd1f1ab	-0.025627932
27	0x3cc4125e	0.02393454
28	0x3c138eac	0.009006184
29	0xbcc8a785	-0.024493942
30	0x3d78fa24	0.060785428
31	0xbd0e1164	-0.034684554
32	0x3c43ea65	0.0119577395
33	0xbc937977	-0.018002255
34	0xbdac9e64	-0.08428648
35	0xbc837e09	-0.01605131
36	0x3d1a0b35	0.037608344
37	0xbd1a08e5	-0.03760614
38	0xbcd8be22	-0.02645785
39	0xbd489eb6	-0.048979484
40	0xbd1d68f8	-0.038430184
41	0x3d38b2c5	0.045092363
42	0x3ccf419d	0.025299842
43	0x3d0e2975	0.034707505
44	0x3d557c89	0.05212072
45	0xbcb8c627	-0.022555424
46	0x3d296f30	0.041365802
47	0x3db17c1a	0.086662486
48	0xbd8a68be	-0.06758259
49	0xbc84b3d8	-0.016199037
50	0x3be1084d	0.0068674446
51	0x3c1fe288	0.009758599
52	0xbd126dd6	-0.03574928
53	0xbcd5b328	-0.026086405
54	0x3c139c5b	0.009009446
55	0xbd82f3ab	-0.06394132
56	0xbd06b7d1	-0.032890145
57	0xbdc23bbe	-0.09484051
58	0xbd744b1c	-0.059641942
59	0x3d95abe5	0.07308177
60	0x3d63d37a	0.0556216
61	0x3d8b6aba	0.06807466
62	0x3dd01112	0.10159506
63	0xbd40a84d	-0.047035504
64	0xbbb91584	-0.005648317
65	0xbd118457	-0.0355266
66	0xbd0910c5	-0.03346326
67	0x3c014c7d	0.007891771
68	0x3e0ff2f3	0.14057522
69	0xbd42e12a	-0.047578014
70	0xbd8eda52	-0.06975235
71	0xbc9b9a38	-0.018994436
72	0xbd753658	-0.05986628
73	0xbc21e781	-0.009881855
74	0xbd3e51f1	-0.046464864
75	0xbd0c19f4	-0.03420444
76	0x3dc403a5	0.09571008
77	0xbd51c521	-0.051213387
78	0xbcafdb73	-0.021466946
79	0xbb63fa08	-0.0034786481
80	0x3d288bd8	0.04114899
81	0x3d2983bb	0.041385394
82	0x3d97d46a	0.07413562
83	0xbcb241f5	-0.021759966
84	0x3d444f63	0.04792727
85	0x3ce00f29	0.027350979
86	0xbcf3fe0a	-0.029784221
87	0xbb4c31fb	-0.003115772
88	0xbc4418cc	-0.011968803
89	0xbc23f949	-0.010008165
90	0x3c9f1857	0.019420786
91	0x3bc06429	0.005871315
92	0xbd2d9084	-0.04237415
93	0x3dd4904c	0.10379085
94	0x3dc738ad	0.09727607
95	0xbd9977c9	-0.0749355
96	0xbd17d851	-0.03707153
97	0xbd562a27	-0.052286293
98	0xbce1ed85	-0.027579078
99	0xbd8b4d39	-0.068018384
100	0xbd17fe13	-0.03710754
101	0x3deb239d	0.11481402
102	0xbd561d64	-0.052274123
103	0xbd5e16ca	-0.054220952
104	0x3ce2e51c	0.027697138
105	0xbdb5d96f	-0.08879363
106	0xbd1afe55	-0.037840206
107	0xbc70b27b	-0.014690991
108	0x3c9b5b99	0.018964576
109	0xbd9c091d	-0.07618926
110	0xbdb66d64	-0.08907583
111	0x3cc2fd2d	0.023802364
112	0xbde9c12b	-0.11413797
113	0xbcff9f67	-0.031203939
114	0x3d6ef2cb	0.058337014
115	0xbd28698c	-0.041116282
116	0xbd8c733c	-0.06857917
117	0x3c702dbb	0.0146593405
118	0xbd9c4311	-0.076299794
119	0x3c2dd10f	0.0106089255
120	0xbd21cf3d	-0.03950428
121	0xbd161a26	-0.03664603
122	0x3d50f3c4	0.051013723
123	0xbbe8d01d	-0.007104887
124	0x3d399c61	0.04531515
125	0x3c0a526c	0.0084425025
126	0xbd6c3475	-0.057667214
127	0x3d00c595	0.03143843
128	0x3b5fda43	0.0034157194
129	0xbb01e9b7	-0.0019823143
130	0xbcf147b2	-0.029453132
131	0x3c03cdaa	0.00804464
132	0xbcd607ad	-0.026126707
133	0xbdb83ebf	-0.08996343
134	0xbbb35d71	-0.0054737856
135	0x3d4cf305	0.05003645
136	0xbd16d4e1	-0.03682411
137	0x3bce1898	0.006289553
138	0xbd38c4de	-0.045109622
139	0x3d9d08e2	0.0766771
140	0xbca649bb	-0.02029883
141	0x3d9c33cf	0.07627069
142	0x3d589532	0.05287666
143	0xbd26676c	-0.040625975
144	0xbc5bb6ad	-0.0134102525
145	0xbc87f763	-0.016597455
146	0xbd642d85	-0.055707473
147	0x3d09c961	0.033639316
148	0x3a296390	0.00064616743
149	0x3b42ba9d	0.002971328
150	0xbd4948b7	-0.049141612
151	0x3cb88ccb	0.022528073
152	0xbc802b5c	-0.015645675
153	0x3d5b2bf5	0.053508718
154	0x3d797364	0.06090106
155	0xbcc24500	-0.023714542
156	0x3d220a18	0.039560407
157	0xbbf049eb	-0.0073330305
158	0xbdcdbc76	-0.10045712
159	0xb8c1d21b	-9.242092e-05
160	0xbc208d1a	-0.009799266
161	0xbca78abe	-0.0204519
162	0xbd44c539	-0.04803965
163	0xbc49dc9a	-0.012320662
164	0xbdf77e29	-0.1208461
165	0xbb1263bb	-0.0022337276
166	0x3c686e68	0.014186479
167	0x3c04f9d5	0.008116205
168	0xbd4b4b51	-0.049632374
169	0x3d34c0bd	0.044129122
170	0xbd31d36b	-0.043414515
171	0x3cf71c65	0.030164907
172	0xbbbb37be	-0.005713432
173	0xbd2975fb	-0.04137228
174	0xba864545	-0.0010244033
175	0x3d67ab46	0.056559823
176	0x3c80946c	0.015695773
177	0x3c0dc9f4	0.008654106
178	0xbcfe0ddb	-0.031012466
179	0xbc505aab	-0.012716929
180	0x3dad3889	0.08458049
181	0xbd75a9a5	-0.05997624
182	0x3d1f317d	0.038865555
183	0xbd10a713	-0.035315584
184	0xbc53e553	-0.012933093
185	0x3d1a8a9e	0.037729852
186	0x3ca6e4aa	0.020372707
187	0xbc50c944	-0.012743298
188	0x3c6f2857	0.01459702
189	0x3d9c3581	0.076273926
190	0xbd553d5a	-0.052060463
191	0x3b399fc0	0.0028323978
192	0xbd067bdd	-0.03283297
193	0xbd3c54de	-0.045979373
194	0xbcb47ee8	-0.02203317
195	0xba94d09e	-0.0011353677
196	0x3d87a56b	0.06623348
197	0xbd1a9581	-0.037740234
198	0x3db522f2	0.08844556
199	0xbcd9a643	-0.026568538
200	0xbdbdadd5	-0.092616715
201	0xbd678e6e	-0.056532316
202	0xbc660035	-0.014038135
203	0x3adb12c1	0.0016713963
204	0xbc92cc51	-0.017919691
205	0xbc7387dd	-0.014863935
206	0xbc61ef9c	-0.0137900375
207	0xbd5ff4b6	-0.054676734
208	0xbd22d61d	-0.039754976
209	0xbd1bacfa	-0.03800676
210	0xbd5206a9	-0.051275883
211	0xbd1460aa	-0.036225
212	0xbcb2f7a8	-0.021846607
213	0x3da06438	0.07831615
214	0x3ccd4439	0.025056945
215	0xbd7e46b8	-0.06207916
216	0xbcb17854	-0.021663822
217	0xbc6e6b2b	-0.014551918
218	0xbd383cc5	-0.04497983
219	0xbcf261a1	-0.029587569
220	0x3d5215a1	0.05129016
221	0xbd9c8d97	-0.076441936
222	0xbd63ade8	-0.05558577
223	0xbc3e77e3	-0.011625263
224	0xbca591fb	-0.02021121
225	0xbd69b581	-0.05705786
226	0xbd837b85	-0.06420044
227	0x3d314a37	0.043283667
228	0xbb14f96f	-0.0022731682
229	0xbd81c6a9	-0.063367195
230	0x3c053def	0.008132442
231	0xbd049f85	-0.032378692
232	0xbd1a1657	-0.03761896
233	0xbc42f4dd	-0.0118992
234	0xbd5eb1d0	-0.054368794
235	0x3bbcf437	0.0057664174
236	0x3cf6ee1a	0.030142833
237	0xbd3fb96a	-0.046807684
238	0xbc1ee67f	-0.009698509
239	0x3c6b483b	0.014360483
240	0x3ce678ff	0.028133867
241	0x3c4ef1fe	0.012630938
242	0xbd87f074	-0.0663766
243	0xbd5bd15b	-0.053666454
244	0xbd005386	-0.031329654
245	0xbd8a864d	-0.06763897
246	0xbb9cf2f7	-0.004789706
247	0xbd552819	-0.052040193
248	0x3d8c5395	0.068518795
249	0x3d7930b7	0.060837474
250	0xbd44e614	-0.048070982
251	0xbd158d54	-0.036511734
252	0x3d96e4a9	0.07367832
253	0xbc300752	-0.010743933
254	0xbc3034b7	-0.010754756
255	0x3999a61f	0.00029306204

mfs_svc_W2_mfs_svc f4 [421, 1]
0	0xbcb97e07	-0.022643102
1	0x3b3b26e2	0.0028557112
2	0x3d1c2c42	0.038128145
3	0xbcb94b1b	-0.02261882
4	0x3cc435eb	0.023951491
5	0x3c8f89d6	0.01752178
6	0x3d6cc829	0.057808075
7	0x3d2060d7	0.039154854
8	0x3bbc3691	0.0057438095
9	0xbc8f0ca2	-0.017462078
10	0xbcbe6fcd	-0.02324667
11	0x3d0ee4f7	0.034886327
12	0x3c75c464	0.015000436
13	0xbd48691f	-0.048928376
14	0x3c6e06ba	0.014527971
15	0x3d11492d	0.035470176
16	0x3c9bc471	0.019014569
17	0xbc3ef392	-0.011654751
18	0xbce12bdf	-0.02748674
19	0xbd23b13f	-0.039963957
20	0xbc111a00	-0.008856297
21	0x3c59eb33	0.013300705
22	0xbd6dca1a	-0.058054067
23	0x3d08f732	0.03343887
24	0xbb848ed8	-0.0040453486
25	0x3d450c00	0.048107147
26	0xbcea15f3	-0.02857492
27	0x3c813de3	0.01577658
28	0x3b76686d	0.0037598864
29	0xbc1551b8	-0.009113722
30	0x3d5a4c57	0.05329546
31	0xbca280b9	-0.01983677
32	0xbc408d95	-0.011752506
33	0xbc9355a6	-0.017985176
34	0xbd7e7569	-0.06212369
35	0xbbb45271	-0.005502992
36	0x3c71bbb2	0.014754223
37	0xb99dc3e3	-0.0003009132
38	0xbbe2ae06	-0.006917718
39	0xbd1251c7	-0.03572252
40	0xbd0dd4f7	-0.034626927
41	0x3d16d210	0.036821425
42	0x3bdf3a49	0.006812368
43	0x3cf98d10	0.030462772
44	0x3d15d4e6	0.03657999
45	0xbc664dda	-0.014056647
46	0x3cba17fc	0.022716515
47	0x3d2d2175	0.042268235
48	0xbd260665	-0.040533442
49	0x3bd172d5	0.006391863
50	0x3b6d8859	0.00362446
51	0x3aaf1769	0.0013358417
52	0xbc051d3a	-0.008124644
53	0xbc901253	-0.017586863
54	0x3b8274ac	0.0039811935
55	0xbd063348	-0.03276375
56	0xbc432fd5	-0.0119132595
57	0xbd8a5062	-0.06753613
58	0xbd737779	-0.05944011
59	0x3d158a08	0.03650859
60	0x3cd6d58d	0.026224876
61	0x3d66c2bb	0.056338053
62	0x3d506b96	0.050883852
63	0xbcda9b2b	-0.026685318
64	0xbb083eb5	-0.002078933
65	0xbcbf61b2	-0.023362014
66	0xbc025022	-0.007953675
67	0xbb56c341	-0.003277019
68	0x3db885a2	0.090098634
69	0xbcc5a5e6	-0.024126958
70	0xbcb4a098	-0.022049233
71	0x398afa0e	0.00026507716
72	0xbd070b83	-0.032969963
73	0xbc21eb01	-0.009882689
74	0xbcdb6f4e	-0.026786473
75	0xbcde2fc3	-0.027122384
76	0x3d8f8ce4	0.07009295
77	0xbc9d8e2b	-0.01923283
78	0xbcf3a6c7	-0.029742612
79	0xbaaee255	-0.0013342599
80	0x3d09357f	0.033498283
81	0x3cfd646c	0.030931674
82	0x3cef51ea	0.029213864
83	0xbb489dc7	-0.003061162
84	0x3d1add16	0.0378085
85	0x3c0861da	0.008324111
86	0xbc4c8467	-0.012482739
87	0x3bf5d982	0.0075027356
88	0x3bc53df1	0.006019347
89	0x39a67473	0.0003174875
90	0x3c32a4a7	0.010903514
91	0x3bffe643	0.0078094318
92	0xbcd986a5	-0.026553461
93	0x3d58c19a	0.052919008
94	0x3da71daf	0.081599586
95	0xbd85b964	-0.06529501
96	0xbc31e3ed	-0.010857564
97	0xbce667c9	-0.02812566
98	0xbc873511	-0.016504796
99	0xbd417b9b	-0.04723702
100	0xbcdbcadc	-0.02683013
101	0x3d583c75	0.05279203
102	0xbccfe435	-0.025377372
103	0xbd052163	-0.032502543
104	0xbb0b243d	-0.0021231316
105	0xbd9a019c	-0.07519838
106	0xbc418baa	-0.011813084
107	0xbc40eb66	-0.011774873
108	0x3c4a08bc	0.012331184
109	0xbd36ef41	-0.044661764
110	0xbce7e7e3	-0.028308814
111	0x3c4ed5ec	0.012624245
112	0xbda4d8a7	-0.08049136
113	0xbcc59c35	-0.024122337
114	0x3d2cdbff	0.042201992
115	0xbd097907	-0.033562686
116	0xbd761592	-0.060079165
117	0xbae649fa	-0.0017569654
118	0xbd712ef6	-0.058882676
119	0x3b96d075	0.0046024867
120	0xbcc1e829	-0.023670273
121	0xbcec93e8	-0.028879121
122	0x3d06e70f	0.0329352
123	0x3b587b38	0.0033032428
124	0x3d16b4bc	0.036793455
125	0xbb290d0a	-0.0025795125
126	0xbcef82e3	-0.029237216
127	0x3c01d40f	0.007924094
128	0x3b85ef0c	0.0040873345
129	0x3c6f3b03	0.014601472
130	0x3c07d2bd	0.00828999
131	0xbae40266	-0.0017395734
132	0xbc7aff9b	-0.01531973
133	0xbd257ac8	-0.040400296
134	0x3cff28d1	0.031147392
135	0x3d21b82b	0.039482277
136	0xbc89d0ae	-0.016823139
137	0x3a28ec7f	0.0006443932
138	0xbceb64a3	-0.02873451
139	0x3d7735cf	0.06035405
140	0xbc838971	-0.016056748
141	0x3d35bd7b	0.044370156
142	0x3c9ecc23	0.01938445
143	0xbc16dc2e	-0.009207768
144	0xbc924813	-0.017856633
145	0xbb254211	-0.002521638
146	0xbcc6a58b	-0.024248859
147	0x3be9ff8f	0.0071410607
148	0xbba0d308	-0.0049079694
149	0x3c43cda9	0.011950889
150	0xbc2dc22b	-0.010605375
151	0xbba13d7d	-0.00492066
152	0xbb00f0f9	-0.001967488
153	0x3cf8025b	0.03027456
154	0x3d0c8d03	0.034314167
155	0xbc0111b8	-0.00787776
156	0x3d23f25c	0.040026054
157	0xbb741a87	-0.0037247257
158	0xbd6bb945	-0.057549734
159	0xbc27eb6a	-0.010248998
160	0x3c68b496	0.014203211
161	0xbc4e84df	-0.012604921
162	0xbcc4ff54	-0.024047531
163	0xbbd61ae7	-0.0065339687
164	0xbd6b377a	-0.057425953
165	0x3be84382	0.0070881257
166	0xbbafa9d7	-0.0053608227
167	0x3c04b5a8	0.008099951
168	0xbcf4b307	-0.029870523
169	0x3cbf62ed	0.023362601
170	0xbcbb60f9	-0.022873389
171	0x3c6aa66c	0.014321905
172	0x3c041858	0.008062445
173	0xbc5f03f6	-0.013611784
174	0x39a3270b	0.00031118872
175	0x3d1b63be	0.03793692
176	0x3cde12c9	0.027108567
177	0x3a8edafe	0.0010899005
178	0xbced16d1	-0.028941544
179	0x3ba4d770	0.005030565
180	0x3d7e9dd0	0.06216222
181	0xbcb34a3f	-0.02188599
182	0x3c87c33c	0.016572587
183	0xbbe0f1b5	-0.006864751
184	0xbb8dc74a	-0.0043267356
185	0x3cbbd08e	0.022926595
186	0x3cc542cc	0.024079703
187	0xb9dcfe44	-0.00042151113
188	0x3c304b4c	0.01076014
189	0x3d9ebb7c	0.077506036
190	0xbc93074e	-0.01794782
191	0xb9bd4fe4	-0.00036108412
192	0xbc7e636a	-0.015526632
193	0xbcf162eb	-0.029466113
194	0xbb85326d	-0.004064849
195	0x3c62664d	0.013818336
196	0x3d1c94f1	0.03822798
197	0xbc18d90f	-0.009329095
198	0x3d699320	0.057025075
199	0xbbccd04e	-0.006250418
200	0xbd72c394	-0.05926855
201	0xbcecdd16	-0.028914016
202	0x3c8482d1	0.01617566
203	0x3c886c11	0.016653093
204	0x3b4b7fd5	0.0031051536
205	0xbc5a8446	-0.0133372005
206	0xbc8a9c43	-0.016920215
207	0xbd430854	-0.047615364
208	0xbcb2d9eb	-0.021832427
209	0xbcd58a4f	-0.026066927
210	0xbcab210b	-0.02088978
211	0xbd19f492	-0.037586756
212	0xbcbd3df5	-0.023100832
213	0x3d7221c8	0.059114248
214	0x3cc21858	0.023693249
215	0xbd76c86f	-0.060249742
216	0x3b6d71cc	0.0036231158
217	0xbbab5b11	-0.005229362
218	0xbd2a3eb7	-0.041563716
219	0xbca44361	-0.02005166
220	0x3cc1efa0	0.023673832
221	0xbd4248c7	-0.047432687
222	0xbd1a891d	-0.037728418
223	0xbc2d0a33	-0.010561514
224	0xbd382bb2	-0.044963546
225	0xbd4e57b8	-0.050376624
226	0xbd1aee30	-0.03782481
227	0x3cd9812f	0.026550857
228	0xba27bb27	-0.00063984323
229	0xbce8c72f	-0.02841529
230	0x3c390daa	0.011294762
231	0xbcc9073b	-0.02453958
232	0xbd484b0c	-0.048899695
233	0xbbeef5ec	-0.0072924998
234	0xbcfae924	-0.030628748
235	0x3c0e52f8	0.0086867735
236	0x3cd0972e	0.025462713
237	0xbc850115	-0.016235868
238	0x3af51936	0.001869953
239	0xbb82e284	-0.003994288
240	0x3d4e28f9	0.050332043
241	0x3b84acaf	0.004048906
242	0xbd0a1489	-0.03371099
243	0xbd110527	-0.035405304
244	0xbca01c9c	-0.019544892
245	0xbd508ea0	-0.050917268
246	0xbc022f6b	-0.007945876
247	0xbd560c7f	-0.05225801
248	0x3d9947af	0.07484376
249	0x3d0ee39f	0.034885045
250	0xbcce7ab1	-0.025204988
251	0xbcd03df3	-0.025420165
252	0x3d7caf52	0.061690636
253	0xbc0a7456	-0.008450588
254	0xbcb1fab9	-0.021726
255	0xbb927ede	-0.00447069

lv_lr_lv_lr_W f4 [95, 1]
0	0xbad62168	-0.001633686
1	0xbc37a1f9	-0.011208051
2	0xbcbf234c	-0.02333226
3	0xbc7f919d	-0.015598682
4	0xbd02e291	-0.03195435
5	0x39b7574b	0.00034969518
6	0x3bf63e87	0.007514778
7	0xbc07c636	-0.008287003
8	0x3c6075a2	0.013699921
9	0x3c094392	0.008377926
10	0x3c2b5808	0.010458
11	0x3b919d3d	0.004443793
12	0x3c46de8a	0.012138018
13	0xbc882194	-0.016617574
14	0x3bd3e8cc	0.0064669605
15	0x3a6664ba	0.0008788813
16	0xbb10cf34	-0.002209616
17	0xba17bef7	-0.0005788649
18	0x3a47747c	0.0007608605
19	0xbc968652	-0.018374596
20	0xbcc92cb5	-0.02455745
21	0xbc6db2ae	-0.014507933
22	0xbc98badb	-0.018643787
23	0x3c33b41e	0.010968236
24	0xbcb08273	-0.021546578
25	0x3bddeb55	0.0067724385
26	0xbb7efb2c	-0.0038907034
27	0x3b96a2f5	0.0045970627
28	0xbcf38fab	-0.029731592
29	0xbbe84ab7	-0.007088985
30	0xbc36cbfb	-0.011157031
31	0xbc8d7b9b	-0.017270854
32	0x3c85ee22	0.016348902
33	0x3b7f0636	0.0038913614
34	0x3cb87e1a	0.022521067
35	0x3cc14ca4	0.023596115
36	0x3c98f71a	0.018672515
37	0xbc2b6d79	-0.010463112
38	0x3d164a8d	0.03669219
39	0x3c8beab4	0.017079689
40	0x3a3900d3	0.0007057313
41	0x3c869f33	0.016433334
42	0xbc07274d	-0.008249116
43	0xbc8bf9a3	-0.01708681
44	0x3bf0c868	0.007348109
45	0x3b2fe160	0.0026837215
46	0x3c135449	0.008992263
47	0xbc8a4309	-0.016877668
48	0xbcab9b88	-0.020948187
49	0xbc823625	-0.015894959
50	0x3b73fcfd	0.003722965
51	0xbad0d78d	-0.001593338
52	0x3c5be7d8	0.013421975
53	0xbaf92ef2	-0.0019011183
54	0xbcaa1571	-0.020762177
55	0xbbf45cd0	-0.007457353
56	0x3a3a0d36	0.00070973055
57	0x3c853a52	0.01626316
58	0xb8315950	-4.2283267e-05
59	0xbca8fd86	-0.020628702
60	0x3c3a5758	0.011373363
61	0xbb14689d	-0.0022645362
62	0xbbdb2b13	-0.0066884845
63	0x3be711a3	0.007051663
64	0xbc889818	-0.016674086
65	0x3b178558	0.002312025
66	0xbb063a59	-0.0020481555
67	0xbc901be3	-0.017591422
68	0xbb84774c	-0.0040425416
69	0x3c05ffe9	0.0081786895
70	0xbc4fe9b1	-0.012689994
71	0x3c3c2efb	0.01148581
72	0x3c597b55	0.013274034
73	0x3a877bcc	0.0010336577
74	0x390cb8a3	0.00013420223
75	0xbb3df912	-0.0028987569
76	0xbcc40077	-0.023926003
77	0x3c915c08	0.01774408
78	0x3c1ce6dc	0.009576526
79	0xba2f4310	-0.00066857133
80	0x3bebe7cc	0.007199263
81	0xbbcdfe62	-0.0062864283
82	0xbc3343a2	-0.010941418
83	0x3b8a7e9b	0.0042265183
84	0x3c12d710	0.008962408
85	0x3bf0aa23	0.0073445006
86	0xbbb0cc8e	-0.0053954786
87	0x3cd8b562	0.026453678
88	0xbc4eda89	-0.012625345
89	0x3c4139fe	0.011793612
90	0xbb5903c5	-0.003311382
91	0xbc1fde53	-0.009757596
92	0x3b2e1ba7	0.0026566775
93	0x3c47e092	0.012199538
94	0xbcb19b02	-0.021680359
