model/checkpoints/janardhan2016/chemeleon/model_000.onnx (onnx, 516029 bytes, 12 tensors)

lv_onnx::MatMul_4 f4 [1860, 56]
00000000: 0000 0000 0000 0000 0000 0000 0000 0000
00000010: 0000 0000 0000 0000 0000 0000 0000 0000
00000020: 0000 0000 0000 0000 0000 0000 0000 0000
00000030: 0000 0000 0000 0000 0000 0000 0000 0000
00000040: 0000 0000 c1a8 60bf 0000 0000 0000 0000
00000050: 0000 0000 0000 0000 0000 0000 0000 0000
00000060: 0000 0000 0000 0000 0000 0000 0000 0000
00000070: 0000 0000 0000 0000 0000 0000 0000 0000
00000080: 0000 0000 0000 0000 0000 0000 0000 0000
00000090: 0000 0000 0000 0000 0000 0000 0000 0000
000000a0: 0000 0000 0000 0000 0000 0000 0000 0000
000000b0: 0000 0000 0000 0000 0000 0000 0000 0000
000000c0: 0000 0000 0000 0000 0000 0000 0000 0000
000000d0: 0000 0000 0000 0000 0000 0000 0000 0000
000000e0: 0000 0000 0000 0000 0000 0000 0000 0000
000000f0: 0000 0000 0000 0000 0000 0000 0000 0000
00000100: 0000 0000 0000 0000 0000 0000 0000 0000
00000110: 0000 0000 0000 0000 0000 0000 0000 0000
00000120: 0000 0000 0000 0000 0000 0000 0000 0000
00000130: 0000 0000 0000 0000 0000 0000 0000 0000
00000140: 0000 0000 0000 0000 0000 0000 0000 0000
00000150: 0000 0000 0000 0000 0000 0000 0000 0000
00000160: 0000 0000 0000 0000 0000 0000 0000 0000
00000170: 0000 0000 0000 0000 0000 0000 0000 0000
00000180: 0000 0000 0000 0000 0000 0000 0000 0000
00000190: 0000 0000 0000 0000 0000 0000 0000 0000
000001a0: 0000 0000 0000 0000 0000 0000 0000 0000
000001b0: 0000 0000 0000 0000 0000 0000 0000 0000
000001c0: 0000 0000 0000 0000 0000 0000 0000 0000
000001d0: 0000 0000 0000 0000 0000 0000 0000 0000
000001e0: 0000 0000 0000 0000 0000 0000 0000 0000
000001f0: 0000 0000 0000 0000 0000 0000 0000 0000
00000200: 0000 0000 0000 0000 0000 0000 0000 0000
00000210: 0000 0000 0000 0000 0000 0000 0000 0000
00000220: 0000 0000 0000 0000 0000 0000 0000 0000
00000230: 0000 0000 0000 0000 0000 0000 0000 0000
00000240: 0000 0000 0000 0000 0000 0000 0000 0000
00000250: 0000 0000 0000 0000 0000 0000 0000 0000
00000260: c1a8 60bf 0000 0000 0000 0000 0000 0000
00000270: 0000 0000 0000 0000 0000 0000 0000 0000
00000280: 0000 0000 0000 0000 0000 0000 0000 0000
00000290: 0000 0000 0000 0000 0000 0000 0000 0000
000002a0: 0000 0000 0000 0000 0000 0000 0000 0000
000002b0: 0000 0000 0000 0000 0000 0000 0000 0000
000002c0: 0000 0000 0000 0000 0000 0000 0000 0000
000002d0: 0000 0000 0000 0000 0000 0000 0000 0000
000002e0: 0000 0000 0000 0000 0000 0000 0000 0000
000002f0: 0000 0000 0000 0000 0000 0000 0000 0000
00000300: 0000 0000 0000 0000 0000 0000 0000 0000
00000310: 0000 0000 0000 0000 0000 0000 0000 0000
00000320: 0000 0000 0000 0000 0000 0000 0000 0000
00000330: 0000 0000 0000 0000 0000 0000 0000 0000
00000340: 0000 0000 0000 0000 0000 0000 0000 0000
00000350: 0000 0000 0000 0000 0000 0000 0000 0000
00000360: 0000 0000 0000 0000 0000 0000 0000 0000
00000370: 0000 0000 0000 0000 0000 0000 0000 0000
00000380: 0000 0000 0000 0000 0000 0000 0000 0000
00000390: 0000 0000 0000 0000 0000 0000 0000 0000
000003a0: 0000 0000 0000 0000 0000 0000 0000 0000
000003b0: 0000 0000 0000 0000 0000 0000 0000 0000
000003c0: 0000 0000 0000 0000 0000 0000 0000 0000
000003d0: 0000 0000 0000 0000 0000 0000 0000 0000
000003e0: 0000 0000 0000 0000 0000 0000 0000 0000
000003f0: 0000 0000 0000 0000 0000 0000 0000 0000
0.0 0.0 0.0 0.0 0.0 0.0 0.0 0.0
0.0 0.0 0.0 0.0 0.0 0.0 0.0 0.0
0.0 -0.877575 0.0 0.0 0.0 0.0 0.0 0.0
0.0 0.0 0.0 0.0 0.0 0.0 0.0 0.0
0.0 0.0 0.0 0.0 0.0 0.0 0.0 0.0
0.0 0.0 0.0 0.0 0.0 0.0 0.0 0.0
0.0 0.0 0.0 0.0 0.0 0.0 0.0 0.0
0.0 0.0 0.0 0.0 0.0 0.0 0.0 0.0
0.0 0.0 0.0 0.0 0.0 0.0 0.0 0.0
0.0 0.0 0.0 0.0 0.0 0.0 0.0 0.0
0.0 0.0 0.0 0.0 0.0 0.0 0.0 0.0
0.0 0.0 0.0 0.0 0.0 0.0 0.0 0.0
0.0 0.0 0.0 0.0 0.0 0.0 0.0 0.0
0.0 0.0 0.0 0.0 0.0 0.0 0.0 0.0
0.0 0.0 0.0 0.0 0.0 0.0 0.0 0.0
0.0 0.0 0.0 0.0 0.0 0.0 0.0 0.0
0.0 0.0 0.0 0.0 0.0 0.0 0.0 0.0
0.0 0.0 0.0 0.0 0.0 0.0 0.0 0.0
0.0 0.0 0.0 0.0 0.0 0.0 0.0 0.0
-0.877575 0.0 0.0 0.0 0.0 0.0 0.0 0.0
0.0 0.0 0.0 0.0 0.0 0.0 0.0 0.0
0.0 0.0 0.0 0.0 0.0 0.0 0.0 0.0
0.0 0.0 0.0 0.0 0.0 0.0 0.0 0.0
0.0 0.0 0.0 0.0 0.0 0.0 0.0 0.0
0.0 0.0 0.0 0.0 0.0 0.0 0.0 0.0
0.0 0.0 0.0 0.0 0.0 0.0 0.0 0.0
0.0 0.0 0.0 0.0 0.0 0.0 0.0 0.0
0.0 0.0 0.0 0.0 0.0 0.0 0.0 0.0
0.0 0.0 0.0 0.0 0.0 0.0 0.0 0.0
0.0 0.0 0.0 0.0 0.0 0.0 0.0 0.0
0.0 0.0 0.0 0.0 0.0 0.0 0.0 0.0
0.0 0.0 0.0 0.0 0.0 0.0 0.0 0.0

lr_lr_W f4 [1860, 1]
00000000: b84f 75ba 13c6 963a 716a 57b9 3934 733b
00000010: c52d 0a3c 94d4 5abc 63ff ba3b 8ff9 073c
00000020: 4f7e 293b 55b8 493c 30cd a83b 5a90 b53b
00000030: a732 923c 069b a2bb 66ba b83b 1452 eb3b
00000040: fd14 2f3c 91db cabb 80bf 173c aaae 88bc
00000050: a0ac bdba 80bd 123a c73b 59b9 ec89 ff3c
00000060: 514b 953c a92a ddb9 5a9e 59bb 1617 a53b
00000070: 4401 97bb 6425 b13c 551f 35bb d9c1 30b9
00000080: df92 43bc 77be 4f3c 833d 4a3c 433f 7ebc
00000090: 902f 063a b8fb 20bd b1cc 6dbc 6f92 283c
000000a0: b791 ed3b ca1c 0abc eef3 883a ef06 d3bb
000000b0: d48c 0d3c d009 5739 5608 a33c f97a 463c
000000c0: e317 6d3c 20ce 3cbc 5810 01bb 3a4b f13a
000000d0: 4f9d 243c 86b4 19bd 966a 5cbc 1c6b 533c
000000e0: f5b7 943c b3d7 8e3c bafc 40bc 9c5c 0a3c
000000f0: 06d2 b63a 7e09 633a 3cbe 8a3a 5a3d 9abb
00000100: 14ac 7f3c 962c 75bc b9ca 8e3c 2c28 c8bb
00000110: d4f2 1dbd bb2e 883c c412 a1ba 2709 b33c
00000120: 9fb1 703b cb68 a2bb c8a7 e13b 04e1 27bb
00000130: 4ade 123c ea14 93bb d54e 02bd be53 12bd
00000140: 4090 3e3c 0bed 943b 8456 3a3a 9fc0 46bc
00000150: 09da 003b 3745 abbc 56c9 b63c e2c2 213c
00000160: 82e8 bd3b b849 343b 2f2c de3b 47a0 31bc
00000170: 7f61 943c 5ce5 39bc b0d5 e3bb 04d1 90bc
00000180: b8b9 953b a658 86bb 7594 853c 422a 143b
00000190: 719b 37bc 0c32 f1bb c70f 483c 3c2a 8f3b
000001a0: 1801 aa3b 7ff5 fe3a 2443 f63c cb24 393b
000001b0: 9790 dabb 1939 b03c cb56 c83c d9bd 1e3c
000001c0: fa70 b2bc 7450 193a 3b96 93bb 4803 ad3b
000001d0: ab95 463b 51a9 5d3c c05a 9d3c 7d42 80bc
000001e0: 9ecf 43ba cb4e a53a 9d0f d0ba e89e c33c
000001f0: 7dc1 413c 704a 903c 16ec cfba b678 f1bb
00000200: eba1 4e3c 5596 d6bc 1037 ee3c 4982 b2ba
00000210: bfa0 00bc 8e6b 93bc 8df8 26bc 98ba b1bb
00000220: 6eb4 8638 ef58 173c 8617 263c 4dbd 18bc
00000230: 01b0 aa3c 6973 973a 03b1 84bc e41e 24b9
00000240: d7b9 193c 4081 91bb bb40 9d3b 4855 9cb9
00000250: e9e6 8abb cc91 4cbb 63da d23b c00e a939
00000260: f511 dabb bb66 38bc bb56 83bb 4cb1 09bc
00000270: 3e66 543c 15b2 71bb e9c4 5abc 642f 64ba
00000280: f4c4 443c 8bcf 01bc 3ec3 203c 8062 2ebb
00000290: 1284 c93b c26b 5c3c c934 a8bb 4d49 4b3c
000002a0: 88b2 92bb 2682 053c 205f 593b 6737 03bc
000002b0: 1b82 9f3b f4aa a9bc 44fd 27bb 4895 b03b
000002c0: 978c f53b b929 c83b f4cf 433b 0395 273b
000002d0: 56a7 193c 4a56 9abb 5284 e0bb 2806 d63a
000002e0: df4b e9ba de6d 57bc 3ffd a83b e6fc 97bc
000002f0: 0357 3ebc 887b b33b a3f6 adbb 5720 76b9
00000300: fd2c ee3b a610 bebb f2c1 35bb 7d71 dabc
00000310: 9c65 37bc 0f43 833c 57c7 903c 4f14 ab3c
00000320: 25ee e8bc 387a 7e3a e539 afbb 88bf 033b
00000330: f7e6 9dba 7f73 3bbc 9472 9bbc b22d 9f3b
00000340: 3768 78ba 6ef4 91bc c1bc 66bb e574 633b
00000350: b948 ccbb 54ea 4f3b 53cc e03a 77d1 713c
00000360: 5b33 0fbb 7c13 cb3a 2fc0 833c 5228 8bbc
00000370: f33b 763c af95 b13a b27a 57bc c7f3 713b
00000380: 3a71 eabb def5 d23c a300 3cbc 4727 103c
00000390: e900 3d3c c6fe 8cbc 935a 453b acb0 d33b
000003a0: b4c7 e439 15ab 123c ad6b 063a 9d27 173c
000003b0: 1045 763b 1cb2 82bb 88f5 0a3c 31cf 143c
000003c0: 4892 ab3a 26a2 49bc 0c7d 5839 3d3d 2fbc
000003d0: 799a bb3b c7f4 8cbc aed4 dcbc eaec 033c
000003e0: ed72 1bbc d518 b63c 6385 51bc 98b0 373c
000003f0: 862b e53b 742b aa3c 9cb7 9dbb 91f1 933b
-0.00093578873 0.0011503123 -0.0002054365 0.0037109985 0.008433764 -0.013356347 0.005706714 0.0082992455
0.002586264 0.012312015 0.0051514134 0.0055408897 0.017846419 -0.004962328 0.005637455 0.0071814153
0.010686156 -0.006190725 0.009261966 -0.016684849 -0.0014471002 0.00055976957 -0.00020717001 0.031193696
0.01822439 -0.0004218419 -0.0033205957 0.0050381524 -0.004608305 0.021624275 -0.0027637084 -0.00016856882
-0.011936872 0.012679688 0.012343767 -0.015518012 0.00051187817 -0.039302558 -0.014514134 0.010288819
0.0072500366 -0.008429715 0.0010448673 -0.0064400355 0.008639533 0.00020507653 0.019901436 0.01211428
0.014471027 -0.011523753 -0.001969358 0.001840926 0.010047271 -0.037525676 -0.013453146 0.012903955
0.018154124 0.017436838 -0.011779005 0.008444931 0.001394809 0.0008660777 0.0010585259 -0.0047070207
0.0156049915 -0.014964243 0.01743065 -0.0061083045 -0.038561657 0.016623845 -0.0012288918 0.02185495
0.0036726964 -0.00495634 0.006886456 -0.0025616297 0.008964131 -0.004488577 -0.03181346 -0.035724394
0.011631072 0.0045448593 0.0007108229 -0.012130885 0.001966121 -0.020907028 0.022312801 0.009873124
0.0057955394 0.002750976 0.0067801694 -0.010841436 0.018112896 -0.011346187 -0.006952964 -0.017677791
0.0045692585 -0.004099923 0.016306141 0.0022608195 -0.011206494 -0.0073607024 0.012210793 0.0043690484
0.0051881187 0.0019451826 0.030061312 0.002825069 -0.0066700685 0.021511601 0.024455449 0.009688818
-0.021782387 0.0005848475 -0.004503993 0.005279932 0.0030301611 0.013529138 0.019208312 -0.015656704
-0.0007469597 0.0012611983 -0.0015873794 0.023879483 0.011825916 0.01761362 -0.0015863206 -0.007369126
0.012611846 -0.02619473 0.02907899 -0.001361915 -0.007850825 -0.017995622 -0.010191095 -0.005423855
6.4232256e-05 0.009237512 0.010137444 -0.009322477 0.020835878 0.0011554781 -0.016197687 -0.00015651766
0.009382687 -0.0044404566 0.0047989762 -0.00029818178 -0.0042389524 -0.0031214831 0.006434725 0.00032245182
-0.0066549727 -0.011254962 -0.004008142 -0.008404087 0.01296383 -0.0036879827 -0.013352611 -0.00087045715
0.012009848 -0.007923017 0.009812174 -0.0026609004 0.006149777 0.013453426 -0.0051332456 0.012407613
-0.004476849 0.008148706 0.0033168271 -0.008008814 0.0048678047 -0.0207114 -0.0025633136 0.0053888895
0.0074935663 0.0061084894 0.0029878588 0.0025570996 0.009378275 -0.0047099935 -0.0068517113 0.0016328739
-0.0017799101 -0.013148753 0.0051571424 -0.018553209 -0.011617425 0.0054773726 -0.0053089424 -0.00023472436
0.0072685466 -0.0058003245 -0.0027734009 -0.026665444 -0.011193659 0.016023187 0.017673178 0.020883707
-0.028433869 0.0009707543 -0.0053474777 0.0020103175 -0.0012046982 -0.011441111 -0.018975534 0.004857742
-0.00094759784 -0.017816748 -0.003520772 0.0034707126 -0.006234255 0.0031725364 0.0017150737 0.014759413
-0.0021850679 0.0015493478 0.016082851 -0.016987 0.015028941 0.0013548638 -0.013151811 0.0036918984
-0.007154611 0.025752004 -0.011474761 0.008798427 0.0115358615 -0.01721133 0.00301138 0.00646027
0.0004363634 0.008951922 0.0005127739 0.009225753 0.0037577786 -0.0039885174 0.008481391 0.009082601
0.001308986 -0.012306726 0.00020645949 -0.010695753 0.0057252017 -0.017206563 -0.026956882 0.00805209
-0.00948785 0.022228638 -0.0127881495 0.011211537 0.006993714 0.020772673 -0.0048131477 0.004514881

svc_W2_svc f4 [1860, 1]
00000000: 8363 bf3b 5faa 593c 2034 9cbb ff6d 4f3c
00000010: 79b8 c53a bb47 84bc 87fa d83b c652 d43b
00000020: 3855 df3b ffd3 843c d530 ec3b aa18 603b
00000030: 4207 5c3c 1ffe de3b 5945 db39 a16d dabb
00000040: 289e 823c 919b cabc a3bf 803c aecf 29bc
00000050: 3f11 2f3b 991f 5e3b 2a4c 38bb 8086 f63c
00000060: aa74 cc3c 19e0 5fbc 02ee 763b 4e02 4cba
00000070: 139c 3e3b 4536 8a3c 591f b1bb ae2a 993b
00000080: 45dd 0fbc 0bd4 0a3c 6c91 543c ad62 9abb
00000090: f8ec fbba 909b cabc 64c1 edbb a03c 8b3c
000000a0: ca5d ce3b b80d 20bc 7bca 043a ecd6 c435
000000b0: 2d8d 063c a572 1c3c 72e2 e83c 92b1 433b
000000c0: 6400 223c ab7b 5dbc b23b ffbb 6fd9 80b8
000000d0: 8062 783c b250 16bd 26b4 32bc 95d9 2a3c
000000e0: 6a51 ba3c 6886 b33c 930a 57bb bcd6 243c
000000f0: 318f 2e3b 7f88 003b 7c6b 8f3b b488 e7ba
00000100: f4d4 743c b6d0 b038 b87b 653c 81a8 87bc
00000110: 9052 f3bc 7290 823c a250 dc38 7369 dc3c
00000120: 4d9b 4a3b e68f 7cbc 97f5 e73b 41ce 7dbc
00000130: cc4b 853c 6968 123c 33e5 98bc 7515 b0bc
00000140: 7cc7 223c e719 163c f2ba b43b d6bb a8bc
00000150: e571 433c a716 d0bc bd58 ae3c 1b49 3b3c
00000160: 3aed 73bb 39a0 a23b 894a 243b 6d44 b3bc
00000170: bf38 853c 58ec 77bc e2af fb3a 6610 31bc
00000180: 89a3 69b9 0e91 ffbb 11ff 713c c7df 0a3b
00000190: d752 9abc 8df9 cebb a3a0 243c d7d6 8c3b
000001a0: 012d 00ba b757 d63b c60a dc3c 49b8 fd3b
000001b0: d810 2bbc 35b4 b63c 30a2 d73c 2829 683c
000001c0: ac4a 14bc 6ac5 4d3b ec46 15bc e99d e83b
000001d0: eaa1 f03b 024b 6d3c 6342 b93c 646e d7bb
000001e0: 9909 3dbb 04e4 3ebb 6f8b 9bb9 c2b3 ed3c
000001f0: ad19 573c 107a 963c 6d2e b239 0438 05bc
00000200: 97f0 853c 03be 14bd 201d ef3c b681 27ba
00000210: 91a9 b03a 0a04 99bc 6179 54bb 210c f9bb
00000220: a84e a5b9 c6fb 3a3c b9f5 853c d168 e93b
00000230: 3316 c43c 9b3f 0dba 69f9 30bc 78a2 0ebb
00000240: cd34 503c c882 babb 9d16 983b 8da3 69b9
00000250: 1674 1b3a 12d8 a9ba 5128 1c3c 4554 ffba
00000260: dbce 59bc afab bcbb bad6 91b9 186f ebbb
00000270: 8251 123c 6aa4 233b ab85 80bb 1df8 973b
00000280: 771f ee3b 3083 f0ba 6188 253c c189 553a
00000290: e50f 643c e850 873c e826 73bb be59 653c
000002a0: eab7 8f3b a1fd 1f3c 1e4f 083c 6ac3 3bbc
000002b0: 3b10 1a3c fcb1 49bd db80 9d3b cfad c43b
000002c0: 1f89 8bbb 2685 fbba 48c5 0c3c 8cf9 453c
000002d0: c082 6d3c 5fe6 97bb 9c9d d2ba 8a2b 65bb
000002e0: c035 583b c0b3 23bc e888 6e3c 1c9d c2bc
000002f0: 9fbf 1ebc 7f0d 563c 1c07 8cbb d0bd adbb
00000300: fa38 1f3c 4d40 98bb f2f8 8a3b b588 11bd
00000310: 6d04 77bc c349 6d3c 0c01 b93c 114f c03c
00000320: cf42 7bbc fc83 3abb 86be 40bc 623e 6bbb
00000330: 2953 993b fbd5 00bc 5237 88bc c161 393c
00000340: 3d55 8e3a 6ff8 6ebc 0831 c1bb ddc6 bc3b
00000350: 8548 2ebb e12c db3b 8d43 863b 7881 803c
00000360: 0387 5839 c183 163b a5ce 383c 8a8c c0bc
00000370: 3816 9c3c 587e a23b 923c 81bc c1c7 693b
00000380: fd0f 8cbc 7ea6 d23c 9308 67bc 8723 873c
00000390: 3aa6 a93c 384c 90bc 8c9e 133c 0880 333c
000003a0: c9c6 83ba 49c8 a23b 81f4 853b 55b9 953c
000003b0: 20d1 723a c1c9 fdb7 e6f8 653c 36f2 a33b
000003c0: 7c73 92bb 8a7e a0bc 2217 373a 90d3 16bc
000003d0: d066 57ba 816d 2fbc 89a1 85bc 552c 7e3c
000003e0: fa0e 2cbb dda8 d03c f0a8 76bc ac0e 3e3c
000003f0: c91f 973b 0b75 403c 0508 22bb 7d0f 283c
0.00584072 0.013285249 -0.004766956 0.012660502 0.0015084884 -0.016147485 0.006621662 0.006479594
0.006815579 0.016214369 0.0072079697 0.0034194388 0.013429465 0.006805196 0.00041822603 -0.006665901
0.015944555 -0.024732383 0.01571638 -0.010364456 0.002671316 0.0033893345 -0.002812157 0.030093431
0.024957974 -0.013664269 0.0037678485 -0.0007782326 0.0029084727 0.01687158 -0.0054053483 0.0046742773
-0.008780782 0.008473407 0.012974124 -0.00471147 -0.0019220402 -0.024732381 -0.00725572 0.016996682
0.0062978016 -0.009768896 0.00050655723 1.4665688e-06 0.00821237 0.009548818 0.02842829 0.0029860479
0.009887788 -0.013518254 -0.0077890987 -6.144016e-05 0.015160203 -0.03669805 -0.010907209 0.010427852
0.0227439 0.021914676 -0.00328127 0.010060962 0.0026635642 0.0019612608 0.004376827 -0.0017664642
0.01494335 8.4312094e-05 0.014006548 -0.016559841 -0.029702455 0.015938018 0.000105054365 0.02690575
0.003091532 -0.015415167 0.007078837 -0.015491069 0.016271494 0.008936026 -0.018663978 -0.021494607
0.009935256 0.009161449 0.0055154497 -0.02059738 0.01192901 -0.025401426 0.021282548 0.011431004
-0.0037220255 0.0049629477 0.002506884 -0.021883214 0.01626241 -0.015132032 0.0019202197 -0.010807132
-0.00022281533 -0.0077992743 0.014770285 0.002119051 -0.01883833 -0.00631637 0.010048064 0.004298072
-0.00048895186 0.006541218 0.026860606 0.007742916 -0.010441028 0.022302726 0.026322454 0.014169969
-0.009051006 0.0031398186 -0.009111147 0.0070989025 0.0073435204 0.014483215 0.022614663 -0.006574439
-0.0028844832 -0.0029127607 -0.0002966779 0.02901638 0.01312868 0.01836875 0.00033985396 -0.008131031
0.016350074 -0.03631402 0.029188693 -0.0006389873 0.0013478269 -0.018678684 -0.003242098 -0.007600323
-0.00031529856 0.0114125665 0.016352521 0.007123091 0.023936367 -0.0005388201 -0.0108016515 -0.002176432
0.012707901 -0.00569186 0.0046413676 -0.00022281539 0.0005930079 -0.0012958071 0.009531097 -0.001948007
-0.013293947 -0.005757771 -0.0002781654 -0.0071848743 0.008930566 0.0024969825 -0.0039221845 0.0046377317
0.0072669345 -0.0018349644 0.010103316 0.0008145832 0.013919805 0.016518071 -0.0037102047 0.013998447
0.004385938 0.00976506 0.008319644 -0.011460165 0.009403284 -0.049242005 0.0048066205 0.006002165
-0.0042582895 -0.0019189462 0.008591957 0.012083422 0.014496505 -0.0046356167 -0.00160687 -0.0034968578
0.0032991022 -0.009991586 0.014559008 -0.023756556 -0.009689241 0.013064741 -0.0042733084 -0.0053021684
0.009718174 -0.004646337 0.0042411024 -0.035530765 -0.015076739 0.014482918 0.022583507 0.023475202
-0.015335753 -0.0028460016 -0.011764174 -0.0035895337 0.004679103 -0.007863517 -0.016627941 0.01131481
0.0010859143 -0.014585598 -0.0058957376 0.005761011 -0.0026593518 0.0066886996 0.004097408 0.015686736
0.00020649661 0.0022966715 0.011279737 -0.023504514 0.019053563 0.004958909 -0.015775952 0.003567204
-0.017097468 0.025714155 -0.014101165 0.016496433 0.020709146 -0.017614469 0.0090099685 0.010955818
-0.001005375 0.0049677235 0.004087985 0.01827685 0.00092627294 -3.02539e-05 0.014036393 0.005003239
-0.004469333 -0.019591589 0.0006984343 -0.009205714 -0.00082169194 -0.01070726 -0.016312378 0.015513499
-0.0026254044 0.025471145 -0.015054926 0.011600178 0.0046119434 0.011746655 -0.0024724018 0.010257599

fs_lr_fs_lr_W f4 [1567, 1]
00000000: a0fd 21b9 a663 423b d1c7 adb9 66f3 4b3b
00000010: 48b0 d43b 4c1f 5ebc 47d7 8739 c467 313c
00000020: c268 a93b d992 97bb ff85 953b 207c 0d3c
00000030: 7e07 11bc 26b4 673c 051d 423a b0e2 973b
00000040: 8800 11ba fa36 e43c 14fb 813c 52ac 7bbb
00000050: 865b 8ebb fecf 4f3b 8049 3dbb 6d38 2c3a
00000060: e6cc 0bbc 8d25 283c 0348 6e3c eeaf 62bc
00000070: 812b b3b9 ce73 0abd 6e26 56bc 3457 083c
00000080: 08d2 fbbb 9d44 d33b 6094 1b3b 8ad1 923c
00000090: 2dd5 443c ef82 013c 44a9 ebbc caef 2fbc
000000a0: 6c3c 9d3c 07f3 703c 7d64 083c 2088 afb8
000000b0: b245 1a3b e31d 903c 4017 0fbc 3f1f 7d3c
000000c0: d106 0dbc 9321 0abd c2c4 923c fca7 c1ba
000000d0: 59e5 ac3c e0a2 493b 47cd 9ebb b015 6e3b
000000e0: 619b da3b ffb3 57bb 88cb e0bc 2396 ffbc
000000f0: 2808 4c3c 6654 823b e65a 9c3a ea87 48bc
00000100: 5989 a73a 70ac b3bc 22ff 9a3c 76f3 353c
00000110: 1e97 6d3b 17a4 243b e507 763b e5b2 6bbc
00000120: 826a b43c cf0b 4cbc ceaf b2bb bd2c 54bc
00000130: 7477 ccbb 30f4 b8b4 01cb 48bc 447c dfbb
00000140: 4ee1 3d3c dfb6 f03b 9693 d13a 38fb f43a
00000150: 54c7 dc3c a024 1c3b 69e3 debb bd14 b93c
00000160: 8f1b ab3c 3ff7 4d3c 618a 6ebc 310b cb3a
00000170: 4d41 b13b c253 693b d76e 5d3c 4731 773c
00000180: 01f5 80bc 6013 08bb 3b3c ca3a ad43 c8ba
00000190: 2aa8 033c beaf 6c3c 89d3 d6bb 1252 dcbc
000001a0: 8461 18bb ca22 0fbc e896 84bc 9ad9 09bb
000001b0: 07d5 c83b 9cd4 0a3c bf8e 8eba b70c b03c
000001c0: a1af 3537 b45e 60bc 7c08 dbba 2bf2 2d3c
000001d0: daf8 5c3b 8a1a 64bb 0a63 83bb eff6 853a
000001e0: 0af1 c4bb d4c2 a3bb 19d5 5dbb ebf7 b6bb
000001f0: fb7a 723c 8b4f 57ba 02ae 1bbc 83d4 9b3a
00000200: 4560 513c 9d99 afbb 84d0 d4ba f3ef ae3b
00000210: 67ac 3a3c dff5 06bc e036 883c b723 9abb
00000220: 19d7 e93b fc8e 9c3a 3c17 1fbc d71e c93b
00000230: a822 aabc 613a 4c39 1556 fa3b 7a00 8d3b
00000240: 9804 ce3b 03c1 2b3b ee78 f43a 7bbf 483c
00000250: 6433 bebb 068a b4bb 147b cd3a 5a5d 03bb
00000260: 0a0d 48bc 0232 153c 56b0 84bc af9d 60bc
00000270: 161c 653b 392c bcbb f8f8 e4ba 491a c33b
00000280: c3bb e5bb d674 47bb 90f3 debc 1a51 23bc
00000290: a2f2 713c 1ece 953c 1338 7bbc 5cbb 113b
000002a0: b229 89bb e745 0fb9 c9ca 4dbc 8e37 94bc
000002b0: d59c a53b c9a7 5d3a e6e3 91bc 36f2 88bb
000002c0: 3a91 b43a 8e50 bebb 739e 5d3b 55ba b0b9
000002d0: 6af8 533c ba79 6ebb 0487 bb3a 1573 50bc
000002e0: 85fe 7b3c 3697 23ba 8635 48bc d622 6f3b
000002f0: 54e6 b23c bfad 0dbc 4a44 243c ccfb 163c
00000300: 2fec 79bc f06e ad3a 8988 c03b 6132 93ba
00000310: 7ffc 1e3b 17e3 023a 245c 0f3c f6d9 283b
00000320: 1040 a1bb b668 e33b 1840 a23b 0163 0237
00000330: ea4f bd3a 7194 813b ca7c bbbc 5ac4 2c3c
00000340: 6a14 c83c f842 49bc b5b1 283c a570 993c
00000350: 7c4d 72bb efda 743c 2c9a 10bb 8083 6b3c
00000360: 6db6 f23b 57eb d93b 4930 5b3c 6566 24bc
00000370: 8769 0aba aa10 8abb c4c8 faba 6f17 3c3c
00000380: 5e77 0cbc 3e5f 26bb 8b7c 96bb ec13 4e3b
00000390: 24d3 14bc fc36 933c 5f10 1f3b 2110 0bbb
000003a0: d185 bdbc 6857 acba 4ac9 513a 2ba3 a13c
000003b0: 9122 793c d3bc 673c 95f4 c6bc 28c1 a7bc
000003c0: 7356 50bb a68a a83b 4ad8 013b 0591 74bb
000003d0: 49fd ed3b 5939 c73c 5833 35bc 8ba6 633c
000003e0: d365 9b3c d6b1 23bc 06c7 853c 9fc0 82ba
000003f0: 2c2b 833b 80c3 463c 3f59 023c 7ef1 a8bc
-0.00015448639 0.0029661446 -0.00033146006 0.0031120419 0.006490741 -0.013557266 0.000259096 0.010827962
0.005169959 -0.00462566 0.0045630927 0.008635551 -0.008851884 0.014142072 0.0007404837 0.0046351776
-0.000553139 0.027858246 0.015866794 -0.0038402271 -0.0043444065 0.0031709666 -0.002888292 0.00065696874
-0.008532738 0.010262859 0.014543536 -0.01383589 -0.00034173953 -0.033801846 -0.013070686 0.008321572
-0.00768495 0.0064473883 0.0023739561 0.017922182 0.012013716 0.007904752 -0.028767236 -0.0107383225
0.01919385 0.01470638 0.0083247395 -8.3700055e-05 0.0023540077 0.017592376 -0.008733571 0.015449344
-0.008607582 -0.033723425 0.017916087 -0.0014774795 0.021105455 0.0030767247 -0.0048462483 0.0036328845
0.0066713546 -0.0032913683 -0.027440801 -0.03119952 0.0124531165 0.0039773462 0.0011928945 -0.012239436
0.0012782022 -0.02193281 0.018920485 0.011105409 0.0036253403 0.002512222 0.0037541327 -0.0143859135
0.022023443 -0.012453987 -0.0054530865 -0.01295012 -0.006239826 -3.445034e-07 -0.012255431 -0.0068202335
0.011589361 0.0073460187 0.0015989419 0.0018690592 0.026950516 0.002382554 -0.0068020117 0.022592897
0.020887164 0.012571155 -0.014559359 0.0015491006 0.005409396 0.0035602902 0.013515196 0.015087432
-0.015741827 -0.0020763502 0.0015429327 -0.0015278958 0.008035699 0.014446197 -0.0065559787 -0.026894603
-0.0023251483 -0.008736322 -0.016185239 -0.0021034242 0.0061289105 0.008473542 -0.0010876282 0.021490438
1.08293325e-05 -0.013694454 -0.0016710903 0.010616819 0.0033717663 -0.0034805858 -0.004009609 0.0010220687
-0.0060101794 -0.0049975906 -0.003384894 -0.0055837533 0.014799829 -0.0008213452 -0.009501936 0.0011888895
0.0127793 -0.0053588883 -0.0016236459 0.005338663 0.011393643 -0.008237331 0.016627729 -0.0047039646
0.0071362373 0.0011944468 -0.009710129 0.0061377096 -0.020768479 0.00019476704 0.0076396563 0.0043030353
0.0062871687 0.0026207573 0.0018651763 0.012252684 -0.005804466 -0.0055096177 0.0015676939 -0.0020044656
-0.01221014 0.009106161 -0.016197365 -0.01370947 0.0034959367 -0.0057425764 -0.0017469218 0.005954061
-0.0070109083 -0.003043463 -0.027215749 -0.009968067 0.014767321 0.01828676 -0.015333193 0.002223692
-0.0041858787 -0.00013663583 -0.012560555 -0.018092897 0.005054096 0.0008455483 -0.017808866 -0.0041792644
0.0013776191 -0.0058079427 0.0033816367 -0.00033708164 0.0129376445 -0.0036388473 0.0014307206 -0.01272275
0.015380506 -0.0006240489 -0.012219792 0.003648927 0.021838345 -0.008647381 0.010026047 0.0092153065
-0.015254064 0.0013231914 0.0058756513 -0.0011230224 0.0024259386 0.00049929455 0.008749995 0.002576468
-0.004920967 0.0069399728 0.004951488 7.771655e-06 0.0014443372 0.003954463 -0.022886652 0.010544861
0.024423797 -0.012284033 0.010296275 0.01873047 -0.0036972454 0.014944776 -0.002206455 0.014374614
0.0074070008 0.006650369 0.013378211 -0.010034178 -0.0005280007 -0.0042134123 -0.0019133319 0.011480196
-0.008573381 -0.0025386359 -0.0045924834 0.003144498 -0.009083543 0.017970555 0.0024271233 -0.002121933
-0.023135098 -0.0013148608 0.00080027117 0.019731125 0.015205995 0.01414414 -0.024286548 -0.020477846
-0.003178981 0.0051434813 0.0019812756 -0.0037317884 0.00726286 0.024319338 -0.011059605 0.013894687
0.018969452 -0.00999113 0.016330253 -0.0009975618 0.004002949 0.012131572 0.007955848 -0.020622965

fs_svc_W2_fs_svc f4 [1567, 1]
00000000: 4b5e 923b ad35 e23b 5728 97bb 68f1 3b3c
00000010: 5ed9 e83b 0835 ddbc 526d db3b 3e5d 083c
00000020: 09af 543c 5088 90bb 4c02 ea3b f02d 973c
00000030: 271d 95ba 70ca c33c 2ef0 0d3b e75c 33bb
00000040: 2be3 023c 662b 413d f743 fb3c bf2a f0bb
00000050: fbd3 b9bb e3f3 5d3b f089 cd3a 46f5 ce3a
00000060: 2c54 27bc fcb4 d63c 4104 a33c 7472 e0bc
00000070: f80d 4fbb 6d79 82bd 1214 ddbb e98b 733c
00000080: 16d6 74bc 50df 543c c978 1aba fd77 103d
00000090: 5a56 823c e0e2 8f3c 16f3 68bd c312 4cbc
000000a0: 04ca f53c 9aa8 d93c c34d 7f3c c235 383b
000000b0: 07b0 143c d85f 223d 8d34 ebbc 0bcf 953c
000000c0: d898 65bc 3813 66bd cc5d 8e3c c07f 10bc
000000d0: 5b39 1e3d 34e7 92ba b9a1 8dbc 59d4 823b
000000e0: 9623 7c3c 74a9 aaba 0cd5 39bd f379 74bd
000000f0: 844c a93c fc9a b43b def4 a6bb 468d 38bc
00000100: 6d99 ec3a 6d57 09bd 9d82 e93c b450 203c
00000110: 412a 0f3c 520b 2d3b 198a 8dba 1174 c1bc
00000120: 1e12 2b3d 9b2c 80bc b569 c4bb d94a bebc
00000130: c96e 9bbc 40c1 40bb abb2 aebc 6c51 45bc
00000140: 602b cb3c e18a d73b c146 413b 92bc 80ba
00000150: eded 1e3d fe02 f13b 435e a9bb 2007 4c3d
00000160: bd32 083d a401 c73c a7c2 febc bf91 e93b
00000170: 529c ef3b f037 1d3b 163b 3d3c bfdb db3c
00000180: 28ec d6bc fe55 aebb a2b4 0ebb 83a0 d3ba
00000190: 8e15 cd3c 9897 d43c e503 a9bb 93b8 2cbd
000001a0: ec02 5ebc 7892 4fbc cb83 4ebc f04a ffbb
000001b0: 3cf2 383c a1ad 353c 5ba7 40bc 49a6 d93c
000001c0: 20ab 25bb f6d7 0ebd 00e4 f8bb 214e a23c
000001d0: f32f c33b 2768 49bc e57d ccbb dc1e c3bb
000001e0: 15b6 cdba 2b7f cdbb c228 baba 4003 bdbb
000001f0: 3553 df3c 2d36 afbb 4dc1 f0bb c7ed 87ba
00000200: 7dca a83c 8eda 093a 0629 72ba 7645 463b
00000210: b552 a93c 712e 58bb 0d48 103d f9e9 79bb
00000220: ecb3 8a3c 5a5b be3b e5d4 88bc cc0e 473c
00000230: 8079 82bd 9a5f 9938 3685 1a3c c185 d23a
00000240: 1525 cdb8 723d 1ebc d969 8b3b 2cf2 623c
00000250: e818 443b cc6a febb 64af 7ebc 8fd4 f8b9
00000260: 2a7b 1ebc 1f05 623c 7694 abbc 18d6 80bc
00000270: 9854 bc3b 5175 973a 6463 c1bb 8d88 a03c
00000280: d848 7cbc 28bf 49bb ba82 44bd 039e c7bc
00000290: c379 083d 7dcb 023d 5042 2dbd c92f 023b
000002a0: 8816 aebc a017 4ebb 8ac1 80bc cabf 15bd
000002b0: b62a c33b f8a4 a03b 7f9e ecbc 3fd1 22ba
000002c0: f0ba b5bb d2c6 03bc ecf7 b8ba 754c 4dba
000002d0: 6823 c73c 502a 44bb 1c22 893b cb16 0ebd
000002e0: 6f79 863b 1350 c83b 50e2 b8bc 5560 9e3c
000002f0: 0088 0b3d 9542 a1bc b548 843c 674d 8d3c
00000300: 855d 13bd 5f0a 703b 318e db3b d175 6fbb
00000310: dbc6 f33b a93e 0dbc 0a5f 753c 10da ac3b
00000320: 4220 d2bb 3699 6a3c 76ce 003b c0ee e5bb
00000330: fd10 d93b db1f 6b3b b032 32bd cfe5 cf3c
00000340: cc5c 223d 0272 8039 d2dc 87ba dbae 2d3d
00000350: c574 febb a4cf dc3c a41f 47bb 2be7 843c
00000360: 119b 483c ffe5 173c 05c9 c73c 36de 22bc
00000370: 274a 32bc 620f f7bb b80c 58bc 10a1 b53c
00000380: 6a16 fdbc 8d26 99bb 0eda 96bc 0152 a13b
00000390: 407f 55bc dc99 c53c 768e f0bb 08b3 e0bb
000003a0: 08ab 37bd 61c0 fab9 3438 97bb d563 913c
000003b0: b40d bd3c c652 a63c 8b58 1bbd f138 bdbc
000003c0: c0c2 dfbb a424 8a3c 5004 0ebc 35a0 2bbb
000003d0: ab1e 5c3c 7cad 213d 1c39 abbc bab0 803c
000003e0: cc3f a43c f801 19bd 5ece a13c d7cd d7bb
000003f0: e011 ab3b 4def 903c 09ea 943c 25a0 77bc
0.004466807 0.0069033713 -0.004612963 0.01147113 0.0071059903 -0.027002826 0.0066963816 0.008323012
0.012981185 -0.004410781 0.007141387 0.018454522 -0.0011376486 0.02390024 0.002165805 -0.0027368607
0.007988731 0.04716053 0.030672057 -0.0073293145 -0.005671022 0.0033867292 0.0015681367 0.001578965
-0.010212939 0.026209347 0.01989949 -0.027398326 -0.003159402 -0.063708164 -0.0067467773 0.0148649
-0.01494362 0.012992695 -0.0005892632 0.03527068 0.015910316 0.017564237 -0.05687245 -0.012455645
0.030003555 0.026569653 0.015582505 0.0028108214 0.009075171 0.039642185 -0.028711582 0.018287202
-0.014013492 -0.056170672 0.01737871 -0.0088195205 0.038628917 -0.001120782 -0.01728903 0.003992599
0.015389344 -0.0013020472 -0.045369193 -0.059686612 0.020666368 0.0055116396 -0.0050951084 -0.011264151
0.0018051096 -0.03353064 0.028504664 0.009784866 0.008738101 0.0026404453 -0.0010798603 -0.023614915
0.041765325 -0.01564627 -0.0059940466 -0.02322905 -0.018973725 -0.002941206 -0.02132543 -0.012043338
0.024800956 0.006577835 0.0029491636 -0.0009821823 0.038801122 0.007355093 -0.0051687076 0.049811482
0.033251513 0.024292774 -0.031098677 0.00712797 0.007312336 0.002398964 0.011549732 0.026838182
-0.026235655 -0.0053203097 -0.0021775146 -0.0016145859 0.025034692 0.025951192 -0.005157935 -0.04216821
-0.013550501 -0.012669198 -0.012604664 -0.0077909157 0.011288222 0.01108876 -0.011758651 0.026568549
-0.0025279 -0.034873925 -0.007595539 0.019812645 0.0059566437 -0.012292898 -0.0062405937 -0.0059546065
-0.0015694523 -0.006271263 -0.0014202821 -0.0057682097 0.027261356 -0.0053470344 -0.007347262 -0.0010370546
0.020604366 0.00052587024 -0.00092376804 0.0030253804 0.02066932 -0.0032986666 0.035224963 -0.0038133843
0.016931497 0.00580923 -0.016703079 0.012149524 -0.063708305 7.313416e-05 0.009431174 0.001606159
-9.782069e-05 -0.009658204 0.0042545614 0.013851684 0.0029922072 -0.007764196 -0.015544746 -0.00047460615
-0.009672919 0.013795166 -0.020944815 -0.015727088 0.005747389 0.0011555349 -0.005901741 0.019596362
-0.015398227 -0.0030784104 -0.047976233 -0.024367338 0.033319246 0.031932343 -0.04229957 0.0019864908
-0.021250978 -0.0031447187 -0.015717287 -0.036559857 0.0059560193 0.0049024783 -0.02888417 -0.00062109897
-0.0055459663 -0.008043008 -0.0014111972 -0.00078315224 0.024308875 -0.0029932447 0.0041849744 -0.034689706
0.0041038315 0.006113061 -0.022568852 0.019333044 0.034065247 -0.01968507 0.01614795 0.017248822
-0.03597786 0.0036627275 0.0067003 -0.003653873 0.007439477 -0.008620896 0.014976272 0.0052750185
-0.006412537 0.014318755 0.001965431 -0.0070169866 0.0066243396 0.0035877142 -0.04350537 0.025378136
0.03963928 0.00024499005 -0.0010365492 0.042403083 -0.007765385 0.02695448 -0.003038385 0.01622351
0.012244002 0.009271144 0.024387846 -0.0099406745 -0.010881937 -0.0075396756 -0.013186626 0.022171527
-0.030894477 -0.004673785 -0.018414523 0.0049231057 -0.013030827 0.024121217 -0.0073412014 -0.0068572797
-0.044840842 -0.0004782705 -0.004614854 0.017747799 0.023077823 0.020303141 -0.037926238 -0.02309844
-0.006828636 0.016863175 -0.00866802 -0.002618802 0.013435046 0.03947209 -0.020901255 0.01570927
0.020049952 -0.037355393 0.019751724 -0.0065858173 0.0052206367 0.017692233 0.018178003 -0.015113865

mfs_lr_mfs_lr_W f4 [223, 1]
00000000: 25bd ec3d 9a51 d93d 98a9 4d3d f262 703e
00000010: 87d0 4fbe 90d4 80bd 3140 10bd 256c be3d
00000020: f88d 233b 3bc5 133e 39d4 5cbd e044 1d3e
00000030: a090 973d 97ab 8a3d faff 1a3e 1177 563c
00000040: fbf1 23bd 125e 8d3d 0f47 6e38 65b3 eabd
00000050: 06a8 0cbe 63bb a43d ee3f 07be 7abe 9dbd
00000060: 123f 0bbd 93ed 8fbc 73a8 41bd ed4e 123e
00000070: e1f5 d43d bf63 2a3d 699b b4bb ab30 1f3d
00000080: 0569 843d 1b9b 9fbd f423 79bd 9f1b f5bd
00000090: f7d3 893d 6e51 e93d d57e 713d c5e3 0d3e
000000a0: 8452 533d eb3c a43c b73c 943d 0724 8dbc
000000b0: ec34 6d3e e01b ea3d 10b4 b63d b3c5 8f3b
000000c0: d22f 2e3d 3401 09bd 6b13 623d 7739 4d3e
000000d0: 2b95 0e3d 18bc b23d 6800 933c 5686 5abe
000000e0: b50c 40be 0293 af3d f866 fc3c 5e80 483d
000000f0: 501d 213e 4b56 193e cc05 363e af4f 673c
00000100: 21e9 6a3d 7bac efbc 023f 25bd 5788 95bd
00000110: c0da 993d a3e5 1ebd bb47 df3d 13b0 36bd
00000120: 181f 21be 2a50 77bc 5bb1 d6bd e043 b83b
00000130: dd81 ea3d 0c02 b73d d3eb ae3d e49e b33d
00000140: 6b3d 6ebe 9d17 783d e389 68bd 0c61 693d
00000150: e831 a73d 6c87 ebbc ec5b 743e ff66 933d
00000160: bb99 8bbc 8a80 22bc 6f95 b13d f2f5 0e3c
00000170: ab70 0d3d ee40 1dbd a910 b33d 957e 183e
00000180: b12d 9a3d b94e aa3d 444b a9bd b73f 5e3a
00000190: e08f 67bd 328a 013d ff7d 393e 1de4 823e
000001a0: 1af7 673d 58d8 383e f0e0 363d b655 90bd
000001b0: 947a 383d cd88 ce3d e836 453c 61fc 173d
000001c0: 1369 fd3d 9b6a 813a 955c 1b3c 51cf 943d
000001d0: 3690 fc3b 70d0 f5bd f653 f93c 2064 a43b
000001e0: 4987 78bc 7f2e b63c 37c4 5b3d dfc4 543e
000001f0: 1b42 35bb 6b60 dbbd 3503 363e 94c1 00bf
00000200: 8d3b ee3d 18b9 403d 36fe 62be 5804 cdbd
00000210: 4bc8 09be c8ce fd3c 509f 283d 2308 0b3e
00000220: f83b 37bd 441e c6bb f6c2 dd3d facd a63d
00000230: 5030 363e d989 1b3e 3a0b db3d dfe6 66bd
00000240: eccf a93d d198 62bd b350 e2bd 7ea4 253d
00000250: d61c 583c 07cc 133e dc06 5ebe 7aef 75bc
00000260: cc15 183e 68fb 1ebe 41ba f5bd 4026 0bbd
00000270: a10c 323d 253f 2b3c 491b b83d 69da 463d
00000280: b6c3 c13d 354a 8a3d 3754 663a 64d6 4cbe
00000290: e6da 92bd 9089 33be e911 3b3c 5e4c 0a3d
000002a0: 6034 c43d 53a7 b43d 752f b53d bec8 193e
000002b0: 32aa 423c d734 763c c5b8 f93d 1411 323c
000002c0: 6047 a23d 31ac 0abb 9685 b63d 3401 ee3d
000002d0: e9ee b5bc c071 40bc 7429 053e ffb7 553e
000002e0: 742a 243e b202 10bc a323 05bd 95bf 103e
000002f0: 74c1 febc 3e78 9a3c 31a6 fcba 056d 48bd
00000300: 6971 f1bc e06c 9a3d 2299 e23d a2a4 67be
00000310: 75e0 66bc 1b4f 91bd cd42 d93d 191f a53d
00000320: b3b4 a93c b357 733e bdf4 873e 9210 a33d
00000330: d3d8 cc3d 02b4 54bd fb37 bb3c 52d1 2b3d
00000340: ceed 103d 9050 403d 62a9 613e c519 423e
00000350: d629 593d 6da3 123e 06ec 483d c107 f7bd
00000360: 17d9 973c b690 413d 133d 113e c94e 3dbc
00000370: d92c 423e 0fdb 9dbe 2462 d23c
0.11559514 0.106112674 0.050210565 0.23475245 -0.2029439 -0.06290543 -0.035217468 0.09297971
0.0024956446 0.14430706 -0.05391333 0.15358305 0.07400632 0.067710094 0.1513671 0.013089911
-0.040025692 0.06902708 5.68098e-05 -0.11459998 -0.13735971 0.08043554 -0.13207981 -0.07702346
-0.033995695 -0.017569339 -0.047279786 0.1428792 0.1039846 0.04159903 -0.0055116904 0.038864773
0.064653434 -0.07793256 -0.060825303 -0.11968159 0.06729882 0.113924846 0.058958847 0.13856418
0.051592365 0.02004858 0.07238143 -0.017229093 0.2316472 0.11431098 0.08921063 0.0043875813
0.042526074 -0.033448413 0.0551943 0.20041452 0.034810226 0.08727282 0.01794453 -0.21340308
-0.18754847 0.085729614 0.030810818 0.048950545 0.15733838 0.14974324 0.17775649 0.014118119
0.057351235 -0.02925705 -0.040343292 -0.073013954 0.075124264 -0.038793217 0.109023534 -0.04460151
-0.15734518 -0.015094796 -0.104830466 0.0056233257 0.11450551 0.08935937 0.08541074 0.0877054
-0.23265617 0.060569394 -0.056772124 0.056977317 0.08163816 -0.028751098 0.2386319 0.07197379
-0.017041078 -0.009918341 0.0867108 0.00872563 0.034531277 -0.038392 0.08743412 0.14892037
0.07528246 0.083157964 -0.08266309 0.0008478122 -0.056533694 0.031625934 0.1811447 0.25564662
0.05663214 0.18051279 0.04464811 -0.07047598 0.045038775 0.100846864 0.012037016 0.03710592
0.12373557 0.000987369 0.0094825225 0.07266105 0.007707621 -0.12002647 0.030435544 0.0050168186
-0.015168973 0.022238968 0.053653922 0.20778225 -0.002765781 -0.1071175 0.17774661 -0.50295377
0.11632452 0.04705152 -0.22167286 -0.10010594 -0.13455312 0.03098239 0.041167557 0.13577323
-0.044734925 -0.0060460884 0.108282015 0.08144756 0.17791867 0.15189303 0.10695501 -0.05637252
0.08291611 -0.05532152 -0.110505484 0.040440075 0.013190469 0.14433299 -0.21682304 -0.015010709
0.14852065 -0.15525591 -0.11998416 -0.033972025 0.043469075 0.010452067 0.08989579 0.048548136
0.09461157 0.06752435 0.00087863527 -0.20003659 -0.07170658 -0.17532945 0.011417844 0.033764236
0.09580302 0.08820977 0.08846942 0.15017983 0.011881398 0.015027246 0.12193445 0.01086833
0.0792377 -0.0021159763 0.08912198 0.11621323 -0.022208648 -0.01174587 0.13004094 0.2087097
0.1603182 -0.008789705 -0.03250469 0.14135583 -0.031098105 0.018856164 -0.0019275603 -0.048932094
-0.029473023 0.075402975 0.11064364 -0.22621396 -0.014091601 -0.07095166 0.10608444 0.08062572
0.020716047 0.23763923 0.26553908 0.07962145 0.100022934 -0.05192948 0.022853842 0.04194767
0.03538304 0.04695183 0.2203727 0.18955143 0.053018413 0.14320154 0.049053214 -0.12062026
0.018536134 0.047257148 0.14183454 -0.011554428 0.1896242 -0.3083119 0.025681563

mfs_svc_W2_mfs_svc f4 [223, 1]
00000000: 6a73 b03c 8ec7 803d 7289 aa3d 6ae1 a73e
00000010: ab0a 10be a32a 1fbd 25d1 51bd dbc2 b13d
00000020: b59a cd3b a075 bb3d 0b02 59bd 9ff5 1f3e
00000030: c5b6 ad3b 446b fc3d e9b7 a03d 92ae c03b
00000040: 37e6 eabb bf09 923d bb5f 97bb b55a 4d3d
00000050: 7e3a b8bd 046f 4b3e f783 2fbd 1d5b 83bb
00000060: 5f81 c7bc d267 54bd 1c21 3abd 17f7 123e
00000070: 01d2 313e df10 65bc a100 46ba ed6a 4d3e
00000080: ede7 453d 9026 a0bd 0784 afbd 1834 b5bd
00000090: d14d 0c3d aa89 ae3d abae 753d 3596 0d3e
000000a0: eb84 9c3d 8a48 aabc 500d bc3d bb50 51bc
000000b0: 15ac aa3e 22b0 343e 9613 953d 9148 ac3b
000000c0: 4856 723d 7395 21bd 17d4 1b3d 7eb4 5c3e
000000d0: 6047 a23c 0ae3 4d3d 593a a53d c981 91be
000000e0: 985d f6bd 9d0d 853d 8adb 0f3d 54e3 273d
000000f0: 3e45 fe3d bc94 2c3e c514 8d3e dc0e a73d
00000100: 3fa2 a03d ba33 9fbd a9b1 cc3d ce92 b4bd
00000110: 827b c53c 050d 933c f270 cd3d e00d 67bd
00000120: f592 d9bd d173 81bd 6e8e efbd aaa7 56bc
00000130: c9c6 413d e70d 173e 485c 2e3e 6bb5 233d
00000140: 9f35 b0be f95b 4e3d 50e9 f2bd f7ec fc3d
00000150: e7d6 3e3d f590 37be 8def 3e3e 7403 943d
00000160: 309c bcbd 2d78 a93d a56c 4c3d 0259 cabd
00000170: 958d f1bb 7443 eabd eac2 903d 2ca3 133e
00000180: 2c73 ce3d 2fea 833d 8f44 c4bd 29e9 7bbd
00000190: b608 80bd b974 393d b2a1 4c3e f749 a13e
000001a0: d707 443d 1624 673e 3768 98bc cd31 bebd
000001b0: a5f2 293d 4cda eb3d c1cb ddbd 4b17 c4bb
000001c0: ecc7 fc3d bffb 4abb f31f 1b3b 3cfc f83d
000001d0: 6362 193d f6b5 e8bd 0db3 06bc eb7f c03c
000001e0: dc67 253c e00d 34bd 2045 de3c bbaf 213e
000001f0: 2447 823d 526c e1bd 25c6 663e eedf 37bf
00000200: 5d0c ea3d 7ea5 173c c311 adbe 3ba4 01be
00000210: 6cb0 dabd bb6b 643d 26ad 5abc 7bc2 a83d
00000220: e025 16be 8f5e ddb9 d562 963d d93e 9f3d
00000230: 007b 4c3e 6ec6 cd3d a4bd 7e3d 2ac2 e8bc
00000240: c968 fb3d 24c6 38be 2e58 87bd 1302 f83b
00000250: 5da8 f83d 6631 423d 62f0 6fbe 7812 883a
00000260: 8a99 223e d9d3 2bbe ed6f c5bd 9e41 a5bd
00000270: 0bf3 84bd 9a40 31be 7576 413c 6c20 253d
00000280: 0e71 f53d b98b aaba 81ad 6d3c c82f 28be
00000290: 7fe7 18be 4dee 8abd 3c71 9ebb c922 6d3d
000002a0: cb21 1e3e 0c30 e13d 0abd fb3d 98ed 4c3e
000002b0: 9adb 38bc 66e3 1fbd 62ed 0f3e 8757 b1bd
000002c0: 3f37 573d 7180 d1bd baad 9c3d 7886 f93d
000002d0: b903 7bbd e1ea 00be dd4f c33d 0781 7d3e
000002e0: e970 443e 13a8 65bd 69bf d1bd 622b ca3d
000002f0: 50e9 cabb 9a48 67bc f477 323c 2b7a 73bd
00000300: 7461 4dbd e4ca 243e 1d97 113e 6c1e efbe
00000310: 9ceb 04be c8b5 b7bc b178 513d 297b 923b
00000320: 0007 5c3d 1f44 8f3e 50d2 a53e 6665 dd3c
00000330: 00ac e83d 20f1 e9bd 5a42 9e3c aa01 ed3c
00000340: 5bcf a03c 0792 3a3d 872d 293e 9847 663e
00000350: 09cf aebc 7a4b 643e cb91 4ebc 120a babd
00000360: 22b5 d0bd e20a 2a3d d674 493e 0412 eabc
00000370: 38cb 793e 179f a1be 63dc 5fbd
0.021539409 0.06288062 0.08326997 0.32789165 -0.1406657 -0.03885902 -0.051224846 0.08679744
0.006274546 0.091532946 -0.052980464 0.15621041 0.005301329 0.12325147 0.07847578 0.0058801854
-0.007168557 0.07130765 -0.0046195663 0.050135333 -0.089955315 0.19866568 -0.04285046 -0.0040086643
-0.024353681 -0.051856823 -0.04544173 0.1435207 0.17365266 -0.013981073 -0.00075531943 0.2006032
0.048316885 -0.07819855 -0.08570104 -0.08847827 0.0342539 0.08522351 0.05998103 0.1382683
0.076425396 -0.020786542 0.09182227 -0.012775595 0.33334413 0.17645314 0.07279126 0.005257674
0.059164315 -0.039449167 0.03804406 0.21553227 0.019809425 0.05026535 0.080677696 -0.2841933
-0.1202957 0.06496737 0.03512148 0.04098828 0.12415551 0.16853613 0.27554908 0.08157131
0.07843446 -0.07773538 0.099948235 -0.08817063 0.024106745 0.017950544 0.10031308 -0.056409717
-0.10623733 -0.06320918 -0.11697088 -0.013101498 0.047308717 0.14751397 0.1702739 0.039967936
-0.3441591 0.05038068 -0.11860907 0.12349885 0.046591666 -0.1792639 0.18646069 0.07227221
-0.09209478 0.08274875 0.0499083 -0.09880258 -0.007371614 -0.11438647 0.07068427 0.14417714
0.10080561 0.06441151 -0.09583389 -0.061501656 -0.062516615 0.04527733 0.19983557 0.31501743
0.04785904 0.2257236 -0.018604381 -0.092868425 0.04149117 0.11516246 -0.108298786 -0.005984222
0.123428196 -0.0030972806 0.0023670166 0.12157485 0.037447345 -0.11362831 -0.0082214 0.023498496
0.010095563 -0.043958545 0.02713257 0.15789692 0.06361225 -0.110069886 0.22536524 -0.71826065
0.11428139 0.009255765 -0.33802614 -0.12660305 -0.10678181 0.055766802 -0.013346946 0.08240219
-0.14662886 -0.00042222856 0.073430695 0.07775659 0.19968796 0.10047613 0.062192574 -0.028412897
0.122758456 -0.18044335 -0.06608616 0.0075686066 0.12141488 0.04741039 -0.23431543 0.0010381481
0.15878883 -0.16780032 -0.09640489 -0.08069156 -0.06491669 -0.173098 0.0118080275 0.040314123
0.11984454 -0.0013011611 0.014506699 -0.16424477 -0.14932059 -0.067837335 -0.004835276 0.0578945
0.15442578 0.10995492 0.12291916 0.2001251 -0.011282826 -0.039035223 0.14055398 -0.08659273
0.05254292 -0.102295764 0.07650323 0.12183851 -0.061282847 -0.12589599 0.09536717 0.24756251
0.19183697 -0.05606849 -0.10241587 0.09871556 -0.006192364 -0.014116431 0.010892857 -0.05944268
-0.050141767 0.16093022 0.14217801 -0.46702898 -0.12980503 -0.022425547 0.05114049 0.0044702482
0.053717613 0.2798166 0.32387018 0.02702589 0.113609314 -0.11422944 0.019318748 0.028931458
0.019630125 0.04554942 0.16521274 0.22488248 -0.021338956 0.22294417 -0.012608002 -0.09083952
-0.10190798 0.041514285 0.19673476 -0.028573044 0.24393928 -0.31566688 -0.054653537

lv_lr_lv_lr_W f4 [56, 1]
00000000: 6d95 43bc 2c90 53bd a0ad 84bb bf5b 513d
00000010: c9e4 3e3b 8169 003d 8ff3 a93d 5c3b 8e3d
00000020: 549a 813b ca96 cfbd 0000 57bd 0aca fe3c
00000030: d0b4 61bd 6a53 a23d d69f b2bd c83a 74bb
00000040: d57a 74bd 4a7d 393d a6b8 e03d 86d7 643d
00000050: e1af efbd 27e8 7e3c f3ec 5dbd 8a23 023d
00000060: 73b3 a1bd 2fb9 12bd 36c0 023d a2d6 aebc
00000070: 20e0 83bd 66e2 863b 6902 16bd cba7 863d
00000080: e879 38bd 4ee5 cbbd 90f0 a13c 2d68 993c
00000090: 1254 d33c f732 e0bd 1dd3 c83d fc6b 373d
000000a0: 2ed6 8cbd 6162 5bbd 0e09 483c 4755 e63d
000000b0: 0878 8ebd b161 18bd b8c2 73bc 4408 2d3b
000000c0: cf21 c6bd 6fb6 933c 575b 66bc 636a c03d
000000d0: 6010 463d f382 dcbc 1c72 a63c caa9 3f3d
-0.011937481 -0.051651165 -0.004049018 0.051112887 0.0029128066 0.031350616 0.08298408 0.06944916
0.003955165 -0.101361826 -0.052490234 0.0311022 -0.055104077 0.07926066 -0.087218925 -0.0037266482
-0.059687454 0.0452855 0.10972719 0.0558696 -0.11703468 0.015558279 -0.05418105 0.031772174
-0.07895555 -0.035821136 0.031921588 -0.02134258 -0.06439233 0.0041163443 -0.036623392 0.06574973
-0.045038134 -0.09955846 0.01976803 0.018726433 0.025796924 -0.10947221 0.09805892 0.044780716
-0.06876789 -0.05356062 0.01220919 0.11246734 -0.06956488 -0.03720254 -0.014877968 0.0026402632
-0.09674417 0.018031327 -0.014059863 0.09395292 0.04835546 -0.02691791 0.020318083 0.046792783

lv_svc_W2_lv_svc f4 [56, 1]
00000000: 44b9 4cbb c886 27bd 2237 4e3c c3e2 4f3c
00000010: 4a43 98ba 13d7 bf3c b9e7 813d dcc6 6d3d
00000020: 7c37 4b3c 7d69 6dbd 2e34 b3bc 1a84 db3c
00000030: 8018 81bc 6d35 4c3d e016 77bd e6fc 4bbc
00000040: 7b26 2abd 5dcd 0f3d dba5 8b3d 22fa 003d
00000050: a450 7fbd eac8 25bb f6ef 24bd a600 bd3c
00000060: 9f60 5dbd 9d9b 3bbd a966 d73c a37a b5bc
00000070: 2b1d 41bd 011f 63bc b9de debc aede 4f3d
00000080: ae5d b8bc 3451 78bd 8e04 173c c593 273c
00000090: 9f2a 003d f884 a4bd 32cd 7a3d 70c6 3d3d
000000a0: d6d3 67bd b79d 26bd cbb6 913c 250d 953d
000000b0: 9b66 4ebd 7f78 86bc c8d6 25bc 4175 313c
000000c0: 7f05 85bd d93d d03c d5b5 81bc c5d8 793d
000000d0: 0526 8e3c 63a3 71bc b96e a63c 897d 0c3d
-0.0031238357 -0.04090002 0.012586387 0.012688342 -0.0011616733 0.023417985 0.06343026 0.058050975
0.012403365 -0.05796193 -0.021875467 0.02679639 -0.015758753 0.04985564 -0.06032455 -0.012450432
-0.041540604 0.03510796 0.06818744 0.031488545 -0.062332764 -0.0025296756 -0.040267907 0.023071598
-0.054047223 -0.0458027 0.02629407 -0.022153204 -0.047146957 -0.013862372 -0.027205812 0.050749473
-0.022505607 -0.060624316 0.0092173945 0.010228102 0.031290647 -0.08033174 0.061230846 0.046331823
-0.056598507 -0.040677752 0.017787358 0.07277898 -0.05039082 -0.016414879 -0.010122009 0.010831178
-0.06495189 0.025420116 -0.015833775 0.060997743 0.017352114 -0.014748427 0.020316469 0.034299407

lv_mlp_net.0.weight f4 [9, 56]
00000000: 9acc db3d 2d54 2bbe 5610 803c 974a d83c
00000010: 1b14 ff3c a6c3 6a3d 1cbb 553d f1e2 05be
00000020: 46e2 e83c 5830 a83c 5fee 1bbd 789c acbd
00000030: 933e 11bd a725 233c 3fc1 e73d 237d 7d3d
00000040: 6317 973b 395d 133d 14f7 113e 40c5 f73d
00000050: a9ca 05be 4059 8a3d 75ed b5bd a773 e63d
00000060: 1768 213d e853 2bbc 5b3c d0bc f914 c2bd
00000070: 1503 a73c 1db1 9cbd 8cb0 08be e272 38bd
00000080: 741e 8abd e973 8ebd 84bf 9ebd e425 ba3d
00000090: d955 0bbd 34ce 98bd a905 3f3e 1448 b0bc
000000a0: 2452 a0bd db36 253e 325b 043e 8e19 6b3d
000000b0: 5ad1 5dbd 066f c0b9 eab5 0b3e adc4 b93d
000000c0: 24a2 88bc 0ce8 d03d cd9d 043d f22e a73d
000000d0: 4efe 4dbd 6c7b 23bc 4edf ddbd 7432 ce3c
000000e0: 824a 473d db0f 65bd c05b 963d 0da7 d33a
000000f0: 9243 ff3d a3ec d03c f3ae 43bc d16b 8bbd
00000100: 5d72 2bbe d5a7 5b3d 9ebe 993d 05c4 433d
00000110: 9772 dcbd 14a2 96bc e0f4 293e 11ae d83c
00000120: 48a4 19bd 0a8a a33d 5654 90bd c9cc 1fbd
00000130: 4fd5 8c3c f1c2 3e3d 51f2 4c3c 60f6 15bd
00000140: 3aae e23d e9c1 833d c442 98bd 28de 3dbd
00000150: 0278 283e 5a9d 44bd ee15 ad3c b2ea c4bd
00000160: ac19 0ebe 85ed 8dbc 8c85 02be 7f58 28bd
00000170: ffe4 b0bd aeab 513d 9144 ddbd 94bf db3d
00000180: ebd8 083d 38c9 ed3d 5804 523d 9726 dcbd
00000190: c0ce 023b 136e dbbd 6ed5 13be f48e 473d
000001a0: fafa c43d fd30 babc 9d7b 3ebd 0a5a b8bd
000001b0: 3d7a 8bbc ca03 4a3d 03d3 f1bd e79c d7bd
000001c0: 0e74 2abe 651a 043d 5e89 963d 06db dc3d
000001d0: df9b b3bd 7d03 f3bd 1326 3d3c 4eae 7e3d
000001e0: 6bec a33c 00bc 063e 407d d43d b4f1 c6bc
000001f0: e840 943c f0c3 a1bd ff32 0dbd dfc9 16bd
00000200: 1cea 3a3d 66fa a43d d912 983b 063f 30bd
00000210: c163 5e3d 2f96 e43d 49e2 1d3d d2c0 e93d
00000220: 698c 343e 97b6 a13b dc5a 07bd 53b4 bb3d
00000230: e2a1 c03c b0f9 793d cff7 bcbd 7a19 83bd
00000240: 2b45 fcbd 2351 87bd 9676 9a3b 27f4 9c3d
00000250: 79f7 e53d 6fa3 91bd 7692 f43b 953c d2bd
00000260: 0bde 713c bf2c 0b3e 49f6 7d3c 9e30 8a3d
00000270: 3300 c23d ca4d f03d 2460 1e3d 8f58 d5bd
00000280: 4329 eabc 8049 18bd 23c1 17bd 2535 86bd
00000290: 46d6 09be 1f85 7abd 4b8b 663b 4ced f23c
000002a0: 79b3 933d c61b d53c e8d5 053e 6fb3 2c3e
000002b0: 8fae 0f3d b698 19be aea3 b53d e94e 6b3e
000002c0: b021 22bd 2c5c 6bbb 371e b23d a2a6 98bd
000002d0: 0ccd 5e3d ec84 38bd d7da 413d 0347 f93d
000002e0: 314d 30bc 253e 9abd 7b90 40bd 3446 10be
000002f0: d1e0 943d 4836 a0bc a321 d2bc d457 14bd
00000300: 054f bd3d a2e0 043e 0d39 ccbd 6e32 d13d
00000310: b3ab 113d c9aa f9ba 6ae7 d7bd 16ad c0bd
00000320: 8c18 ae3d 243b 62be 2c44 143d 42ec 81bd
00000330: 6a5b cd3d a009 9e3c 7904 4a3e 9e11 5a3c
00000340: 982e 3ebd ac11 d53c 9e52 c33d 0c38 013e
00000350: 8b02 f4bc 4aaf 42bc afbc c8bd 6622 f0bc
00000360: 3685 a23d ce57 033d 379e ee3c 3d86 123e
00000370: f85a a5bd f73e c0bd f99f d53d 39a7 c3bc
00000380: 299c 00be 564d ccbc b688 a4bd 4b16 87bd
00000390: 9ecf 0e3e 3216 ef3c f18b eb3d 2408 7dbd
000003a0: a116 d3bb 752a f9bc db04 09be 1f79 63bd
000003b0: 5188 0cbd 2c02 05be 249c 053d 0bb5 64bd
000003c0: 2078 4fbe 97e5 723c 9bb5 613e 19b2 023e
000003d0: 9ad1 77bd ecd1 a1bc 8a90 a33d b65b b5bd
000003e0: 461a 0bbe d80c 753c a74f bebd 21c8 98bd
000003f0: c74b 693d d2e9 ecbd 27f8 253c ea01 1dbd
0.10732384 -0.1673133 0.01563279 0.026402755 0.031137517 0.05731549 0.052180395 -0.13074853
0.028428208 0.020530865 -0.038069125 -0.084282815 -0.035460066 0.0099577075 0.11316156 0.061886918
0.004610942 0.035977576 0.14254409 0.12098169 -0.1306559 0.06755304 -0.08883182 0.11252528
0.03940591 -0.0104570165 -0.025419405 -0.094766565 0.020387212 -0.07650969 -0.13348597 -0.045031436
-0.0674409 -0.06955702 -0.077513725 0.09089258 -0.034017418 -0.07461205 0.18654503 -0.021518745
-0.07828167 0.16134207 0.12925413 0.057397418 -0.05415473 -0.00036703813 0.13643613 0.09070716
-0.016678877 0.102005094 0.032377053 0.08163251 -0.050291352 -0.009978157 -0.108336076 0.025170542
0.04865504 -0.055923324 0.07341719 0.0016147807 0.1246406 0.025503462 -0.011943567 -0.06807674
-0.16742845 0.053626854 0.075070605 0.04779436 -0.10764044 -0.018387832 0.16597319 0.026450189
-0.037510186 0.07985313 -0.07047336 -0.039013658 0.017191557 0.04657263 0.012508945 -0.036611915
0.11068387 0.0643347 -0.074346095 -0.046354443 0.1645203 -0.048001625 0.021128621 -0.09615077
-0.1387698 -0.017325172 -0.12746257 -0.04110002 -0.086374275 0.051189117 -0.10804094 0.107299
0.033409994 0.11610645 0.051273674 -0.10749548 0.0019959658 -0.10714354 -0.14436886 0.048720315
0.096181825 -0.022728438 -0.046504606 -0.090015486 -0.017026061 0.04932002 -0.118078254 -0.105279736
-0.16645834 0.032251734 0.073504195 0.10783963 -0.087699644 -0.118659 0.011544722 0.06217795
0.020010194 0.13157654 0.10375452 -0.024285175 0.018097356 -0.078987 -0.03447246 -0.036813613
0.04563342 0.08055572 0.0046409187 -0.043028854 0.05429435 0.11161458 0.03854588 0.11413731
0.17631687 0.0049350965 -0.033045635 0.091652535 0.023514692 0.061029136 -0.09226953 -0.06401344
-0.1231788 -0.066072725 0.0047138436 0.07663756 0.11228842 -0.071112506 0.0074637486 -0.10265461
0.014762412 0.13591288 0.0155006135 0.06747554 0.09472694 0.11733587 0.038665906 -0.10417282
-0.028584128 -0.03717947 -0.037049424 -0.06553105 -0.13460645 -0.06116211 0.003517824 0.029654168
0.07211966 0.02601422 0.1306988 0.16865323 0.03507858 -0.14999661 0.0886911 0.2297932
-0.03958291 -0.0035913093 0.08697169 -0.07453658 0.054394767 -0.04504864 0.047327843 0.121717475
-0.010760591 -0.075313844 -0.047012787 -0.1408928 0.07269443 -0.019557133 -0.025650805 -0.036216572
0.092435874 0.12976316 -0.09971819 0.10214697 0.035564136 -0.001904809 -0.105421856 -0.094080135
0.08500776 -0.22092873 0.036197826 -0.06343891 0.100272015 0.019291699 0.19728269 0.013309864
-0.046431154 0.026009403 0.09537242 0.12619036 -0.029786369 -0.0118826125 -0.098016135 -0.029313277
0.07935564 0.03206616 0.029128177 0.1430902 -0.080739915 -0.093870096 0.10430903 -0.023883449
-0.1255957 -0.02493922 -0.08033888 -0.06596049 0.13946387 0.029185388 0.11501301 -0.06177534
-0.0064419066 -0.030415753 -0.13380758 -0.055535432 -0.03430969 -0.1298911 0.03261961 -0.05583672
-0.20260668 0.014825246 0.22041933 0.12763251 -0.060502626 -0.019753419 0.07986553 -0.08855383
-0.13584241 0.0149566755 -0.09292536 -0.074600466 0.056957033 -0.11568035 0.010129965 -0.038331904
