model/checkpoints/janardhan2016/chemeleon/model_000.onnx (onnx, 454872 bytes, 14 tensors)

lv_onnx::MatMul_4 f4 [1860, 45]
000000 00 00 00 00 00 00 00 00 00 00 00 00 00 00 00 00
       0.0 0.0 0.0 0.0
000010 00 00 00 00 00 00 00 00 00 00 00 00 00 00 00 00
       0.0 0.0 0.0 0.0
000020 00 00 00 00 00 00 00 00 00 00 00 00 00 00 00 00
       0.0 0.0 0.0 0.0
000030 00 00 00 00 00 00 00 00 00 00 00 00 00 00 00 00
       0.0 0.0 0.0 0.0
000040 00 00 00 00 29 9e 7a bf 00 00 00 00 00 00 00 00
       0.0 -0.97897583 0.0 0.0
000050 00 00 00 00 00 00 00 00 00 00 00 00 00 00 00 00
       0.0 0.0 0.0 0.0
000060 00 00 00 00 00 00 00 00 00 00 00 00 00 00 00 00
       0.0 0.0 0.0 0.0
000070 00 00 00 00 00 00 00 00 00 00 00 00 00 00 00 00
       0.0 0.0 0.0 0.0
000080 00 00 00 00 00 00 00 00 00 00 00 00 00 00 00 00
       0.0 0.0 0.0 0.0
000090 00 00 00 00 00 00 00 00 00 00 00 00 00 00 00 00
       0.0 0.0 0.0 0.0
0000a0 00 00 00 00 00 00 00 00 00 00 00 00 00 00 00 00
       0.0 0.0 0.0 0.0
0000b0 00 00 00 00 00 00 00 00 00 00 00 00 00 00 00 00
       0.0 0.0 0.0 0.0
0000c0 00 00 00 00 00 00 00 00 00 00 00 00 00 00 00 00
       0.0 0.0 0.0 0.0
0000d0 00 00 00 00 00 00 00 00 00 00 00 00 00 00 00 00
       0.0 0.0 0.0 0.0
0000e0 00 00 00 00 00 00 00 00 00 00 00 00 00 00 00 00
       0.0 0.0 0.0 0.0
0000f0 00 00 00 00 00 00 00 00 00 00 00 00 00 00 00 00
       0.0 0.0 0.0 0.0
000100 00 00 00 00 00 00 00 00 00 00 00 00 00 00 00 00
       0.0 0.0 0.0 0.0
000110 00 00 00 00 00 00 00 00 00 00 00 00 00 00 00 00
       0.0 0.0 0.0 0.0
000120 00 00 00 00 00 00 00 00 00 00 00 00 00 00 00 00
       0.0 0.0 0.0 0.0
000130 00 00 00 00 00 00 00 00 00 00 00 00 00 00 00 00
       0.0 0.0 0.0 0.0
000140 00 00 00 00 00 00 00 00 00 00 00 00 00 00 00 00
       0.0 0.0 0.0 0.0
000150 00 00 00 00 00 00 00 00 00 00 00 00 00 00 00 00
       0.0 0.0 0.0 0.0
000160 00 00 00 00 00 00 00 00 00 00 00 00 00 00 00 00
       0.0 0.0 0.0 0.0
000170 00 00 00 00 00 00 00 00 00 00 00 00 00 00 00 00
       0.0 0.0 0.0 0.0
000180 00 00 00 00 00 00 00 00 00 00 00 00 00 00 00 00
       0.0 0.0 0.0 0.0
000190 00 00 00 00 00 00 00 00 00 00 00 00 00 00 00 00
       0.0 0.0 0.0 0.0
0001a0 00 00 00 00 00 00 00 00 00 00 00 00 00 00 00 00
       0.0 0.0 0.0 0.0
0001b0 00 00 00 00 00 00 00 00 00 00 00 00 00 00 00 00
       0.0 0.0 0.0 0.0
0001c0 00 00 00 00 00 00 00 00 00 00 00 00 00 00 00 00
       0.0 0.0 0.0 0.0
0001d0 00 00 00 00 00 00 00 00 00 00 00 00 00 00 00 00
       0.0 0.0 0.0 0.0
0001e0 00 00 00 00 00 00 00 00 00 00 00 00 00 00 00 00
       0.0 0.0 0.0 0.0
0001f0 00 00 00 00 00 00 00 00 00 00 00 00 00 00 00 00
       0.0 0.0 0.0 0.0
000200 00 00 00 00 00 00 00 00 29 9e 7a bf 00 00 00 00
       0.0 0.0 -0.97897583 0.0
000210 00 00 00 00 00 00 00 00 00 00 00 00 00 00 00 00
       0.0 0.0 0.0 0.0
000220 00 00 00 00 00 00 00 00 00 00 00 00 00 00 00 00
       0.0 0.0 0.0 0.0
000230 00 00 00 00 00 00 00 00 00 00 00 00 00 00 00 00
       0.0 0.0 0.0 0.0
000240 00 00 00 00 00 00 00 00 00 00 00 00 00 00 00 00
       0.0 0.0 0.0 0.0
000250 00 00 00 00 00 00 00 00 00 00 00 00 00 00 00 00
       0.0 0.0 0.0 0.0
000260 00 00 00 00 00 00 00 00 00 00 00 00 00 00 00 00
       0.0 0.0 0.0 0.0
000270 00 00 00 00 00 00 00 00 00 00 00 00 00 00 00 00
       0.0 0.0 0.0 0.0
000280 00 00 00 00 00 00 00 00 00 00 00 00 00 00 00 00
       0.0 0.0 0.0 0.0
000290 00 00 00 00 00 00 00 00 00 00 00 00 00 00 00 00
       0.0 0.0 0.0 0.0
0002a0 00 00 00 00 00 00 00 00 00 00 00 00 00 00 00 00
       0.0 0.0 0.0 0.0
0002b0 00 00 00 00 00 00 00 00 00 00 00 00 00 00 00 00
       0.0 0.0 0.0 0.0
0002c0 00 00 00 00 00 00 00 00 00 00 00 00 00 00 00 00
       0.0 0.0 0.0 0.0
0002d0 00 00 00 00 00 00 00 00 00 00 00 00 00 00 00 00
       0.0 0.0 0.0 0.0
0002e0 00 00 00 00 00 00 00 00 00 00 00 00 00 00 00 00
       0.0 0.0 0.0 0.0
0002f0 00 00 00 00 00 00 00 00 00 00 00 00 00 00 00 00
       0.0 0.0 0.0 0.0
000300 00 00 00 00 00 00 00 00 00 00 00 00 00 00 00 00
       0.0 0.0 0.0 0.0
000310 00 00 00 00 00 00 00 00 00 00 00 00 00 00 00 00
       0.0 0.0 0.0 0.0
000320 00 00 00 00 00 00 00 00 00 00 00 00 00 00 00 00
       0.0 0.0 0.0 0.0
000330 00 00 00 00 00 00 00 00 00 00 00 00 00 00 00 00
       0.0 0.0 0.0 0.0
000340 00 00 00 00 00 00 00 00 00 00 00 00 00 00 00 00
       0.0 0.0 0.0 0.0
000350 00 00 00 00 00 00 00 00 00 00 00 00 00 00 00 00
       0.0 0.0 0.0 0.0
000360 00 00 00 00 00 00 00 00 00 00 00 00 00 00 00 00
       0.0 0.0 0.0 0.0
000370 00 00 00 00 00 00 00 00 00 00 00 00 00 00 00 00
       0.0 0.0 0.0 0.0
000380 00 00 00 00 00 00 00 00 00 00 00 00 00 00 00 00
       0.0 0.0 0.0 0.0
000390 00 00 00 00 00 00 00 00 00 00 00 00 00 00 00 00
       0.0 0.0 0.0 0.0
0003a0 00 00 00 00 00 00 00 00 00 00 00 00 00 00 00 00
       0.0 0.0 0.0 0.0
0003b0 00 00 00 00 00 00 00 00 00 00 00 00 00 00 00 00
       0.0 0.0 0.0 0.0
0003c0 00 00 00 00 00 00 00 00 00 00 00 00 00 00 00 00
       0.0 0.0 0.0 0.0
0003d0 00 00 00 00 00 00 00 00 00 00 00 00 00 00 00 00
       0.0 0.0 0.0 0.0
0003e0 00 00 00 00 00 00 00 00 00 00 00 00 00 00 00 00
       0.0 0.0 0.0 0.0
0003f0 00 00 00 00 00 00 00 00 00 00 00 00 00 00 00 00
       0.0 0.0 0.0 0.0

lr_lr_W f4 [1860, 1]
000000 fc a9 e8 b9 cc 80 a3 3b b0 55 6d 3a 0a 86 8b 3b
       -0.00044377137 0.004989719 0.0009053601 0.004257922
000010 c4 99 e0 3b df 73 1b bc ff ab 8f 3b ac a5 d3 3b
       0.006854268 -0.009488075 0.004384517 0.0064589586
000020 9e 38 8c 3a 1e 42 21 3c 5e 0a 80 3b 16 5c 99 3b
       0.0010698026 0.009842424 0.003907486 0.004680167
000030 16 4c 25 3c fd ad bb ba cf 0d 55 3b f0 84 7d 3b
       0.010088941 -0.001431882 0.0032509451 0.0038683973
000040 a5 8b 0c 3c 65 5d b4 bb 88 41 04 3c 7e 45 d7 bb
       0.008578216 -0.0055042976 0.0080722645 -0.0065695634
000050 9b 00 f9 38 ac c4 b3 3a 01 85 0c bb 3f 2c c0 3c
       0.00011873358 0.0013715229 -0.0021441581 0.023458598
000060 37 77 57 3c d8 b5 04 bb a2 cb 11 bb e3 f7 65 3b
       0.013150982 -0.002024999 -0.0022246619 0.003509038
000070 43 70 59 bb 2c fa 63 3c fb e0 48 bb 48 1e 20 3b
       -0.0033178485 0.013914626 -0.0030651677 0.0024432112
000080 c7 ae 17 bc 48 be 0a 3c 56 c0 0e 3c d9 e9 1d bc
       -0.009257979 0.008468218 0.008712849 -0.009638273
000090 00 05 fd 3a 58 fa a4 bc 87 31 5b bc bd d1 f2 3b
       0.0019303858 -0.020138904 -0.013378507 0.0074102567
0000a0 e9 e6 a0 3b 12 3e c1 bb a9 01 fb 3a 20 65 3e bb
       0.004910339 -0.005897292 0.0019150275 -0.0029051974
0000b0 d5 6f d4 3b 37 2a 52 3b 0d 65 52 3c 45 be e7 3b
       0.006483058 0.003206862 0.012841475 0.0070722424
0000c0 6a b7 2d 3c 7a 86 21 bc 58 88 09 bb 70 0b 07 3b
       0.010602811 -0.009858722 -0.0020985808 0.0020606183
0000d0 3d e4 f0 3b d9 e7 c8 bc 96 2e 31 bc 31 1b 15 3c
       0.007351427 -0.024524616 -0.01081433 0.009100721
0000e0 51 b0 5c 3c b4 bb 58 3c 65 39 b7 bb 16 f6 d2 3b
       0.0134697715 0.013228346 -0.0055915588 0.006438027
0000f0 0e 47 5e 3b 0d 88 37 3a 8c 44 2f 39 b4 02 7a ba
       0.0033916864 0.0007001169 0.00016714836 -0.0009537146
000100 73 6b 2a 3c da e4 f0 bb fa 26 5f 3c 86 45 d0 bb
       0.010401594 -0.0073515 0.013620133 -0.006355944
000110 17 e2 b0 bc 02 e2 4c 3c 4a b2 f6 ba 29 65 8b 3c
       -0.021592183 0.012505056 -0.0018821445 0.01701601
000120 12 76 62 3b 6f 4e 7d bb cb a4 50 3b 48 9e d1 ba
       0.0034555239 -0.0038651486 0.0031836506 -0.0015992606
000130 68 8f d3 3b 5f a5 00 bb 9e 8c 9f bc f8 55 af bc
       0.0064563043 -0.001962982 -0.019476231 -0.021403298
000140 4f fd 1f 3c 7b 42 81 3b c7 0b c8 3a 3a 5d ef bb
       0.009764983 0.0039446927 0.0015262299 -0.0073048146
000150 eb 2d 84 3a 6e bb 86 bc 70 ae 83 3c e8 8b ff 3b
       0.0010084485 -0.016446795 0.01607439 0.0077986605
000160 39 b0 2b 3b 7d ea 40 3b d4 dc a3 3b f3 57 08 bc
       0.0026197566 0.002943664 0.00500069 -0.00832175
000170 05 b9 45 3c 13 ae 24 bc e0 41 91 bb bd 40 32 bc
       0.012068038 -0.010051268 -0.0044329017 -0.010879693
000180 a1 46 ed 3a f0 70 65 bb 8e ba 3e 3c 36 6d c6 3a
       0.0018102714 -0.0035009943 0.011641158 0.0015138749
000190 0e cd 1f bc 87 ae 78 bb 49 89 fe 3b 5c 6c 62 3b
       -0.009753479 -0.0037945823 0.0077678305 0.003454945
0001a0 c6 59 1c 3b e5 f7 1e 3b 96 ab b9 3c d0 a1 cd 3a
       0.002385722 0.0024256643 0.022664826 0.0015688483
0001b0 d5 b4 c4 bb 0b 60 8c 3c 01 b6 93 3c 7d 3c e8 3b
       -0.006003002 0.01713564 0.018031122 0.007087289
0001c0 ca 49 2b bc 2a 79 9a 3a 28 19 36 bb 65 5d 89 3b
       -0.010454604 0.0011785377 -0.002778599 0.0041920417
0001d0 c2 b9 7c 3b ed 01 3f 3c ee e5 6a 3c 8f fe 05 bc
       0.0038562869 0.011658174 0.014337046 -0.008178367
0001e0 d4 58 04 b9 3f ad 77 3a ec 89 4e ba 2a 46 87 3c
       -0.00012621592 0.0009448118 -0.00078788283 0.016512949
0001f0 a8 e2 06 3c 41 ca 54 3c 34 37 86 ba 24 f4 c8 bb
       0.00823275 0.012987674 -0.001023984 -0.0061326195
000200 66 9d 0d 3c 6e 99 9a bc bf d0 a2 3c cd 6f ba b9
       0.008643484 -0.01887199 0.019874929 -0.00035559983
000210 15 5b 8c bb a2 6a 73 bc 7b 7f 90 bb b6 7b 3c bb
       -0.0042833188 -0.014856966 -0.004409728 -0.002876026
000220 b8 2b eb 39 89 8b c0 3b d8 e1 0b 3c 7a aa 1f ba
       0.00044855266 0.005876009 0.008537732 -0.00060907716
000230 a2 10 95 3c ce b7 03 3a dc 7a 18 bc 89 0c 38 39
       0.018196408 0.00050246425 -0.009306636 0.00017552277
000240 8d 8a fd 3b 33 a8 8d bb 54 ad 55 3b c6 1d c4 b8
       0.007737464 -0.0043230294 0.0032604532 -9.351554e-05
000250 70 4d 4a bb 9e fc 84 bb 1f 1f cd 3b 4c e5 7d 3a
       -0.003086891 -0.0040584346 0.0062598134 0.0009685352
000260 b9 b0 a8 bb 9f ad dd bb be 01 5e bb ef 67 c3 bb
       -0.00514802 -0.006765082 -0.003387555 -0.0059633176
000270 74 23 17 3c ad b3 58 ba 1d 35 43 bc 9c 76 0e 3b
       0.009224761 -0.000826652 -0.011914519 0.0021738177
000280 b0 1e 24 3c aa 1b b7 bb da 91 da 3b 18 c6 b4 ba
       0.010017082 -0.0055880146 0.006670219 -0.0013791947
000290 52 d9 c2 3b b2 94 24 3c 74 94 9d bb ba 08 01 3c
       0.0059463168 0.010045217 -0.0048089568 0.007875616
0002a0 54 3d 38 bb 87 e9 d8 3b 81 46 c1 3a bd 29 a9 bb
       -0.0028112726 0.0066196355 0.0014745743 -0.0051624463
0002b0 2b b2 81 3b 44 b3 89 bc 8e 2d 5f 39 4c 49 b5 3b
       0.003958007 -0.016809113 0.00021283908 0.0055324193
0002c0 bb b8 98 3b e0 8a ab 3b 2d 22 ff 3a 69 c8 e3 3a
       0.0046606935 0.005235061 0.0019465141 0.0017378452
0002d0 56 f0 16 3c d9 ad b4 bb 49 5c 9d bb e6 73 57 3a
       0.009212574 -0.0055138883 -0.004802261 0.00082188693
0002e0 1c fb 95 b9 65 c3 1b bc 68 52 d2 3b ec 76 65 bc
       -0.00028606586 -0.009507035 0.006418515 -0.014005404
0002f0 0d 69 40 bc 40 c4 9b 3b 12 97 86 bb 89 e2 50 b8
       -0.011743796 0.0047536194 -0.0041073645 -4.980204e-05
000300 81 6c b1 3b 1d 8d 80 bb ca ff a7 ba bf 29 a1 bc
       0.005414546 -0.003923072 -0.001281732 -0.019673226
000310 4e 91 0e bc b7 df 3b 3c 06 75 4f 3c a4 44 73 3c
       -0.0087016355 0.011466912 0.012662178 0.014847908
000320 30 ca 83 bc e6 6c 5e ba 92 91 84 bb 77 f3 74 3a
       -0.016087621 -0.0008484855 -0.0040456736 0.00093441404
000330 b8 dd 02 ba ac 4d 1b bc de 68 4e bc ff 4d b8 3b
       -0.0004992145 -0.009478968 -0.0125982445 0.0056245322
000340 12 a3 3f 3a b9 52 60 bc a9 a0 3e bb 3b 98 51 3b
       0.0007310371 -0.013691598 -0.002908746 0.0031981606
000350 ab 24 47 bb 4d ab 7f 3b e7 83 b7 3a 39 65 39 3c
       -0.0030386846 0.0039012015 0.0014001102 0.011315637
000360 79 45 37 bb da ad 99 3a 76 09 1c 3c 5e c5 3b bc
       -0.0027964993 0.0011724785 0.00952374 -0.01146063
000370 e9 f8 4d 3c 73 a5 b4 3a 72 8a 15 bc 8a 6f 4d 3b
       0.012571552 0.0013782218 -0.009127246 0.0031347
000380 aa a0 43 bb 34 5c 94 3c 2e c5 07 bc ee 9b d6 3b
       -0.0029850402 0.018110372 -0.008286757 0.00654935
000390 bd e1 0a 3c ef a0 2e bc cd 65 df 3a 6e 5e d0 3b
       0.008476672 -0.010658487 0.0017043889 0.006358913
0003a0 7d 52 eb b9 84 9a b4 3b 61 9f 1a 3a 52 40 f6 3b
       -0.0004488415 0.0055115838 0.0005898383 0.007514992
0003b0 83 99 14 3b 77 19 25 bb cf af dd 3b 52 dd c0 3b
       0.0022674508 -0.002519218 0.006765343 0.0058857584
0003c0 13 cd e1 39 8d 4b 2c bc 92 59 4d b9 58 92 03 bc
       0.00043068136 -0.01051606 -0.00019583691 -0.008030497
0003d0 2c ae 8d 3b 36 f4 23 bc f2 5c 8a bc 89 27 bb 3b
       0.0043237414 -0.010006955 -0.016890023 0.0057115
0003e0 e5 98 9f bb 6d d3 88 3c 1d 32 49 bc f2 e3 09 3c
       -0.0048705214 0.016702378 -0.012280014 0.008416163
0003f0 ae 36 ca 3b ad f2 63 3c 58 75 40 bb b9 ad 61 3b
       0.006171069 0.013912839 -0.0029366817 0.0034435822

svc_W2_svc f4 [1860, 1]
000000 cd 71 c9 3b 07 b5 25 3c 94 60 7a bb fa 4b 21 3c
       0.0061475993 0.010113961 -0.0038204538 0.009844774
000010 16 f4 b0 3b ee c3 25 bc 6c 5e c4 3b eb da da 3b
       0.005400191 -0.010117514 0.0059927013 0.006678929
000020 23 5d 87 3b 58 08 5d 3c 7b 0b d6 3b 89 3e 1c 3c
       0.004130976 0.013490759 0.0065321303 0.009536394
000030 98 9f 4b 3c c4 88 a5 3b 3b 53 84 3b 35 58 d9 bb
       0.012428187 0.005051704 0.004038242 -0.0066328296
000040 1c c6 60 3c af 0e b8 bc 76 6b 4c 3c 49 17 39 bc
       0.013719108 -0.02246794 0.012476793 -0.0112970555
000050 16 d6 ea 39 b8 50 c2 3b 58 e7 60 bb 03 f7 e4 3c
       0.00044791464 0.0059300326 -0.003431758 0.027949816
000060 c3 e6 af 3c 76 a4 37 bc 19 52 7c 3b 69 db 27 ba
       0.02147234 -0.011208644 0.0038501082 -0.0006403239
000070 04 79 4f ba d8 cc 52 3c 2d f9 e7 bb eb bb ca 3b
       -0.0007914456 0.012866221 -0.0070792646 0.0061869523
000080 a3 86 1e bc 2c fc 0a 3c 33 63 52 3c f4 07 c4 bb
       -0.009675655 0.008482974 0.012841034 -0.0059823934
000090 86 3b ae 3a a8 0e b8 bc ed 8a 1c bc 5d cc 68 3c
       0.0013292886 -0.022467926 -0.009554607 0.01420888
0000a0 d1 34 ae 3b dd a2 13 bc e2 23 06 3b d2 31 69 ba
       0.005316355 -0.009010998 0.0020468165 -0.00088956684
0000b0 10 13 02 3c bf d0 dd 3b 5c ec c2 3c f1 63 7e 3b
       0.007939115 0.0067692692 0.023794346 0.0038816894
0000c0 9b 43 2e 3c e4 7d 7b bc 0a 3e e8 ba 98 db 8c 3b
       0.010636236 -0.015349839 -0.0017718684 0.0042986386
0000d0 00 9b 49 3c 39 0a 12 bd d8 0f 3e bc 37 e1 49 3c
       0.012305021 -0.03565428 -0.011600457 0.012321762
0000e0 59 11 bb 3c 6f 07 a0 3c 76 c8 b5 3a 6c cc 56 3c
       0.02283542 0.019534795 0.0013868946 0.013110261
0000f0 57 c4 8a 3a fa ba 98 b9 c5 c5 01 3b 7d 96 c9 ba
       0.0010587078 -0.00029131008 0.0019801718 -0.0015379932
000100 4d 0e 41 3c 36 f1 a8 ba 72 24 61 3c d7 75 81 bc
       0.011783195 -0.0012889269 0.013741599 -0.01580326
000110 0e 31 c0 bc b2 2b 66 3c 00 6e aa 3a 3c e1 bd 3c
       -0.023460891 0.014048504 0.0013002753 0.02317869
000120 c0 59 48 3a 7f 35 66 bc 56 76 d5 3b da 97 66 bc
       0.00076427683 -0.01405084 0.006514351 -0.01407429
000130 6e 27 6c 3c 23 74 10 3c d0 1c 8b bc dd 3f 9d bc
       0.014413698 0.008816752 -0.016981512 -0.019195491
000140 6d 19 19 3c bf 0e ef 3b ae 15 98 3b 38 c2 99 bc
       0.009344441 0.007295459 0.0046412563 -0.018769369
000150 43 49 16 3c 97 01 b9 bc 9f 34 ae 3c 76 4a 0c 3c
       0.00917274 -0.022583766 0.021265326 0.008562675
000160 36 39 52 bb ad f6 91 3b c0 42 8e 3a 91 f3 b6 bc
       -0.0032077557 0.004454455 0.0010853633 -0.022332938
000170 2d 4a 2a 3c c2 17 5c bc 63 96 5f ba a9 7f 27 bc
       0.010393661 -0.013433399 -0.0008529184 -0.010223308
000180 ba c2 8a 3b 3a 01 ba bb 8d 06 5a 3c e3 00 16 3b
       0.004234639 -0.0056764157 0.013307226 0.0022888712
000190 e0 3f 6f bc be 4f 8a bb 44 22 15 3c 00 30 6c 3b
       -0.014602631 -0.004220932 0.009102408 0.0036039352
0001a0 89 f8 46 ba 76 99 9c 3b 09 b5 cf 3c 18 8b c3 3b
       -0.0007590135 0.004779036 0.025354879 0.005967509
0001b0 3e d3 62 bc a9 cd ed 3c 2f ef c1 3c 41 c5 54 3c
       -0.013844309 0.02902873 0.023673622 0.012986482
0001c0 6f 36 1d bc 57 70 39 3b e5 b1 ff bb f6 85 b8 3b
       -0.0095954975 0.002829572 -0.007803189 0.0056312038
0001d0 1d a2 b7 3b e8 8f 7e 3c 8a 4a a8 3c 67 a4 0d bc
       0.005604042 0.01553724 0.020543355 -0.008645154
0001e0 6b f0 a0 ba a7 aa 3a ba 1d 7b aa b9 6b 01 aa 3c
       -0.0012278681 -0.0007120766 -0.00032516653 0.02075263
0001f0 7a 3e 5f 3c 68 f0 87 3c 9f a9 b8 37 ff 10 ee bb
       0.013625735 0.016594127 2.2013495e-05 -0.0072652097
000200 54 bd 5e 3c 95 16 0a bd 89 85 b4 3c 36 6e e9 3a
       0.013594944 -0.033712942 0.02203633 0.0017809335
000210 e2 5e 0a b9 74 fd 8c bc 57 92 c4 bb 3c b3 b7 bb
       -0.00013196052 -0.0172107 -0.0059988904 -0.005606083
000220 b4 16 a0 b9 f9 63 25 3c 78 c0 6f 3c ac 69 08 3c
       -0.00030534493 0.010094636 0.0146332905 0.008325975
000230 30 96 c5 3c 36 a0 0c bb 19 e0 53 bc 46 99 44 bb
       0.024119467 -0.0021457798 -0.012931847 -0.0029998585
000240 a5 c3 68 3c 9a f3 d9 bb 38 74 c4 3b d1 42 62 b9
       0.014206802 -0.006651354 0.0059952997 -0.0002157793
000250 4a 06 a1 3b 10 3a 89 bb 7e a0 08 3c 21 41 a5 3a
       0.00491408 -0.00418783 0.008339046 0.0012607911
000260 30 0d 46 bc a9 79 ff bb 6c 3c 8d b9 ce 20 f6 bb
       -0.012088105 -0.0077964854 -0.00026938634 -0.007511235
000270 f6 cc f0 3b fd 3b 3b 3b 7e 9d 93 bb d1 6b 92 3b
       0.007348652 0.0028569691 -0.0045048585 0.004468419
000280 a9 f0 4e 3c 08 79 c6 ba 7b 96 9b 3b b0 c4 81 ba
       0.01263062 -0.0015142271 0.0047481633 -0.0009900536
000290 6a 6d 36 3c fb 67 66 3c 56 1c ad ba 55 1f 0c 3c
       0.011134485 0.014062877 -0.0013207297 0.008552392
0002a0 13 aa 53 3b e8 37 10 3c f8 6f cd 3b 1c 2b 28 bc
       0.0032297417 0.008802392 0.006269451 -0.010264184
0002b0 bf 56 01 3c 54 2c 37 bd 73 19 3d 3b e2 cd c7 3b
       0.007894217 -0.04472001 0.002885428 0.006097541
0002c0 25 d2 85 bb 15 05 12 bb 3c 29 24 3c d3 0b 2f 3c
       -0.004083889 -0.002228086 0.010019597 0.010683971
0002d0 c9 7e 4b 3c ce 04 88 bb 63 2d a2 bb eb 8e bb bb
       0.012420365 -0.0041509634 -0.004949258 -0.0057238243
0002e0 f1 04 3f 3b 64 f8 1f bc 82 1f 4c 3c 72 c4 ab bc
       0.0029147232 -0.009763811 0.012458684 -0.020967696
0002f0 57 31 10 bc 0e 8d 1e 3c fd e2 88 bb 53 df 26 b9
       -0.008800826 0.009677185 -0.0041774497 -0.00015914188
000300 1d 43 8c 3b b2 54 ff ba 3e 04 a6 3b 5e 4f 03 bd
       0.0042804615 -0.0019480197 0.0050664237 -0.032058112
000310 73 82 22 bc 3e 36 57 3c 23 25 9a 3c 1e 89 b4 3c
       -0.009918797 0.013135491 0.018816536 0.022038039
000320 42 88 69 bc 51 22 4d 3b 4d 18 30 bc b5 fc 90 bb
       -0.014253678 0.0031300972 -0.010747981 -0.0044246563
000330 c7 42 62 b9 12 7c 2d bc 06 36 8b bc 0f d2 20 3c
       -0.00021577916 -0.010588663 -0.016993534 0.009815707
000340 be f4 d7 3a 4d 88 6e bc 05 0e 9e bb 8a 54 b4 3b
       0.0016476137 -0.014558864 -0.0048234486 0.005503242
000350 a3 2e 9a ba 8b 06 99 3b d3 10 d2 3a 36 d0 71 3c
       -0.0011763166 0.0046699694 0.0016026743 0.014759114
000360 68 40 6b 3b 0e bc 6c 3b fc 89 27 3c 90 6a a1 bc
       0.0035896543 0.0036122832 0.010225769 -0.019704133
000370 a1 5b 69 3c e6 56 d4 3b 62 a2 63 bc 63 81 6b 3b
       0.014243037 0.0064800857 -0.013893696 0.0035935275
000380 20 4d 7d bc ee f8 b4 3c 1e 8c 2e bc f6 ee 2f 3c
       -0.015460283 0.022091355 -0.010653524 0.010738125
000390 b2 bd 96 3c 4f 0f 6a bc 02 25 d8 3b e3 d9 25 3c
       0.018401 -0.014285876 0.0065962086 0.010122749
0003a0 9f c4 2b bb 5e 63 18 3c f8 90 45 3b 33 3d 82 3c
       -0.0026209725 0.009301035 0.0030146223 0.015898323
0003b0 53 85 89 3b d6 45 6a ba f7 3e 46 3c 28 cf 90 3b
       0.0041968017 -0.0008936798 0.012099973 0.004419226
0003c0 aa a8 a4 bb 95 03 86 bc 3f 1e 75 3a ee 96 17 bc
       -0.005024989 -0.01635913 0.00093505153 -0.009252293
0003d0 41 03 ed b9 39 4b 30 bc a4 91 7f bc a5 09 52 3c
       -0.00045206587 -0.010760122 -0.015598688 0.012819682
0003e0 f2 e4 0e ba 06 70 d1 3c ea 46 60 bc 19 85 24 3c
       -0.00054509856 0.025566112 -0.013688782 0.010041499
0003f0 fc 47 88 3b e9 9f 65 3c 7e 9a c4 ba ee 8b 0b 3c
       0.004158972 0.014015176 -0.0014999656 0.008517249

fs_lr_fs_lr_W f4 [889, 1]
000000 d9 65 80 bb 10 8c a7 3c 7f 10 66 3b e8 38 0f 3c
       -0.003918391 0.02045253 0.0035105047 0.008741595
000010 07 40 26 ba a6 12 05 3c b8 5d 9f 3c f2 9b ff ba
       -0.0006341938 0.008122122 0.019453868 -0.0019501431
000020 ea aa 10 39 10 8a 13 3d e3 e9 88 3c 1a f5 0b bc
       0.0001379658 0.03602034 0.016713088 -0.0085423235
000030 81 b1 c1 39 91 e2 4b 3b 49 10 9c bb 71 eb 24 3c
       0.0003694408 0.0031110386 -0.0047626835 0.010065899
000040 b8 42 03 3a a1 2f 63 bc ff a1 df 3b 0d 47 c0 bb
       0.0005007195 -0.013866336 0.0068247314 -0.005867845
000050 5f 6f 75 3b 7c a0 3d 3c 1d c1 1b 3b ee bd 19 bd
       0.0037450416 0.011573907 0.0023766228 -0.037534647
000060 e5 93 5a 3c 78 3e 5a 3c 0b 91 97 3b 32 f5 ad 3c
       0.013340925 0.013320558 0.0046254448 0.021235082
000070 7b 9c 54 bc 42 09 bd bc 65 7f 01 3d 2f 01 b2 3b
       -0.012976761 -0.023075704 0.031615634 0.00543227
000080 1e 70 a0 bb 21 93 81 3c a4 f1 f4 3a 6e 35 b1 ba
       -0.004896178 0.015817227 0.0018687737 -0.0013519952
000090 81 f0 b7 bb a8 a0 31 bb 15 1f f2 bc 1c 12 bb 3c
       -0.005613387 -0.0027103815 -0.029555837 0.022835784
0000a0 08 9e 41 3c 1a 59 90 3a 41 1c ba 3b da c4 2a bc
       0.011817463 0.0011012882 0.0056796377 -0.01042291
0000b0 61 ef 83 bc 34 6b 3d bc 74 2e 67 bc db 5f fd 3b
       -0.016105356 -0.011561204 -0.014110196 0.007732374
0000c0 e7 52 4d bb 89 93 17 3d e8 14 df 3c 9d 8a af 3c
       -0.0031329931 0.037005935 0.027231649 0.0214284
0000d0 b2 50 52 3c da 62 a5 3c d3 f0 68 3c b8 f5 8d bb
       0.012836622 0.020188738 0.014217573 -0.0043322705
0000e0 7c ff 9d 3b 9e 47 3c 3c e0 f3 aa bb 97 58 55 bc
       0.004821716 0.011491684 -0.0052170604 -0.01302161
0000f0 cc e9 c7 3b f3 b9 ca ba 7c 6d fd 3c e5 a2 08 bb
       0.006100869 -0.0015466794 0.030935995 -0.0020849046
000100 2e d5 91 bb bd 0f fb bb 2d 23 7e 3c 39 2b a9 3a
       -0.004450462 -0.0076617883 0.015511316 0.0012906558
000110 09 e2 0c 3b 6e eb 46 ba 37 91 65 bc 5b 24 39 bb
       0.0021497032 -0.00075881823 -0.014011673 -0.002825043
000120 b1 54 ab b9 74 ac bb 3b 9e bf 71 3c 78 fc 2c bc
       -0.00032678762 0.005727345 0.014755158 -0.01055824
000130 bb 43 90 bb d9 3f 62 3b 12 ac f7 ba cd 1d 80 bc
       -0.0044026054 0.003452292 -0.0018895885 -0.01563921
000140 79 df d6 3b 1e d3 85 ba 02 f8 45 3b 90 32 1c bb
       0.0065574017 -0.0010210013 0.0030207639 -0.0023833849
000150 89 b4 c9 bb 36 be 82 bb ea ae 51 3c 97 a3 87 bc
       -0.0061555547 -0.00398996 0.01279805 -0.016557498
000160 20 6b 84 3b c4 c5 81 bb 4c 66 12 bd 88 7c 82 3c
       0.0040410906 -0.003960343 -0.03574209 0.015928522
000170 2d 08 dc 3c 24 91 e0 bb d9 9f 64 bc 8b 03 9e bc
       0.026859367 -0.0068532396 -0.013954126 -0.019288799
000180 0d 53 04 3c 7e 56 eb bb f6 40 36 3c 8e ba 6f bb
       0.0080764415 -0.0071819415 0.011123886 -0.00365797
000190 d7 e2 95 3c b4 0d 87 3c b9 32 a7 bb ea 2f 58 3b
       0.018296642 0.016486026 -0.005102482 0.0032987543
0001a0 59 0a 73 bc 56 36 19 3c 56 81 8a 3c c5 9b 8c 3a
       -0.01483401 0.009351334 0.016907375 0.0010727575
0001b0 1b b9 10 3c 17 81 ef 39 57 8d 64 3b 77 06 7a 3b
       0.008833195 0.00045681812 0.0034874284 0.0038150826
0001c0 e9 29 b9 bb 1a 93 dd 3b 29 c7 cc bb 97 97 dc 3b
       -0.005650748 0.0067619206 -0.0062493277 0.006731938
0001d0 a5 a2 55 3b 9d 20 67 bc 5a db 50 3c 27 a9 a0 bc
       0.0032598164 -0.014106897 0.01274761 -0.019611908
0001e0 cb a0 d7 bb 59 dc aa 3c 96 4c af ba 64 c6 5b 3c
       -0.0065804473 0.020857023 -0.0013374265 0.013413999
0001f0 b1 d3 f0 3b 65 4a de 3c 3b e5 6a bc 08 ed c3 3a
       0.0073494543 0.027135083 -0.014336879 0.001494796
000200 6d bf 96 bb 05 86 88 3c 27 d1 34 3c d3 d4 d2 3c
       -0.0046004565 0.016665468 0.011036194 0.025736248
000210 0b bf a3 3c 57 bc 20 bd 3f 8c 87 ba 3e 70 97 bb
       0.019988557 -0.039242115 -0.0010341479 -0.0046215346
000220 db 0d ab 3b 61 34 94 3c 70 34 29 3c c7 3d a6 3c
       0.0052201576 0.018091382 0.0103274435 0.02029313
000230 90 49 b0 bb 1c 21 e9 3b 01 21 5f 3c e8 3d a1 3b
       -0.005379863 0.0071145426 0.013618709 0.00492071
000240 6a f2 b8 bc a9 b6 14 bd c3 94 a6 3a 10 87 91 3a
       -0.02257653 -0.03630701 0.0012709129 0.0011102874
000250 02 a5 9d bc 4f df da bc 6a 58 ef bb c4 eb 34 3c
       -0.01924372 -0.02671781 -0.007304241 0.011042539
000260 56 ca 09 bc a6 8b 28 bb f0 0a f5 bc 49 a1 64 bb
       -0.008410057 -0.0025718003 -0.029912442 -0.0034886173
000270 dc 16 48 bc 74 9d 93 3b 8f 0d 80 3c 7a 4c f5 3b
       -0.012212481 0.004504854 0.015631465 0.0074859234
000280 8c 5e 13 3c e1 a6 77 3c 0e 70 a0 3b 93 f7 ca 3c
       0.00899471 0.015115471 0.0048961705 0.024776256
000290 19 19 99 3c db 56 9d 3c 17 05 e1 3b b4 35 a7 3b
       0.018688725 0.019206455 0.006867062 0.0051028375
0002a0 41 36 d6 bc 06 e5 ac 3c 34 a8 d0 3c 81 76 a1 3c
       -0.026148917 0.0211053 0.02547083 0.019709827
0002b0 78 61 16 3c fb ff 60 3c 51 e5 d9 bb 3b 25 85 3c
       0.009178512 0.0137329055 -0.006649651 0.016253104
0002c0 40 0f cc bc 1c 66 ac 3c 19 c9 42 3c 6e 60 0b 3c
       -0.024909616 0.021044783 0.011888766 0.008506877
0002d0 d1 77 17 bc 54 5b 55 bc e4 3c 86 ba 63 28 92 bb
       -0.009244875 -0.013022263 -0.0010241535 -0.004460381
0002e0 31 df 9d 39 cf ad 3c 3c aa 23 e0 bb e1 ac ee bc
       0.00030111664 0.011516049 -0.006840189 -0.02913517
0002f0 88 9d ef 3b b5 b5 81 3c 25 ff 31 3a 53 cc f7 3b
       0.0073124804 0.015833715 0.00067900337 0.007562199
000300 3c 4b 2d 3b 9d 9c 3a bd ec 78 27 3d 81 4f f3 3b
       0.0026442548 -0.045559514 0.040886804 0.007425249
000310 75 8b f7 3b 2c 3e 14 3c 0b dc c6 39 00 81 bd 3c
       0.0075544664 0.009048026 0.00037929448 0.023132801
000320 b2 8a 30 3c e3 15 33 3b 64 f6 11 3c 3f 17 ce bb
       0.010775255 0.0027326278 0.008908842 -0.0062893922
000330 21 3e 26 ba f5 fe b0 ba 44 c3 ad bc 67 e4 ef bb
       -0.00063416554 -0.0013503717 -0.021211274 -0.007320929
000340 d1 3a 19 3c fc 76 83 3b bf c7 85 bc 41 54 8f bc
       0.009352402 0.004011987 -0.016330598 -0.01749623
000350 d3 b2 ae bc dc 2b f3 3b 97 ec a2 3b df b5 90 3b
       -0.021325504 0.007421 0.0049720514 0.004416212
000360 a8 25 b0 bc d3 8a 0c bb e8 ec 0c bc e5 0c 8f b8
       -0.02150233 -0.002144505 -0.008601405 -6.821173e-05
000370 08 42 88 3c 65 53 bb bc fa c3 9a 3c 6b fe 89 3c
       0.016633049 -0.022866914 0.018892277 0.016844949
000380 96 67 d0 ba 98 31 10 3c 55 d4 01 bc 44 3f 68 bb
       -0.0015900012 0.008800887 -0.007924159 -0.00354381
000390 30 43 1f bd 3e f4 72 38 56 82 95 3c ed f0 ce b9
       -0.038882434 5.7924764e-05 0.018250626 -0.00039470886
0003a0 a3 cd 3e 3c 0b 2d 98 bb 7c 34 9e 3c 7d dc 3b bc
       0.011645707 -0.0046440414 0.019312136 -0.011466143
0003b0 fd 7a a1 bc 06 dd 28 bb e9 8b 39 bb 01 6d 1b 3c
       -0.019711966 -0.0025766506 -0.0028312153 0.009486438
0003c0 85 40 43 bc 19 b8 e2 bc 15 a6 39 bc fb 15 86 bc
       -0.011917238 -0.027675675 -0.011331101 -0.016367903
0003d0 9e 07 1b 3b 21 04 fd bb ab 6a d5 3a e4 d2 62 3c
       0.0023655663 -0.0077214395 0.00162824 0.013844226
0003e0 6f 62 55 bb 4b 68 86 3c dc e6 44 bd fd 4f 86 3c
       -0.0032559892 0.016407153 -0.048071727 0.016395563
0003f0 55 a9 f5 3b b9 68 ab 3b a1 7d 63 3c 51 fc bc 3c
       0.0074969926 0.00523099 0.013884933 0.023069533

fs_svc_W2_fs_svc f4 [889, 1]
000000 b0 10 34 bc 53 76 b7 3c 9c 1a 01 3c 4d 7b 99 3c
       -0.010990307 0.022395289 0.007879879 0.018735552
000010 2d f8 d0 bc 4f f2 90 3c 2f 15 06 3d 23 e8 02 3c
       -0.025508964 0.017693667 0.032735046 0.007989916
000020 b3 f3 60 3c 62 00 91 3d 03 4c 46 3d 43 84 94 bc
       0.013729977 0.07080151 0.048412334 -0.018129474
000030 56 3a c2 3b e1 77 e3 bb 11 40 69 3b b0 ff a8 3c
       0.0059273643 -0.006941781 0.0035591165 0.020629734
000040 7d 45 73 bb e0 b6 29 bb 29 71 a6 3c 2c eb fc bc
       -0.0037120276 -0.0025896356 0.02031763 -0.030873857
000050 83 52 d4 3b 6b 1e 07 3b a5 c7 5a 3c 40 f0 bf bd
       0.0064795627 0.0020617496 0.013353263 -0.09371996
000060 c2 0b f1 3c eb 89 07 3d 3d 7b d4 3c 5a 77 90 3c
       0.029424552 0.033090513 0.02593767 0.017635036
000070 c8 21 06 bd 91 a8 c6 bd fe 66 8c 3d 06 7a 9f 3c
       -0.03274706 -0.0970012 0.06855582 0.019467365
000080 aa 4c f3 bb 24 d5 5c 3c bb c3 82 3b 9a c7 5d bb
       -0.0074249106 0.013478551 0.003990618 -0.0033840896
000090 1d 1c b3 bc b4 06 5b 3b ee 22 66 bd dc 78 30 3d
       -0.021863991 0.0033420743 -0.056185655 0.04308401
0000a0 69 17 c4 3c 5d fb e6 ba 13 19 6a bc e1 92 30 bd
       0.023936944 -0.001762252 -0.014288205 -0.043108825
0000b0 24 79 4f bc e5 a5 0a bd bb a9 e6 bc f5 d2 8c 3c
       -0.0126631595 -0.033849616 -0.028157106 0.017190436
0000c0 6a 4f 95 bc a5 52 74 3d 58 15 81 3d 02 f0 48 3d
       -0.018226344 0.05964913 0.06302899 0.049057014
0000d0 66 d7 14 3d 75 de b7 3c b2 7d 02 3d 5c 4e 66 bc
       0.036338232 0.022444943 0.031858154 -0.014056768
0000e0 2b 68 06 3d 26 f7 f6 3c ea d3 de bc 4a 12 1b bc
       0.032814186 0.030147146 -0.027200658 -0.00946481
0000f0 86 6c 3f 3c b7 ba 29 bd 78 5f ef 3c 06 50 e5 bb
       0.011683589 -0.04143783 0.029220328 -0.006998065
000100 1c d4 f6 bc 43 78 68 bc 2a 2b 03 3d 88 ff 0a 3c
       -0.030130439 -0.014188829 0.032023586 0.008483775
000110 42 e2 7a bc 88 1e f8 bb 60 7b 41 3c 1c 3d fe 3b
       -0.015312733 -0.007571999 0.0118092 0.0077587496
000120 86 9f b3 3a 0f c5 28 bb 3e 35 ef 3c 87 a4 74 bc
       0.0013704158 -0.0025752222 0.029200193 -0.0149318045
000130 e2 a5 a8 bb f8 9c 15 3c 30 b6 02 3c 61 87 28 bd
       -0.005146728 0.009131663 0.007978007 -0.041144732
000140 15 bb aa 3c d3 07 d8 bb dc 73 15 3a 15 bf b4 3b
       0.02084116 -0.0065927296 0.00057011633 0.005515943
000150 9a a4 95 bc 4d e2 41 bc e2 56 05 3c bd f7 a5 bc
       -0.018266965 -0.0118337395 0.00813839 -0.020259732
000160 9e ce 01 3c c5 2c d9 bb 61 48 bb bd cb 3e 27 3d
       0.0079227965 -0.0066276514 -0.091446646 0.04083137
000170 fb 18 6c 3d 0b d4 54 bc db f2 8c bc da 88 60 bd
       0.05764101 -0.012990008 -0.017205646 -0.05481801
000180 a2 6f 7a 3b af 89 38 3a e4 35 7a ba e7 e4 ab bb
       0.003821351 0.00070395594 -0.00095447735 -0.005245793
000190 64 bd 08 3d 54 c3 cf 3c e7 57 20 bc 71 7f fe 3b
       0.033383742 0.025361694 -0.009786583 0.007766657
0001a0 42 0c 47 bd 0d 0e 10 3d a1 af 0a 3d 40 a2 ef 3b
       -0.048595674 0.03516965 0.0338589 0.007313043
0001b0 1d 49 7f 3c 81 b9 21 3c b8 71 37 3a 53 6e 4c 3c
       0.015581396 0.009870888 0.00069978414 0.012477475
0001c0 80 11 9b bc 95 9d 00 3c ee 22 42 bc f2 16 83 3c
       -0.018929243 0.0078500705 -0.011849148 0.016002152
0001d0 99 1f bb 3b 8a b9 94 bd 42 2a b2 3c 7b db 70 3a
       0.005710554 -0.07261951 0.021748666 0.00091879786
0001e0 c3 de 54 bc 25 36 09 3d 75 8a 10 3c be 1a 4c 3c
       -0.012992564 0.033498902 0.008822073 0.012457548
0001f0 52 7d 43 3c 9d 9a 56 3d ef a2 bc bc 23 f5 a1 bc
       0.011931734 0.052393544 -0.023026912 -0.01977021
000200 88 25 46 bb 77 11 d3 3c ce 78 70 bc 8a d7 04 3d
       -0.0030234773 0.025765164 -0.01467724 0.032432117
000210 95 2b 1e 3d de 58 7e bd 38 c9 ae bc 62 2e 86 3c
       0.03861578 -0.06209647 -0.021336183 0.016379539
000220 4b 60 a2 3c 86 39 13 3d ac 91 b0 3c b6 c8 77 3c
       0.019821307 0.03594353 0.021553837 0.015123537
000230 f2 5d c6 ba f7 2b 1c 3c ee ae d3 3c 5d ae d6 3c
       -0.0015134199 0.009531966 0.025840249 0.02620619
000240 e5 4b e2 bc 9c 95 48 bd 61 be 26 bc 16 ed 80 3c
       -0.02762408 -0.048970804 -0.010177226 0.015738051
000250 9b 54 64 bd dd 6a f3 bc 8a 66 6e bb 80 5d c5 3c
       -0.05574475 -0.029714042 -0.0036377036 0.024092436
000260 3f ef f8 bc 46 6e 86 bc 5f e9 82 bd 0c 4e 94 bb
       -0.030387519 -0.016410004 -0.06392168 -0.0045259055
000270 44 57 d9 bc d5 ec 59 3c fb 2e ca 3c 0a 9d 42 3b
       -0.02653087 0.013301094 0.024680605 0.0029695653
000280 61 8f c4 3c 70 2d 40 3d 03 66 b2 3b dd 9f 27 3d
       0.02399415 0.046918333 0.0054442897 0.040923942
000290 34 ce 3b 3d c3 f5 10 3d 98 e5 ae 3c 47 cb 6c 3c
       0.045850947 0.035390627 0.021349713 0.014452762
0002a0 c4 91 31 bd 0f 57 5e 3d 06 ed 09 3d a7 d8 da 3c
       -0.043351904 0.054282244 0.03367331 0.026714636
0002b0 68 1a 55 3d 45 11 31 3d a0 4d 91 bc e3 a1 6d 3d
       0.052027136 0.04322936 -0.01773721 0.058015715
0002c0 5c c3 d3 bd 1a 9a 60 3d 7f a3 c4 3c 27 e2 5c 3c
       -0.10339996 0.054834463 0.024003742 0.013481653
0002d0 33 b1 8e bc 62 19 b9 bc 5a 4e 6d 3c 31 75 35 bc
       -0.01741848 -0.022595111 0.0144840125 -0.011075304
0002e0 2e 28 9a 3c 63 9a db 3c 64 6c b8 bc 36 4d 70 bd
       0.018817987 0.026807016 -0.022512622 -0.058667384
0002f0 8d f2 0f 3b 55 94 b2 3c 23 9d 8e 3b 9d f8 9d 3c
       0.002196464 0.021799246 0.0043522283 0.019283587
000300 7c 42 14 3c 61 b5 ff bd 21 5d 63 3d 00 c2 f9 3c
       0.009049054 -0.12485767 0.055508737 0.030488014
000310 24 3a ba 3c 14 d5 33 3c 58 76 83 3c d0 34 98 3c
       0.022732802 0.010976095 0.016047642 0.01857987
000320 8f 61 67 3c e5 49 ae 3b f6 a8 ca 3c 87 1f 59 bc
       0.014122381 0.0053188675 0.02473877 -0.013252146
000330 e7 da 11 bc 44 24 0c 3b fb 2b 80 bc b7 1b ae bc
       -0.008902288 0.002138392 -0.015645972 -0.02125345
000340 82 46 c3 3c 9c 85 fc 3b b7 ac bc bc 4b 64 33 bd
       0.023837332 0.007706357 -0.023031576 -0.04379682
000350 e2 9c e2 3b ef cb ca 3c 52 6d ea 3b dd ab b8 3b
       0.0069156745 0.024755446 0.0071541453 0.005635722
000360 62 49 a9 bd 8f f1 60 bc 1c af 35 bd 85 e4 fc 3c
       -0.0826595 -0.013729467 -0.04435645 0.030870685
000370 65 85 e6 3c ff 81 9b bd 30 ec 2d 3d 30 4a 04 3d
       0.02813978 -0.07593154 0.042461574 0.032297313
000380 a7 e7 c0 39 b5 f0 bf 3c 23 14 9a bc b8 1d b7 bc
       0.00036793688 0.023430208 -0.01880843 -0.022353038
000390 0a be 48 bd e4 34 8d 3b 6c ab 34 3d d1 6e da bc
       -0.04900936 0.0043092836 0.044108793 -0.02666417
0003a0 88 c8 f7 3c 6a 1a 45 bc 17 d1 03 3c 70 34 02 bb
       0.030246988 -0.012030223 0.008045456 -0.001986768
0003b0 ed 19 c6 bc 42 1f d5 3b dc 51 67 3c 48 b8 ed 3c
       -0.024182284 0.0065039704 0.014118638 0.029018536
0003c0 88 6b 8b 3a 6d b0 bc bc 4b d2 5b bc 3c af 5a bc
       0.0010636905 -0.023033345 -0.013416837 -0.013347443
0003d0 8f fe df 3a 5e 0d f4 b8 c4 22 2f 3c af e8 9f 3b
       0.0017089414 -0.000116373165 0.010689441 0.004880033
0003e0 aa 3f 11 bc c9 77 34 3d 70 cf 95 bd f3 1f 56 3d
       -0.008865276 0.04405955 -0.07314956 0.052276563
0003f0 61 bc 9c 3c 47 57 ac 3c df 3a 35 3d 52 2d 46 3d
       0.019132795 0.02103771 0.044245597 0.048383065

mfs_lr_mfs_lr_W f4 [1860, 1]
000000 fc a9 e8 b9 cc 80 a3 3b b0 55 6d 3a 0a 86 8b 3b
       -0.00044377137 0.004989719 0.0009053601 0.004257922
000010 c4 99 e0 3b df 73 1b bc ff ab 8f 3b ac a5 d3 3b
       0.006854268 -0.009488075 0.004384517 0.0064589586
000020 9e 38 8c 3a 1e 42 21 3c 5e 0a 80 3b 16 5c 99 3b
       0.0010698026 0.009842424 0.003907486 0.004680167
000030 16 4c 25 3c fd ad bb ba cf 0d 55 3b f0 84 7d 3b
       0.010088941 -0.001431882 0.0032509451 0.0038683973
000040 a5 8b 0c 3c 65 5d b4 bb 88 41 04 3c 7e 45 d7 bb
       0.008578216 -0.0055042976 0.0080722645 -0.0065695634
000050 9b 00 f9 38 ac c4 b3 3a 01 85 0c bb 3f 2c c0 3c
       0.00011873358 0.0013715229 -0.0021441581 0.023458598
000060 37 77 57 3c d8 b5 04 bb a2 cb 11 bb e3 f7 65 3b
       0.013150982 -0.002024999 -0.0022246619 0.003509038
000070 43 70 59 bb 2c fa 63 3c fb e0 48 bb 48 1e 20 3b
       -0.0033178485 0.013914626 -0.0030651677 0.0024432112
000080 c7 ae 17 bc 48 be 0a 3c 56 c0 0e 3c d9 e9 1d bc
       -0.009257979 0.008468218 0.008712849 -0.009638273
000090 00 05 fd 3a 58 fa a4 bc 87 31 5b bc bd d1 f2 3b
       0.0019303858 -0.020138904 -0.013378507 0.0074102567
0000a0 e9 e6 a0 3b 12 3e c1 bb a9 01 fb 3a 20 65 3e bb
       0.004910339 -0.005897292 0.0019150275 -0.0029051974
0000b0 d5 6f d4 3b 37 2a 52 3b 0d 65 52 3c 45 be e7 3b
       0.006483058 0.003206862 0.012841475 0.0070722424
0000c0 6a b7 2d 3c 7a 86 21 bc 58 88 09 bb 70 0b 07 3b
       0.010602811 -0.009858722 -0.0020985808 0.0020606183
0000d0 3d e4 f0 3b d9 e7 c8 bc 96 2e 31 bc 31 1b 15 3c
       0.007351427 -0.024524616 -0.01081433 0.009100721
0000e0 51 b0 5c 3c b4 bb 58 3c 65 39 b7 bb 16 f6 d2 3b
       0.0134697715 0.013228346 -0.0055915588 0.006438027
0000f0 0e 47 5e 3b 0d 88 37 3a 8c 44 2f 39 b4 02 7a ba
       0.0033916864 0.0007001169 0.00016714836 -0.0009537146
000100 73 6b 2a 3c da e4 f0 bb fa 26 5f 3c 86 45 d0 bb
       0.010401594 -0.0073515 0.013620133 -0.006355944
000110 17 e2 b0 bc 02 e2 4c 3c 4a b2 f6 ba 29 65 8b 3c
       -0.021592183 0.012505056 -0.0018821445 0.01701601
000120 12 76 62 3b 6f 4e 7d bb cb a4 50 3b 48 9e d1 ba
       0.0034555239 -0.0038651486 0.0031836506 -0.0015992606
000130 68 8f d3 3b 5f a5 00 bb 9e 8c 9f bc f8 55 af bc
       0.0064563043 -0.001962982 -0.019476231 -0.021403298
000140 4f fd 1f 3c 7b 42 81 3b c7 0b c8 3a 3a 5d ef bb
       0.009764983 0.0039446927 0.0015262299 -0.0073048146
000150 eb 2d 84 3a 6e bb 86 bc 70 ae 83 3c e8 8b ff 3b
       0.0010084485 -0.016446795 0.01607439 0.0077986605
000160 39 b0 2b 3b 7d ea 40 3b d4 dc a3 3b f3 57 08 bc
       0.0026197566 0.002943664 0.00500069 -0.00832175
000170 05 b9 45 3c 13 ae 24 bc e0 41 91 bb bd 40 32 bc
       0.012068038 -0.010051268 -0.0044329017 -0.010879693
000180 a1 46 ed 3a f0 70 65 bb 8e ba 3e 3c 36 6d c6 3a
       0.0018102714 -0.0035009943 0.011641158 0.0015138749
000190 0e cd 1f bc 87 ae 78 bb 49 89 fe 3b 5c 6c 62 3b
       -0.009753479 -0.0037945823 0.0077678305 0.003454945
0001a0 c6 59 1c 3b e5 f7 1e 3b 96 ab b9 3c d0 a1 cd 3a
       0.002385722 0.0024256643 0.022664826 0.0015688483
0001b0 d5 b4 c4 bb 0b 60 8c 3c 01 b6 93 3c 7d 3c e8 3b
       -0.006003002 0.01713564 0.018031122 0.007087289
0001c0 ca 49 2b bc 2a 79 9a 3a 28 19 36 bb 65 5d 89 3b
       -0.010454604 0.0011785377 -0.002778599 0.0041920417
0001d0 c2 b9 7c 3b ed 01 3f 3c ee e5 6a 3c 8f fe 05 bc
       0.0038562869 0.011658174 0.014337046 -0.008178367
0001e0 d4 58 04 b9 3f ad 77 3a ec 89 4e ba 2a 46 87 3c
       -0.00012621592 0.0009448118 -0.00078788283 0.016512949
0001f0 a8 e2 06 3c 41 ca 54 3c 34 37 86 ba 24 f4 c8 bb
       0.00823275 0.012987674 -0.001023984 -0.0061326195
000200 66 9d 0d 3c 6e 99 9a bc bf d0 a2 3c cd 6f ba b9
       0.008643484 -0.01887199 0.019874929 -0.00035559983
000210 15 5b 8c bb a2 6a 73 bc 7b 7f 90 bb b6 7b 3c bb
       -0.0042833188 -0.014856966 -0.004409728 -0.002876026
000220 b8 2b eb 39 89 8b c0 3b d8 e1 0b 3c 7a aa 1f ba
       0.00044855266 0.005876009 0.008537732 -0.00060907716
000230 a2 10 95 3c ce b7 03 3a dc 7a 18 bc 89 0c 38 39
       0.018196408 0.00050246425 -0.009306636 0.00017552277
000240 8d 8a fd 3b 33 a8 8d bb 54 ad 55 3b c6 1d c4 b8
       0.007737464 -0.0043230294 0.0032604532 -9.351554e-05
000250 70 4d 4a bb 9e fc 84 bb 1f 1f cd 3b 4c e5 7d 3a
       -0.003086891 -0.0040584346 0.0062598134 0.0009685352
000260 b9 b0 a8 bb 9f ad dd bb be 01 5e bb ef 67 c3 bb
       -0.00514802 -0.006765082 -0.003387555 -0.0059633176
000270 74 23 17 3c ad b3 58 ba 1d 35 43 bc 9c 76 0e 3b
       0.009224761 -0.000826652 -0.011914519 0.0021738177
000280 b0 1e 24 3c aa 1b b7 bb da 91 da 3b 18 c6 b4 ba
       0.010017082 -0.0055880146 0.006670219 -0.0013791947
000290 52 d9 c2 3b b2 94 24 3c 74 94 9d bb ba 08 01 3c
       0.0059463168 0.010045217 -0.0048089568 0.007875616
0002a0 54 3d 38 bb 87 e9 d8 3b 81 46 c1 3a bd 29 a9 bb
       -0.0028112726 0.0066196355 0.0014745743 -0.0051624463
0002b0 2b b2 81 3b 44 b3 89 bc 8e 2d 5f 39 4c 49 b5 3b
       0.003958007 -0.016809113 0.00021283908 0.0055324193
0002c0 bb b8 98 3b e0 8a ab 3b 2d 22 ff 3a 69 c8 e3 3a
       0.0046606935 0.005235061 0.0019465141 0.0017378452
0002d0 56 f0 16 3c d9 ad b4 bb 49 5c 9d bb e6 73 57 3a
       0.009212574 -0.0055138883 -0.004802261 0.00082188693
0002e0 1c fb 95 b9 65 c3 1b bc 68 52 d2 3b ec 76 65 bc
       -0.00028606586 -0.009507035 0.006418515 -0.014005404
0002f0 0d 69 40 bc 40 c4 9b 3b 12 97 86 bb 89 e2 50 b8
       -0.011743796 0.0047536194 -0.0041073645 -4.980204e-05
000300 81 6c b1 3b 1d 8d 80 bb ca ff a7 ba bf 29 a1 bc
       0.005414546 -0.003923072 -0.001281732 -0.019673226
000310 4e 91 0e bc b7 df 3b 3c 06 75 4f 3c a4 44 73 3c
       -0.0087016355 0.011466912 0.012662178 0.014847908
000320 30 ca 83 bc e6 6c 5e ba 92 91 84 bb 77 f3 74 3a
       -0.016087621 -0.0008484855 -0.0040456736 0.00093441404
000330 b8 dd 02 ba ac 4d 1b bc de 68 4e bc ff 4d b8 3b
       -0.0004992145 -0.009478968 -0.0125982445 0.0056245322
000340 12 a3 3f 3a b9 52 60 bc a9 a0 3e bb 3b 98 51 3b
       0.0007310371 -0.013691598 -0.002908746 0.0031981606
000350 ab 24 47 bb 4d ab 7f 3b e7 83 b7 3a 39 65 39 3c
       -0.0030386846 0.0039012015 0.0014001102 0.011315637
000360 79 45 37 bb da ad 99 3a 76 09 1c 3c 5e c5 3b bc
       -0.0027964993 0.0011724785 0.00952374 -0.01146063
000370 e9 f8 4d 3c 73 a5 b4 3a 72 8a 15 bc 8a 6f 4d 3b
       0.012571552 0.0013782218 -0.009127246 0.0031347
000380 aa a0 43 bb 34 5c 94 3c 2e c5 07 bc ee 9b d6 3b
       -0.0029850402 0.018110372 -0.008286757 0.00654935
000390 bd e1 0a 3c ef a0 2e bc cd 65 df 3a 6e 5e d0 3b
       0.008476672 -0.010658487 0.0017043889 0.006358913
0003a0 7d 52 eb b9 84 9a b4 3b 61 9f 1a 3a 52 40 f6 3b
       -0.0004488415 0.0055115838 0.0005898383 0.007514992
0003b0 83 99 14 3b 77 19 25 bb cf af dd 3b 52 dd c0 3b
       0.0022674508 -0.002519218 0.006765343 0.0058857584
0003c0 13 cd e1 39 8d 4b 2c bc 92 59 4d b9 58 92 03 bc
       0.00043068136 -0.01051606 -0.00019583691 -0.008030497
0003d0 2c ae 8d 3b 36 f4 23 bc f2 5c 8a bc 89 27 bb 3b
       0.0043237414 -0.010006955 -0.016890023 0.0057115
0003e0 e5 98 9f bb 6d d3 88 3c 1d 32 49 bc f2 e3 09 3c
       -0.0048705214 0.016702378 -0.012280014 0.008416163
0003f0 ae 36 ca 3b ad f2 63 3c 58 75 40 bb b9 ad 61 3b
       0.006171069 0.013912839 -0.0029366817 0.0034435822

mfs_svc_W2_mfs_svc f4 [1860, 1]
000000 36 ef 5f 3c 05 11 73 3b e5 d0 8c ba bf a0 84 3c
       0.013667872 0.0037089002 -0.0010743408 0.016189931
000010 b5 3e 26 3b 18 00 c4 bb 9a 34 55 3c a6 c5 6c 3b
       0.0025366966 -0.0059814565 0.0130130295 0.003612855
000020 0f 63 6b 3b 8e 66 9b 3c 10 e2 4a 3c 18 cf 82 3c
       0.0035917198 0.0189698 0.012382999 0.01596789
000030 79 ea e4 3c ed 85 14 3a 64 21 cc b9 e2 6d b0 bc
       0.027943837 0.00056657084 -0.0003893479 -0.021536771
000040 76 b8 9d 3c 14 77 4c bd b6 8f 89 3c c7 38 d7 bc
       0.019252997 -0.04991825 0.01679216 -0.02627219
000050 f0 de 10 3c 43 f8 1a 3c eb f6 b7 3b 34 d3 28 3d
       0.008842215 0.009458604 0.0056141517 0.041217044
000060 c7 65 0c 3d 0c 7c b6 bc 90 3b 1c 3b a5 f1 b9 3a
       0.03427675 -0.022275947 0.0023839213 0.0014186396
000070 c4 aa fb bb a0 12 c7 3c 6a e9 a3 bc f3 74 b7 3b
       -0.007680269 0.024300873 -0.020008761 0.005598658
000080 68 4c a3 bc 35 7a 6d 3c ea 2b e3 3c 53 55 96 bc
       -0.019933894 0.014494468 0.0277309 -0.018351233
000090 14 1f 28 ba 03 77 4c bd c5 86 13 bc bd 2b b4 3c
       -0.00064133224 -0.049918186 -0.0090042995 0.021993512
0000a0 20 94 95 3b 8e 68 3d bc 89 34 c2 3b ed e4 e1 bb
       0.004564777 -0.011560572 0.005926673 -0.006893745
0000b0 72 ed 1f 3c f6 46 b5 3b 7b e8 0f 3d b5 81 2d 3a
       0.009761201 0.005532141 0.03513382 0.0006618754
0000c0 ae 65 97 3c 58 e4 2c bc 00 4c 91 3b cb 86 f5 3a
       0.018481102 -0.010552488 0.0044341087 0.0018732188
0000d0 7e 36 a0 3c d1 1e 66 bd 88 16 6b bc c5 b7 93 3c
       0.019557234 -0.056181733 -0.014348634 0.018031964
0000e0 a0 e3 fd 3c a7 46 f8 3c 97 cc 12 bb 3c 4d 94 3c
       0.03099233 0.030307127 -0.0022399777 0.018103234
0000f0 37 62 46 bb 24 73 68 ba 09 f4 96 3b 89 f3 d4 bb
       -0.0030270943 -0.0008867255 0.004606728 -0.006498758
000100 57 ca b7 3c c8 b7 7c bc 0b 16 ae 3c 42 79 02 bd
       0.02243535 -0.015424676 0.021250745 -0.03185392
000110 6c 9b 56 bd f8 e6 c3 3c bc b9 94 ba f2 a1 12 3d
       -0.052394316 0.023913845 -0.0011346857 0.035798974
000120 4a 70 c0 3b 17 62 de bc 9d 1e 33 3b 62 89 fe bc
       0.005872761 -0.027146382 0.002733148 -0.031071369
000130 f1 21 ae 3c 18 ee 86 3c 54 df 1a bd ee 0e 35 bd
       0.021256419 0.016470954 -0.03781064 -0.04420369
000140 e5 20 20 3c e4 39 53 3c 91 cc 0d 3c 04 22 3e bd
       0.009773468 0.01289222 0.008654729 -0.04641916
000150 f3 e4 44 3c fc bd fc bc f5 45 f8 3c 3e 61 95 3c
       0.012017476 -0.03085231 0.030306796 0.018234845
000160 9b a6 39 bc 59 1f 04 3c 27 d5 1f 3c 47 58 0f bd
       -0.011331226 0.0080641145 0.009755409 -0.034996297
000170 07 08 a6 3c a4 49 ae bc 65 c5 3c 3b 4a 67 f4 bc
       0.0202675 -0.021275349 0.002880418 -0.029834408
000180 49 2e 2c ba f0 41 19 bc 43 d5 ef 3c 24 07 7a 3a
       -0.00065681763 -0.0093541 0.029276496 0.0009537807
000190 bb 79 cd bc 62 e2 2c bc a9 ce 53 3c 2a 27 4d 3c
       -0.02508246 -0.010552021 0.01292769 0.0125215445
0001a0 08 22 41 3c ea b8 0d 3c 3b de 11 3d da ae 0f 3c
       0.011787899 0.008650044 0.035612326 0.008769715
0001b0 b3 8b 86 bc 2c 92 40 3d 42 25 1e 3d 78 98 b3 3c
       -0.016424036 0.0470144 0.03860975 0.021923289
0001c0 f1 ac c6 bc c0 19 c4 3b 87 04 99 bc 53 a2 2b 3c
       -0.024252387 0.005984515 -0.018678917 0.010475713
0001d0 bc a8 03 3c 37 0c 84 3c 06 3f ff 3c 08 fb 99 bc
       0.008035835 0.016119106 0.031157982 -0.018796459
0001e0 39 8d 96 bb 93 69 8a b8 b5 bb 81 ba fd 7f 07 3d
       -0.004594472 -6.6000175e-05 -0.000989786 0.033081044
0001f0 c7 ad af 3c 8f 61 cb 3c 10 0e 4a ba 75 4b 8f bb
       0.021445168 0.024826793 -0.0007707784 -0.004373009
000200 3d 6d b7 3c 80 4c 78 bd a8 ba 1e 3d 52 36 16 bb
       0.022390956 -0.06061983 0.038752228 -0.002292056
000210 f5 7d 02 bc 68 3f c3 bc e3 e5 42 bc e1 d8 75 bc
       -0.007964601 -0.023833945 -0.01189563 -0.015005321
000220 f6 34 bc 3b 10 24 bb 3c d1 c1 a8 3c 64 19 9e 3b
       0.005743618 0.022844344 0.020600231 0.004824804
000230 51 5d 0a 3d 97 9e 56 ba ed 64 92 bc d1 56 72 ba
       0.0337804 -0.0008187084 -0.01787039 -0.0009244504
000240 9d fd c5 3c 5e a4 e2 bb ca 10 46 3c 4b 2e 2c ba
       0.024168784 -0.0069165668 0.012088964 -0.00065681775
000250 e1 5b 65 b8 9c ea 66 bc 3c 5c 6f 3c 38 82 e6 3a
       -5.4683424e-05 -0.014094021 0.014609393 0.0017586416
000260 e6 3e dd bc 6d 88 93 bc b1 f4 56 ba 76 d2 2a bc
       -0.027007531 -0.018009389 -0.0008199914 -0.010426154
000270 bf e6 ab 3c f9 24 29 3b 8d 66 4c 3a ab bf 96 bb
       0.020984052 0.002580939 0.00077972637 -0.0046004853
000280 ea 40 bb 3c 3b 30 36 ba 65 9e 28 3c b0 d2 5f 3b
       0.022858102 -0.0006949936 0.01029167 0.003415268
000290 f6 f8 97 3c 8a b0 b8 3c b9 c0 6b bb e1 0b 98 3c
       0.018551331 0.022545118 -0.0035973026 0.018560352
0002a0 30 dc 0d 3b 88 45 a5 3c c5 e8 09 3c 90 4c 7d bc
       0.0021646135 0.020174757 0.008417313 -0.015460148
0002b0 c8 10 a8 3c 01 77 4c bd ea 7c 1e 3b 3f 1d eb 3b
       0.020515814 -0.04991818 0.0024183341 0.0071751173
0002c0 ec 7e bd bb 6a 70 43 3b 21 0a 35 3b 49 c4 a2 3c
       -0.0057829525 0.0029821643 0.0027624446 0.019868987
0002d0 ad 85 be 3c ae d3 72 bc 1f ad a3 bb b6 d8 86 bb
       0.023257101 -0.014820976 -0.004995003 -0.0041151894
0002e0 82 a7 05 3c 56 13 48 bc 50 8d 4f 3c a1 58 9b bc
       0.008157613 -0.012211641 0.012667969 -0.01896316
0002f0 c8 de 7e bc d0 90 5b 3c bc 1f 80 b9 a6 3d 14 3b
       -0.015556045 0.013401225 -0.00024437706 0.0022619753
000300 b1 28 84 3c 06 d8 da bb 68 c3 da 3b 16 77 21 bd
       0.016132684 -0.006678584 0.0066761263 -0.03942021
000310 6a 6b 95 bc 9a bf ec 3c 6f db ec 3c f3 a8 1c 3d
       -0.018239696 0.028899956 0.028913228 0.03824706
000320 dd 9a 0a bd 07 6c 67 3c c8 45 53 bc 02 42 1d bb
       -0.033839095 0.014124877 -0.012895055 -0.0023995643
000330 80 a8 16 3c 7e c8 5b bc c6 cb bc bc 41 69 39 3c
       0.009195447 -0.0134145 -0.023046385 0.011316598
000340 42 4d 35 bc 78 4f eb bc cb 00 78 bb 45 d6 38 3b
       -0.011065783 -0.028724417 -0.003784227 0.0028203886
000350 94 ec ae 3b 8d 10 08 3c 9b 14 f1 3a fb e9 d2 3c
       0.005338261 0.008304727 0.0018392982 0.025746336
000360 aa 8a 20 3c 1e 90 b7 ba 8c d0 90 3c b6 6b f5 bc
       0.009798685 -0.0014004742 0.017677568 -0.029958587
000370 17 07 a5 3c 64 6a 02 3c 29 62 52 bc 12 99 fc bb
       0.020144982 0.007959936 -0.012840786 -0.007708677
000380 cd 16 20 bd a3 1d 11 3d be 2e 75 bc 4b e8 a2 3c
       -0.039084245 0.035428654 -0.0149647575 0.019886157
000390 05 24 f0 3c 7b 6c 0c bd 63 6b 1d 3c 17 16 77 3c
       0.02931405 -0.034283143 0.0096081225 0.01508095
0003a0 40 e9 29 bb 8b c7 a0 3c f5 d4 bc 3b 79 a1 ba 3c
       -0.0025926381 0.0196264 0.005762691 0.022782074
0003b0 1f 8e 17 3c f6 01 9a bb 1e c2 9f 3c 92 3d 25 3c
       0.009250193 -0.004699941 0.019501742 0.01008548
0003c0 c0 51 58 bb a7 bb 94 bc b5 3b 6e 3b f7 0c 2e bc
       -0.0033007711 -0.018155886 0.0036351506 -0.010623208
0003d0 3c bf f2 38 13 d7 97 bc 81 d3 0a bd 83 e0 75 3c
       0.000115750794 -0.018535173 -0.033893112 0.015007141
0003e0 60 da d3 bb ca 14 08 3d ee 86 ae 3a 47 e8 48 3c
       -0.0064652413 0.03322295 0.0013315359 0.0122624105
0003f0 c0 7b 0a 3c 4b ba 71 3c 0e 91 82 ba 11 e0 7a 3c
       0.008452356 0.014753888 -0.0009961443 0.015312211

lv_lr_lv_lr_W f4 [45, 1]
000000 cb 09 3d bc 8e 7d e9 3c e9 37 78 3c 93 69 48 3b
       -0.011537979 0.028502252 0.015150049 0.0030580505
000010 1a 19 87 3c 64 a9 8d bd 76 e9 95 bc c7 71 7c 3c
       0.016491462 -0.06917074 -0.0182998 0.015407986
000020 64 8b 6d 3c d7 75 c9 3b b1 7a 16 3c fd 7b 62 3d
       0.014498565 0.006148081 0.009184525 0.055294026
000030 1e ee a6 bc f7 3c 27 3d 74 25 7e bc 61 1e 51 bc
       -0.020377215 0.040829625 -0.015511859 -0.012763591
000040 67 35 4e bd d9 a6 d5 bb f2 95 96 3b 47 21 11 bd
       -0.050343897 -0.006520134 0.0045955116 -0.035432126
000050 be bb 3c 3d 97 c3 10 bd 65 7d d8 3c 1b 70 0b 3d
       0.046077482 -0.03534278 0.02642698 0.03404246
000060 da eb 02 3b d6 3a bb bc 16 a6 04 bd 61 19 a7 bc
       0.0019977004 -0.022855204 -0.032384954 -0.020397844
000070 8b 86 4f 3b c4 13 07 3d 72 7a 83 bc 47 ed 38 bc
       0.0031665887 0.032977834 -0.016049597 -0.01128704
000080 6b 61 ce bb 89 3c 66 bd de 60 ab 3c a4 b8 fd bc
       -0.006298234 -0.056210075 0.020920213 -0.030971833
000090 52 cb 9f bc b1 8f 19 3c 22 4e 46 3c a9 de 1c bd
       -0.01950613 0.009372638 0.012103589 -0.038298283
0000a0 a3 9c 57 3d c0 7d 97 bc 41 44 b1 3c d4 7c 0d bd
       0.052639615 -0.01849258 0.021638991 -0.034542874
0000b0 75 07 14 3d
       0.036139924
