model/checkpoints/lepori2025_mtb/cddd/model_000.onnx (onnx, 201336 bytes, 12 tensors)

lv_onnx::MatMul_4 f4 [512, 65]
000000 00 00 00 00 00 00 00 00 00 00 00 00 00 00 00 00
       0.0 0.0 0.0 0.0
000010 00 00 00 00 00 00 00 00 00 00 00 00 00 00 00 00
       0.0 0.0 0.0 0.0
000020 00 00 00 00 00 00 00 00 00 00 00 00 00 00 00 00
       0.0 0.0 0.0 0.0
000030 00 00 00 00 00 00 00 00 00 00 00 00 00 00 00 00
       0.0 0.0 0.0 0.0
000040 00 00 00 00 00 00 00 00 00 00 00 00 00 00 00 00
       0.0 0.0 0.0 0.0
000050 00 00 00 00 00 00 00 00 00 00 00 00 00 00 00 00
       0.0 0.0 0.0 0.0
000060 00 00 00 00 00 00 00 00 00 00 00 00 00 00 00 00
       0.0 0.0 0.0 0.0
000070 06 0b 17 3f 00 00 00 00 00 00 00 00 00 00 00 00
       0.59001195 0.0 0.0 0.0
000080 00 00 00 00 00 00 00 00 00 00 00 00 00 00 00 00
       0.0 0.0 0.0 0.0
000090 00 00 00 00 00 00 00 00 00 00 00 00 00 00 00 00
       0.0 0.0 0.0 0.0
0000a0 00 00 00 00 00 00 00 00 00 00 00 00 06 0b 17 3f
       0.0 0.0 0.0 0.59001195
0000b0 00 00 00 00 00 00 00 00 00 00 00 00 06 0b 17 3f
       0.0 0.0 0.0 0.59001195
0000c0 00 00 00 00 00 00 00 00 00 00 00 00 00 00 00 00
       0.0 0.0 0.0 0.0
0000d0 00 00 00 00 00 00 00 00 00 00 00 00 00 00 00 00
       0.0 0.0 0.0 0.0
0000e0 00 00 00 00 00 00 00 00 00 00 00 00 00 00 00 00
       0.0 0.0 0.0 0.0
0000f0 00 00 00 00 00 00 00 00 00 00 00 00 00 00 00 00
       0.0 0.0 0.0 0.0
000100 00 00 00 00 00 00 00 00 00 00 00 00 00 00 00 00
       0.0 0.0 0.0 0.0
000110 00 00 00 00 00 00 00 00 00 00 00 00 00 00 00 00
       0.0 0.0 0.0 0.0
000120 00 00 00 00 00 00 00 00 00 00 00 00 00 00 00 00
       0.0 0.0 0.0 0.0
000130 06 0b 17 3f 00 00 00 00 00 00 00 00 00 00 00 00
       0.59001195 0.0 0.0 0.0
000140 00 00 00 00 00 00 00 00 00 00 00 00 00 00 00 00
       0.0 0.0 0.0 0.0
000150 00 00 00 00 00 00 00 00 00 00 00 00 00 00 00 00
       0.0 0.0 0.0 0.0
000160 06 0b 17 bf 00 00 00 00 00 00 00 00 00 00 00 00
       -0.59001195 0.0 0.0 0.0
000170 00 00 00 00 00 00 00 00 00 00 00 00 00 00 00 00
       0.0 0.0 0.0 0.0
000180 00 00 00 00 00 00 00 00 00 00 00 00 00 00 00 00
       0.0 0.0 0.0 0.0
000190 00 00 00 00 00 00 00 00 00 00 00 00 00 00 00 00
       0.0 0.0 0.0 0.0
0001a0 00 00 00 00 00 00 00 00 00 00 00 00 00 00 00 00
       0.0 0.0 0.0 0.0
0001b0 00 00 00 00 00 00 00 00 00 00 00 00 00 00 00 00
       0.0 0.0 0.0 0.0
0001c0 00 00 00 00 00 00 00 00 00 00 00 00 00 00 00 00
       0.0 0.0 0.0 0.0
0001d0 00 00 00 00 00 00 00 00 00 00 00 00 00 00 00 00
       0.0 0.0 0.0 0.0
0001e0 00 00 00 00 00 00 00 00 00 00 00 00 00 00 00 00
       0.0 0.0 0.0 0.0
0001f0 00 00 00 00 00 00 00 00 00 00 00 00 06 0b 17 3f
       0.0 0.0 0.0 0.59001195
000200 00 00 00 00 00 00 00 00 00 00 00 00 00 00 00 00
       0.0 0.0 0.0 0.0
000210 00 00 00 00 00 00 00 00 00 00 00 00 00 00 00 00
       0.0 0.0 0.0 0.0
000220 00 00 00 00 00 00 00 00 00 00 00 00 00 00 00 00
       0.0 0.0 0.0 0.0
000230 00 00 00 00 00 00 00 00 00 00 00 00 00 00 00 00
       0.0 0.0 0.0 0.0
000240 00 00 00 00 00 00 00 00 00 00 00 00 00 00 00 00
       0.0 0.0 0.0 0.0
000250 00 00 00 00 00 00 00 00 00 00 00 00 00 00 00 00
       0.0 0.0 0.0 0.0
000260 00 00 00 00 00 00 00 00 06 0b 17 3f 00 00 00 00
       0.0 0.0 0.59001195 0.0
000270 00 00 00 00 00 00 00 00 00 00 00 00 00 00 00 00
       0.0 0.0 0.0 0.0
000280 00 00 00 00 00 00 00 00 00 00 00 00 00 00 00 00
       0.0 0.0 0.0 0.0
000290 00 00 00 00 00 00 00 00 00 00 00 00 00 00 00 00
       0.0 0.0 0.0 0.0
0002a0 00 00 00 00 00 00 00 00 00 00 00 00 00 00 00 00
       0.0 0.0 0.0 0.0
0002b0 06 0b 17 bf 00 00 00 00 00 00 00 00 00 00 00 00
       -0.59001195 0.0 0.0 0.0
0002c0 00 00 00 00 00 00 00 00 00 00 00 00 00 00 00 00
       0.0 0.0 0.0 0.0
0002d0 00 00 00 00 00 00 00 00 00 00 00 00 00 00 00 00
       0.0 0.0 0.0 0.0
0002e0 00 00 00 00 00 00 00 00 06 0b 17 3f 00 00 00 00
       0.0 0.0 0.59001195 0.0
0002f0 00 00 00 00 00 00 00 00 00 00 00 00 00 00 00 00
       0.0 0.0 0.0 0.0
000300 00 00 00 00 00 00 00 00 06 0b 17 3f 00 00 00 00
       0.0 0.0 0.59001195 0.0
000310 00 00 00 00 00 00 00 00 00 00 00 00 00 00 00 00
       0.0 0.0 0.0 0.0
000320 00 00 00 00 00 00 00 00 00 00 00 00 00 00 00 00
       0.0 0.0 0.0 0.0
000330 00 00 00 00 00 00 00 00 00 00 00 00 00 00 00 00
       0.0 0.0 0.0 0.0
000340 00 00 00 00 00 00 00 00 00 00 00 00 00 00 00 00
       0.0 0.0 0.0 0.0
000350 00 00 00 00 00 00 00 00 00 00 00 00 00 00 00 00
       0.0 0.0 0.0 0.0
000360 00 00 00 00 00 00 00 00 00 00 00 00 00 00 00 00
       0.0 0.0 0.0 0.0
000370 00 00 00 00 00 00 00 00 00 00 00 00 00 00 00 00
       0.0 0.0 0.0 0.0
000380 00 00 00 00 00 00 00 00 00 00 00 00 00 00 00 00
       0.0 0.0 0.0 0.0
000390 00 00 00 00 00 00 00 00 00 00 00 00 00 00 00 00
       0.0 0.0 0.0 0.0
0003a0 00 00 00 00 00 00 00 00 00 00 00 00 00 00 00 00
       0.0 0.0 0.0 0.0
0003b0 00 00 00 00 00 00 00 00 00 00 00 00 00 00 00 00
       0.0 0.0 0.0 0.0
0003c0 00 00 00 00 00 00 00 00 00 00 00 00 00 00 00 00
       0.0 0.0 0.0 0.0
0003d0 00 00 00 00 00 00 00 00 00 00 00 00 00 00 00 00
       0.0 0.0 0.0 0.0
0003e0 00 00 00 00 00 00 00 00 00 00 00 00 00 00 00 00
       0.0 0.0 0.0 0.0
0003f0 00 00 00 00 00 00 00 00 00 00 00 00 00 00 00 00
       0.0 0.0 0.0 0.0

lr_lr_W f4 [512, 1]
000000 af 92 8a bd 5d fb 25 3d cc 14 ac 3d c5 d7 29 bd
       -0.06766259 0.04052292 0.08402404 -0.04146554
000010 c1 83 14 bd 3d 65 ae 3d f5 59 1f bd 3e e9 2f 3c
       -0.036258463 0.085154034 -0.03890415 0.010736762
000020 ae 35 06 3d d9 93 5d bd 65 12 8c bd ba 91 8c bd
       0.032766037 -0.054096077 -0.06839446 -0.06863733
000030 fa 5c a5 3d 01 37 ce bd 17 88 f5 bc 38 f1 86 3d
       0.080743745 -0.10069085 -0.02997212 0.065889776
000040 4f 15 05 bc 53 77 d7 bc bf ce 26 3c f9 98 ef 3d
       -0.008122756 -0.026302015 0.010181128 0.11699099
000050 ef 73 2e 3d ed aa 7a 3d 8c c7 1f 3d 2b c6 96 3d
       0.04259103 0.061198164 0.039008662 0.07362016
000060 74 5a 21 bd 67 0f 08 3e 5f 75 ce 3d a4 3f 1a bb
       -0.039392903 0.13287126 0.100809805 -0.0023536468
000070 9c 52 73 3d f0 3e 23 bd ed db 40 3d 01 5a 45 bc
       0.059404954 -0.039854944 0.047084738 -0.012045384
000080 05 61 aa 3d 73 8e 26 3d 1a 32 ca bd 15 c3 2b 3d
       0.08319286 0.040663194 -0.09872837 0.04193409
000090 72 0c a7 3c 0e ec 5d 3c 22 55 72 3d de 7c 10 bc
       0.020391677 0.013545049 0.05916322 -0.008818833
0000a0 7a 2c e4 3c 26 c2 39 bd 5f f5 ec bc 79 73 a0 bd
       0.02785324 -0.04535117 -0.028925596 -0.07834525
0000b0 80 8c 0a be 68 e5 fe bc 21 36 87 3d 48 f8 2f bd
       -0.13530159 -0.031115249 0.06602121 -0.04296139
0000c0 f9 84 25 3e f8 50 dd bd d7 b4 9b 3c d2 14 89 bd
       0.16164006 -0.10806459 0.01900713 -0.06693424
0000d0 50 fc 84 3c 2a 64 f4 3c 59 47 cb bd 96 ba 8b 3c
       0.016233593 0.029832918 -0.09925718 0.017056745
0000e0 8c 66 11 3c ec dc 88 bc d9 ca 02 3d 5a de 9a 3d
       0.008874547 -0.016706906 0.03193173 0.075619414
0000f0 a1 95 06 3a 8e 25 ef bc 76 d7 4e be 06 f7 90 3d
       0.0005133991 -0.029192712 -0.2019938 0.07078366
000100 b8 c9 39 bd 64 07 ea bd 3a 0b b4 3d 8c 3d e5 bc
       -0.04535839 -0.11427191 0.08791204 -0.02798345
000110 aa b7 08 3d 1e 47 49 3e 05 6d fc bd 94 da c2 bd
       0.03337828 0.19656035 -0.12325481 -0.09514347
000120 e2 3e 70 3c 80 22 c9 bd 5e a5 26 3d 29 b2 cd bc
       0.01466343 -0.098210335 0.04068505 -0.025109367
000130 49 e2 94 bd 95 a2 9f 3d a3 86 12 bd d7 f9 99 3d
       -0.07269723 0.07794682 -0.03577293 0.07518356
000140 31 ce aa bc 76 7d f3 3c 34 b2 1d bc 74 85 b3 3d
       -0.020850273 0.02972291 -0.0096250065 0.087656885
000150 6b 27 68 bd 93 5e 30 bd 42 b0 9a bd f6 44 76 3d
       -0.056678217 -0.043058943 -0.0755315 0.06012436
000160 4f 5b 5c bc 8a 89 e4 bb fd 0d 67 3d 88 b9 c8 bc
       -0.013449504 -0.0069744037 0.056409825 -0.02450253
000170 dd 01 35 be 3a 72 2a 3d ba 64 31 3e d0 43 64 3d
       -0.17676492 0.04161284 0.1732358 0.055728734
000180 7f cf c9 bd 8d a6 e9 3c e9 bb b4 bd c7 c7 f5 bc
       -0.0985403 0.0285218 -0.088249035 -0.030002488
000190 80 0a 4c bd 6f f3 d2 3c 4d 5f 13 bd 44 11 75 3d
       -0.0498147 0.025750844 -0.035979558 0.05983092
0001a0 5c b2 cf bd b4 a2 51 3c 4a ab 6e 3d 67 71 63 3d
       -0.10141441 0.012795139 0.058268823 0.05552807
0001b0 21 a3 01 be 2f ba a5 3d 14 cd be bd 8e d2 bd bc
       -0.12659885 0.08092152 -0.09316459 -0.02317169
0001c0 4d 3e a6 3d d7 82 f8 3d a9 b5 64 bd c7 b7 a9 bd
       0.08117352 0.12134331 -0.055837307 -0.08287006
0001d0 67 8c ac 3c 85 c2 21 be ff ae 94 bc 7f 30 c8 3d
       0.021063043 -0.1579686 -0.01814985 0.09774875
0001e0 a8 eb 8e bd 73 0e 04 3b 31 2e a0 3d 55 6c 9c bc
       -0.069785416 0.0020150214 0.0782131 -0.019094625
0001f0 da 49 de bd 97 02 61 3c dc ef a7 bc e5 7c 4a bd
       -0.1085393 0.013733528 -0.020500116 -0.049435515
000200 63 1a 68 bd 20 63 20 3e 17 d7 2c 3d 16 99 ad 3d
       -0.05666579 0.15662813 0.042197313 0.084764645
000210 c2 6d c2 bd 06 e3 48 bd a7 c9 2f 3c db 4e 4d 3c
       -0.09493591 -0.04904463 0.01072923 0.012531008
000220 1c e3 3a 3d c7 d6 63 3d 37 88 f8 3c 8c 2c 39 be
       0.045626745 0.05562475 0.03033839 -0.180834
000230 4b 9d b2 3b 90 db 9c 3d c0 f8 32 3e 21 d5 d6 3a
       0.0054508797 0.07659066 0.17477703 0.0016390422
000240 a7 84 a7 bc 0d 7b 0d be bf 9f 14 3c 90 89 27 bc
       -0.020448996 -0.13816471 0.00907129 -0.010225669
000250 b8 f8 bf bc 4f af ab 3d 4c 42 d6 bc 20 20 1e 3e
       -0.023434028 0.08383047 -0.02615466 0.15441942
000260 a1 0c ee 3c a7 0b 08 3e 03 7a 5f 3d b9 ab fb 3c
       0.029058756 0.13285695 0.05455972 0.030721532
000270 46 60 69 bd 9b ce 7f 3c d1 58 10 bc 24 75 36 3e
       -0.05697658 0.015613223 -0.008810238 0.17818123
000280 a5 d2 23 bd 02 1e dc 3b b1 1a f9 bc 13 6e e1 bd
       -0.03999581 0.0067174444 -0.030408235 -0.11007323
000290 9b ae 13 3d 4a 44 49 3d 98 d9 4f bd 32 bd 04 bd
       0.03605519 0.04913739 -0.050744623 -0.032406993
0002a0 be c7 d6 bd e7 db e0 bd f8 20 d7 3d 45 30 88 3d
       -0.104873165 -0.10979443 0.10504335 0.06649832
0002b0 e8 23 40 bd 66 e1 26 bc 74 d9 84 3d 0f 18 39 bd
       -0.046909243 -0.010185575 0.064867884 -0.04518896
0002c0 b9 9c ff bc 4a 99 82 3d 9b 1a aa 3c ed fe 17 3d
       -0.03120266 0.06376894 0.02076464 0.03710835
0002d0 4f a0 6f bd 4b 9a ac be d4 04 e6 3d a6 0c 2f b9
       -0.05850249 -0.33711466 0.1123139 -0.00016694012
0002e0 e5 d8 b8 bd 13 88 1a 3d af fb 62 bd 23 ea 5c 3c
       -0.09025744 0.037727427 -0.055415805 0.013483557
0002f0 f0 1c db bd de 37 ef bd 59 2c 27 bc 8a ae c0 3d
       -0.10698879 -0.11680578 -0.010203444 0.09408291
000300 78 f0 7e bd a1 2e c1 3d 5a e9 1e bd 17 a7 d1 bc
       -0.062241048 0.09432722 -0.03879676 -0.02559237
000310 c2 01 98 3d e2 b3 f7 3b ca 84 00 3e 57 64 97 3c
       0.0742221 0.0075592855 0.12550655 0.018480463
000320 40 30 9e bb 23 45 67 3d b4 8f 82 3d fb ae 96 bd
       -0.004827529 0.05646242 0.063750654 -0.073575936
000330 18 30 f0 3c a0 38 b8 bd 47 f7 50 3d 57 5f 97 3c
       0.029319808 -0.08995175 0.051017072 0.018478079
000340 bb 47 25 bd 84 fd 97 bd 8d d9 1e bb fa 21 a2 3d
       -0.04035161 -0.07421401 -0.0024238557 0.07916637
000350 5e 65 47 bc 38 67 97 bd 49 d7 3a bd 62 f2 a9 bd
       -0.012170164 -0.07392734 -0.04561547 -0.08298184
000360 34 6e 89 3d c2 8b db 3c ff 55 80 bb 0f 74 df 3c
       0.06710473 0.02680004 -0.0039165015 0.02727702
000370 b3 6b f0 bd 62 30 c8 3c dc 88 ba bc b5 ef 27 bd
       -0.11739292 0.024437133 -0.022770338 -0.041000087
000380 96 fb a4 3d a3 fe 48 bd 5d bf f4 3c 74 25 85 bd
       0.08055799 -0.049070965 0.029876405 -0.06501284
000390 9f 4d 02 3d ba 1e b3 3d 10 5c 22 bc b5 f5 4e bd
       0.031812306 0.08746095 -0.009909645 -0.050527293
0003a0 30 00 33 3d 0a 29 b2 3d 24 87 6a bd ae b1 7b bc
       0.04370135 0.08699234 -0.057257786 -0.015362186
0003b0 97 a5 7f 3d cf fa a2 3a 80 50 54 3d 3c e8 01 3e
       0.06241378 0.0012434366 0.051834583 0.12686247
0003c0 3d a5 7e bd cd 0a aa bd 54 a2 cb 3d d9 22 06 3d
       -0.062169302 -0.08302841 0.09943071 0.032748077
0003d0 55 f0 a3 3d 73 18 20 3d 9d b9 29 3d 3e d1 f0 bd
       0.08004824 0.039085817 0.04143678 -0.1175866
0003e0 d6 34 7d 3c 99 80 0c 3d 9d f5 b4 bd ca e4 82 3d
       0.015454492 0.034302328 -0.088359095 0.06391294
0003f0 f9 ca 26 3d e3 b7 8a bd 40 fc 69 bd 93 3a 23 3c
       0.040720914 -0.06773355 -0.05712533 0.009962696

svc_W2_svc f4 [512, 1]
000000 7b 77 5f bd 1f a7 26 3d b5 9b 9d 3d dc 01 d8 bc
       -0.054557305 0.040686723 0.076957144 -0.026368074
000010 f3 13 d2 bc b0 a5 90 3d d6 cd 1a bd 80 65 78 3c
       -0.025644278 0.070628524 -0.037793957 0.015160918
000020 f0 22 da 3c 88 ac 2e bd 55 64 4f bd 71 e3 41 bd
       0.026627988 -0.042645007 -0.050632793 -0.047336046
000030 53 9c 85 3d 47 b3 9a bd 66 1c ec bc e3 b8 5f 3d
       0.06523957 -0.07553726 -0.028822135 0.05461968
000040 73 13 fe bb 31 a9 19 bd c1 65 5c 3c ac 64 c5 3d
       -0.0077537834 -0.03751487 0.013451994 0.09638342
000050 37 22 ff 3c 72 44 25 3d f4 07 07 3d af 29 6e 3d
       0.031144245 0.040348478 0.03296657 0.05814522
000060 ac 0a 12 bd f4 50 d5 3d 4b 67 ae 3d ec cf 65 3a
       -0.03565471 0.10415831 0.08515795 0.00087666395
000070 38 fc 3e 3d 73 cd fc bc da 8b ff 3c 5b f7 8c bc
       0.046627253 -0.030859685 0.031194616 -0.017207792
000080 95 ef 81 3d 34 0d 12 3d 45 7d 9d bd 18 89 2c 3d
       0.06344525 0.035657123 -0.07689909 0.04212293
000090 41 5e 91 3c 89 a0 3f 3c cb a1 44 3d 4c 5f 93 bc
       0.01774514 0.011695989 0.04800586 -0.017989777
0000a0 0c 3c 02 3d 32 1d f0 bc 52 d6 c9 bc 73 18 79 bd
       0.031795546 -0.029310796 -0.024638329 -0.060814332
0000b0 0b 65 da bd 02 7f d4 bc b9 80 83 3d 0f 49 11 bd
       -0.10663804 -0.025939468 0.06421036 -0.035470065
0000c0 a7 97 f6 3d 58 80 ae bd 85 57 86 3c af 5a 28 bd
       0.12040644 -0.085205734 0.016399154 -0.041102108
0000d0 f2 c6 27 3c ac 5e b8 3c 04 30 9e bd 5e 01 8a 3c
       0.010240303 0.02250608 -0.07724002 0.016846355
0000e0 c9 b9 07 3c 45 53 5a bc ba 7d fd 3c af 7e 8a 3d
       0.008284041 -0.013325517 0.03094374 0.06762444
0000f0 f8 70 4b bc 85 53 d3 bc fe e8 22 be e7 f8 40 3d
       -0.012417071 -0.025796661 -0.15909192 0.04711237
000100 f1 49 d8 bc fc aa b6 bd 7d 4b 94 3d 6e c2 b9 bc
       -0.026402446 -0.089193314 0.07240961 -0.02267572
000110 98 6c c5 3c ab 1d 2a 3e 51 6d c9 bd 7c 34 89 bd
       0.024099633 0.1661288 -0.098353036 -0.06699464
000120 1c 9c 36 3c 7d 08 97 bd fa b9 04 3d 12 b2 a4 bc
       0.011145618 -0.07374666 0.032403924 -0.020104442
000130 85 53 46 bd e7 0f 87 3d 25 16 ea bc 84 d3 8a 3d
       -0.048419494 0.0659483 -0.028575012 0.06778625
000140 e0 4a 9c bc 47 2f bf 3c dd 63 39 bc 8c 38 99 3d
       -0.019078672 0.023337973 -0.011315313 0.074814886
000150 6e 14 44 bd 83 28 b6 bc e5 46 6b bd bf 78 6c 3d
       -0.047871046 -0.022236114 -0.057440657 0.05773234
000160 5f 9d 6d bc 81 05 34 bc a8 fe 22 3d 8e dd c9 bc
       -0.014502852 -0.01098764 0.03979364 -0.024641778
000170 41 e7 14 be d3 b9 f5 3c 37 a4 22 3e fb ad 57 3d
       -0.14541341 0.029995834 0.15882955 0.052656155
000180 0b ae b0 bd 20 0e c1 3c 03 a6 8f bd 6a 7a ac bc
       -0.08626946 0.023566306 -0.07014086 -0.021054465
000190 f2 9d 16 bd 9a f9 d6 3c 52 28 10 bd 2d e0 4e 3d
       -0.036771722 0.026242066 -0.035194702 0.05050676
0001a0 75 d3 a3 bd 52 97 9e 3b 36 46 3e 3d b9 40 2e 3d
       -0.079993166 0.004839816 0.046453677 0.042542193
0001b0 fa 81 ce bd b8 4c 8b 3d 88 d8 85 bd 20 d0 6a bc
       -0.10083385 0.06801742 -0.06535441 -0.014331847
0001c0 e6 61 70 3d 91 bd c6 3d 18 c5 14 bd a4 11 89 bd
       0.058687113 0.09704126 -0.036320776 -0.06692818
0001d0 75 af d2 3c 5f 3e 08 be 7c 39 8d bc 00 7a a2 3d
       0.02571843 -0.13305043 -0.017239325 0.07933426
0001e0 05 b6 52 bd d5 69 b7 3b d4 a4 4d 3d fb dd bd bc
       -0.05144312 0.005597333 0.05020602 -0.023177138
0001f0 bf 8e bb bd 19 71 45 3c 73 fc 8f bc b3 d7 2c bd
       -0.09158086 0.01205089 -0.017576432 -0.042197894
000200 cb 5c 3d bd 9d 48 fa 3d 0b 5a 13 3d 4b e4 7b 3d
       -0.046231072 0.12220881 0.035974544 0.061497014
000210 1a b1 9b bd d2 5f e8 bc 86 a2 cf 3b bc a9 9d 3b
       -0.07602139 -0.028366003 0.006336513 0.0048114937
000220 a9 7e f8 3c d5 3d 4c 3d 7d ee f6 3c 18 ce 1a be
       0.030333834 0.049863655 0.030143017 -0.15117681
000230 9d 3f 27 3b 95 b5 51 3d ed 64 15 3e 62 1e 22 39
       0.0025520094 0.05119856 0.14589281 0.00015460842
000240 a8 e5 3a bc 4e 9e de bd 20 a8 92 3b 80 58 3a bc
       -0.011407293 -0.10870038 0.0044756085 -0.011373639
000250 06 ec 6d bc 97 1a 99 3d d0 e5 bd bc aa d8 00 3e
       -0.014521604 0.07475775 -0.023180872 0.12582651
000260 ba 7e b1 3c b9 a0 e1 3d 9f db 2b 3d 88 59 13 3d
       0.021666873 0.110169835 0.041957494 0.035974056
000270 6a 96 26 bd e2 84 29 3c 8a 23 b2 bb e5 32 13 3e
       -0.04067079 0.010346623 -0.0054363655 0.14374883
000280 03 38 00 bd b0 a9 0b bb f9 3f 05 bd d3 9f be bd
       -0.031303417 -0.0021310858 -0.032531712 -0.09307828
000290 4a 47 e0 3c 75 92 16 3d ff dc 19 bd 55 5e 5a bc
       0.027377743 0.036760766 -0.037564274 -0.013328155
0002a0 46 18 a5 bd 21 48 c2 bd 12 fd a5 3d 4e 39 44 3d
       -0.080612704 -0.09486414 0.0810491 0.047906213
0002b0 72 fb f3 bc 68 c7 15 bc e0 57 5b 3d 84 e4 46 bd
       -0.029782984 -0.00914178 0.0535506 -0.048557773
0002c0 62 e4 c3 bc ab e4 64 3d e6 7e 23 3c b5 d2 fa 3c
       -0.023912612 0.055882137 0.009978985 0.030618051
0002d0 74 97 1c bd 9f ae 85 be 87 31 ab 3d 37 4c 7e 3b
       -0.038230374 -0.26109788 0.08359056 0.0038802752
0002e0 44 d9 97 bd 9c 6e b0 3c 97 1f 27 bd 33 bd d1 3b
       -0.07414487 0.021537118 -0.04080161 0.006400728
0002f0 54 8f c8 bd f7 57 bc bd 63 d4 b0 bb 26 71 93 3d
       -0.09792963 -0.091964655 -0.005396412 0.07199316
000300 1c 06 39 bd 95 2a 85 3d a0 9b 00 bd 8e aa 8c bc
       -0.045171842 0.065022625 -0.031398416 -0.01717117
000310 39 9c 83 3d 16 34 24 3c 84 16 d3 3d 52 ab 5c 3c
       0.064262815 0.010022184 0.10307029 0.01346858
000320 b6 48 f6 ba 29 b8 35 3d 6e 3f 49 3d f9 ac 72 bd
       -0.001878998 0.044365082 0.049132757 -0.05924699
000330 45 d8 b8 3c 39 37 7b bd e7 18 df 3c 31 83 86 3c
       0.022564063 -0.06133196 0.027233554 0.016419979
000340 0d ed d6 bc ea 26 54 bd e9 7c 65 3a 3b 0b 81 3d
       -0.026236081 -0.051794924 0.000875427 0.0630097
000350 35 95 61 bc d8 95 60 bd 82 29 1a bd 41 09 8b bd
       -0.013768484 -0.054830402 -0.03763724 -0.067888744
000360 ef d3 70 3d 1c 59 a2 3c e6 83 35 bc 7e 88 a7 3c
       0.058795866 0.019817881 -0.01107881 0.020450827
000370 51 bb c7 bd 83 68 88 3c 4d fb a3 bc ff 16 23 bd
       -0.09752525 0.016651398 -0.02001729 -0.039816853
000380 df 57 80 3d 3c 52 34 bd ec b0 b8 3c 0e 09 63 bd
       0.0626676 -0.044023737 0.0225453 -0.055428557
000390 ac c0 b1 3c 6f 6a 9b 3d 59 54 1c bc 84 b5 3c bd
       0.021698318 0.0758866 -0.009541594 -0.046071544
0003a0 a1 6d 10 3d 45 4c 8e 3d f0 80 25 bd d3 48 18 bc
       0.0352608 0.06948141 -0.040406168 -0.009294706
0003b0 de 7a 47 3d a9 ab da 3b 75 94 32 3d 48 13 e2 3d
       0.04870116 0.0066732955 0.04359861 0.11038834
0003c0 78 5d 26 bd ce 5d 82 bd e6 2d 8c 3d 07 71 f6 3c
       -0.040616482 -0.06365548 0.06844692 0.030083193
0003d0 96 63 82 3d a7 eb f2 3c 40 89 e6 3c 7f 47 be bd
       0.06366651 0.029653383 0.028141618 -0.092909805
0003e0 82 2c 6e 3c 3e 13 eb 3c a2 9b 92 bd 8f 28 5a 3d
       0.014536979 0.028695699 -0.07158591 0.053261336
0003f0 4e 04 10 3d cf 9c 33 bd e5 09 2b bd c6 ff c6 3b
       0.035160355 -0.043850716 -0.041757483 0.006072971

fs_lr_fs_lr_W f4 [254, 1]
000000 c2 c2 02 bd e2 ac 94 3d 1d bd 27 3d b3 2b 2e be
       -0.031924017 0.07259537 0.040951837 -0.17008857
000010 90 63 cb 3c 21 fd 91 3c 9d 3a 9f 3d 43 3a 66 3e
       0.024827749 0.017820897 0.077748515 0.22483163
000020 ea 3b 44 3c ed 53 21 3d 46 72 ec ba 23 5d 18 3e
       0.011977175 0.03938668 -0.0018039427 0.14879279
000030 bd f9 9f bb a9 54 a8 3d 60 63 99 bc e5 da 67 3d
       -0.004882066 0.08219273 -0.018724144 0.05660524
000040 51 fd 78 3d cf 95 ed bd 9d 50 3f 3d e8 19 37 bd
       0.060788456 -0.11600839 0.04670774 -0.04470244
000050 78 41 33 be 5e 1e 4d 3e b8 48 ce bd 7b d9 71 bd
       -0.17505443 0.20031115 -0.10072464 -0.059045296
000060 37 aa ae bd bf e0 27 bd 52 83 93 be e3 42 8d bd
       -0.0852856 -0.04098582 -0.28811127 -0.06897523
000070 38 f6 38 bb 06 26 20 3d 37 ee b6 3d 58 5f d1 bc
       -0.002822293 0.039098762 0.089321546 -0.025558159
000080 7e 6e a6 be a5 1e a6 3d 67 a5 cf bd c5 28 cc bd
       -0.32506174 0.08111314 -0.1013897 -0.09968714
000090 f1 df fd 3d 8d c3 b8 3e 17 c0 23 be f1 e0 e6 bc
       0.12396229 0.36086693 -0.15991245 -0.028183432
0000a0 3a f8 20 be 5d 56 4f 3c 17 21 43 bd f9 6f 04 be
       -0.15719691 0.012654868 -0.04763898 -0.12933339
0000b0 e9 f5 c1 bd 80 b7 ff bd 85 9e ab 3c a3 c8 87 be
       -0.09470732 -0.12486172 0.020949611 -0.2652026
0000c0 8f 77 39 3e ac 03 59 3d 61 f6 f5 bd 73 ad 87 bd
       0.18112014 0.052982017 -0.12009884 -0.0662488
0000d0 92 3e 79 bd 8d f1 14 3c f5 3d 02 be 33 ab 5c bc
       -0.060850687 0.009090793 -0.12718947 -0.013468551
0000e0 1f 92 61 be 72 8d 14 3e d5 86 e6 3d a2 84 bd 3d
       -0.22028397 0.14507082 0.11256186 0.09253813
0000f0 76 19 70 be f7 fc 13 3e f0 ee 19 3d e2 06 d0 3d
       -0.23447213 0.14451967 0.037581384 0.10157563
000100 27 5a 12 be 81 6f b5 3e c7 17 23 be ac a2 b1 bd
       -0.14292203 0.35436633 -0.15927039 -0.08673605
000110 79 75 e8 bc 42 f1 92 be af 19 14 3d 01 ac 5b 3d
       -0.028376328 -0.2869969 0.036157306 0.053630833
000120 45 bd e9 3c 9a 87 8c 3c f2 bc e5 3d 7a bd 51 3e
       0.028532634 0.017154504 0.11217679 0.20482436
000130 c5 61 e6 3b 09 04 51 3e 7a fd 79 3d 76 57 93 bd
       0.007030698 0.20411696 0.06103275 -0.07194416
000140 ef cd 64 bd e0 c0 45 3e bb c5 54 be 06 6f 03 3d
       -0.055860456 0.19311857 -0.20778553 0.032088302
000150 ba 3e e6 bd 36 88 6f bd 6e fa e3 bd 84 ff 30 3e
       -0.11242433 -0.05847951 -0.1113175 0.17284971
000160 d9 78 b4 3d 48 44 5b bc 3e 6f 08 bf 41 59 31 3e
       0.08812112 -0.013382979 -0.5329474 0.17319204
000170 a3 3c 88 be 2f cb 51 3d ad ab 9d bc ec 63 5c be
       -0.26608762 0.05121916 -0.0192469 -0.21522492
000180 03 98 ff bd 0c f6 a3 3e 1d dc 75 bd 1c f6 1a 3e
       -0.12480166 0.32023656 -0.06002437 0.15132946
000190 75 f9 16 bd b0 59 1b be d4 c2 f7 3b f5 f7 bb bd
       -0.036858995 -0.15170932 0.007561067 -0.091781534
0001a0 a6 9f 8c 3c 59 5e 2f be c9 97 14 be 77 0f 2d 3d
       0.01716597 -0.17125835 -0.14511026 0.042251077
0001b0 12 57 0c 3c f7 cb d4 3d de 2e 1d be e9 8c bc 3b
       0.008565681 0.10390466 -0.1534991 0.0057541025
0001c0 88 8c f4 bd 3d b4 49 be a1 74 ac 3d 20 2c 1c 3d
       -0.11940867 -0.19697662 0.08420683 0.03812802
0001d0 95 da 00 be 60 53 73 3d 32 42 c5 3d 60 c1 a5 bc
       -0.12583382 0.059405684 0.096317664 -0.02023381
0001e0 04 74 34 bc 94 9a 8f bc f9 3f e1 3d 60 4e 28 3e
       -0.011013988 -0.017529763 0.1099853 0.16436148
0001f0 97 c0 26 be 28 a7 1a 3d ac e3 79 bd 96 ea 50 be
       -0.16284405 0.03775707 -0.06100814 -0.20401987
000200 fb 3e bb bc 69 ec a3 3c fb 74 05 3e 98 e4 5c 3d
       -0.02285718 0.02001019 0.13032906 0.05392894
000210 7a 66 2a be dd 48 c2 bd cc bb 97 bc fd b8 59 be
       -0.16640654 -0.09486554 -0.018522166 -0.21261974
000220 82 bc 94 3e 04 df 03 3e c5 02 51 bd 78 61 1c 3e
       0.2905007 0.12878042 -0.05102803 0.15271556
000230 cc 2c 92 3d 51 3d 4e bd 14 a3 69 bc 60 17 ff bd
       0.071374506 -0.050351445 -0.014260072 -0.1245563
000240 09 1c 19 be d1 9b 92 bc bf ea e9 3a 6a 9e 66 bd
       -0.14952101 -0.017896565 0.0017846449 -0.05630342
000250 34 86 5f 3e 94 07 3e 3e a0 f5 a9 bd 12 54 1b bd
       0.21828538 0.18557578 -0.082988024 -0.037921973
000260 c2 ac b0 3d bb ad b3 be ec 9b 3b bd 7a c2 d6 bd
       0.08626701 -0.35093483 -0.045802996 -0.10486312
000270 76 ee 44 3d 33 45 1f 3e 44 d5 76 3e c9 33 03 3e
       0.048078977 0.15553741 0.24104792 0.12812723
000280 20 bb 98 be e5 f1 12 3d ac ca e6 bc 7d 6f 48 3d
       -0.29830265 0.03587522 -0.028172813 0.04893445
000290 ad 2a 9a 3c f4 6e 4c bc 07 f5 0f be ea 3b 68 bd
       0.018819178 -0.012477625 -0.14058314 -0.056697764
0002a0 bf 67 52 3e 66 3b 0b bc a4 bc b3 bc 6a ec f7 bd
       0.20547388 -0.008498048 -0.021940537 -0.12105639
0002b0 a4 22 4a 3d 33 ea 31 bd c5 98 2e bd 62 d2 9a bc
       0.049349442 -0.04343624 -0.04262616 -0.018899146
0002c0 be 42 9e 3c d8 a5 88 bd 91 a2 dd 3c 66 de 4e bd
       0.019318935 -0.06672257 0.027055057 -0.050505064
0002d0 77 9a 41 3d 4c f6 0a 3e 7e 7f ef 3c 00 0d 7e 3d
       0.04726645 0.13570517 0.029235598 0.062024117
0002e0 76 39 f7 bd 6d 2c db bd 3b 7d 8a bd ed b3 16 3e
       -0.12071507 -0.10701833 -0.06762167 0.14717074
0002f0 00 e2 88 3c 39 42 8b bc 0d 0a 24 3e 93 a2 01 3b
       0.016709328 -0.01699935 0.16019459 0.001978074
000300 f4 66 3a 3d 2e 0c 53 be 20 8c 03 bd d3 49 25 3a
       0.04550834 -0.20610115 -0.032116055 0.0006305251
000310 af 02 37 3d 54 4e b6 bd 0d e4 57 be 8e 37 e5 3d
       0.044680294 -0.08901659 -0.21083088 0.11192237
000320 3f 26 a9 bd 41 a5 e6 3b 3e 20 44 3d 59 a0 d0 bb
       -0.08259248 0.007038743 0.04788231 -0.006366771
000330 ee 24 d6 bd 83 11 aa bc bb 48 f9 3d 2c d1 82 bd
       -0.104562625 -0.020760303 0.12172075 -0.063875526
000340 b4 c8 a4 bd f7 19 40 3d 58 53 84 be 52 10 38 3d
       -0.080460936 0.046899762 -0.25844836 0.04493744
000350 52 65 0a bc 70 8b 44 3d 24 5c 31 bd 42 c0 e3 3d
       -0.008447008 0.04798454 -0.043300763 0.11120655
000360 31 67 44 bd 2a a9 c6 3d 5d 24 c3 3d 09 5f 08 be
       -0.047949973 0.09700234 0.0952842 -0.13317503
000370 94 76 0f ba f6 07 3a 3d 68 9d 30 bd 33 35 0d 3b
       -0.00054726866 0.04541775 -0.043118864 0.0021546602
000380 22 22 9b bd aa 70 a7 3d fc 45 2b bd ea 41 ba 3d
       -0.0757487 0.08175786 -0.04181479 0.09094603
000390 66 f1 d4 3d eb 89 3f be 55 e0 12 bc c4 f0 01 3e
       0.103976056 -0.18704955 -0.008964618 0.12689501
0003a0 5f 17 48 be ba dd 9b 3d ce 3e 3c 3b 81 ac c3 3d
       -0.19540165 0.0761065 0.0028723958 0.09554387
0003b0 06 9f 83 3d a9 25 46 bb 0f b8 02 bd 39 bb 8d bd
       0.06426816 -0.003023485 -0.031913813 -0.069204755
0003c0 a0 bd 1e 3d b3 50 c4 3d a4 60 2f 3d 95 b3 be 3d
       0.03875506 0.09585705 0.042816773 0.09311596
0003d0 81 63 07 be 9b c8 f5 3d 61 2a ad b6 27 26 c1 3d
       -0.13221551 0.12001153 -5.1607353e-06 0.09431105
0003e0 40 31 86 3c 13 f2 0c bd 16 f5 b2 3d a0 c2 bd bd
       0.016380906 -0.034410547 0.08738153 -0.092656374
0003f0 88 22 22 bd 5f 2e 57 3d
       -0.039583713 0.052534457

fs_svc_W2_fs_svc f4 [254, 1]
000000 5b a6 1a bd c5 cf 0d be 37 20 ed 3d d2 f0 42 be
       -0.037756305 -0.13848789 0.1157841 -0.19037178
000010 54 81 95 3d d7 bc 23 3d 92 c5 6a 3d 43 21 76 3e
       0.07300058 0.039975014 0.057317324 0.24036126
000020 64 d5 a0 3d cd 6e 97 bc 0a 73 87 3d c5 78 d5 3d
       0.07853201 -0.018485451 0.06613739 0.104234256
000030 3f 19 41 bc 74 7c 77 3d 68 99 33 bd 3f 5b 29 3d
       -0.011785804 0.060421422 -0.04384747 0.041346785
000040 76 d9 5b 3d f1 43 e9 bc f6 0c 64 3d 12 ec bf bc
       0.053674184 -0.02847478 0.055676423 -0.023427997
000050 48 4a 86 be 49 43 32 3e 3c 4a 54 be 08 ff 81 bd
       -0.26228547 0.1740848 -0.20731443 -0.063474715
000060 9b c3 5a bd 66 02 ac bd 90 3d ac be 4a 86 ce bd
       -0.0534092 -0.08398895 -0.33640718 -0.10084207
000070 1a f4 e2 3c 45 bc 41 3d 87 2b 6b 3d 3f ed 12 be
       0.027704287 0.04729869 0.057414558 -0.14348315
000080 f8 b4 ad be f8 c7 2a 3d 30 32 f2 bd 55 a4 0a be
       -0.3392713 0.04169461 -0.11825979 -0.1353925
000090 ae e8 f2 3d cf 66 9c 3e e9 31 32 be a4 73 19 bd
       0.118607864 0.30547187 -0.17401852 -0.0374638
0000a0 9b 0c ad bd 10 3b fc bb ec df 31 bd 1b 2d 66 be
       -0.0844967 -0.0076974705 -0.04342644 -0.22478144
0000b0 78 37 79 bd 23 ee 6d be a7 45 73 3d 9e 6a 7e be
       -0.060843915 -0.23235373 0.059392598 -0.24845359
0000c0 84 f3 e8 3d 69 06 d2 3c ec 6a de bd 61 58 89 bc
       0.11374572 0.025637822 -0.108602375 -0.016765775
0000d0 f0 b2 2b bd 3a e4 fc 3b 2c ad 0d be e9 c8 8d 3d
       -0.041918695 0.0077176364 -0.13835591 0.06923086
0000e0 e8 7e d9 bd f6 6a 21 3e f3 56 cf 3d df 8f 19 3c
       -0.106199086 0.15763459 0.10124006 0.00937268
0000f0 eb 6c 4d be 08 38 16 3e da 75 47 ba ea 3d 12 3e
       -0.2006108 0.14669812 -0.0007608809 0.14281431
000100 b3 15 dd bd 91 75 9d 3e 06 ac 1f be f6 89 af bd
       -0.107951544 0.3075376 -0.15592965 -0.08571236
000110 d3 84 dc bd a9 e0 88 be 27 19 58 3d 41 9f a9 3c
       -0.10767522 -0.26733902 0.052758362 0.020705821
000120 5b 01 24 3d 77 05 b9 3d 4f e0 f2 3d 1c 3f 2f 3e
       0.040040355 0.090342455 0.1185919 0.17113918
000130 cf ad 35 bd 41 f0 59 3e ca 16 f6 3d eb ab 78 bd
       -0.04435521 0.21283056 0.120160654 -0.06071083
000140 c3 e6 32 bd 8c 58 5f 3e b0 d6 77 be bd 38 11 3c
       -0.043677103 0.21811122 -0.2420299 0.008863625
000150 f4 85 32 be 8c 3a 3e bd 8c 77 c4 bd 36 2b 1c 3e
       -0.17433912 -0.046442553 -0.09593114 0.15250859
000160 b0 c0 58 3d b3 52 a5 3b ef cd 09 bf 6c 1c 39 3e
       0.052918136 0.005045259 -0.53829855 0.18077248
000170 cc 73 df be 93 92 82 bc 3e 61 57 3b de 88 0a be
       -0.43643034 -0.015939033 0.0032864357 -0.13528773
000180 ae be f5 bd 8c 0c f1 3e d3 b6 21 be 47 b1 2d 3e
       -0.1199926 0.47079885 -0.15792398 0.16962157
000190 df 71 b8 bd 5b 37 3b be f0 2b c2 3d 66 92 1d be
       -0.09006094 -0.18282835 0.09481037 -0.15387878
0001a0 80 5f 2a 3d e0 1c 50 be 8f 97 05 be 38 7e f6 bc
       0.041594982 -0.20323515 -0.13046096 -0.030089483
0001b0 32 51 95 3c ac 11 eb 3d 53 1b 02 be ec 4a 8e bc
       0.018227194 0.1147798 -0.12705736 -0.01736971
0001c0 70 99 b6 bd 3a 96 59 be 04 27 f0 3d e5 c9 9a 3d
       -0.08915985 -0.21248713 0.11726192 0.075580396
0001d0 e9 5a 00 be b6 17 fa bb 52 db 88 3d 88 97 3c bd
       -0.1253468 -0.007632221 0.06682457 -0.04604295
0001e0 36 72 a4 3d ff 73 11 bd 4e 12 b3 3d 32 71 18 3e
       0.080295965 -0.035511013 0.08743726 0.1488693
0001f0 78 37 3e be 3f 2e 38 3d 12 1a 88 bd eb f1 45 be
       -0.18575847 0.04496598 -0.066455975 -0.19330566
000200 2f af ab bd 30 ec 69 3d fa f4 40 3e 2d 49 b5 3d
       -0.08383023 0.05711001 0.18843451 0.08851848
000210 85 6f 22 be 71 1c 17 be e8 5a 41 bd c9 41 6b be
       -0.15862854 -0.14756943 -0.047205836 -0.22974314
000220 ec 4e 95 3e 26 0c e3 3d 05 3c b1 bd cd e7 4c 3e
       0.29161775 0.110863015 -0.08654026 0.200103
000230 f4 83 3b 3d fd 3a 60 bc f3 bf 81 3a 11 20 2c be
       0.045780137 -0.013685939 0.0009899124 -0.16809107
000240 69 88 fa bd b5 6a df bd bd 7c ed 3c 5f 17 cc bc
       -0.122330494 -0.109090246 0.028990144 -0.024913488
000250 2b 7d 5a 3e 26 d0 3a 3e 9f d4 bd bd 63 7e 60 bd
       0.2133681 0.18243465 -0.0926907 -0.05480803
000260 24 bc 33 3d e2 05 f4 be 21 ab 06 be 6f b3 48 be
       0.043880597 -0.47660738 -0.13151218 -0.19599698
000270 91 27 cf 3d bc de 10 3e ba 12 d1 3e 7f 34 c3 3d
       0.101149686 0.14147466 0.408346 0.09531497
000280 00 34 a7 be e9 64 a6 3d e9 6b 77 bd 5c 17 1e 3c
       -0.3265686 0.08124716 -0.060405646 0.009649124
000290 81 4d 9c 3d 6f 23 7a 3d f9 11 30 be 4d 2d f6 bd
       0.0763197 0.06106895 -0.17194356 -0.12020359
0002a0 4b 19 3c 3e 8d 4f 9b bd fc 08 d1 3c 85 a0 5d be
       0.18369024 -0.075835325 0.02551698 -0.21643265
0002b0 fb 6f ec bc 0a d7 46 bc 65 75 f3 bc bf d2 48 3d
       -0.02886199 -0.01213623 -0.029719064 0.049029108
0002c0 9b d8 48 3c 38 ad 6e bd c9 53 ba 3d f2 b8 59 bd
       0.012258674 -0.058270663 0.09098012 -0.053154893
0002d0 55 58 1e 3d b8 ac 14 3e 19 1f ba 3d 27 84 08 3d
       0.03865846 0.14519012 0.09087963 0.033329155
0002e0 83 bd eb bd 50 2f d8 bd 81 70 c2 bd 9b dc e7 3d
       -0.11510756 -0.10555899 -0.09494115 0.11321374
0002f0 db 5b ea 3b 58 20 9f 3d 40 27 e9 3d db 3a c7 3c
       0.0071520633 0.07769841 0.113844395 0.024320057
000300 78 00 2b 3d 8e 0f 11 be e4 8d 56 bd 0a 8b b1 3d
       0.041748494 -0.1416609 -0.05238141 0.08669098
000310 c3 8a ca 3d f5 e0 db bd a1 fe 5b be 9d 68 0b 3e
       0.09889748 -0.107362665 -0.21483852 0.13614126
000320 a6 6d b1 bd 8a 2d 92 3d 5c 28 15 bc 36 29 b0 bc
       -0.08663492 0.07137592 -0.009103861 -0.021504026
000330 8a a9 3f be 2b 4d 28 bd f3 e8 00 3e ee c6 df bc
       -0.18717018 -0.041089218 0.12588863 -0.027316537
000340 13 a4 8d bd c4 51 5b bb c1 f8 41 be cf f3 c8 3d
       -0.0691606 -0.0033465484 -0.18942548 0.09812128
000350 1f 99 d2 bd 44 24 01 3d 83 96 d6 bd bc 26 f1 3c
       -0.10283112 0.031528726 -0.104779266 0.029437415
000360 fd a6 1b bd 91 97 d4 3d 4c eb e5 3c 9a a5 59 be
       -0.03800105 0.103804715 0.0280663 -0.21254578
000370 37 0c 61 bc 4f 45 d7 3d 2d 3e 46 bd f1 91 68 3d
       -0.013735822 0.105112664 -0.04839914 0.056779806
000380 36 6d b2 bd 2a 0c 08 3e 22 53 2d 3c e4 5b e1 3d
       -0.087122366 0.1328589 0.010578902 0.11003855
000390 d5 9e 1d 3e 82 59 3f be 82 d7 32 3d ac 84 2b 3e
       0.15392621 -0.18686488 0.043662556 0.16749829
0003a0 1b 41 56 be 8e dd 92 3d 84 5b 83 bd ad c6 d7 3d
       -0.20923273 0.071711645 -0.064139396 0.10535941
0003b0 d4 f0 22 3e 52 34 0b bc c5 27 3d be e3 a3 09 be
       0.15912181 -0.008496361 -0.18472202 -0.13441424
0003c0 b7 ae 1d 3e a4 a8 7e 3d 73 99 13 bc e8 56 c5 3c
       0.1539868 0.062172547 -0.009008753 0.024089292
0003d0 da c9 26 be 8d 30 e6 3d d1 e9 4c bc b8 8d 95 3d
       -0.16287938 0.11239729 -0.012506918 0.07302421
0003e0 c3 97 91 3d 4c 9b b5 3b ea c5 8d 3d ea 0d bc bd
       0.071090244 0.0055421945 0.06922515 -0.091823414
0003f0 fd 3d 43 3d 5c 4f 7a 3d
       0.04766654 0.06111084

mfs_lr_mfs_lr_W f4 [61, 1]
000000 8a 41 90 3e b8 b1 5f 3e 26 b2 63 3e d4 95 73 be
       0.28175002 0.21845138 0.22235927 -0.23787624
000010 8c fd b4 3d d8 6f ec ba 9e 97 c5 3e d3 a1 8d be
       0.08837423 -0.0018038703 0.38592237 -0.27662525
000020 31 5f b8 be 95 ad ed bd 6b cf 0a bf 77 96 73 3d
       -0.36010125 -0.11605374 -0.54222745 0.059469666
000030 fb 1c 05 bd 54 97 ea bd 23 49 11 3e a0 15 fa 3d
       -0.03249834 -0.11454645 0.14188056 0.12211156
000040 33 6a 6c bd a4 80 04 be 05 36 71 3e 01 ad ca be
       -0.057718467 -0.12939698 0.23555763 -0.39585117
000050 2a da ab 3e b0 7b 05 3f c5 a7 90 be 61 e9 dc 3e
       0.33564883 0.5214186 -0.28252998 0.43146804
000060 e4 d8 a1 3d d2 24 87 bf 96 5d 8d 3e 20 f9 c0 bd
       0.07902697 -1.0558112 0.27610463 -0.09422517
000070 85 6e 6b 3e 46 29 a0 3b 1f 22 47 be 2c a6 0e 3e
       0.22991379 0.0048877327 -0.1944661 0.13930577
000080 fa e5 22 3e d0 c0 8b be 63 57 ee be 1a 35 64 be
       0.15908042 -0.27295542 -0.46551046 -0.22285882
000090 95 36 73 3e 44 60 cc be ca 8d 5b be 7f ba 94 3e
       0.2375129 -0.39917195 -0.21440807 0.29048535
0000a0 35 e6 f2 bd 5a d6 20 bc 39 42 27 be 41 29 79 be
       -0.11860315 -0.00981673 -0.16333856 -0.24332143
0000b0 8b f3 ff 3d 81 f5 af be 6c 66 fb 3d 28 4f 99 bd
       0.12497624 -0.34366992 0.12275395 -0.07485801
0000c0 47 65 6e bb 6b ab 0a bf 0d 03 48 3e a8 1c 64 3e
       -0.0036376284 -0.54167813 0.19532414 0.22276556
0000d0 80 81 16 3d 71 5d f5 be c5 e9 b9 3e 31 6f 18 3e
       0.036744595 -0.47922853 0.36311164 0.14886166
0000e0 a3 b0 8c 3c 7c 31 dc 3d 37 98 ad 3d 2d 7b fa 3c
       0.01717407 0.10751626 0.08476298 0.030576313
0000f0 55 ea 1b be
       -0.1522611

mfs_svc_W2_mfs_svc f4 [61, 1]
000000 cd ac 29 3e c1 25 3f 3e b3 c5 3d 3e 15 b0 47 be
       0.16569825 0.18666746 0.18532448 -0.19500764
000010 2a 4b 34 3d 65 0d f7 3c aa 9b 99 3e d3 d6 89 be
       0.044016995 0.030157754 0.30001575 -0.2692171
000020 f0 68 92 be 51 ce ca bd 88 14 fa be b6 5c 0b 3e
       -0.28595686 -0.09902633 -0.4884379 0.13609585
000030 e2 1f 04 bd 4b fa c2 bd d5 c8 fe 3d 80 85 da 3d
       -0.03225697 -0.09520396 0.124406494 0.10669994
000040 b2 4d 24 3d 07 0f 2c be 93 b3 3a 3e f6 30 a3 be
       0.04011316 -0.16802607 0.18232565 -0.31873292
000050 a2 87 91 3e da 9a 03 3f aa ed ac be 2b cc b3 3e
       0.28423792 0.5140816 -0.33775073 0.35116705
000060 2f b9 14 3d 5f c5 6d bf 46 5f 62 3e cb b8 04 be
       0.036309417 -0.9287929 0.22106656 -0.12961118
000070 f5 34 23 3e eb cf 88 3c d1 2a 2d be 76 49 9e 3d
       0.1593817 0.016700706 -0.16910864 0.07728855
000080 01 07 3c 3e c6 be 81 be d0 2b 16 bf 7f 31 4b be
       0.18362047 -0.2534086 -0.586606 -0.198431
000090 50 9c 90 3e 72 22 b1 be 13 45 50 be 5a 53 8a 3e
       0.28244257 -0.34596592 -0.2033885 0.27016717
0000a0 73 6a 66 bd 19 ec ea bc dc bb 47 be 08 73 98 be
       -0.05625386 -0.028677033 -0.19505256 -0.29775262
0000b0 da 97 f4 3d bc 73 98 be a7 cb 2f 3d 73 ec a5 bc
       0.11943026 -0.29775798 0.042918827 -0.02025435
0000c0 97 7d 3c 3b b3 2c dd be 1f 5a 68 3e 65 4d 5f 3e
       0.002876138 -0.43198165 0.22690628 0.21806867
0000d0 4f eb 53 3e 2b 11 cb be 50 72 14 3f 24 7c e1 3d
       0.20695232 -0.39661536 0.5798693 0.11010006
0000e0 de bc 4a bd c1 8e b1 3d b5 b2 89 3d 23 15 12 3d
       -0.049496524 0.08669806 0.06723539 0.03566469
0000f0 8e fd d5 bd
       -0.10448752

lv_lr_lv_lr_W f4 [65, 1]
000000 2d 97 17 bc 17 3f 5e 3b 9d 96 c6 bc 04 27 5b 3d
       -0.009252352 0.0033912116 -0.02424174 0.053504005
000010 61 7f 0c bd c9 b3 8e bd 9f f3 11 bc a6 0c 6b 3e
       -0.034301165 -0.06967885 -0.008908181 0.22954044
000020 af d8 ef 3d de aa 14 be d0 2c 3c bd 7f fc 94 bc
       0.11711251 -0.14518306 -0.045941174 -0.018186806
000030 71 13 cb bd 92 78 c4 bb 0f be 33 be 45 9d 5a 3c
       -0.099158175 -0.0059958184 -0.1755297 0.01334316
000040 02 8a b1 3d e2 6b b5 bd f5 1e c9 bd c0 d3 81 bd
       0.08668901 -0.08858468 -0.09820358 -0.06339216
000050 81 43 a3 bb bf 15 dc 3c 69 b3 08 3b 85 bc 57 bc
       -0.0049824123 0.026865838 0.002085889 -0.013167505
000060 e9 fd cb 3d 12 9d cd 3d 00 c8 97 3c 99 72 2c bd
       0.09960539 0.100397244 0.018527985 -0.042101476
000070 63 6e 45 bc 44 81 d2 bd 2d e9 43 bc 66 f8 70 bd
       -0.012050244 -0.10278562 -0.011957449 -0.05883064
000080 b7 4d 0f bd 07 a4 ff 3c 3c 87 04 3e e0 38 5f bc
       -0.034986224 0.031206144 0.12942213 -0.0136244
000090 93 09 1d bd cc 4a 08 bd 63 70 4f bc f3 3b 02 be
       -0.03833921 -0.033274457 -0.012661072 -0.12718181
0000a0 01 e4 96 3e 4f 75 5e 3d a8 d1 2f be 30 6d 32 3e
       0.29470828 0.054311093 -0.17169821 0.17424464
0000b0 56 11 6d 3e 3f 73 2e 3e 7c 2e f0 bd e2 bf 51 3d
       0.23151144 0.1703615 -0.11727616 0.051208384
0000c0 9b 83 44 bc dd 0d 88 3d 25 9c e7 bc de e7 12 3c
       -0.011994268 0.06643269 -0.028272698 0.008966414
0000d0 d8 54 02 3e f7 7e 3d be 2b 76 3f 3e d3 53 b4 3c
       0.12727678 -0.18505464 0.18697421 0.022012627
0000e0 79 74 69 3c 7d f2 39 bc b9 ad 88 3d cd ef 33 bd
       0.014248961 -0.011349318 0.0667376 -0.043929864
0000f0 1c 78 36 be 2e 26 b4 bc a6 46 ba 3d 52 e0 87 3c
       -0.17819256 -0.021990862 0.09095506 0.016586456
000100 20 94 41 be
       -0.18904161

lv_svc_W2_lv_svc f4 [65, 1]
000000 62 42 47 bb 0b b4 4c bb 50 20 97 bc b4 bf 2e 3d
       -0.0030404557 -0.0031235244 -0.018448025 0.04266329
000010 43 5d ba bc c3 e1 15 bd 8d 14 9c bb 1c d3 0c 3e
       -0.022749549 -0.036592256 -0.004763192 0.13752407
000020 98 3e 9f 3d 53 f0 aa bd b4 34 16 bd 98 0e 1f bc
       0.07775611 -0.083466195 -0.036671355 -0.009708069
000030 2a 38 89 bd bf 8c 64 3b 35 8b e8 bd c4 c3 a8 3b
       -0.067001656 0.003487393 -0.11354677 0.00515029
000040 f7 b9 73 3d 88 28 78 bd b2 2b 7b bd ab f9 28 bd
       0.05950352 -0.06058553 -0.061320968 -0.041253727
000050 04 ef e5 ba 95 3b 80 3b 3e b3 b6 3b 36 dd 5a bc
       -0.0017542546 0.0039133527 0.0055755666 -0.013358405
000060 32 c2 87 3d ea 19 8c 3d 0a e1 94 b9 c4 19 e7 bc
       0.06628837 0.0684088 -0.00028396427 -0.028210528
000070 de 72 3c 3b 45 38 86 bd 81 bc 6e bc 66 cc 40 bd
       0.002875499 -0.06553701 -0.01457131 -0.04706993
000080 2f b1 04 bd d2 aa 8b 3c ff 37 b1 3d 2e 4e 88 bc
       -0.032395538 0.017049227 0.086532585 -0.016638841
000090 57 f5 18 bd 7c 26 7f bc 6a d3 51 ba 58 f9 c7 bd
       -0.03734335 -0.01557314 -0.00080042204 -0.097643554
0000a0 a6 54 3b 3e 63 22 14 3d 09 e3 00 be d0 c7 e0 3d
       0.1829401 0.036165606 -0.12586607 0.10975611
0000b0 40 c2 11 3e 8b c3 c5 3d ce 71 94 bd 22 a2 25 3d
       0.14234257 0.096564375 -0.07248269 0.040437825
0000c0 5d 29 56 bc 06 dd 31 3d 77 bf 50 bc 4e e6 03 3b
       -0.013071385 0.043423675 -0.012740961 0.0020126286
0000d0 9e ff af 3d d2 b2 bb bd dc 8a 02 3e a3 34 8c 3c
       0.08593677 -0.09164967 0.12748283 0.017114943
0000e0 29 29 b4 3c 83 38 76 bc 58 7f 41 3d ab ae 8b bc
       0.021992283 -0.015028122 0.047240585 -0.017051062
0000f0 c7 50 d7 bd 3d 36 70 bc b5 2f 8e 3d 7d 98 23 3c
       -0.10513454 -0.014661369 0.06942693 0.0099850865
000100 26 42 fc bd
       -0.12317304

lv_mlp_net.0.weight f4 [32, 65]
000000 38 27 90 bd 40 89 84 bd 8a 31 04 3e 10 ff 2b 3e
       -0.070387304 -0.06471491 0.12909523 0.16796517
000010 b1 70 25 be 76 fa a2 3d 48 4f 0e be 77 87 5a 3e
       -0.1615627 0.07957928 -0.13897431 0.21340738
000020 b8 6a cc bd dc fb 18 bd f2 09 4d 3a c7 49 67 bd
       -0.099812925 -0.037349567 0.00078216114 -0.056466844
000030 17 50 b6 3d 6a 0f d3 bc b5 ca 9d 3c e2 74 c0 bd
       0.08901995 -0.025764186 0.019261697 -0.093972936
000040 42 c1 6b 3c ae 4f 5f bc a3 e4 23 bc 5e cd 29 bd
       0.014389338 -0.013629837 -0.010003242 -0.04145562
000050 13 5c 4d 3e c7 60 dd bb 12 31 3c be db fe 73 bc
       0.20054655 -0.0067559215 -0.18378094 -0.014892305
000060 e4 9b e3 bc 60 07 dd bd 4d 36 1e 3c a5 68 22 3d
       -0.027784295 -0.10792422 0.009656501 0.039650578
000070 55 42 9a 3d e8 b3 c9 3d 5e 53 ab 3c 1b e1 28 bd
       0.07532183 0.098487675 0.020913776 -0.041230302
000080 7d f2 8e bc d6 4d b9 bc 23 cf 7d 3d 0d b8 d7 bb
       -0.017449612 -0.022620123 0.06196512 -0.00658322
000090 d8 42 a9 bd 60 c8 ba 3c b3 88 1f bd 2d df 09 3d
       -0.082647026 0.022800624 -0.038948726 0.033660103
0000a0 ee f3 cf 3c 72 a0 56 bd 09 ef 68 be ed 60 31 3e
       0.02538487 -0.052399106 -0.22747435 0.1732213
0000b0 32 78 fb 3d 75 84 36 bd 50 65 90 bd c0 d4 8e 3d
       0.12278785 -0.044559915 -0.07050574 0.069741726
0000c0 91 80 da 3c a1 1e 30 be 66 d9 85 3d 44 10 30 3e
       0.026672633 -0.17199184 0.06535606 0.17193705
0000d0 73 84 eb bd bb 6b 13 be 74 fe 93 3c 73 0b b1 bd
       -0.11499872 -0.14396565 0.018065669 -0.08644762
0000e0 98 d0 14 3d 91 b2 46 3d 56 7a 56 3e b7 31 21 3c
       0.036331743 0.048510138 0.20945105 0.009838513
0000f0 ca b0 5f 3d 72 59 80 bd 1c b1 c5 3d 58 d8 30 bd
       0.05461196 -0.0626706 0.096529216 -0.04317507
000100 9e 0c eb bc d1 f1 44 bd b1 e9 01 3e a6 a9 17 3e
       -0.02869254 -0.048082177 0.12686802 0.1481081
000110 70 4e 91 3d 78 2c fd 3d 17 8b 0c bd 2b c2 5c 3c
       0.07095039 0.12361997 -0.034312334 0.013474028
000120 bf 6f fd 3d fc f3 11 3e fc ea c8 bd 5d 59 60 be
       0.123748295 0.14253229 -0.09810445 -0.2190909
000130 47 c6 f4 3d f3 f8 e1 3d b3 fa 0d be bc d3 7d bd
       0.11951881 0.110338114 -0.13865165 -0.061969504
000140 57 fe b7 bd 20 e2 e0 bc 8f 5b 17 be 75 71 dc 3d
       -0.08984058 -0.027451575 -0.1478102 0.10763828
000150 11 f1 99 bd 78 a1 06 3e 4e f4 a5 bd 16 9f 4e 3b
       -0.07516683 0.13147533 -0.08103238 0.0031527928
000160 95 c6 cd 3c ca 75 f2 3d 78 f5 f3 3b ad b2 d6 3d
       0.025119105 0.11838873 0.0074450336 0.104832985
000170 eb ad 25 be 31 41 3e 3e 04 dd 11 be ef b4 de 3d
       -0.16179626 0.18579556 -0.14244467 0.10874354
000180 47 8d 6a bc 5d 0d ac 3d c2 ee ad bd bb 8a 81 3d
       -0.01431591 0.08400986 -0.08492805 0.06325289
000190 71 36 85 bd 43 e0 07 bd 8d 59 29 bd ae 7e bb bb
       -0.065045245 -0.033172857 -0.041345168 -0.0057218885
0001a0 dd 2e a4 bd 65 00 70 3e dc ae cd bd 18 f7 52 be
       -0.08016751 0.2343765 -0.100431174 -0.20602071
0001b0 6a af bf 3d 19 fb 15 3e 87 6c 21 3c 2a 37 85 3d
       0.093596295 0.14646567 0.009852535 0.06504662
0001c0 ab c4 96 3c 6e af 98 bd 04 44 c6 bc 00 ff 05 bc
       0.018404325 -0.074553356 -0.024202354 -0.0081784725
0001d0 3e aa 86 3d 62 5f 3f bd 1d 84 0d bc 7a ee c2 3d
       0.0657544 -0.046721824 -0.008637455 0.09518142
0001e0 22 ae 48 3d f9 b7 d1 3c c9 98 04 3e 3a 6f 07 3e
       0.04899419 0.02560042 0.12948908 0.13226023
0001f0 a9 7b e6 bd 35 cb d4 3d cc c2 a1 bd e1 c3 34 bd
       -0.11254055 0.10390321 -0.07898483 -0.044132117
000200 33 b7 63 3d 9b 0e 98 bc 45 ec 9c bd c8 e2 59 bd
       0.055594634 -0.018561652 -0.07662252 -0.05319479
000210 fa e2 cc bc 99 e9 66 3d 3e 06 04 ba b1 ae 6b 3d
       -0.025010575 0.05637512 -0.00050363305 0.057539646
000220 cf 18 b0 bd 33 5a 15 be c3 f1 ee bd bf a0 ec bd
       -0.08598482 -0.1458519 -0.11667206 -0.115540974
000230 63 a0 26 be f1 98 ff 3c 96 12 f2 3d 90 5a 40 bd
       -0.1627212 0.031200858 0.11819951 -0.046961367
000240 b4 00 d4 bc c8 be 69 bd bc 66 c1 bd 08 56 5b 3d
       -0.025879242 -0.05706671 -0.09443423 0.053548843
000250 a7 eb 6e bd d3 86 06 3e 1e 25 5c 3a e9 65 b1 3d
       -0.058330204 0.13137369 0.0008397865 0.08662016
000260 ee 32 fc bd 17 b8 a4 3d 73 00 5c bd 0b 93 0d be
       -0.123144016 0.08042925 -0.053711366 -0.13825624
000270 00 af e2 3c 57 c3 32 be 35 cd 84 bc fe a6 2c 3e
       0.027671337 -0.17457329 -0.016211132 0.16860577
000280 ad 5b 77 3d cd ae 84 bd 09 26 4b bd 4a 62 3b bd
       0.060390163 -0.06478653 -0.04959682 -0.045748033
000290 83 43 2c bd b3 33 3c bd 8f 22 0f 3d 73 47 31 bc
       -0.04205657 -0.04594774 0.034945067 -0.0108202575
0002a0 47 37 eb 3d 57 24 3e 3e 6d 15 e3 bd c4 d3 70 3e
       0.11485153 0.1856855 -0.11088071 0.23518282
0002b0 bd 88 72 3d 4a 0e ad 3c e3 5e 93 bd 37 7d 36 be
       0.059212435 0.021124978 -0.071958326 -0.17821203
0002c0 22 98 67 bd e3 83 8e bd 95 04 46 3d 3d 79 03 3d
       -0.05654157 -0.06958749 0.048344214 0.032098044
0002d0 fd d7 fc 3d 5f 7f 9f 3d 2b a4 6b be c1 2d 06 3c
       0.12345884 0.07787966 -0.23011844 0.0081896195
0002e0 f2 de e3 bd c9 b2 fd ba 25 9a a7 3c f2 b9 f9 bc
       -0.11126508 -0.001935565 0.020459244 -0.030484173
0002f0 e3 bf 74 3d b8 22 3c be e1 5e ce 3c 3d e7 3a 3b
       0.05975331 -0.18372619 0.025191726 0.0028519176
000300 03 48 35 be ce 34 0f 3e 99 25 f7 3d 9e d5 7c 3d
       -0.17703252 0.13984987 0.12067718 0.06172716
000310 22 4f c3 3d 58 7e ea 3d b6 8b 59 3d f1 72 87 3d
       0.09536578 0.114498794 0.053111754 0.0661372
000320 e8 fd a7 bd 86 a1 a1 3d 58 81 06 3d a3 54 7b bc
       -0.08202726 0.07892136 0.032838196 -0.015340003
000330 c4 8f fe 3d 52 4c 72 bd 22 83 b7 3a 6f 4f 54 bd
       0.12429765 -0.059154816 0.0014000873 -0.051833566
000340 2c 67 55 3b 49 4a 03 3e 77 bf 21 3c 95 17 2c 3e
       0.0032562716 0.12821306 0.009872309 0.16805871
000350 99 44 0d be f9 85 1f be 62 00 2c 3c a1 e6 12 bd
       -0.13795699 -0.1557845 0.010498138 -0.035864476
000360 e6 71 8b 3c a5 b0 a8 bd 94 b4 c6 3d 04 0b 7e be
       0.017022084 -0.08236817 0.09702411 -0.2480889
000370 70 b1 1e 3d 76 de 1d be 94 1c 13 be 7a ad 24 3e
       0.038743436 -0.15416893 -0.1436637 0.16081801
000380 ce f2 c3 bd ba ee 8e 3d e6 9a 1e be 93 1e 1a 3d
       -0.09567796 0.06979127 -0.15488777 0.037626814
000390 64 23 33 3d 3e 67 4d 3c f6 49 11 bd 30 7a 18 3e
       0.043734923 0.012536822 -0.035470925 0.14890361
0003a0 bf a0 e5 3d 67 17 47 bd 88 50 f7 bb 2d f5 7e bd
       0.112123005 -0.048606303 -0.007547442 -0.062245537
0003b0 85 1d 15 be e5 17 43 3e 5d 41 4b 3d 95 2a b3 bd
       -0.14562042 0.19052084 0.049622882 -0.08748356
0003c0 d5 70 a5 3c b0 6e 7a 3d a5 8e 91 bc df 42 88 3d
       0.020195404 0.061140716 -0.017768214 0.0665338
0003d0 aa 88 69 be 26 74 42 3e d2 71 5d bc 24 0b 09 3e
       -0.2280604 0.1898962 -0.013515906 0.13383156
0003e0 49 2c 59 3e e1 68 7c bd 59 4b a8 bd 52 ec 7b 3d
       0.212083 -0.061623458 -0.082174964 0.06150467
0003f0 ca 6e 0a 3d 93 9c a4 bc 09 18 b0 3d 67 41 f2 3d
       0.033797063 -0.020094192 0.08598334 0.11828881

lv_mlp_net.0.bias f4 [32]
000000 ca f3 9b bd d6 03 6c bd a4 33 50 be d9 cc 5e be
       -0.076148584 -0.057620846 -0.203322 -0.2175783
000010 17 79 30 be 55 75 99 bd 21 bb 00 be 45 37 07 be
       -0.17233692 -0.074930824 -0.12571384 -0.13204677
000020 f8 48 ec bb ef 28 ec bd 1c d5 93 be c7 21 02 3e
       -0.007210847 -0.11531245 -0.28873527 0.12708198
000030 37 be 05 be ee 56 cc bd 6c 17 7a be 43 6f a6 bd
       -0.13060842 -0.09977518 -0.24422997 -0.0812669
000040 90 49 a9 be b5 61 0d 3c 38 94 3b 3d 4d b2 70 bd
       -0.33063936 0.008629252 0.04579565 -0.05876379
000050 f9 7b 43 be 10 db 10 be 62 35 a2 bd 92 35 28 be
       -0.1909026 -0.14146066 -0.07920338 -0.16426685
000060 4a d6 21 be 35 3c f5 3c 86 c1 0f 3b f5 98 f9 bd
       -0.15804401 0.029935936 0.0021935417 -0.12187377
000070 62 6b 9c 3c a8 9a 89 be 08 0b 35 bd 12 cd 40 ba
       0.019094173 -0.26875806 -0.044199973 -0.00073547766

lv_mlp_net.3.weight f4 [1, 32]
000000 63 4a 75 3e ee 91 35 3e 98 98 04 be 43 7c 79 be
       0.23954158 0.17731449 -0.12948835 -0.24363808
000010 9d ef 16 3e ed d2 28 3e 53 59 71 be a1 3c 8b 3e
       0.14739843 0.16486712 -0.2356923 0.27194694
000020 49 66 29 be 79 2a 8b 3e 97 ad 4e 3e 28 a0 41 3e
       -0.16542925 0.27180842 0.20183407 0.18908751
000030 3d ed 38 be bf 30 56 be fe d1 2f be e8 79 28 be
       -0.18059249 -0.20917033 -0.1716995 -0.16452754
000040 c7 2c 5d 3e ef 97 30 3e b5 31 f9 3d 0d 08 4e be
       0.21599112 0.17245458 0.12167684 -0.20120259
000050 98 69 78 3e 7e ff 63 be 01 2b 41 be e7 2c 1d be
       0.24259031 -0.22265431 -0.18864061 -0.1534916
000060 77 68 6a be bb 10 69 be ec 6d 6d 3e 41 60 20 be
       -0.22891413 -0.22760288 0.23186463 -0.15661718
000070 4f da 3d be 3d 14 7c be e2 f1 71 3e c2 67 1d be
       -0.1854031 -0.24617095 0.23627427 -0.15371612
