model/checkpoints/radchenko2023/cddd/model_000.onnx (onnx, 347720 bytes, 12 tensors)

lv_onnx::MatMul_4 f4 [512, 119]
0.0 0.0 0.0 0.0 0.0 0.0 0.0 0.0
0.0 0.0 0.0 0.0 0.0 0.0 0.0 0.0
0.0 0.0 0.0 0.0 0.0 0.0 0.0 0.0
0.0 0.0 0.0 0.0 -0.43605775 0.0 0.0 0.0
0.0 0.0 0.0 0.0 0.0 0.0 0.0 0.0
0.0 0.0 0.0 0.43605775 0.0 0.0 0.0 0.43605775
0.0 0.0 0.0 0.0 0.0 0.0 0.0 0.0
0.0 0.0 0.0 0.0 0.0 0.0 0.0 0.0
0.0 0.0 0.0 0.0 0.0 0.0 -0.43605775 0.0
0.0 0.0 0.0 0.0 0.0 0.43605775 0.0 0.0
0.0 0.0 0.0 0.0 0.0 0.0 0.0 0.0
0.0 0.0 0.0 0.0 0.0 0.0 0.0 0.0
0.0 0.0 0.0 0.0 0.0 0.0 0.0 0.0
0.0 0.0 0.0 0.0 0.0 0.0 0.0 0.0
0.0 0.0 0.0 0.0 0.0 0.0 0.43605775 0.0
0.0 0.0 0.0 0.0 0.0 0.0 0.0 0.0
0.0 0.0 -0.43605775 0.0 0.0 0.0 0.0 0.0
0.0 0.0 0.0 0.0 0.0 0.0 0.43605775 0.0
0.0 0.0 0.0 0.0 0.0 0.0 0.0 0.0
0.0 0.0 0.0 0.0 0.0 0.0 0.0 0.0
0.0 0.0 0.0 0.0 0.0 0.0 0.0 0.0
0.0 0.0 0.0 0.0 0.0 0.0 0.0 0.0
0.0 0.0 0.0 0.0 0.0 0.43605775 0.0 0.0
0.0 0.0 0.0 0.0 0.0 0.0 0.0 0.0
0.0 0.0 0.0 0.0 0.0 0.0 0.0 0.0
0.0 0.0 0.0 0.0 0.0 0.0 0.0 0.0
0.0 0.0 0.0 0.0 0.0 0.0 0.0 0.0
0.0 0.0 0.0 0.0 -0.43605775 0.0 0.0 0.0
0.0 0.0 0.0 0.0 0.0 0.0 0.0 0.0
0.0 0.0 0.0 0.0 0.0 0.0 0.0 0.0
0.0 0.0 0.0 0.0 0.0 0.0 0.0 0.0
0.0 0.0 0.0 0.0 0.0 0.0 0.0 0.0
00000000: 0000 0000 0000 0000 0000 0000 0000 0000
00000010: 0000 0000 0000 0000 0000 0000 0000 0000
00000020: 0000 0000 0000 0000 0000 0000 0000 0000
00000030: 0000 0000 0000 0000 0000 0000 0000 0000
00000040: 0000 0000 0000 0000 0000 0000 0000 0000
00000050: 0000 0000 0000 0000 0000 0000 0000 0000
00000060: 0000 0000 0000 0000 0000 0000 0000 0000
00000070: f642 dfbe 0000 0000 0000 0000 0000 0000
00000080: 0000 0000 0000 0000 0000 0000 0000 0000
00000090: 0000 0000 0000 0000 0000 0000 0000 0000
000000a0: 0000 0000 0000 0000 0000 0000 f642 df3e
000000b0: 0000 0000 0000 0000 0000 0000 f642 df3e
000000c0: 0000 0000 0000 0000 0000 0000 0000 0000
000000d0: 0000 0000 0000 0000 0000 0000 0000 0000
000000e0: 0000 0000 0000 0000 0000 0000 0000 0000
000000f0: 0000 0000 0000 0000 0000 0000 0000 0000
00000100: 0000 0000 0000 0000 0000 0000 0000 0000
00000110: 0000 0000 0000 0000 f642 dfbe 0000 0000
00000120: 0000 0000 0000 0000 0000 0000 0000 0000
00000130: 0000 0000 f642 df3e 0000 0000 0000 0000
00000140: 0000 0000 0000 0000 0000 0000 0000 0000
00000150: 0000 0000 0000 0000 0000 0000 0000 0000
00000160: 0000 0000 0000 0000 0000 0000 0000 0000
00000170: 0000 0000 0000 0000 0000 0000 0000 0000
00000180: 0000 0000 0000 0000 0000 0000 0000 0000
00000190: 0000 0000 0000 0000 0000 0000 0000 0000
000001a0: 0000 0000 0000 0000 0000 0000 0000 0000
000001b0: 0000 0000 0000 0000 0000 0000 0000 0000
000001c0: 0000 0000 0000 0000 0000 0000 0000 0000
000001d0: 0000 0000 0000 0000 f642 df3e 0000 0000
000001e0: 0000 0000 0000 0000 0000 0000 0000 0000
000001f0: 0000 0000 0000 0000 0000 0000 0000 0000
00000200: 0000 0000 0000 0000 f642 dfbe 0000 0000
00000210: 0000 0000 0000 0000 0000 0000 0000 0000
00000220: 0000 0000 0000 0000 0000 0000 0000 0000
00000230: 0000 0000 0000 0000 f642 df3e 0000 0000
00000240: 0000 0000 0000 0000 0000 0000 0000 0000
00000250: 0000 0000 0000 0000 0000 0000 0000 0000
00000260: 0000 0000 0000 0000 0000 0000 0000 0000
00000270: 0000 0000 0000 0000 0000 0000 0000 0000
00000280: 0000 0000 0000 0000 0000 0000 0000 0000
00000290: 0000 0000 0000 0000 0000 0000 0000 0000
000002a0: 0000 0000 0000 0000 0000 0000 0000 0000
000002b0: 0000 0000 0000 0000 0000 0000 0000 0000
000002c0: 0000 0000 0000 0000 0000 0000 0000 0000
000002d0: 0000 0000 f642 df3e 0000 0000 0000 0000
000002e0: 0000 0000 0000 0000 0000 0000 0000 0000
000002f0: 0000 0000 0000 0000 0000 0000 0000 0000
00000300: 0000 0000 0000 0000 0000 0000 0000 0000
00000310: 0000 0000 0000 0000 0000 0000 0000 0000
00000320: 0000 0000 0000 0000 0000 0000 0000 0000
00000330: 0000 0000 0000 0000 0000 0000 0000 0000
00000340: 0000 0000 0000 0000 0000 0000 0000 0000
00000350: 0000 0000 0000 0000 0000 0000 0000 0000
00000360: 0000 0000 0000 0000 0000 0000 0000 0000
00000370: f642 dfbe 0000 0000 0000 0000 0000 0000
00000380: 0000 0000 0000 0000 0000 0000 0000 0000
00000390: 0000 0000 0000 0000 0000 0000 0000 0000
000003a0: 0000 0000 0000 0000 0000 0000 0000 0000
000003b0: 0000 0000 0000 0000 0000 0000 0000 0000
000003c0: 0000 0000 0000 0000 0000 0000 0000 0000
000003d0: 0000 0000 0000 0000 0000 0000 0000 0000
000003e0: 0000 0000 0000 0000 0000 0000 0000 0000
000003f0: 0000 0000 0000 0000 0000 0000 0000 0000

lr_lr_W f4 [512, 1]
0.04641985 0.021295331 0.055942297 0.022496615 0.01047932 -0.0032373394 0.06195055 0.09156576
-0.06782374 0.024041465 0.015105579 -0.027341053 0.035799723 0.021389792 0.0278099 0.018813336
0.035236176 -0.023027938 0.07548522 -0.01946287 0.046453692 0.003916966 -0.055017002 -0.007632265
0.16030777 0.043509115 0.13621515 0.020420028 -0.03746432 -0.07412505 0.03319503 -0.044477955
-0.009344952 -0.038941596 0.085669726 -0.00589841 -0.012919533 0.12904565 0.034831714 0.033131592
-0.0946753 0.040417064 0.04565567 0.0022798562 -0.054482758 0.053142905 -0.045574266 0.02071022
-0.014646328 -0.07295794 0.13955045 -0.03983395 0.062783785 -0.06016233 0.0114253145 0.08652523
0.033974428 -0.041126374 -0.021969099 0.023121117 -0.005625476 -0.038792387 -0.10105313 -0.00048160963
-0.09786707 0.05661648 -0.02831726 0.011110651 0.034415513 0.08358962 -0.02559504 -0.09625565
0.049833313 -0.08209169 0.04149043 -0.029859375 0.051992826 -0.01013804 -0.02130539 0.0038249583
0.0020421396 0.019990116 -0.005864205 0.0102203265 -0.033564206 -0.13149486 0.010990568 0.030339494
-0.022105247 0.07336179 -0.011541031 -0.061309535 -0.04693063 -0.05927973 -0.008261682 -0.08175388
0.02282316 0.06635546 0.06151512 -0.13907364 -0.053493846 -0.03452937 0.034204822 -0.035430443
-0.075507425 -0.007721962 -0.0070903874 0.03840679 0.10045716 0.07598799 0.015721602 -0.091140725
0.0049875085 0.039639704 -0.09156969 0.06947182 0.0052243727 0.001756276 -0.08532714 0.07649707
-0.025053985 -0.028788282 0.03716009 -0.047666613 -0.0017597217 -0.052227776 0.044264853 -0.045219474
0.0067131463 -0.046766862 0.0671003 0.00095995294 0.06613168 0.029567318 -0.06780753 -0.012620465
0.067794666 -0.02249419 0.012369054 0.0037863064 0.04800336 0.08219785 -0.07346794 -0.03513647
-0.109926455 -0.024826698 -0.004446621 -0.009011405 -0.011736595 0.07191313 0.016361136 -0.05725765
-0.03604194 -0.065250285 0.022185998 -0.03544463 0.08994366 -0.013174314 0.016833859 0.052078575
0.10543015 -0.08301614 0.006907093 0.069624335 -0.0594101 0.02869183 -0.027875485 -0.031832837
0.09108216 0.08906468 -0.09920054 0.05246679 -0.04986793 0.064607814 0.028645515 0.034197878
-0.0109956935 -0.041486394 0.05855875 0.01559919 -0.08289742 0.15831521 -0.040225677 0.14143935
-0.054831136 -0.036755968 -0.027229937 -0.059576385 0.007898218 0.01596961 -0.00813703 -0.004799358
-0.020369833 -0.05231877 0.013813358 -0.003430297 0.09764097 -0.038932685 -0.00797971 0.05752545
0.03568047 0.008372192 -0.02527933 -0.059368223 -0.05708834 -0.057451934 0.043238774 -0.008906142
-0.069868416 0.08147482 0.049639456 -0.019354416 -0.030209012 -0.06317632 -0.0532066 -0.009335243
0.031431887 -0.061120648 0.07526075 -0.04613882 -0.08294357 0.06644077 0.08031586 0.022342358
-0.11634269 0.013513376 -0.09410076 0.046660703 0.079920076 0.053858187 -0.089048184 -0.0021842439
-0.011632915 0.013431585 -0.0246597 -0.0016244694 -0.033814877 -0.037535008 -0.040611044 0.029542768
-0.17647666 -0.10493838 -0.036105074 0.044831097 0.07561419 -0.078332916 -0.024678435 -0.0074576754
-0.023097742 0.02021722 -0.015017559 0.06276429 -0.018692812 -0.05943271 -0.043245938 -0.06423055
00000000: be22 3e3d 8c73 ae3c c023 653d d24a b83c
00000010: 74b1 2b3c 8b29 54bb dcbf 7d3d d486 bb3d
00000020: 2ce7 8abd 9bf2 c43c 647d 773c 58fa dfbc
00000030: bba2 123d a539 af3c 96d1 e33c 6d1e 9a3c
00000040: cf53 103d 16a5 bcbc ff97 9a3d 9970 9fbc
00000050: 3a46 3e3d e459 803b 8259 61bd 1418 fabb
00000060: b827 243e 9d36 323d fc7b 0b3e e747 a73c
00000070: 3074 19bd e0ce 97bd 83f7 073d 842e 36bd
00000080: 921b 19bc 3981 1fbd 9c73 af3d 7347 c1bb
00000090: 73ac 53bc 8b24 043e b3ab 0e3d feb4 073d
000000a0: 20e5 c1bd 5d8c 253d 7101 3b3d a469 153b
000000b0: 5029 5fbd 60ac 593d 15ac 3abd 7ba8 a93c
000000c0: 27f7 6fbc f96a 95bd 50e6 0e3e ed28 23bd
000000d0: c994 803d c66c 76bd 3e31 3b3c 2434 b13d
000000e0: c528 0b3d 2174 28bd 8af8 b3bc 7f68 bd3c
000000f0: ea55 b8bb c4e4 1ebd f2f4 cebd 8d80 fcb9
00000100: 886e c8bd afe6 673d 99f9 e7bc 7309 363c
00000110: 48f7 0c3d 0931 ab3d b0ac d1bc af21 c5bd
00000120: 041e 4c3d b01f a8bd def1 293d a69b f4bc
00000130: 6ef6 543d 061a 26bc a488 aebc 27ac 7a3b
00000140: 6bd5 053b 50c2 a33c 8428 c0bb 2873 273c
00000150: 9f7a 09bd 97a6 06be c911 343c 888a f83c
00000160: 1016 b5bc b53e 963d 9816 3dbc b51f 7bbd
00000170: 553a 40bd 4dcf 72bd 015c 07bc 946e a7bd
00000180: a3f7 ba3c 5fe5 873d 47f7 7b3d 5269 0ebe
00000190: 5d1c 5bbd ab6e 0dbd 5b1a 0c3d 831f 11bd
000001a0: a3a3 9abd 8308 fdbb 7b56 e8bb 7050 1d3d
000001b0: 7cbc cd3d 979f 9b3d 97ca 803c fda7 babd
000001c0: 416e a33b 3e5d 223d e488 bbbd 3e47 8e3d
000001d0: 3731 ab3b d832 e63a ffbf aebd 7faa 9c3d
000001e0: 043e cdbc 67d5 ebbc 2e35 183d 113e 43bd
000001f0: 76a6 e6ba cbec 55bd 104f 353d 0e38 39bd
00000200: f4f9 db3b 9c8e 3fbd e26b 893d 5aa5 7b3a
00000210: 0c70 873d 2937 f23c adde 8abd 11c6 4ebc
00000220: eed7 8a3d bc45 b8bc 93a7 4a3c ae23 783b
00000230: 2c9f 443d 5957 a83d 5c76 96bd 42eb 0fbd
00000240: 1f21 e1bd 5c61 cbbc f6b4 91bb 92a4 13bc
00000250: d94a 40bc 3147 933d ca07 863c ff86 6abd
00000260: b7a0 13bd f1a1 85bd 69bf b53c 632e 11bd
00000270: 6234 b83d 14d9 57bc 29e7 893c 5850 553d
00000280: c3eb d73d 5e04 aabd e554 e23b 3497 8e3d
00000290: 0158 73bd 210b eb3c 215b e4bc 2663 02bd
000002a0: 4989 ba3d 8b67 b63d a729 cbbd 6be7 563d
000002b0: 5142 4cbd 1a51 843d 00aa ea3c 1313 0c3d
000002c0: 4827 34bc a3ed 29bd 4ddb 6f3d bf93 7f3c
000002d0: 1fc6 a9bd 621d 223e aec3 24bd 7ad5 103e
000002e0: 9d96 60bd 6d8d 16bd 5111 dfbc 5e06 74bd
000002f0: 8767 013c b3d2 823c 2d51 05bc ef43 9dbb
00000300: a3de a6bc 354c 56bd 6c51 623c d5ce 60bb
00000310: fdf7 c73d e177 1fbd 54bd 02bc ce9f 6b3d
00000320: af25 123d 852b 093c 9916 cfbc 182c 73bd
00000330: 77d5 69bd b852 6bbd 241b 313d 11eb 11bc
00000340: 2c17 8fbd 45dc a63d be52 4b3d 278d 9ebc
00000350: e478 f7bc 9662 81bd 2aef 59bd d9f2 18bc
00000360: b9be 003d a559 7abd 4f22 9a3d 0ffc 3cbd
00000370: 52de a9bd 1912 883d a47c a43d 5207 b73c
00000380: 1445 eebd 3567 5d3c e6b7 c0bd 4b1f 3f3d
00000390: 23ad a33d 679a 5c3d e55e b6bd 8825 0fbb
000003a0: fb97 3ebc 2710 5c3c 2403 cabc 26ec d4ba
000003b0: 7881 0abd 4fbe 19bd c457 26bd ad03 f23c
000003c0: 4cb6 34be efe9 d6bd eae2 13bd d0a0 373d
000003d0: 9ddb 9a3d 026d a0bd 6e2a cabc 845f f4bb
000003e0: 7a37 bdbc 959e a53c 350c 76bc 908a 803d
000003f0: ab21 99bc b76f 73bd a722 31bd 4e8b 83bd

svc_W2_svc f4 [512, 1]
0.059188105 0.019105026 0.045998115 0.009459749 -0.01254942 -0.0035329054 0.031026255 0.06293662
-0.041205965 0.0062807053 0.02115872 -0.015163581 0.028915882 0.0015032935 0.03039243 -0.0027045805
0.02149695 -0.010499478 0.041403484 -0.0070926803 0.027477203 0.007735121 -0.03882147 -0.004476027
0.081688516 0.024729965 0.07712769 -0.010277717 -0.023445077 -0.0609176 0.017893191 -0.037513927
-0.015903605 -0.027300272 0.055819266 -0.009478938 -0.0034143256 0.07564209 0.010003207 0.024567623
-0.049220037 0.02566289 0.039526615 0.011663057 -0.032000516 0.047362246 -0.03480684 0.018007856
0.027369535 -0.05252199 0.08773592 -0.01227821 0.04386801 -0.0262992 0.010445186 0.049695533
0.026168551 -0.024276389 -0.005245617 0.007785555 -0.0062800627 -0.02126642 -0.0504171 0.011422735
-0.06288926 0.03739615 -0.015001362 0.017759742 0.026749881 0.046513055 -0.009861289 -0.065618776
0.038439263 -0.06458422 0.024207138 -0.031761404 0.04301874 -0.0006382796 0.0003502957 -0.0035610604
0.017733036 0.022151671 -0.013329262 -0.0011333692 -0.003519454 -0.0790445 -0.0001286135 0.024450393
-0.037026342 0.052045904 -0.015036792 -0.03252916 -0.015308894 -0.027816324 -0.0167179 -0.04645569
0.022645019 0.03921454 0.047495995 -0.087514944 -0.0103255585 -0.008948211 0.017018188 -0.012583864
-0.05176476 -0.002058151 -0.011904578 0.040328845 0.052430075 0.0648897 0.011277254 -0.06256275
-0.0007954212 0.029913785 -0.053507376 0.039562788 0.0051860176 0.0005935663 -0.057622537 0.020447256
-0.005437099 -0.0030098313 0.022082027 -0.04014362 -0.017660009 -0.040444076 0.053065393 -0.04815198
-0.0049748593 -0.03400806 0.052706234 0.011830128 0.045902442 0.017967528 -0.029330535 -0.029440017
0.048437692 -0.02571838 0.017142901 0.010764168 0.03424723 0.06056992 -0.056327432 -0.01992452
-0.051845916 -0.0037599872 -0.0052498067 0.007213783 -0.012300156 0.04125045 0.0016847836 -0.026635267
-0.02488611 -0.03256573 0.013402878 -0.027540848 0.079108156 -0.012611044 -0.0006183594 0.040544514
0.07386719 -0.055922646 0.0060658753 0.04902177 -0.021848664 0.029956978 -0.009780868 -0.027624404
0.051066987 0.060118485 -0.03592407 0.025345618 -0.041785058 0.047453105 0.023231782 0.04634396
-0.015492376 -0.032032344 0.03846882 0.010932287 -0.060401823 0.10895971 -0.015843475 0.08886437
-0.02836989 -0.030269576 -0.020417644 -0.036387585 0.002876332 0.0052634557 -0.013803508 -0.012765965
-0.027067833 -0.04239337 0.0001546726 -0.012113665 0.047434125 -0.02192179 0.019250246 0.030417252
0.028791033 0.014560345 -0.024056125 -0.026590033 -0.02439791 -0.03989356 0.023600852 -0.0063914587
-0.0626555 0.060126558 0.0205179 -0.011789077 -0.030681424 -0.030245505 -0.026022883 -0.009525948
0.02257164 -0.03859875 0.02429795 -0.02333866 -0.02965684 0.037537504 0.047338754 0.022646956
-0.108001254 0.0035175253 -0.048105847 0.034964174 0.05180759 0.041808877 -0.07285879 -0.0053236457
-0.017290315 0.022186415 -0.0047069117 0.0010482882 -0.023276936 -0.027150534 -0.03496293 0.021125905
-0.10783229 -0.06385793 -0.02094502 0.024112886 0.0465685 -0.04534666 -0.017054416 -0.012483293
0.0023098865 0.010078329 -0.0012851371 0.048343506 -0.0077117295 -0.028176006 -0.022219973 -0.028887512
00000000: 3a6f 723d 2582 9c3c 8568 3c3d 10fd 1a3c
00000010: 159c 4dbc 5188 67bb c62a fe3c eae4 803d
00000020: 96c7 28bd 60ce cd3b 0d55 ad3c ab70 78bc
00000030: 00e1 ec3c 290a c53a 8cf9 f83c 553f 31bb
00000040: 5f1a b03c 0106 2cbc b396 293d b769 e8bb
00000050: df17 e13c e676 fd3b 4303 1fbd a3ab 92bb
00000060: 4f4c a73d 7f96 ca3c 1ff5 9d3d df63 28bc
00000070: e40f c0bc bc84 79bd be94 923c 34a8 19bd
00000080: 4748 82bc d2a4 dfbc bea2 643d 8c4d 1bbc
00000090: e1c2 5fbb 3dea 9a3d 7ee4 233c 0a42 c93c
000000a0: f39a 49bd fb3a d23c a9e6 213d 6816 3f3c
000000b0: f912 03bd eafe 413d 9e91 0ebd 3685 933c
000000c0: 1336 e03c 4c21 57bd e4ae b33d 8c2a 49bc
000000d0: f1ae 333d 6b71 d7bc 4922 2b3c 8b8d 4b3d
000000e0: 6e5f d63c 47df c6bc 6de3 abbb f81d ff3b
000000f0: fcc8 cdbb ea36 aebc 2982 4ebd 6c26 3b3c
00000100: 16cc 80bd b52c 193d 46c8 75bc e17c 913c
00000110: 9122 db3c 7984 3e3d 3e91 21bc 2363 86bd
00000120: 7d72 1d3d bb44 84bd 0c4e c63c 3f18 02bd
00000130: 6b34 303d 3852 27ba e5a7 b739 ae60 69bb
00000140: df44 913c 6c77 b53c fa62 5abc 8f8d 94ba
00000150: a4a6 66bb 15e2 a1bd 6cdc 06b9 314c c83c
00000160: efa8 17bd 162e 553d e05c 76bc 4c3d 05bd
00000170: 28d2 7abc 0fdf e3bc faf3 88bc 5248 3ebd
00000180: 0c82 b93c 6d9f 203d 298b 423d 093b b3bd
00000190: 882c 29bc 849b 12bc ba69 8b3c 8d2c 4ebc
000001a0: 4907 54bd 0be2 06bb 6b0b 43bc dc2f 253d
000001b0: ebc0 563d e4e4 843d 3bc4 383c e620 80bd
000001c0: d083 50ba c10d f53c 8d2a 5bbd 970c 223d
000001d0: 78ef a93b 8f99 1b3a 9c05 6cbd 0181 a73c
000001e0: b129 b2bb 9740 45bb 5ee5 b43c a36d 24bd
000001f0: b9ab 90bc b0a8 25bd 195b 593d 033b 45bd
00000200: 2504 a3bb 094c 0bbd 7ee2 573d 27d3 413c
00000210: 3304 3c3d a330 933c 9746 f0bc 312c f1bc
00000220: 9a66 463d 5aaf d2bc 456f 8c3c 315c 303c
00000230: d346 0c3d 2a18 783d 98b7 66bd bf38 a3bc
00000240: 625c 54bd 1e6a 76bb 9206 acbb 9961 ec3b
00000250: 9886 49bc 3bf6 283d f5d3 dc3a 3432 dabc
00000260: f5dd cbbc a563 05bd bf97 5b3c 589d e1bc
00000270: 7503 a23d 8d9e 4ebc 6619 22ba 0112 263d
00000280: ae47 973d 250f 65bd 40c4 c63b 0dcb 483d
00000290: f8fb b2bc 5668 f53c ef3f 20bc 934c e2bc
000002a0: 9e2b 513d cd3e 763d 1e25 13bd 9da1 cf3c
000002b0: cf26 2bbd 305e 423d 9450 be3c 2ad3 3d3d
000002c0: bcd3 7dbc 5934 03bd 7b91 1d3d 561d 333c
000002d0: e767 77bd 4526 df3d 2dca 81bc 86fe b53d
000002e0: f967 e8bc e7f7 f7bc e742 a7bc 260b 15bd
000002f0: d880 3c3b 1179 ac3b 1c28 62bc 5728 51bc
00000300: 5cbd ddbc aca4 2dbd 9c2f 2239 6578 46bc
00000310: 494a 423d 5395 b3bc b1b2 9d3c 9a2d f93c
00000320: 2cdb eb3c 838e 6e3c 5a11 c5bc 57d3 d9bc
00000330: 20de c7bc 6e67 23bd 9356 c13c 716f d1bb
00000340: 8751 80bd 4447 763d 2815 a83c f926 41bc
00000350: 9c57 fbbc 6cc5 f7bc f12d d5bc b912 1cbc
00000360: 29e8 b83c b919 1ebd 7f0c c73c b830 bfbc
00000370: e7f2 f2bc edc0 193d 48e6 413d 1c86 b93c
00000380: c32f ddbd 4886 663b a30a 45bd 9836 0f3d
00000390: 3234 543d c93f 2b3d fd36 95bd fa71 aebb
000003a0: 6ba4 8dbc 49c0 b53c 703c 9abb b766 893a
000003b0: 46af bebc cc6a debc 4a35 0fbd 3c10 ad3c
000003c0: 2dd7 dcbd f2c7 82bd e494 abbc 6388 c53c
000003d0: 9dbe 3e3d 6bbd 39bd b4b5 8bbc ba86 4cbc
000003e0: 7761 173b 931f 253c 0c72 a8ba d703 463d
000003f0: adb2 fcbb 5ed1 e6bc a906 b6bc 81a5 ecbc

fs_lr_fs_lr_W f4 [406, 1]
0.05207572 0.014743788 -0.0063304347 -0.007180477 -0.012542778 0.061312765 0.0991013 -0.04115253
0.00030322693 0.034886453 -0.024396347 0.008857004 0.03277646 0.006581038 -0.024634346 -0.01659515
0.04512542 0.01925284 -0.051121987 0.117722966 0.13835804 0.011069397 -0.05826838 -0.06864861
-0.04766896 -0.021240052 -0.028124446 0.07775664 -0.01564338 -0.027801974 0.11007935 -0.0017183069
0.031735875 0.019603247 0.0015297754 -0.05685017 0.041249212 -0.049691055 -0.0005149303 0.15903614
0.061291855 -0.036347058 0.0011612102 0.07765292 0.038510676 -0.02410205 -0.019985542 0.0143033
-0.02555861 -0.029716454 -0.10229275 -0.07284197 0.055810258 0.011395633 0.030105611 0.056349568
-0.095030114 -0.08333543 0.055686172 -0.01699443 0.04756132 -0.003706057 0.024263345 0.029275952
-0.0025878316 -0.033973265 -0.11117677 0.023695245 0.025256814 -0.032251604 0.07018389 -0.03150309
-0.0125804655 -0.012390757 -0.05641941 0.029306978 0.0743111 -0.12611832 -0.022785095 -0.031367052
-0.04400984 -0.0776143 0.008312532 -0.012955183 0.042700347 0.08018722 0.04761203 -0.0005942463
-0.08913754 0.005303441 -0.08054213 0.06380951 -0.0013368784 -0.0152890375 -0.0718606 0.068899035
-0.008183123 -0.029584063 0.005973673 0.04443572 -0.017082306 -0.008800706 -0.04060261 0.051900905
-0.001239348 0.052768964 -0.07208094 -0.022823025 0.06819328 0.01134822 -0.0019885695 0.093592405
-0.05988305 -0.016836818 -0.095876195 -0.008479141 -0.0023760134 -0.010668402 -0.01903017 0.07874917
-0.0066091744 -0.04404082 -0.002640682 0.09204597 -0.0025677753 0.028033854 0.06416779 0.080008686
-0.06777131 0.012125766 0.049092222 -0.032978382 0.06333405 0.07310435 -0.059275452 -0.04147527
0.035053477 0.030068401 0.042520624 -0.015025321 0.037414223 0.16298653 0.13668862 -0.038562346
-0.021587264 -0.032691427 -0.04913478 0.02886164 0.006699306 -0.009875609 -0.015765838 -0.02150367
-0.09090696 -0.009393773 -0.026903223 0.07455356 -0.033533882 0.019013697 0.029432211 0.015284838
-0.027127553 -0.048842188 -0.05132563 0.018539952 0.015829986 -0.06899094 0.035587594 -0.030468203
-0.035526272 0.010375077 0.018213362 -0.053983513 -0.02895119 -0.0635874 0.041914888 0.08904414
0.024893321 -0.12253951 0.05573509 0.069770604 -0.09273769 -0.008246865 -0.033649966 -0.026705079
-0.032188207 -0.042991288 0.032912698 -0.16381659 -0.067476444 0.062347304 0.054978967 -0.07604659
-0.021157049 0.0049458886 0.0073007415 0.05515929 -0.054787196 -0.0022656994 -0.054642133 -0.0069208923
-0.040701006 0.044423807 -0.07850053 -0.04194658 -0.008200707 0.030171342 -0.086545415 -0.07765273
-0.06808546 -0.065615006 0.012057728 0.060524072 -0.04257568 -0.024819555 0.042130496 0.036960542
0.019097978 0.0013768465 -0.039967306 0.04691037 0.065666474 0.07086061 0.01836211 0.049708385
-0.021677842 -0.010641832 0.02662663 -0.0075307507 0.08812616 -0.103428565 -0.010535784 0.049585458
-0.025589766 0.03186457 0.08900105 0.013699552 0.1027954 0.0109366495 0.021183154 0.006659959
-0.04547489 0.049046487 0.037291076 0.034055404 0.015855236 -0.0010798052 -0.04571095 -0.1275333
-0.02940505 -0.0797507 -0.046364173 0.008611252 0.09925639 -0.106661335 -0.018924775 -0.0575232
00000000: 5a4d 553d ee8f 713c 896f cfbb 354a ebbb
00000010: 3980 4dbc 1823 7b3d 9ff5 ca3d 8e8f 28bd
00000020: 6efa 9e39 19e5 0e3d d9da c7bc f81c 113c
00000030: 9c40 063d bfa5 d73b f8cd c9bc 8df2 87bc
00000040: 6fd5 383d 22b8 9d3c 4a65 51bd bd18 f13d
00000050: bbad 0d3e 6b5c 353c d3aa 6ebd a497 8cbd
00000060: 8740 43bd 9eff adbc 3d65 e6bc e03e 9f3d
00000070: 8c26 80bc f7c0 e3bc 4871 e13d d038 e1ba
00000080: 7afd 013d fd96 a03c bf82 c83a b9db 68bd
00000090: eff4 283d d988 4bbd 63fc 06ba 5fda 223e
000000a0: 2b0d 7b3d a7e0 14bd c033 983a 7e08 9f3d
000000b0: 5fbd 1d3d aa71 c5bc b8b8 a3bc 6358 6a3c
000000c0: 4a60 d1bc ec6f f3bc dc7e d1bd 2c2e 95bd
000000d0: 4c99 643d c0b4 3a3c 0ba0 f63c cece 663d
000000e0: 269f c2bd c4ab aabd 2f17 643d e737 8bbc
000000f0: a9cf 423d 52e1 72bb ecc3 c63c 1fd4 ef3c
00000100: 9c98 29bb 8d27 0bbd a5b0 e3bd 881c c23c
00000110: 61e7 ce3c 421a 04bd 92bc 8f3d 6209 01bd
00000120: 4c1e 4ebc 9a02 4bbc 0a18 67bd 3015 f03c
00000130: 6b30 983d 2925 01be cfa7 babc bd7a 00bd
00000140: a943 34bd 3ff4 9ebd 4931 083c fa41 54bc
00000150: 8fe6 2e3d 3239 a43d d504 433d 32c7 1bba
00000160: be8d b6bd 7dc8 ad3b 46f3 a4bd 8fae 823d
00000170: 323a afba df7e 7abc a62b 93bd f01a 8d3d
00000180: 8112 06bc 475a f2bc cdbe c33b 3b02 363d
00000190: 31f0 8bbc d630 10bc ec4e 26bd 0b96 543d
000001a0: 9e71 a2ba 4524 583d 2c9f 93bd 5af7 babc
000001b0: eba8 8b3d e2ed 393c a952 02bb 60ad bf3d
000001c0: ee47 75bd 5eed 89bc bd5a c4bd 18ec 0abc
000001d0: e4b6 1bbb 85ca 2ebc 29e5 9bbc 3f47 a13d
000001e0: c691 d8bb 2664 34bd 4b0f 2dbb 9982 bc3d
000001f0: 1f48 28bb 41a7 e53c 676a 833d 98db a33d
00000200: afcb 8abd 26ab 463c ed14 493d 5714 07bd
00000210: 48b5 813d bcb7 953d d1ca 72bd f9e1 29bd
00000220: 3c94 0f3d 0252 f63c 1b2a 2e3d c42c 76bc
00000230: a83f 193d f1e5 263e 1af8 0b3e 8df3 1dbd
00000240: c6d7 b0bc 72e7 05bd 8d41 49bd 3f6f ec3c
00000250: da85 db3b 4ecd 21bc 5c27 81bc 7728 b0bc
00000260: 6e2d babd 57e8 19bc 2664 dcbc 89af 983d
00000270: d35a 09bd 9dc2 9b3c d21b f13c 426d 7a3c
00000280: 9a3a debc bf0e 48bd d33a 52bd 19e1 973c
00000290: e3ad 813c 1f4b 8dbd 4cc4 113d 7498 f9bc
000002a0: ff83 11bd 3afc 293c 3034 953c d11d 5dbd
000002b0: 0c2b edbc 1c3a 82bd f2ae 2b3d c65c b63d
000002c0: 14ed cb3c fff5 fabd 7a4a 643d e4e3 8e3d
000002d0: 42ed bdbd dc1d 07bc 8cd4 09bd 9cc4 dabc
000002e0: c8d7 03bd a217 30bd 77cf 063d 89bf 27be
000002f0: 1731 8abd e35f 7f3d a031 613d 51be 9bbd
00000300: 8c51 adbc 1f11 a23b 0f3b ef3b b5ee 613d
00000310: 8a68 60bd 217c 14bb 6ed0 5fbd a7c8 e2bb
00000320: 19b6 26bd bdf5 353d e3c4 a0bd 2dd0 2bbd
00000330: 425c 06bc e429 f73c b93e b1bd 6508 9fbd
00000340: 6470 8bbd 2961 86bd c78d 453c 17e8 773d
00000350: d663 2ebd 6152 cbbc 0791 2c3d f063 173d
00000360: 5d73 9c3c 4d77 b43a c2b4 23bd 1725 403d
00000370: 257c 863d 5e1f 913d 236c 963c 059b 4b3d
00000380: bb95 b1bc 145b 2ebc 1720 da3c 84c4 f6bb
00000390: 7d7b b43d 5bd2 d3bd 489e 2cbc 1f1a 4b3d
000003a0: a1a1 d1bc 6c84 023d 2f46 b63d 1674 603c
000003b0: 6586 d23d a22f 333c 4b88 ad3c c93b da3b
000003c0: e143 3abd f8e4 483d 87be 183d ae7d 0b3d
000003d0: d7e2 813c 4088 8dba 683b 3bbd 1798 02be
000003e0: dce2 f0bc 5654 a3bd 5ce8 3dbd 3516 0d3c
000003f0: ef46 cb3d 4271 dabd 2108 9bbc 729d 6bbd

fs_svc_W2_fs_svc f4 [406, 1]
0.0476347 0.0063334005 -0.006384711 -0.0018022375 -0.019541604 0.06608826 0.10266875 -0.039998762
-0.0013735618 0.035144627 -0.022470864 0.0067470847 0.030521324 0.0150459325 -0.024761626 -0.012105701
0.049432065 0.012388041 -0.055521697 0.12084464 0.14432782 0.016100727 -0.054998443 -0.06481739
-0.044599626 -0.02144983 -0.02819386 0.08012506 -0.0132663315 -0.026506977 0.11163854 -0.0038507867
0.033137016 0.02133965 -0.0037581155 -0.0653918 0.04341124 -0.044699736 -0.010989983 0.1647343
0.05550442 -0.035455067 -0.0013375067 0.07785065 0.041052572 -0.022987839 -0.020067064 0.012761515
-0.023748977 -0.029364305 -0.10756897 -0.07291856 0.053931206 0.018158061 0.0364229 0.061200194
-0.10185164 -0.07559773 0.0610255 -0.014258973 0.04417887 0.005275213 0.026926786 0.029083492
0.0020068798 -0.037179653 -0.11797714 0.025394978 0.020170882 -0.027761033 0.074064516 -0.031280685
-0.013795623 -0.008145745 -0.061378904 0.025791155 0.076115005 -0.13142854 -0.0303803 -0.035433076
-0.047902264 -0.08583182 0.009856613 -0.010783027 0.0381369 0.08758346 0.042814266 0.001233735
-0.083576806 0.0037121947 -0.07662684 0.07122184 0.0015270639 -0.019461727 -0.065503605 0.080254555
-0.011684303 -0.029826596 0.010660017 0.041149635 -0.01445052 -0.006413807 -0.03579003 0.045465767
-0.013822972 0.054731585 -0.06923501 -0.019420303 0.070127174 0.012666847 0.0020479783 0.09000798
-0.064617336 -0.01653291 -0.10282563 -0.012033989 -0.0033905674 -0.017676502 -0.023283249 0.08317976
0.0017059383 -0.048373375 -0.0046287184 0.087775946 0.000795778 0.034669153 0.06693794 0.08077775
-0.06946954 0.015512575 0.042279106 -0.03915069 0.058856048 0.07818624 -0.06672702 -0.03825087
0.036399428 0.03819463 0.032100547 -0.017678 0.04012682 0.17426273 0.14125264 -0.045724183
-0.01760232 -0.030416306 -0.0501994 0.028030423 0.014488233 -0.007828657 -0.015044074 -0.017136794
-0.09123944 -0.0075584534 -0.021589713 0.08288537 -0.03391013 0.010326856 0.03155286 0.014715439
-0.026217898 -0.05024177 -0.049785536 0.020023152 0.01751522 -0.06195352 0.036281083 -0.03115406
-0.041099124 0.011056837 0.012759211 -0.051475883 -0.027610824 -0.06907379 0.044769153 0.09283321
0.027521513 -0.12323913 0.05796009 0.06783742 -0.09547095 -0.0100944 -0.037485465 -0.028421879
-0.031884905 -0.04352897 0.030875415 -0.17046341 -0.066091605 0.06950347 0.052593306 -0.07692755
-0.021960622 0.0071814368 0.00739286 0.049592618 -0.06361816 -0.0054430123 -0.056253713 -0.012290568
-0.041643713 0.044420533 -0.081239246 -0.042928983 -0.0067594107 0.028565487 -0.08921085 -0.07400291
-0.06485259 -0.05890953 0.010305202 0.058420584 -0.04331855 -0.029726822 0.041413426 0.036958557
0.014804021 -0.0017859862 -0.03944433 0.04880351 0.06804115 0.067843795 0.020996334 0.057282533
-0.010291245 -0.011909412 0.029622091 -0.011684254 0.09455432 -0.1100473 -0.017762577 0.05428456
-0.03157623 0.039606586 0.08271876 0.012465978 0.10655581 0.013754307 0.019817285 0.009395511
-0.051588293 0.044069815 0.050417647 0.032653864 0.024135113 -0.00045485035 -0.047269404 -0.120447904
-0.03120621 -0.08150816 -0.04665175 0.010367911 0.107916206 -0.09769685 -0.019692086 -0.061638247
00000000: 9a1c 433d 6a88 cf3b d636 d1bb 0e39 ecba
00000010: b715 a0bc 4859 873d fe43 d23d bed5 23bd
00000020: 1609 b4ba d0f3 0f3d d114 b8bc a616 dd3b
00000030: db07 fa3c 3783 763c e5d8 cabc fd56 46bc
00000040: 4779 4a3d 36f7 4a3c b86a 63bd 657d f73d
00000050: acca 133e ace5 833c 0c46 61bd fbbe 84bd
00000060: 19ae 36bd 8eb7 afbc cff6 e6bc 9c18 a43d
00000070: 075b 59bc 2925 d9bc bfa2 e43d 7b5d 7cbb
00000080: aeba 073d 7dd0 ae3c b74a 76bb 23ec 85bd
00000090: fccf 313d 1217 37bd 540f 34bc 1cb0 283e
000000a0: 9a58 633d 5539 11bd 474f afba 2970 9f3d
000000b0: be26 283d fe50 bcbc af63 a4bc ac15 513c
000000c0: 378d c2bc 698d f0bc 1f4d dcbd 5356 95bd
000000d0: f8e6 5c3d 37c0 943c 2e30 153d 0ead 7a3d
000000e0: 9897 d0bd fcd2 9abd e0f5 793d 789e 69bc
000000f0: e7f4 343d b2db ac3b 9095 dc3c 8140 ee3c
00000100: db85 033b b149 18bd 009e f1bd 2109 d03c
00000110: 683d a53c 1b6b e3bc 23af 973d 2d20 00bd
00000120: 0907 62bc bb75 05bc 7268 7bbd f947 d33c
00000130: 2fe2 9b3d 3495 06be 1be0 f8bc 4622 11bd
00000140: 2a35 44bd 98c8 afbd a27d 213c 4bab 30bc
00000150: 7035 1c3d f55e b33d 035e 2f3d 47b5 a13a
00000160: 512a abbd 4b48 733b 88ee 9cbd c2dc 913d
00000170: c327 c83a 336e 9fbc c126 86bd 805c a43d
00000180: 856f 3fbc e856 f4bc 5aa7 2e3c 858c 283d
00000190: e0c1 6cbc ea2a d2bb 9198 12bd 503a 3a3d
000001a0: bf79 62bc 3a2e 603d 16cb 8dbd 5417 9fbc
000001b0: d69e 8f3d 9b88 4f3c 6037 063b 1b56 b83d
000001c0: 1856 84bd 0670 87bc 3e96 d2bd 352a 45bc
000001d0: 4834 5ebb 50ce 90bc 83bc bebc 265a aa3d
000001e0: ca99 df3a 2923 46bd 81ac 97bb e0c3 b33d
000001f0: c29b 503a 3e01 0e3d c216 893d ce6e a53d
00000200: 0c46 8ebd 7528 7e3c db2c 2d3d 795c 20bd
00000210: 0a13 713d 1b20 a03d 2da8 88bd f2ac 1cbd
00000220: 9117 153d f971 1c3d dd7b 033d 74d1 90bc
00000230: 055c 243d ee71 323e 88a4 103e 4849 3bbd
00000240: be32 90bc 9e2b f9bc e39d 4dbd 0fa0 e53c
00000250: 0e60 6d3c c443 00bc 6b7b 76bc 7662 8cbc
00000260: bedb babd e7ac f7bb e9dc b0bc cebf a93d
00000270: 59e5 0abd f931 293c 923d 013d 0619 713c
00000280: ebc6 d6bc 50ca 4dbd ebeb 4bbd 9807 a43c
00000290: 147c 8f3c f9c2 7dbd 799b 143d cd36 ffbc
000002a0: 8e57 28bd bc27 353c 020c 513c 60d8 52bd
000002b0: 1830 e2bc 8f76 8dbd dc5f 373d 571f be3d
000002c0: cc74 e13c cc64 fcbd 8f67 6d3d 58ee 8a3d
000002d0: 4686 c3bd fb62 25bc 5c8a 19bd 00d5 e8bc
000002e0: bf99 02bd 6f4b 32bd 70ee fc3c f68d 2ebe
000002f0: 095b 87bd d657 8e3d 146c 573d 318c 9dbd
00000300: c3e6 b3bc 4252 eb3b ce3f f23b a121 4b3d
00000310: 3d4a 82bd 4c5b b2bb 4b6a 66bd 615e 49bc
00000320: 9992 2abd 4ef2 353d c360 a6bd 4dd6 2fbd
00000330: 0c7e ddbb 2b02 ea3c 2eb4 b6bd d68e 97bd
00000340: 6fd1 84bd 1f4b 71bd 26d7 283c 6c4a 6f3d
00000350: cb6e 31bd aa85 f3bc 20a1 293d db61 173d
00000360: 918c 723c c117 eaba 6190 21bd 30e6 473d
00000370: 2959 8b3d b0f1 8a3d 8100 ac3c 17a1 6a3d
00000380: 9c9c 28bc b21f 43bc 07aa f23c 506f 3fbc
00000390: b2a5 c13d 7b60 e1bd d382 91bc 7d59 5e3d
000003a0: 1456 01bd 843a 223d 7468 a93d 1a3e 4c3c
000003b0: ef39 da3d bf59 613c dc57 a23c a1ef 193c
000003c0: 3f4e 53bd 8d82 343d bc82 4e3d 0fc0 053d
000003d0: 00b7 c53c fb78 eeb9 909d 41bd 64ad f6bd
000003e0: 2aa4 ffbc c0ed a6bd e815 3fbd 2cde 293c
000003f0: 2c03 dd3d 4915 c8bd 4c51 a1bc 6378 7cbd

mfs_lr_mfs_lr_W f4 [134, 1]
0.10244585 0.010497862 -0.044520497 0.07917224 -0.04739538 0.05364741 0.07366467 -0.04646661
0.02703707 0.06541483 0.049514603 0.05037287 0.0145229 -0.007199538 -0.09306775 -0.10455553
-0.028307354 0.023349268 0.029334242 -0.0961362 -0.082675196 -0.060943745 0.005604016 0.006576572
0.104942836 -0.009344898 -0.06091601 -0.00041287718 0.00978729 0.049117703 -0.0056921905 0.07094644
-0.05028052 -0.043449357 0.056648217 0.060896616 -0.08460531 0.029264838 -0.020840846 0.11225131
-0.0006465041 -0.021761544 0.0717331 -0.019668803 0.08187942 0.06944825 0.006303679 -0.054250445
0.12244043 0.08211346 -0.05515402 -0.035756893 -0.08253239 -0.04739447 -0.028352657 -0.05934395
-0.037033066 0.06666439 -0.18368629 0.06623126 -0.08883933 -0.097618684 0.059110466 0.005025687
0.07241024 -0.054380756 0.011691596 -0.08155251 0.02338861 -0.08132676 0.026793953 0.06716817
-0.024296809 -0.05951912 -0.09599274 0.03765831 0.03571749 -0.02831038 0.08175109 0.0029417672
-0.041496906 -0.0020074192 -0.1357265 -0.06851279 0.040386826 0.06103743 0.06997114 -0.112689584
0.048166245 0.08036524 0.026677687 -0.14112715 0.01151503 -0.014557604 -0.05900941 -0.057886247
0.012118014 -0.0015037212 -0.025494158 -0.06466862 0.10137689 -0.01688909 -0.0036066868 -0.09131856
0.011530308 0.028149102 0.08390892 -0.024171887 -0.09605845 -0.031261973 -0.01188682 0.09427168
0.008357701 0.0047451863 -0.040202223 -0.07954521 0.046077885 0.08052853 -0.010748281 0.0003806614
-0.040114786 0.053191617 0.029035766 0.10294454 0.06205523 -0.064949594 -0.00934454 -0.052234937
-0.048029922 -0.029660828 0.0030254547 0.062210705 0.017675525 -0.011510098
00000000: 21cf d13d 39ff 2b3c 205b 36bd 0e25 a23d
00000010: a821 42bd 63bd 5b3d 81dd 963d c653 3ebd
00000020: d87c dd3c 36f8 853d d3cf 4a3d c853 4e3d
00000030: 75f1 6d3c 1aea ebbb 4e9a bebd 3621 d6bd
00000040: d3e4 e7bc f746 bf3c 5d4e f03c 0ee3 c4bd
00000050: 9d51 a9bd 26a0 79bd e5a1 b73b 4980 d73b
00000060: 45ec d63d 581b 19bc 1183 79bd 7077 d8b9
00000070: df5a 203c a52f 493d 8e85 babb 5e4c 913d
00000080: f2f2 4dbd f4f7 31bd f607 683d bb6e 793d
00000090: 8c45 adbd d0bc ef3c 6cba aabc 04e4 e53d
000000a0: 287a 29ba 4445 b2bc cee8 923d 7820 a1bc
000000b0: 66b0 a73d e23a 8e3d 188f ce3b b735 5ebd
000000c0: 0cc2 fa3d 1a2b a83d 2fe9 61bd d275 12bd
000000d0: be06 a9bd b420 42bd d543 e8bc a412 73bd
000000e0: fcaf 17bd 5787 883d 4218 3cbe 41a4 873d
000000f0: 65f1 b5bd 4eec c7bd d11d 723d 85ae a43b
00000100: d24b 943d 5bbe 5ebd 1c8e 3f3c 0105 a7bd
00000110: 7899 bf3c a58e a6bd fe7e db3c 778f 893d
00000120: 1a0a c7bc 52ca 73bd d797 c4bd 9a3f 1a3d
00000130: 814c 123d 2ceb e7bc 1e6d a73d aaca 403b
00000140: a9f8 29bd e88e 03bb e3fb 0abe 6f50 8cbd
00000150: a86c 253d 6202 7a3d 074d 8f3d ccc9 e6bd
00000160: f849 453d 8896 a43d 2a8b da3c a383 10be
00000170: 89a9 3c3c 0483 6ebc dab3 71bd 211a 6dbd
00000180: a28a 463c 8318 c5ba 20d9 d0bc fb70 84bd
00000190: b09e cf3d fd5a 8abc 2a5e 6cbb 3a05 bbbd
000001a0: 9ee9 3c3c f298 e63c 71d8 ab3d 1f04 c6bc
000001b0: 4bba c4bd 8e0c 00bd f0c0 42bc 8311 c13d
000001c0: bdee 083c 827d 9b3b 16ab 24bd 99e8 a2bd
000001d0: 2abc 3c3d 24ec a43d 8f19 30bc 8293 c739
000001e0: 674f 24bd 74df 593d 6adc ed3c 96d4 d23d
000001f0: a02d 7e3d 4b04 85bd d719 19bc 4df4 55bd
00000200: 06bb 44bd 44fb f2bc b546 463b a7d0 7e3d
00000210: 43cc 903c da94 3cbc

mfs_svc_W2_mfs_svc f4 [134, 1]
0.12203025 0.003247414 -0.038760852 0.10970827 -0.05025925 0.043456513 0.102591604 -0.15452255
0.10717296 0.0885968 0.2962411 0.02950259 0.03133005 -0.05207067 -0.11480477 -0.20460987
-0.017336875 0.013742574 0.0128247095 -0.32226992 -0.10724745 -0.19298238 0.01584255 -0.03648807
0.113702685 -0.02815218 -0.11106882 0.05572043 0.027654517 0.05178913 0.013562082 0.08709497
-0.05968867 -0.011223401 0.05228558 0.06289242 -0.09735591 0.04580923 -0.15856323 0.1304824
0.09266377 -0.05166433 0.041206088 -0.030547718 0.119329624 0.013410445 -0.0017700691 -0.09708292
0.15534951 0.080831744 -0.18009178 -0.050851792 -0.100933254 -0.090777114 -0.0051512304 -0.04850407
-0.03370903 0.11024054 -0.219337 0.096782364 -0.07954131 -0.12480871 0.09918058 0.0012020386
0.10196721 -0.09898433 -0.019352127 -0.08948716 0.018590456 -0.08072911 0.0024495565 0.06747246
-0.006856172 -0.15363875 -0.24136712 0.23344758 0.0575913 -0.2395513 0.09743068 -0.0065631997
-0.077759415 0.04816128 -0.14094485 -0.10650447 0.030531585 0.06451328 0.12982364 -0.07145801
0.74087656 -0.14242968 0.05281143 -0.32966444 -0.021719705 0.004704659 -0.10466094 -0.06541206
0.050962288 -0.0185406 0.012089222 -0.073643774 0.13217302 0.030090727 0.06591021 -0.045444004
0.039779097 0.016296618 0.14358242 -0.07456313 -0.10082112 0.0034598068 0.07382099 0.10658751
0.021905437 -0.16625385 -0.07262815 -0.11141907 0.047644127 0.119931616 0.025180982 0.06646978
-0.07152068 0.1852678 -0.0029584367 0.12272695 0.114851296 -0.056887962 0.0042716376 -0.06506198
-0.10943312 -0.06035079 -0.14871293 0.11575793 0.0316481 0.00074952183
00000000: ffea f93d 91d2 543b b3c3 1ebd bbae e03d
00000010: a5dc 4dbd 75ff 313d 8c1b d23d 293b 1ebe
00000020: 7f7d db3d 3d72 b53d eaac 973e 6aaf f13c
00000030: f053 003d 0e48 55bd c31e ebbd 4085 51be
00000040: 1006 8ebc 8828 613c bb1e 523c 9000 a5be
00000050: 8da4 dbbd 2c9d 45be 3cc8 813c 8474 15bd
00000060: f4dc e83d 679f e6bc 0d78 e3bd 1b3b 643d
00000070: ba8b e23c d720 543d 7f33 5e3c d95e b23d
00000080: 1b7c 74bd 5be2 37bc 6829 563d becd 803d
00000090: 8962 c7bd 76a2 3b3d 665e 22be 2e9d 053e
000000a0: 81c6 bd3d fa9d 53bd b7c7 283d 353f fabc
000000b0: 1763 f43d 7cb7 5b3c aa01 e8ba 69d3 c6bd
000000c0: f113 1f3e 1d8b a53d fb69 38be f849 50bd
000000d0: 18b6 cebd 5ae9 b9bd a7cb a8bb 34ac 46bd
000000e0: 7b12 0abd cbc5 e13d e199 60be d535 c63d
000000f0: 8ee6 a2bd b59b ffbd 301f cb3d b98d 9d3a
00000100: 2fd4 d03d 4cb8 cabd 5a88 9ebc 0b45 b7bd
00000110: 034b 983c 4e55 a5bd bd88 203b 002f 8a3d
00000120: bda9 e0bb 7a53 1dbe f128 77be e20c 6f3e
00000130: dbe4 6b3d f04c 75be bd89 c73d 1c10 d7bb
00000140: 5440 9fbd c344 453d d953 10be 041f dabd
00000150: 601d fa3c 8a1f 843d 7df0 043e 9458 92bd
00000160: 16aa 3d3f 16d9 11be cc50 583d c7c9 a8be
00000170: 86ed b1bc 8a29 9a3b 7a58 d6bd c2f6 85bd
00000180: d5bd 503d 75e2 97bc df11 463c 8cd2 96bd
00000190: 5d58 073e d480 f63c effb 863d 7e23 3abd
000001a0: 68ef 223d 7c80 853c 4507 133e 8eb4 98bd
000001b0: 4e7b cebd edbd 623b 762f 973d 8d4a da3d
000001c0: 0873 b33c 733e 2abe 11be 94bd ae2f e4bd
000001d0: 7d26 433d b59e f53d 5948 ce3c 4f21 883d
000001e0: 6f79 92bd d8b6 3d3e 55e2 41bb 4458 fb3d
000001f0: 2837 eb3d 5a03 69bd 18f9 8b3b 373f 85bd
00000200: 791e e0bd 6432 77bd 3448 18be 7e12 ed3d
00000210: 70a1 013d 8f7b 443a

lv_lr_lv_lr_W f4 [119, 1]
-0.05652693 -0.11329324 0.002810543 0.043675628 -0.0768807 0.021753633 -0.096912116 0.011980163
0.07043765 0.0043423846 0.009578695 0.02793627 -0.051779773 -0.015670352 -0.038285263 0.059562795
-0.030002736 0.08187293 -0.0012039474 0.06755869 0.107794054 0.044742562 -0.011446177 0.021719256
0.07907517 -0.023434756 -0.07882738 0.058614347 -0.026198722 -0.054351564 0.038611427 0.031783327
-0.029015187 -0.13505073 -0.028734721 0.050534263 0.060002007 0.016930033 -0.016666442 -0.08447871
-0.031822957 0.026413186 -0.08843891 0.06766682 0.0132128885 0.05247007 0.035259366 0.035900943
-0.10875791 -0.019175978 -0.03849621 0.0296414 0.010385957 0.12599437 0.11506947 0.020067766
-0.027901413 -0.04403399 -0.031138018 0.045641776 0.06895268 0.09303304 -0.04774766 -0.04888271
-0.044825062 0.10716782 0.012694577 0.022223715 -0.09358542 -0.009817359 0.06298487 0.020893913
0.14686045 -0.09791306 -0.028050175 0.09666878 0.0051109986 -0.05623715 -0.093914494 0.09534088
0.012076746 0.08195547 0.08117404 -0.043936815 0.054232948 0.07299513 0.061881617 -0.083722435
-0.13561341 0.08904804 0.11400749 -0.0021654998 -0.063645974 0.010375266 -0.016776498 0.10340724
0.010437603 -0.089107685 0.046307888 0.054851823 0.01467455 -0.029637069 0.016428044 0.018051043
-0.046955034 0.07054998 0.07778468 -0.12304322 0.06673191 -0.084072694 -0.04265476 -0.035282206
0.017021103 -0.023091206 0.16754173 0.027262645 -0.10580556 -0.00991878 0.06064358
00000000: c888 67bd 4906 e8bd 1631 383b 37e5 323d
00000010: a173 9dbd ad34 b23c dc79 c6bd 7248 443c
00000020: 9d41 903d 904a 8e3b f5ef 1c3c 9bda e43c
00000030: 0717 54bd 1c5f 80bc 02d1 1cbd 1ef8 733d
00000040: 4cc8 f5bc ffac a73d c5cd 9dba 365c 8a3d
00000050: 21c3 dc3d fa43 373d bf88 3bbc 95ec b13c
00000060: 2af2 a13d 3ffa bfbc 4070 a1bd 9915 703d
00000070: b49e d6bc bf9f 5ebd 0427 1e3d 3c2f 023d
00000080: 42b1 edbc bd4a 0abe 1465 ebbc 04fd 4e3d
00000090: aac4 753d dab0 8a3c 1088 88bc 2d03 adbd
000000a0: ca58 02bd 7760 d83c 761f b5bd e794 8a3d
000000b0: df7a 583c dbea 563d 206c 103d de0c 133d
000000c0: 78bc debd f116 9dbc 34ae 1dbd 85d2 f23c
000000d0: dc29 2a3c ab04 013e 8ba9 eb3d 2865 a43c
000000e0: 8191 e4bc fc5c 34bd 2815 ffbc dff2 3a3d
000000f0: 1037 8d3d 1b88 be3d 0d93 43bd 3d39 48bd
00000100: 7c9a 37bd cd7a db3d eafc 4f3c 820e b63c
00000110: b6a9 bfbd fdd8 20bc 36fe 803d b629 ab3c
00000120: 9662 163e a486 c8bd 7bc9 e5bc 48fa c53d
00000130: 2a7a a73b ed58 66bd 3e56 c0bd 1442 c33d
00000140: 8bdd 453c 45d8 a73d 933e a63d 17f7 33bd
00000150: 5e23 5e3d 797e 953d 9477 7d3d ab76 abbd
00000160: 3ede 0abe d25e b63d c27c e93d 0feb 0dbb
00000170: d258 82bd 05fd 293c de6e 89bc 2dc7 d33d
00000180: 7b02 2b3c 177e b6bd 57ad 3d3d 4eac 603d
00000190: 866d 703c 70c9 f2bc 1b94 863c c8df 933c
000001a0: ec53 40bd 827c 903d 934d 9f3d 15fe fbbd
000001b0: bdaa 883d 4e2e acbd c2b6 2ebd 1384 10bd
000001c0: d76f 8b3c c529 bdbc 0f90 2b3e e955 df3c
000001d0: 96b0 d8bd 6182 22bc 6765 783d

lv_svc_W2_lv_svc f4 [119, 1]
-0.044265244 -0.09578632 0.00066180964 0.038604513 -0.061935294 0.021893736 -0.0804845 0.007415792
0.053210568 0.0023360166 0.0058911904 0.021852305 -0.038855508 -0.010980122 -0.034232244 0.050481603
-0.026777426 0.068012424 -0.003998114 0.05645759 0.09099598 0.040767193 -0.0063320925 0.018366635
0.06970046 -0.020810246 -0.066575035 0.04771412 -0.021680374 -0.045589633 0.03055687 0.024146175
-0.02102697 -0.105979316 -0.022987995 0.044455647 0.05073434 0.014729322 -0.018178474 -0.06754743
-0.03144849 0.023599386 -0.072283074 0.056471743 0.011289652 0.04388225 0.02922136 0.027156176
-0.094083205 -0.017409192 -0.028305292 0.025334956 0.011026153 0.108388856 0.09298273 0.01772437
-0.021975122 -0.03799222 -0.03108121 0.038517985 0.056305654 0.07907179 -0.03747664 -0.043290947
-0.03722456 0.087590024 0.009813071 0.0146793695 -0.080148794 -0.006028586 0.04504345 0.015687766
0.12447596 -0.08080206 -0.019825844 0.079681724 0.0067318305 -0.050120614 -0.08235485 0.08008292
0.0062676934 0.07194581 0.06464262 -0.03830904 0.044943787 0.061178543 0.04953914 -0.06903442
-0.112836674 0.07832246 0.09423393 0.00095738913 -0.059002463 0.0077628307 -0.012903854 0.08821499
0.0075716996 -0.07265165 0.037169717 0.04806176 0.01143455 -0.026057426 0.0107779 0.014183666
-0.039554983 0.059211887 0.06370899 -0.09961075 0.05590278 -0.07700073 -0.037803188 -0.028253628
0.013318883 -0.021966381 0.13302292 0.02625638 -0.08942831 -0.0116345 0.04765283
00000000: 794f 35bd 9e2b c4bd 4b7d 2d3a c41f 1e3d
00000010: ddaf 7dbd 7e5a b33c 0fd5 a4bd 2c00 f33b
00000020: 53f3 593d db17 193b e30a c13b 9b03 b33c
00000030: f426 1fbd f8e5 33bc 1c37 0cbd ccc5 4e3d
00000040: 555c dbbc 194a 8b3d 9c02 83bb 1340 673d
00000050: 1a5c ba3d 80fb 263d 717d cfbb a075 963c
00000060: 1dbf 8e3d 407a aabc 7e58 88bd e26f 433d
00000070: 0a9b b1bc 32bc 3abd 6752 fa3c 33ce c53c
00000080: c140 acbc af0b d9bd 5251 bcbc 2017 363d
00000090: d0ce 4f3d 4153 713c 06eb 94bc 4f56 8abd
000000a0: 22d0 00bd 8053 c13c 2609 94bd ea4e 673d
000000b0: 3cf8 383c e0bd 333d a261 ef3c a176 de3c
000000c0: b2ae c0bd b99d 8ebc 80e0 e7bc 418b cf3c
000000d0: 0aa7 343c fafa dd3d bb6d be3d b332 913c
000000e0: 2c05 b4bc bb9d 1bbd 069e febc 09c5 1d3d
000000f0: c2a0 663d 64f0 a13d 1b81 19bd d951 31bd
00000100: c878 18bd 6662 b33d 01c7 203c bd81 703c
00000110: 0d25 a4bd 728b c5bb 7b7f 383d a183 803c
00000120: 41ed fe3d 8d7b a5bd cf69 a2bc 2c30 a33d
00000130: b096 dc3b 464b 4dbd a9a9 a8bd 8402 a43d
00000140: 3961 cd3b 5358 933d 5a63 843d f1e9 1cbd
00000150: fa16 383d 5a96 7a3d 8ee9 4a3d eb61 8dbd
00000160: ea16 e7bd 8767 a03d b8fd c03d 4cf9 7a3a
00000170: 91ac 71bd 585f fe3b b06a 53bc 10aa b43d
00000180: 051c f83b 63ca 94bd 463f 183d 68dc 443d
00000190: fb57 3b3c 6276 d5bc ca95 303c 9b62 683c
000001a0: 6804 22bd 2a88 723d dc79 823d b900 ccbd
000001b0: 50fa 643d 8fb2 9dbd 84d7 1abd 2774 e7bc
000001c0: 7237 5a3c d7f2 b3bc 2937 083e 9f17 d73c
000001d0: 3126 b7bd a19e 3ebc 9d2f 433d

lv_mlp_net.0.weight f4 [59, 119]
-0.0076705166 0.017935345 -0.16459246 -0.021061398 -0.03736051 -0.04560423 -0.036470737 -0.19470711
0.13459215 0.11806712 0.090026036 -0.19223002 0.1051406 0.09243709 -0.11457122 0.09991435
-0.02128103 0.057337377 -0.08572838 0.034321155 0.09347058 0.032190245 -0.18073979 -0.112278745
-0.11640401 0.00033633245 -0.07489938 0.04954982 0.012912971 -0.19998032 -0.1421037 -0.06663694
0.07404517 0.026635425 -0.017903194 -0.1530306 -0.13720064 -0.005101137 0.0015404122 0.112124704
0.04789733 0.13241385 0.00043972913 -0.014723704 0.112689264 -0.00873376 0.08398417 -0.13081548
-0.050331436 -0.042441797 -0.029881433 -0.020999297 0.024164712 -0.02066931 -0.11262602 -0.040080145
0.08714893 0.19795686 -0.09909391 -0.036946785 0.02290958 0.00884245 -0.051681805 -0.042198777
-0.10790979 -0.07327752 -0.066365674 -0.032578804 -0.011715572 -0.03473168 0.052541155 -0.06261594
0.24611214 0.013599614 -0.016105479 0.17872389 -0.13293165 -0.05312828 -0.066791214 0.0005727227
0.12782165 0.01665439 0.06487034 0.2129614 -0.010236954 0.13304357 0.04504017 -0.07052018
0.009806741 -0.005521176 -0.056266166 -0.28584957 0.025163487 0.08117058 -0.13068575 0.028790105
0.06365599 -0.12172722 0.022790603 0.15965307 -0.07676998 -0.13956499 0.06366667 0.10386056
-0.019221121 0.10633996 -0.005174708 0.039334826 -0.06842711 -0.20275268 0.048166312 0.0865628
-0.06552493 -0.026941122 0.011884719 -0.103713416 0.034486152 0.23109359 -0.00025176402 0.0447443
0.03567128 -0.031264793 0.13042739 -0.09105239 0.0024459658 0.119201966 -0.33353359 -0.0015145517
0.009168908 0.19919369 0.042412627 0.040759623 0.053452164 0.03824673 -0.06928949 -0.037052467
0.25102195 0.0723854 -0.35004514 -0.035406563 0.0391638 0.034040615 -0.07579586 0.004946332
-0.009613626 0.04076913 -0.20709006 -0.07277809 0.09871914 0.09627534 0.0110262465 -0.04225432
-0.34226593 0.021167966 -0.05235361 -0.0016293908 -0.032618184 0.098464124 0.18091594 -0.23510511
0.13108619 0.10866221 -0.096931145 0.013813478 0.084204905 0.14930746 -0.030111155 0.22764298
-0.006466659 -0.060135193 -0.05754399 0.03780114 0.30158544 -0.19320011 0.025385754 -0.007264359
-0.07148975 -0.10568301 0.25095874 0.07632494 -0.2005299 -0.1639761 -0.031004312 -0.04504957
-0.0026070382 0.0062515032 0.0035094633 0.14092018 -0.020761687 -0.088737614 -0.008936726 0.10604031
-0.08392007 -0.0083120875 -0.09948264 0.1510789 -0.1147977 -0.09836689 0.0008317495 0.0053329603
-0.06609844 0.015252693 -0.0050292937 0.02588202 -0.061921142 0.036527608 0.026931673 0.032534137
0.10791905 -0.19391151 0.030486636 0.046474453 -0.053616293 -0.033440325 0.094534464 -0.05779982
0.008523167 0.021103572 0.010282268 -0.063730784 -0.07394816 0.09585335 -0.008296395 0.035299756
-0.099803485 -0.014661014 -0.012277267 -0.019337805 0.15699776 0.09556412 0.027767241 0.11670871
0.002322674 0.00659216 0.13388282 -0.018290872 -0.10267064 -0.19890542 -0.056758553 -0.25750193
0.15836011 -0.099091075 0.05888845 -0.027036048 0.0976863 -0.05032127 0.05606769 -0.17732841
-0.09720234 -0.07591615 -0.095842816 0.01693432 0.07390685 0.046107892 -0.014387276 0.0015112874
00000000: f558 fbbb 25ed 923c ed8a 28be f488 acbc
00000010: 5607 19bd 80cb 3abd 5762 15bd 4d61 47be
00000020: 86d2 093e 2dcd f13d 925f b83d f2d7 44be
00000030: f453 d73d a84f bd3d 51a4 eabd e59f cc3d
00000040: 8e55 aebc 99da 6a3d 5c92 afbd 5794 0c3d
00000050: 816d bf3d ebd9 033d da13 39be 66f2 e5bd
00000060: 3a65 eebd c755 b039 d964 99bd c1f4 4a3d
00000070: ed90 533c a4c7 4cbe a283 11be f378 88bd
00000080: fea4 973d 8932 da3c b8a9 92bc 0eb4 1cbe
00000090: 537e 0cbe 7027 a7bb a8e7 c93a a3a1 e53d
000000a0: fe2f 443d 7f97 073e 728b e639 b13b 71bc
000000b0: a1c9 e63d 0b18 0fbc e4ff ab3d 7ef4 05be
000000c0: 5628 4ebd 73d7 2dbd e8c9 f4bc b806 acbc
000000d0: 13f5 c53c af52 a9bc 79a8 e6bd 142b 24bd
000000e0: 237b b23d 34b5 4a3e bff1 cabd 8355 17bd
000000f0: dfac bb3c ecdf 103c 4db0 53bd a0d8 2cbd
00000100: cfff dcbd 8612 96bd baea 87bd 5a71 05bd
00000110: acf2 3fbc ce42 0ebd 6535 573d c93c 80bd
00000120: d204 7c3e ead0 5e3c a3ef 83bc 6503 373e
00000130: 3c1f 08be 0a9d 59bd d5c9 88bd c522 163a
00000140: aee3 023e ca6e 883c beda 843d 8e12 5a3e
00000150: e6b8 27bc 933c 083e 0b7c 383d e26c 90bd
00000160: 74ac 203c fbea b4bb 5a77 66bd e05a 92be
00000170: a823 ce3c c33c a63d 7cd2 05be 3ad9 eb3c
00000180: 125e 823d 1f4c f9bd 5cb3 ba3c 187c 233e
00000190: 9439 9dbd 20ea 0ebe ac63 823d d8b4 d43d
000001a0: 9d75 9dbc c4c8 d93d 9990 a9bb 8e1d 213d
000001b0: 8323 8cbd 669e 4fbe 0a4a 453d d647 b13d
000001c0: ef31 86bd a1b3 dcbc 20b8 423c b367 d4bd
000001d0: 5a41 0d3d cca3 6c3e 32ff 83b9 cd45 373d
000001e0: 0c1c 123d 830f 00bd c28e 053e ad79 babd
000001f0: 7f4c 203b 2920 f43d eac4 aabe ec83 c6ba
00000200: 3039 163c 6ef9 4b3e ddb8 2d3d 90f3 263d
00000210: a8f0 5a3d 9aa8 1c3d a6e7 8dbd 54c4 17bd
00000220: f385 803e cc3e 943d 1e39 b3be 7906 11bd
00000230: 396a 203d 2c6e 0b3d dc3a 9bbd d714 a23b
00000240: 7882 1dbc 88fd 263d 6b0f 54be ae0c 95bd
00000250: 432d ca3d 012c c53d 6ea7 343c de12 2dbd
00000260: 7b3d afbe 7168 ad3c bd70 56bd 4891 d5ba
00000270: a59a 05bd 8fa7 c93d 0742 393e 65bf 70be
00000280: 753b 063e 4b8a de3d d683 c6bd ed51 623c
00000290: 9f73 ac3d 0ee4 183e abab f6bc 3e1b 693e
000002a0: 44e6 d3bb 5250 76bd 3fb3 6bbd 5ed5 1a3d
000002b0: 6869 9a3e 40d6 45be c9f5 cf3c dc09 eebb
000002c0: 3869 92bd 5570 d8bd aa7d 803e 4050 9c3d
000002d0: b657 4dbe 5ae9 27be c1fc fdbc e685 38bd
000002e0: d8da 2abb 69d9 cc3b 06ff 653b 614d 103e
000002f0: 6a14 aabc 11bc b5bd 586b 12bc a92b d93d
00000300: 49de abbd 6c2f 08bc 8ebd cbbd 6db4 1a3e
00000310: 0e1b ebbd 9474 c9bd c409 5a3a 1dc0 ae3b
00000320: 9e5e 87bd 6ee6 793c c6cc a4bb 8806 d43c
00000330: 06a1 7dbd f99d 153d d09f dc3c 8442 053d
00000340: aa04 dd3d bd90 46be 1cbf f93c ff5b 3e3d
00000350: c29c 5bbd b9f8 08bd 499b c13d 81bf 6cbd
00000360: c1a4 0b3c 66e1 ac3c f576 283c 4985 82bd
00000370: 2272 97bd c34e c43d 9aed 07bc 7a96 103d
00000380: c565 ccbd c034 70bc 9726 49bc 516a 9ebc
00000390: 05c4 203e 1fb7 c33d 2078 e33c fa04 ef3d
000003a0: 0138 183b 0c03 d83b 9418 093e bdd6 95bc
000003b0: fc44 d2bd ddad 4bbe a87b 68bd 4bd7 83be
000003c0: 2729 223e 43f0 cabd 0435 713d b47a ddbc
000003d0: c10f c83d ad1d 4ebd 3ca7 653d 9495 35be
000003e0: 0512 c7bd ed79 9bbd 3d49 c4bd d8b9 8a3c
000003f0: 795c 973d a1db 3c3d 9cb8 6bbc 6416 c63a

lv_mlp_net.0.bias f4 [59]
-0.22653492 -0.4615457 -0.49796912 -0.45902163 -0.24012843 -0.2735603 -0.51228213 -0.5125614
-0.49084416 -0.29021823 -0.3007424 -0.5009283 -0.5388345 -0.34106758 -0.6112558 -0.38841313
-0.38004404 -0.30438417 -0.4050166 -0.26648214 -0.6796753 -0.29876065 -0.47104877 -0.54525834
-0.46439976 -0.42987502 -0.38659054 -0.43143815 -0.45418257 -0.5112341 -0.4553775 -0.6322849
-0.26498014 -0.23376416 -0.34285656 -0.42866185 -0.5508532 -0.34959114 -0.39454234 -0.36580083
-0.5307571 -0.502957 -0.30226955 -0.2591302 -0.37546703 -0.36048174 -0.45072183 -0.24506332
-0.60284275 -0.44926226 -0.20505585 -0.3198091 -0.42585278 -0.37257624 -0.6489791 -0.43745598
-0.33211696 -0.3486781 -0.34460646
00000000: c5f8 67be b84f ecbe cff5 febe e204 ebbe
00000010: 3ae4 75be 1810 8cbe ec24 03bf 3937 03bf
00000020: ed4f fbbe 7c97 94be e8fa 99be d63c 00bf
00000030: 0ff1 09bf 69a0 aebe 437b 1cbf 16de c6be
00000040: 2295 c2be 3ed8 9bbe 565e cfbe 5970 88be
00000050: 33ff 2dbf 28f7 98be 4e2d f1be 0d96 0bbf
00000060: cec5 edbe 9418 dcbe 32ef c5be 76e5 dcbe
00000070: 9e8a e8be 3de0 02bf 3d27 e9be 6cdd 21bf
00000080: 7aab 87be df5f 6fbe e58a afbe 9179 dbbe
00000090: b704 0dbf 9cfd b2be 7401 cabe 3f4a bbbe
000000a0: b3df 07bf cac1 00bf 13c3 9abe b7ac 84be
000000b0: 373d c0be 1091 b8be 03c5 e6be e1f1 7abe
000000c0: e753 1abf b405 e6be 29fa 51be 05be a3be
000000d0: 6009 dabe 50c2 bebe 7f23 26bf 3bfa dfbe
000000e0: 3c0b aabe f085 b2be 4270 b0be
