model/checkpoints/lepori2025_msm/rdkit/model_000.onnx (onnx, 81320 bytes, 12 tensors)

lv_onnx::MatMul_4 f4 [193, 37]
0	0x00000000	0.0
1	0x00000000	0.0
2	0x00000000	0.0
3	0x00000000	0.0
4	0x00000000	0.0
5	0x00000000	0.0
6	0x00000000	0.0
7	0x00000000	0.0
8	0xbf1cdda9	-0.61275727
9	0x00000000	0.0
10	0x00000000	0.0
11	0x3f1cdda9	0.61275727
12	0x00000000	0.0
13	0x00000000	0.0
14	0x00000000	0.0
15	0x00000000	0.0
16	0x00000000	0.0
17	0x00000000	0.0
18	0x00000000	0.0
19	0x00000000	0.0
20	0x00000000	0.0
21	0x00000000	0.0
22	0x00000000	0.0
23	0x3f1cdda9	0.61275727
24	0x00000000	0.0
25	0xbf1cdda9	-0.61275727
26	0x00000000	0.0
27	0x00000000	0.0
28	0xbf1cdda9	-0.61275727
29	0x00000000	0.0
30	0x00000000	0.0
31	0x00000000	0.0
32	0x00000000	0.0
33	0x00000000	0.0
34	0x00000000	0.0
35	0x00000000	0.0
36	0x00000000	0.0
37	0x00000000	0.0
38	0x00000000	0.0
39	0x00000000	0.0
40	0x3f1cdda9	0.61275727
41	0x00000000	0.0
42	0x00000000	0.0
43	0x00000000	0.0
44	0x00000000	0.0
45	0x00000000	0.0
46	0x00000000	0.0
47	0x00000000	0.0
48	0x00000000	0.0
49	0x00000000	0.0
50	0x00000000	0.0
51	0x00000000	0.0
52	0x00000000	0.0
53	0x00000000	0.0
54	0x00000000	0.0
55	0x3f1cdda9	0.61275727
56	0x00000000	0.0
57	0x00000000	0.0
58	0x00000000	0.0
59	0x00000000	0.0
60	0x00000000	0.0
61	0x00000000	0.0
62	0x00000000	0.0
63	0x00000000	0.0
64	0x00000000	0.0
65	0x00000000	0.0
66	0x00000000	0.0
67	0x00000000	0.0
68	0x00000000	0.0
69	0x00000000	0.0
70	0x00000000	0.0
71	0x00000000	0.0
72	0x00000000	0.0
73	0x00000000	0.0
74	0x00000000	0.0
75	0x00000000	0.0
76	0x00000000	0.0
77	0x00000000	0.0
78	0x00000000	0.0
79	0x00000000	0.0
80	0x3f1cdda9	0.61275727
81	0x00000000	0.0
82	0x00000000	0.0
83	0x00000000	0.0
84	0x00000000	0.0
85	0x00000000	0.0
86	0x00000000	0.0
87	0x00000000	0.0
88	0x00000000	0.0
89	0x00000000	0.0
90	0xbf1cdda9	-0.61275727
91	0x00000000	0.0
92	0x00000000	0.0
93	0x00000000	0.0
94	0x00000000	0.0
95	0x00000000	0.0
96	0x00000000	0.0
97	0x00000000	0.0
98	0x00000000	0.0
99	0x00000000	0.0
100	0x00000000	0.0
101	0x00000000	0.0
102	0x00000000	0.0
103	0x00000000	0.0
104	0x00000000	0.0
105	0x00000000	0.0
106	0x00000000	0.0
107	0x00000000	0.0
108	0x00000000	0.0
109	0x00000000	0.0
110	0x00000000	0.0
111	0x00000000	0.0
112	0x00000000	0.0
113	0x00000000	0.0
114	0x00000000	0.0
115	0x00000000	0.0
116	0x00000000	0.0
117	0x00000000	0.0
118	0x00000000	0.0
119	0x00000000	0.0
120	0x00000000	0.0
121	0x00000000	0.0
122	0x00000000	0.0
123	0x00000000	0.0
124	0x00000000	0.0
125	0x00000000	0.0
126	0x00000000	0.0
127	0x00000000	0.0
128	0x00000000	0.0
129	0x00000000	0.0
130	0x00000000	0.0
131	0x00000000	0.0
132	0x00000000	0.0
133	0x00000000	0.0
134	0x00000000	0.0
135	0x00000000	0.0
136	0x00000000	0.0
137	0x00000000	0.0
138	0x00000000	0.0
139	0x00000000	0.0
140	0x00000000	0.0
141	0x00000000	0.0
142	0x3f1cdda9	0.61275727
143	0x00000000	0.0
144	0x00000000	0.0
145	0x3f1cdda9	0.61275727
146	0x3f1cdda9	0.61275727
147	0x00000000	0.0
148	0x00000000	0.0
149	0xbf1cdda9	-0.61275727
150	0x00000000	0.0
151	0x00000000	0.0
152	0x00000000	0.0
153	0x00000000	0.0
154	0x00000000	0.0
155	0x00000000	0.0
156	0x00000000	0.0
157	0x00000000	0.0
158	0x00000000	0.0
159	0x00000000	0.0
160	0x00000000	0.0
161	0x00000000	0.0
162	0x00000000	0.0
163	0x00000000	0.0
164	0x00000000	0.0
165	0x00000000	0.0
166	0x00000000	0.0
167	0x00000000	0.0
168	0x00000000	0.0
169	0x00000000	0.0
170	0x00000000	0.0
171	0x00000000	0.0
172	0x00000000	0.0
173	0x3f1cdda9	0.61275727
174	0x00000000	0.0
175	0x00000000	0.0
176	0x00000000	0.0
177	0x00000000	0.0
178	0x3f1cdda9	0.61275727
179	0x00000000	0.0
180	0x00000000	0.0
181	0x00000000	0.0
182	0xbf1cdda9	-0.61275727
183	0x00000000	0.0
184	0x00000000	0.0
185	0x00000000	0.0
186	0x00000000	0.0
187	0x00000000	0.0
188	0x00000000	0.0
189	0x00000000	0.0
190	0x00000000	0.0
191	0x00000000	0.0
192	0x00000000	0.0
193	0x00000000	0.0
194	0x00000000	0.0
195	0x00000000	0.0
196	0x00000000	0.0
197	0x00000000	0.0
198	0x00000000	0.0
199	0x00000000	0.0
200	0x00000000	0.0
201	0x00000000	0.0
202	0x00000000	0.0
203	0x00000000	0.0
204	0x00000000	0.0
205	0x00000000	0.0
206	0x00000000	0.0
207	0x00000000	0.0
208	0x00000000	0.0
209	0x3f1cdda9	0.61275727
210	0x00000000	0.0
211	0x00000000	0.0
212	0x00000000	0.0
213	0x00000000	0.0
214	0x00000000	0.0
215	0x00000000	0.0
216	0x00000000	0.0
217	0x00000000	0.0
218	0x00000000	0.0
219	0x00000000	0.0
220	0x00000000	0.0
221	0x00000000	0.0
222	0x00000000	0.0
223	0x00000000	0.0
224	0x00000000	0.0
225	0x00000000	0.0
226	0x00000000	0.0
227	0x00000000	0.0
228	0x00000000	0.0
229	0x00000000	0.0
230	0x00000000	0.0
231	0x00000000	0.0
232	0x00000000	0.0
233	0x00000000	0.0
234	0x00000000	0.0
235	0x00000000	0.0
236	0x00000000	0.0
237	0x00000000	0.0
238	0x3f1cdda9	0.61275727
239	0x00000000	0.0
240	0xbf1cdda9	-0.61275727
241	0x00000000	0.0
242	0x00000000	0.0
243	0x00000000	0.0
244	0x00000000	0.0
245	0x00000000	0.0
246	0x00000000	0.0
247	0x00000000	0.0
248	0x3f1cdda9	0.61275727
249	0x00000000	0.0
250	0x00000000	0.0
251	0x00000000	0.0
252	0x00000000	0.0
253	0x00000000	0.0
254	0x00000000	0.0
255	0x00000000	0.0

lr_lr_W f4 [193, 1]
0	0x3d841846	0.06449942
1	0x3e9a5204	0.30140698
2	0xbbfe4604	-0.0077598114
3	0xbe83fe52	-0.25779969
4	0x3e844797	0.2583587
5	0x3e0b93eb	0.13630645
6	0x3df2a3b5	0.11847631
7	0xbe2ff64e	-0.17183802
8	0x3d4bac88	0.049725085
9	0xbefe7e77	-0.4970586
10	0xbf1ed0fd	-0.6203764
11	0x3c6b9f38	0.014381222
12	0x3d885dec	0.06658539
13	0x3d57ed5d	0.0527166
14	0xbce20d36	-0.02759419
15	0x3dbab406	0.09116368
16	0x3e54bc80	0.20775032
17	0x3e379b68	0.17930377
18	0x3e9c6cbd	0.3055171
19	0xbe728d8b	-0.23686807
20	0xbe83b751	-0.25725797
21	0xbd60dde0	-0.054899096
22	0x3dc6ff1d	0.09716628
23	0xbe919590	-0.2843442
24	0x3eba3594	0.36369002
25	0x3dbc7953	0.09202828
26	0x3e8ddf31	0.27709344
27	0xbe3f2c14	-0.18669158
28	0xbec40611	-0.38285878
29	0x3df94444	0.12171224
30	0x3e3333dc	0.17500252
31	0x3df82163	0.12115743
32	0xbd8288b3	-0.063737296
33	0xbdc27f6b	-0.09496959
34	0xbe739aad	-0.23789473
35	0xbd5bd1dc	-0.053666934
36	0x3e8ab2cb	0.27089533
37	0xbedc38e6	-0.4301216
38	0x3d70047d	0.05859803
39	0x3c98c596	0.018648904
40	0xbe0b1562	-0.13582376
41	0xbdeb6e00	-0.1149559
42	0x3e38d9db	0.18051855
43	0x3d2993ae	0.041400604
44	0xbbafbcca	-0.0053630816
45	0x3d54efd7	0.05198654
46	0x3e5406cd	0.2070572
47	0x3ec4b4d7	0.3841922
48	0x3e5406cd	0.2070572
49	0xbe907d52	-0.28220612
50	0xbdcc825c	-0.099858016
51	0xbd4e66f9	-0.05039117
52	0x3ebd2a04	0.36946118
53	0xbf1c783b	-0.6112096
54	0x3c1a7b39	0.009428793
55	0x3e00bc49	0.12571825
56	0xbdc3c3d2	-0.09558834
57	0x3d36feda	0.04467664
58	0xbd75c950	-0.06000644
59	0xbda5f16d	-0.08102689
60	0x3e3847bf	0.17996119
61	0x3d868539	0.06568379
62	0x3d1f6ab8	0.038920134
63	0xbe8287b1	-0.2549415
64	0x3dfda82e	0.12385593
65	0xbe1058c3	-0.1409636
66	0xbe8eb020	-0.27868748
67	0xbda82bea	-0.08211501
68	0x3d512e7d	0.051069725
69	0x3e3fc8f1	0.18728997
70	0xbc9fb20d	-0.01949408
71	0x3e6f4075	0.23364432
72	0x3e8720db	0.26392254
73	0xbd88dd14	-0.06682792
74	0xbee20fac	-0.44152582
75	0xbeba31c0	-0.3636608
76	0x3e96d2e4	0.29457772
77	0x3e02d97b	0.12778275
78	0x3daab294	0.08334842
79	0x3e9e81b9	0.30958346
80	0xbdbcfdea	-0.09228118
81	0x3ee84a1a	0.45369035
82	0xbd609bca	-0.054836072
83	0xbee883f1	-0.45413163
84	0x3ea79659	0.32731894
85	0xbe84876b	-0.25884566
86	0x3ea5d4ad	0.3238882
87	0x3dc3d4ae	0.0956205
88	0xbdb9ec0b	-0.09078225
89	0xbe96210f	-0.29322097
90	0xbbb6f03d	-0.005582838
91	0x3d375576	0.044759236
92	0x3e910009	0.2832034
93	0x3d4b388d	0.049614478
94	0xbd9a702c	-0.07540926
95	0xbe782cc8	-0.24235833
96	0xbe37e8bf	-0.1795988
97	0x3db724bc	0.089425534
98	0x3e3ae92b	0.18253009
99	0x3eec5588	0.46159005
100	0x3dadf237	0.084934644
101	0x3e9eaf02	0.30992895
102	0xbe02afb5	-0.1276234
103	0xbc462f2b	-0.012096207
104	0xbd334842	-0.043770082
105	0x3e96173e	0.29314607
106	0xbee9a3a8	-0.45632672
107	0xbce8a7b1	-0.028400274
108	0x3e2fb61c	0.17159313
109	0x3d049cc9	0.032376084
110	0x3eaa5834	0.3327042
111	0xbd95d3fd	-0.07315824
112	0xbd4e1602	-0.050313957
113	0xbd588a9e	-0.05286657
114	0xbdb76f05	-0.08956722
115	0x3ebef1ee	0.37293953
116	0xbda25d95	-0.079280056
117	0xbe4cdedc	-0.20006889
118	0x3e1c1a6b	0.15244453
119	0xbee33996	-0.44379872
120	0x3e5e36c7	0.21700583
121	0x3e942388	0.28933358
122	0xbdc85a10	-0.09782803
123	0x3f15f5ea	0.5857836
124	0x3e64fdfc	0.22362512
125	0xbe504d1f	-0.2034192
126	0xbe6a1824	-0.22860771
127	0xbf123a6d	-0.571204
128	0x3ef8dc82	0.48605734
129	0xbf051a46	-0.51993215
130	0x3d962c58	0.07332677
131	0x3ddc6066	0.10760574
132	0xbe82aced	-0.25522557
133	0x3b04284c	0.002016562
134	0x3e20ce1d	0.15703626
135	0xbed2543e	-0.41079897
136	0xbed2543e	-0.41079897
137	0x3d743f72	0.05963082
138	0x3e60329f	0.2189431
139	0xbe2154b4	-0.15754968
140	0xbdb973ee	-0.09055315
141	0x3e95be7e	0.29246897
142	0xbc380a6d	-0.011232954
143	0xbed352cd	-0.4127411
144	0xbd10c603	-0.03534509
145	0xbe5d9f80	-0.21642876
146	0x3e779ab8	0.24180114
147	0x3b04284c	0.002016562
148	0x3dad9f06	0.08477597
149	0x3e9a943f	0.30191228
150	0x3f11f7be	0.5701865
151	0x3df040c5	0.11731104
152	0x3d1f6ab8	0.038920134
153	0xbdb973ee	-0.09055315
154	0x3ea373ae	0.31924194
155	0x3d8c302e	0.06845127
156	0xbe079ecf	-0.13244174
157	0xbe8287b1	-0.2549415
158	0x3ec63563	0.38712606
159	0xbe799984	-0.24374968
160	0x3e2cdb4e	0.16880533
161	0xbf841d27	-1.0321397
162	0xbe5bac63	-0.21452479
163	0x3daff67d	0.08591936
164	0xbe1f45c7	-0.15553962
165	0xbe455904	-0.19272238
166	0x3ddd82ca	0.10815962
167	0x3db1a20c	0.08673486
168	0xbe0986b4	-0.13430291
169	0xbe377c8e	-0.17918608
170	0x3e6f7b2e	0.23386833
171	0x3ca6a599	0.020342635
172	0x3d9805c4	0.07422975
173	0x3e7209af	0.23636506
174	0x3e19ef1b	0.15032618
175	0x3eded291	0.43520024
176	0x3e459247	0.19294082
177	0xbe647b42	-0.22312644
178	0x3e10fdf1	0.14159371
179	0x3e10fdf1	0.14159371
180	0xbd9e609b	-0.0773327
181	0x3e3cfaf1	0.18455102
182	0x3e996ee8	0.29967427
183	0xbd55bff9	-0.052185033
184	0x3dc0ae8f	0.094082944
185	0xbdf15312	-0.117834225
186	0xbe27a03a	-0.16369715
187	0xbe1d7e23	-0.15380149
188	0x3e01708c	0.1264059
189	0xbd27ab94	-0.040935114
190	0x3e19a6d4	0.15005046
191	0xbe00d5ed	-0.12581606
192	0x3f437eeb	0.76365536

svc_W2_svc f4 [193, 1]
0	0xbe3742ac	-0.17896527
1	0x3fc01d94	1.5009027
2	0xbd86b41e	-0.065773234
3	0xbf512350	-0.8169451
4	0x3f055548	0.52083254
5	0xbe8ed719	-0.2789848
6	0x3d5ffa13	0.05468185
7	0x3f05acbf	0.52216715
8	0x3e056abf	0.13029002
9	0xbf462673	-0.7740242
10	0xbfb661be	-1.4248579
11	0x3f5430e1	0.82887083
12	0x3e89fb3a	0.26949483
13	0x3d3d0941	0.046151403
14	0xbf80e95e	-1.0071218
15	0xbf85e291	-1.0459768
16	0x3f2da6b7	0.6783251
17	0xbfb36649	-1.401559
18	0x3eb9adb0	0.36265326
19	0xbea1fec2	-0.31639677
20	0xbf604f26	-0.8762077
21	0xbf27cb55	-0.65544635
22	0x3ed7fd22	0.42185313
23	0xbe33b12a	-0.17548051
24	0x3f187a5f	0.59561723
25	0x3d39fb43	0.045405637
26	0x3e63e4e7	0.22255288
27	0xbddd1a69	-0.10796053
28	0xbe85dca9	-0.26144913
29	0x3db38d9d	0.08767245
30	0x3d6d3ac7	0.057917383
31	0x3da2841c	0.07935354
32	0x3d8d929d	0.0691273
33	0xbf89c900	-1.0764465
34	0xbf020970	-0.5079565
35	0x3e7ea24c	0.24866599
36	0x3e16fa28	0.14743865
37	0xbf681876	-0.90662324
38	0xbeb4fe0e	-0.35350078
39	0x3e706480	0.23475838
40	0xbf93602e	-1.1513727
41	0x3d4bac07	0.049724605
42	0x40145efe	2.3182979
43	0xbeffab2f	-0.4993529
44	0xbe832806	-0.25616473
45	0x3df502ea	0.119634464
46	0x3e7c39ed	0.24631472
47	0x3df564eb	0.11982139
48	0x3e7c39ed	0.24631472
49	0xbf15b4e6	-0.58479154
50	0xbdfc4af8	-0.12318987
51	0xbe1b06eb	-0.15139358
52	0x3f638977	0.8888163
53	0xbf0cc6d0	-0.54990864
54	0x3f570321	0.8398915
55	0x3ebc5fb4	0.36791766
56	0xbf890744	-1.0705342
57	0x3e353fbb	0.17700092
58	0x3e5c4362	0.2151008
59	0x3e826b56	0.25472516
60	0x3edf1ffd	0.43579093
61	0x3f01c144	0.50685525
62	0xbdec59c7	-0.11540561
63	0x3a4bee0a	0.0007779306
64	0xbd8d515f	-0.06900286
65	0xbd2f4e37	-0.0427992
66	0xbdbfa741	-0.09358073
67	0xbd841591	-0.06449426
68	0xbdbb89ca	-0.091571406
69	0x3f39e951	0.7262164
70	0x3f73bc26	0.95208967
71	0x3e90b94d	0.28266373
72	0xbd77b4ef	-0.060475286
73	0xbe1ede37	-0.15514456
74	0xbed0a022	-0.40747172
75	0xbed0856e	-0.407268
76	0x3e8239c8	0.2543471
77	0x3d8a4d6a	0.06753047
78	0x3ee2af86	0.4427454
79	0x3fb82dc2	1.4388964
80	0xbdf9e807	-0.12202459
81	0x3ea0c734	0.3140198
82	0xbd280c4c	-0.041027352
83	0xbea36bdb	-0.31918225
84	0x3ead8301	0.3388901
85	0x3eacfb05	0.33785263
86	0x3f46e207	0.7768864
87	0x3ec8c630	0.39213705
88	0x3d2c64e5	0.042088408
89	0xbefe73db	-0.49697766
90	0xbe8dad31	-0.27671197
91	0xbd8a92f3	-0.067663096
92	0x3def946d	0.11698232
93	0x3ed33180	0.41248703
94	0x3ebe1f3f	0.37133214
95	0xbffe6af5	-1.9876391
96	0xbedaebe7	-0.42758104
97	0xbce2fbb5	-0.027707914
98	0xbeb77213	-0.3582922
99	0x3f03f3d9	0.51543957
100	0x3f862502	1.0480044
101	0x3f5dacff	0.86592096
102	0xbe69b568	-0.22823107
103	0xbeded73f	-0.43523595
104	0xbe106042	-0.1409922
105	0x3f3cbd63	0.7372648
106	0xbe94325f	-0.2894468
107	0xbc38648c	-0.011254441
108	0x3fa17ceb	1.2616247
109	0xbe9acb87	-0.30233404
110	0x3e6cd9f3	0.23130016
111	0x3e3629fa	0.1778945
112	0xbc553ae4	-0.013014529
113	0xbeb0774e	-0.34466022
114	0x3e4e6692	0.20156315
115	0x3f499b24	0.7875235
116	0x3f8d9d46	1.1063621
117	0x3f99bb43	1.2010273
118	0xbf00515a	-0.5012413
119	0xbf8e6c45	-1.1126791
120	0xbdafe128	-0.08587867
121	0x3f4d4baf	0.8019361
122	0x3e7d8242	0.2475672
123	0x4019e67c	2.4046926
124	0x3f8df86b	1.1091436
125	0x3f039229	0.513949
126	0x3e72d91c	0.23715633
127	0xbebaf7f8	-0.3651731
128	0x3f48e154	0.78468823
129	0xbf593dcf	-0.8485994
130	0x3ddd41c8	0.108035624
131	0x3e240b0c	0.16019839
132	0xbe8d89a9	-0.2764409
133	0x3df7383e	0.12071274
134	0x3dfdcc12	0.12392439
135	0xbe571da5	-0.21007402
136	0xbe571da5	-0.21007402
137	0x3f40b52a	0.75276434
138	0x3f5f6a77	0.8727183
139	0xbe2349ba	-0.15946093
140	0xbd6c851a	-0.057744123
141	0x3ed05d43	0.40696153
142	0xbf5ef1cf	-0.8708772
143	0xbfd203db	-1.6407427
144	0x3b81854e	0.0039526587
145	0xbe1aad17	-0.15105091
146	0x3e07564d	0.13216515
147	0x3df7383e	0.12071274
148	0x3c77b0b3	0.015117812
149	0x3e204a71	0.15653397
150	0x3f7664f8	0.96247816
151	0x3caf2c52	0.021383438
152	0xbdec59c7	-0.11540561
153	0xbd6c851a	-0.057744123
154	0xbd4dfacb	-0.050288003
155	0x3c8da8f2	0.017292473
156	0xbf8981a1	-1.0742685
157	0x3a4bee0a	0.0007779306
158	0x3e95bfe0	0.29247952
159	0xbe0895c9	-0.13338389
160	0x3ddb8f9d	0.107207514
161	0xbfa50cd6	-1.2894542
162	0xbe438143	-0.19092278
163	0x3c5844b9	0.0131999785
164	0xbef2ae09	-0.47398403
165	0xbe5dff7d	-0.21679492
166	0x3df8a86c	0.12141499
167	0x3ecb5eb1	0.3972068
168	0xbe9f45c6	-0.3110792
169	0xbdc5ce75	-0.09658519
170	0x3e5fa5ca	0.21840587
171	0x3cce9868	0.025219157
172	0xbcfc57f4	-0.030803658
173	0x3da47b01	0.08031274
174	0x3d9bedaa	0.0761369
175	0x3e8ec1fc	0.27882373
176	0x3d7708aa	0.060310997
177	0xbe1c24c6	-0.15248403
178	0x3e01a43b	0.12660305
179	0x3e01a43b	0.12660305
180	0xbdacca5d	-0.08437035
181	0x3d9c9d1e	0.07647155
182	0x3e9e8610	0.30961657
183	0x3d551595	0.052022535
184	0xbe35011a	-0.17676201
185	0x3c20ca05	0.00981379
186	0xbca4c1a6	-0.02011187
187	0xbd427254	-0.047472313
188	0xbc8a5983	-0.016888386
189	0xbcf38741	-0.02972758
190	0x3d9559dd	0.07292531
191	0xbde8205d	-0.11334298
192	0x3ede2b5b	0.43392453

fs_lr_fs_lr_W f4 [174, 1]
0	0x3d82b545	0.06382231
1	0x3e444964	0.19168621
2	0x3dad24cd	0.08454285
3	0xbd8617a4	-0.06547478
4	0x3e751d35	0.23936923
5	0x3dc7fee4	0.097654134
6	0xbe55937d	-0.20857044
7	0xbd41110c	-0.047135398
8	0xbed95cf1	-0.4245372
9	0xbee9d7c5	-0.45672432
10	0xbc2d3e24	-0.0105738975
11	0x3cb1100f	0.021614103
12	0x3c77e9f9	0.015131467
13	0xbd36f8c5	-0.04467084
14	0x3d949a3f	0.072559826
15	0x3e7e71e6	0.24848136
16	0x3e48e39d	0.19618078
17	0x3e9fd600	0.31217957
18	0xbdd120b9	-0.102113195
19	0xbd9fbc37	-0.07799571
20	0x3d19c3f0	0.037540376
21	0x3e2b2d0d	0.16716404
22	0xbe844dfa	-0.2584074
23	0x3e9c71a1	0.30555442
24	0x3db31c45	0.08745626
25	0x3e52de31	0.20592572
26	0xbe26697c	-0.16251177
27	0xbeae2d2a	-0.34018832
28	0x3e07e8b1	0.13272358
29	0x3e387fee	0.18017551
30	0x3df702af	0.12061059
31	0xbe7c91df	-0.2466502
32	0xbe02c7fd	-0.12771602
33	0xbdb8ca13	-0.090229176
34	0xbc990427	-0.018678738
35	0x3e2e21b4	0.17005044
36	0xbe84cadb	-0.25936016
37	0x3d8a8d5b	0.06765243
38	0xbc1ab3e5	-0.009442304
39	0xbe2673fa	-0.16255179
40	0xbe2ea009	-0.17053236
41	0x3de27b38	0.11058658
42	0x3cfc4f3a	0.030799497
43	0x3d027813	0.031852793
44	0x3c960242	0.018311623
45	0x3e22894e	0.1587269
46	0x3ebefbc6	0.37301463
47	0x3e22894e	0.1587269
48	0xbd1817d7	-0.03713211
49	0xbda5aaaa	-0.08089192
50	0x3e572925	0.21011789
51	0xbeebdd79	-0.46067408
52	0xbcdbaa9f	-0.026814757
53	0x3e00e19a	0.1258606
54	0xbe046765	-0.12930067
55	0x3e51def3	0.20495205
56	0xbe3446cf	-0.17605136
57	0xbd18c0df	-0.03729331
58	0x3df5afc1	0.11996413
59	0x3d682aaa	0.056681313
60	0x3e1041ef	0.14087652
61	0xbe7776f2	-0.24166468
62	0x3dc038ee	0.093858585
63	0xbe1804c9	-0.14845575
64	0xbe9c1ded	-0.30491582
65	0xbd9df654	-0.07712999
66	0xbd614fb6	-0.05500766
67	0x3e8348a8	0.2564137
68	0xbbfbc6ed	-0.007683626
69	0x3e285d25	0.16441782
70	0x3eb7ac4d	0.35873643
71	0xbe2bdb00	-0.1678276
72	0xbebe5bb4	-0.3717934
73	0xbec892ba	-0.39174443
74	0x3e6a7637	0.22896658
75	0x3e025b26	0.12730083
76	0x3cd395e4	0.02582831
77	0xbd645b4f	-0.05575114
78	0x3ec19235	0.3780686
79	0x3dab05cd	0.08350716
80	0xbea6e849	-0.32599095
81	0x3eb0aa76	0.3450505
82	0xbe6e7f06	-0.23290643
83	0x3e1c2589	0.15248694
84	0xbe531d4a	-0.20616642
85	0xbe670aaf	-0.22562669
86	0x3d72e1a6	0.059297226
87	0x3d9838b7	0.074326925
88	0x3e8798dc	0.2648381
89	0x3d26a4ba	0.04068444
90	0xbdb75cde	-0.0895326
91	0xbef307c3	-0.4746686
92	0xbd80e6d7	-0.06294029
93	0x3e72e7b9	0.23721208
94	0x3e8c9068	0.27453923
95	0xbdc808a0	-0.0976727
96	0xbc8972c1	-0.016778352
97	0xbd54dbe6	-0.051967524
98	0x3e8f2fa5	0.27966037
99	0xbed32d8b	-0.41245684
100	0xbe60d8ec	-0.21957749
101	0x3e9633c4	0.2933637
102	0xbdeadeb0	-0.114682555
103	0x3e96b94b	0.29438242
104	0x3e896004	0.26831067
105	0xbde52109	-0.111879416
106	0xbc0666a0	-0.008203179
107	0xbddcb415	-0.107765354
108	0x3e9cde02	0.3063813
109	0xbda59786	-0.080855414
110	0xbe716053	-0.23571901
111	0x3e189632	0.14901045
112	0xbecb881b	-0.39752278
113	0x3ea85c04	0.32882702
114	0x3e6e2ae6	0.23258552
115	0xbca5e583	-0.020251041
116	0x3ee8dfd8	0.4548328
117	0x3e898424	0.26858628
118	0xbe3f1a9c	-0.18662494
119	0xbde58c79	-0.11208434
120	0xbefac94f	-0.4898171
121	0x3e805a8a	0.25069076
122	0xbb1fadc1	-0.002436504
123	0x3df84ef9	0.12124438
124	0xbe173cae	-0.14769241
125	0xbd4b512c	-0.04963796
126	0x3e51f956	0.2050527
127	0xbeabd539	-0.33561113
128	0xbeabd539	-0.33561113
129	0x3d590a92	0.052988596
130	0x3e3bc54e	0.18336985
131	0xbdfeae86	-0.124356315
132	0xbd988394	-0.074469715
133	0x3efb8766	0.49126738
134	0xbc25bc63	-0.010115716
135	0xbd07e486	-0.03317692
136	0xbe5b6d47	-0.21428405
137	0x3e6101a8	0.21973288
138	0xbd4b512c	-0.04963796
139	0x3e622a13	0.22086363
140	0x3f1273c9	0.57207924
141	0x3e1041ef	0.14087652
142	0xbd988394	-0.074469715
143	0x3e8bba12	0.27290398
144	0xbdcfc31e	-0.101446375
145	0xbd1fb9a8	-0.038995415
146	0xbe7776f2	-0.24166468
147	0x3ea37b23	0.31929883
148	0xbe340fc9	-0.17584147
149	0x3d97e81b	0.074173175
150	0xbdfd4035	-0.12365762
151	0x3d9129f2	0.070880786
152	0xbd69ce34	-0.057081416
153	0xbda002a9	-0.078130074
154	0x3ba80eb1	0.0051287045
155	0xbe30babe	-0.17258736
156	0x3da68cc4	0.08132318
157	0x3ccea73c	0.025226228
158	0x3e14dde0	0.14537764
159	0x3de12851	0.10994018
160	0x3ebe4dbb	0.3716868
161	0x3e5d79a1	0.21628429
162	0xbe3d44a1	-0.18483211
163	0x3e3eca85	0.18631943
164	0x3e3eca85	0.18631943
165	0xbd237899	-0.039909933
166	0x3e73fbb6	0.23826489
167	0xbd9932b3	-0.07480373
168	0xbd77aed8	-0.06046948
169	0xbe1aab83	-0.15104489
170	0x3e29a776	0.16567788
171	0x3da9600c	0.082702726
172	0xbddb833a	-0.10718389
173	0x3f205be8	0.6264024

fs_svc_W2_fs_svc f4 [174, 1]
0	0xbe6ab406	-0.22920236
1	0x3f8fcfbe	1.1235273
2	0xbcb5a31a	-0.0221725
3	0xbf1ff792	-0.6248714
4	0x3f0ac032	0.54199517
5	0x3da2dd40	0.07952356
6	0x3f083caf	0.53217596
7	0x3d6cab0b	0.057780307
8	0xbf49a410	-0.78765965
9	0xbfcf80de	-1.6211202
10	0x3d8f473f	0.06996011
11	0xbef2d505	-0.47428146
12	0xbfcd29ba	-1.6028359
13	0xc0855bd1	-4.167458
14	0xbf81a8b9	-1.0129615
15	0x402bd1a3	2.6846702
16	0xbecb2c02	-0.39682013
17	0xbeb58918	-0.35456157
18	0x3e3a5fdd	0.18200631
19	0xbf5fdc59	-0.874456
20	0xbf1608df	-0.58607286
21	0x3f170d2e	0.59004486
22	0x3e1fd6c6	0.15609273
23	0x3f182991	0.59438425
24	0x3e5e3a79	0.21701993
25	0x3ec2cc55	0.38046518
26	0x3e1f66af	0.15566514
27	0xbc1f2c79	-0.009715193
28	0x3e95f946	0.29291743
29	0x3e8d4280	0.27589798
30	0x3e2fa992	0.1715453
31	0xbd2684b1	-0.040653888
32	0xbfcb1d97	-1.5868405
33	0xbf043af2	-0.51652443
34	0x3e99cfc0	0.30041313
35	0x3db4c9c8	0.08827549
36	0xbee4e6be	-0.44707292
37	0xbe7dea0d	-0.24796315
38	0x3f987280	1.1909943
39	0xbfb61dc4	-1.4227834
40	0x3c61822f	0.013763948
41	0x4049187b	3.1421192
42	0xbf2aa6df	-0.66660875
43	0xbe848cd8	-0.25888705
44	0x3f4d3db4	0.80172276
45	0x3e3e0e0d	0.18560047
46	0xbf384a63	-0.71988505
47	0x3e3e0e0d	0.18560047
48	0xbdaad11e	-0.08340667
49	0xbf0dec57	-0.5543875
50	0x3f2d8333	0.6777832
51	0xbfa79891	-1.3093435
52	0x4006dd52	2.1072583
53	0x3f60072b	0.8751094
54	0xbfca38f8	-1.5798635
55	0xc046d201	-3.1065676
56	0x3fa4ca88	1.2874308
57	0x3eccf9e7	0.4003441
58	0x3ea6892d	0.32526532
59	0x3f0a5a9b	0.540445
60	0xbd92a99a	-0.07161255
61	0x3dfc1786	0.12309174
62	0x3ebf948c	0.3741802
63	0x3eaed156	0.34144086
64	0xbd8b4670	-0.06800544
65	0xbe222304	-0.1583367
66	0xbf34e25a	-0.70657885
67	0x406a23c6	3.6584334
68	0x3fc8b1a8	1.5679216
69	0x3f09a39b	0.5376527
70	0x3e94f77d	0.2909507
71	0xbe96e434	-0.2947098
72	0xbed38d6d	-0.41318837
73	0xbf04afa7	-0.51830524
74	0x3e4695aa	0.1939303
75	0x3d654c45	0.05598094
76	0x3e31ead6	0.17374739
77	0x3f0bf6b8	0.5467334
78	0x3eb34ff4	0.35021937
79	0x3e1586c8	0.14602196
80	0xbe2c7b61	-0.1684394
81	0x3f44232d	0.76616174
82	0x3da85cc0	0.08220816
83	0x3eb112a6	0.3458454
84	0xbe44dead	-0.19225569
85	0xbef50434	-0.4785477
86	0xbe689e67	-0.22716676
87	0xbd2ba9d8	-0.041910022
88	0x3e6796af	0.22616075
89	0x3ecbe893	0.39825878
90	0x3f3fc119	0.7490402
91	0xc06f0d88	-3.735201
92	0xbd369845	-0.04457881
93	0x3ee6716a	0.45008403
94	0x3e4b1a6f	0.19834302
95	0xbe99f91b	-0.30072865
96	0xbdc6a55d	-0.09699509
97	0xbde45b66	-0.11150245
98	0x3fa292e2	1.2701075
99	0xbf27ca3a	-0.6554295
100	0xbf3643f2	-0.71197426
101	0x3e9fd633	0.3121811
102	0x3f22f993	0.6366207
103	0x3f15c7dc	0.58508086
104	0x3f12b09b	0.5730073
105	0x3e78c472	0.24293688
106	0xbdae98ef	-0.085252635
107	0x3d9dca71	0.07704628
108	0x3ebb76f2	0.36614186
109	0x3fd7acd0	1.6849613
110	0x3fcb1e01	1.5868531
111	0xbe88749a	-0.2665146
112	0xbf98d20d	-1.1939102
113	0xbdd2cfae	-0.10293518
114	0x3e6f2b73	0.23356418
115	0x3e2b988e	0.16757414
116	0x401a960b	2.415408
117	0x3f8b0e7f	1.0863799
118	0x3f6f76a6	0.9354042
119	0x3f1db8f1	0.61610323
120	0xbe87d6ca	-0.2653106
121	0x3f968dab	1.1761984
122	0xbc5945c8	-0.013261266
123	0x3e204e7e	0.15654942
124	0xbf015d48	-0.5053296
125	0x3d2e45e7	0.042547133
126	0x3ecd35bf	0.40080068
127	0xbe04a553	-0.12953691
128	0xbe04a553	-0.12953691
129	0x3f86d4f9	1.0533744
130	0x3f945174	1.1587358
131	0xbdeb0900	-0.11476326
132	0xbd01834d	-0.03161936
133	0xbeeb4301	-0.45949557
134	0xbfb697c9	-1.4265071
135	0x3b00f34d	0.0019676269
136	0xbe0d6a99	-0.13810195
137	0x3dc19278	0.09451765
138	0x3d2e45e7	0.042547133
139	0x3d9d3d6e	0.076777324
140	0x3f848aca	1.0354855
141	0xbd92a99a	-0.07161255
142	0xbd01834d	-0.03161936
143	0x3e130b18	0.143597
144	0xbd8a2441	-0.06745196
145	0xbece2b63	-0.40267476
146	0x3dfc1786	0.12309174
147	0x3e8db34c	0.27675855
148	0xbda2ce3d	-0.07949493
149	0xbdb1ce46	-0.08681922
150	0xbe395243	-0.18097787
151	0x3becf2cb	0.0072310916
152	0x3f10069f	0.56260103
153	0xbe0b1a6e	-0.13584301
154	0x3d88e4cf	0.06684267
155	0xbdd10d4d	-0.10207615
156	0x3e27a84d	0.16372795
157	0x3d259d22	0.040433057
158	0x3dc32eca	0.09530409
159	0x3dcb9c0b	0.09941872
160	0x3e7b0e1d	0.24517103
161	0x3db574b2	0.088601485
162	0xbe04b1d5	-0.12958463
163	0x3e7ef248	0.2489711
164	0x3e7ef248	0.2489711
165	0xbd28e21d	-0.041231263
166	0x3ddcac78	0.10775083
167	0xbdbee5e0	-0.09321189
168	0xbdf86779	-0.12129111
169	0xbd361a43	-0.04445864
170	0x3e015860	0.12631369
171	0x3ab7cedb	0.001402344
172	0xbdfe241d	-0.12409232
173	0x3edd78e7	0.43256304

mfs_lr_mfs_lr_W f4 [83, 1]
0	0x3e2f0153	0.17090349
1	0x3f56f0b4	0.83961034
2	0x3cda3afc	0.026639454
3	0xbf073d92	-0.52828324
4	0x3f40c19e	0.75295436
5	0x3e7edc50	0.2488873
6	0xbdc28626	-0.09498243
7	0xbe9e818e	-0.30958217
8	0xbe890174	-0.2675892
9	0xbf038107	-0.51368755
10	0xbfb5fcb1	-1.421774
11	0xbcd3b574	-0.02584336
12	0xbeb16d67	-0.3465378
13	0xbe83d5ce	-0.25749058
14	0xbe9150ac	-0.2838186
15	0x3e73af4e	0.23797342
16	0x3f7ddf32	0.99168694
17	0x3f01b1c2	0.5066186
18	0x3f7b729f	0.9822177
19	0xbe83e7ba	-0.2576273
20	0xbf56e093	-0.83936423
21	0xbdc48be7	-0.09596997
22	0x3f0ed287	0.5578999
23	0xbd538529	-0.051640663
24	0x3e6069b8	0.21915329
25	0x3adf7c92	0.0017050675
26	0x3e464a23	0.19364218
27	0x3e236915	0.15958054
28	0x3d2e441b	0.04254542
29	0x3d1085c8	0.035283834
30	0xbe8c6d04	-0.27426922
31	0x3ec50057	0.38476822
32	0xbddf2855	-0.108963646
33	0xbeb194ed	-0.34683934
34	0xbcc99034	-0.024604894
35	0xbed31b9d	-0.41232005
36	0x3ee19664	0.4406005
37	0xbecb3f38	-0.3969667
38	0x3cdbb66d	0.026820386
39	0xbe2bf160	-0.16791296
40	0x3e18822a	0.14893404
41	0x3ed1656b	0.40897688
42	0x3e18822a	0.14893404
43	0xbdc0da13	-0.09416594
44	0xbe8050b5	-0.25061575
45	0xbe325a66	-0.17417297
46	0x3d96e763	0.07368352
47	0xbeaf5e40	-0.34251595
48	0xbf416a09	-0.7555242
49	0x3e8a6346	0.27028865
50	0x3d3d0bbc	0.04615377
51	0xbf290ee6	-0.6603836
52	0x3f262567	0.6490082
53	0xbe81b79a	-0.2533539
54	0x3e34868c	0.1762945
55	0x3ecf5e1d	0.4050149
56	0x3f2a8664	0.66611314
57	0x3e23b44c	0.15986747
58	0x3ec2d9ff	0.38056943
59	0x3eacc06b	0.33740553
60	0x3f1b7a3b	0.60733384
61	0xbf941824	-1.1569867
62	0x3f0857dc	0.5325906
63	0xbe5d4341	-0.21607687
64	0x3e663887	0.22482501
65	0xbf030dac	-0.51192737
66	0xbf8a2501	-1.0792543
67	0xbfa61f7a	-1.2978356
68	0x3e03f1a6	0.1288515
69	0xbe6eaf59	-0.23309077
70	0xbebc6262	-0.3679381
71	0xbf192500	-0.5982208
72	0x3f46f18f	0.7771234
73	0x3f1cf299	0.61307675
74	0x3f99daf3	1.2019943
75	0x3f29b47f	0.6629104
76	0x3e2c9a10	0.16855645
77	0x3ed9c0f5	0.42530027
78	0x3e58960f	0.21150993
79	0xbe677a87	-0.22605334
80	0xbe4c2417	-0.19935642
81	0x3e9aefc3	0.3026105
82	0x3e275648	0.16341507

mfs_svc_W2_mfs_svc f4 [83, 1]
0	0xbdf5459f	-0.1197617
1	0x3fa330d0	1.2749271
2	0x3dda3cbf	0.10656118
3	0xbf2a57ff	-0.6654052
4	0x3f63578c	0.8880546
5	0xbe3e2d9c	-0.18572086
6	0xbe129502	-0.14314654
7	0x3d1c9171	0.03822464
8	0xbe645df7	-0.2230147
9	0xbf5d7aee	-0.865157
10	0xbfe97268	-1.8238039
11	0xc0b548bb	-5.665128
12	0xc091da27	-4.55788
13	0x3f82d809	1.0222179
14	0xbfeb0acf	-1.8362674
15	0xbf215982	-0.63027203
16	0x3fb922fb	1.44638
17	0x3d8635c7	0.06553226
18	0x3f5d48b3	0.86439055
19	0x3f563dee	0.8368825
20	0xbfb6532f	-1.4244136
21	0xbe9174dd	-0.28409472
22	0x3f78a933	0.9713318
23	0x3d52dba8	0.05147901
24	0x3e13f94e	0.14450571
25	0xbc4a582b	-0.012350122
26	0x3e33cb69	0.17558064
27	0x3e059275	0.1304415
28	0xc004144b	-2.0637386
29	0x3dbde3a9	0.09271938
30	0xbed0b6ba	-0.4076441
31	0x3ef2b0f6	0.47400635
32	0xbe6b7b71	-0.22996308
33	0xc00a137b	-2.157439
34	0x3fe55c67	1.7918824
35	0xbe9db84b	-0.30804667
36	0x405037ba	3.2534013
37	0xc081dc25	-4.058123
38	0xbe98711b	-0.29773793
39	0xbfb5cc4d	-1.4202973
40	0x3db01385	0.08597473
41	0x3e39059d	0.18068548
42	0x3db01385	0.08597473
43	0xbe7d8263	-0.2475677
44	0xbe1d92ea	-0.15388075
45	0xbd850da3	-0.064967416
46	0x3ec233cb	0.3793014
47	0xbeb9253c	-0.3616122
48	0xbf7e1891	-0.99256235
49	0x4093daa5	4.62044
50	0xbf4532be	-0.7703055
51	0xbe28459c	-0.16432804
52	0x3f0440d5	0.51661426
53	0xbea532ea	-0.32265407
54	0x3df2e686	0.11860375
55	0x40c01e8e	6.00373
56	0x3f239e3a	0.6391331
57	0x3dfabb61	0.12242771
58	0x3ea4363f	0.32072636
59	0x3eb0b3f6	0.345123
60	0x407436ba	3.8158402
61	0xbf3754c7	-0.71613735
62	0x3eabfb8e	0.33590358
63	0xbed9cc18	-0.42538524
64	0xbd9d04c4	-0.076669246
65	0xbf234fa5	-0.637934
66	0xbf5af9d0	-0.85537434
67	0xbfa1de0d	-1.264589
68	0x3dae5f26	0.08514242
69	0x3de2b1f4	0.11069098
70	0xbeb8179b	-0.3595551
71	0xbf8d8179	-1.1055137
72	0x3f995ca2	1.1981394
73	0x3f4510e3	0.7697889
74	0x3f87e626	1.0617111
75	0x3f0d11df	0.55105394
76	0x3e1bcac3	0.15214066
77	0x3f242f95	0.64135104
78	0x3e531425	0.20613153
79	0xbcd9599d	-0.026531989
80	0xbe04a764	-0.1295448
81	0x3edb7958	0.42866015
82	0x3ddb85d6	0.107188866

lv_lr_lv_lr_W f4 [37, 1]
0	0x3d7d9b16	0.06191548
1	0x3dc1bfde	0.09460424
2	0x3d8ed8c5	0.06974939
3	0xbe12b4e0	-0.14326811
4	0x3d670cde	0.056408755
5	0x3d11aa45	0.035562772
6	0x3e3d9492	0.18513706
7	0xbddfb362	-0.109228864
8	0xbdb061d9	-0.08612413
9	0xbd49fa2c	-0.049310848
10	0xbe7e63aa	-0.24842706
11	0x3ea3dedb	0.32005963
12	0x3ec43db2	0.3832832
13	0x3c9ee182	0.01939464
14	0xbe317842	-0.17331031
15	0x3db9d150	0.09073126
16	0x3dea1428	0.11429626
17	0xbd422044	-0.047394052
18	0x3d8983a3	0.06714561
19	0x3d488eda	0.04896436
20	0x3c8e84e4	0.017397352
21	0xbdfa96a8	-0.12235767
22	0xbd210066	-0.03930702
23	0xbe802ffc	-0.2503661
24	0xbe381317	-0.17976032
25	0x3dffb4cd	0.12485657
26	0x3dac2cf1	0.084070094
27	0x3e139e6f	0.14415906
28	0xbd6a55f3	-0.057210874
29	0xbd8b4641	-0.06800509
30	0xbdc531d6	-0.09628646
31	0xbd5b53d2	-0.053546734
32	0x3d9337d1	0.071883805
33	0xbe40e7c9	-0.18838419
34	0x3db3f772	0.08787431
35	0x3d7c468b	0.061590713
36	0xbe25aaf3	-0.16178493

lv_svc_W2_lv_svc f4 [37, 1]
0	0x3d499a5a	0.049219467
1	0x3daf138a	0.08548649
2	0x3d264542	0.040593393
3	0xbda6eb68	-0.08150369
4	0x3d257fd8	0.040405124
5	0x3cc5cc5a	0.024145294
6	0x3df9ea7a	0.12202926
7	0xbd9edaca	-0.077565745
8	0xbd5aea87	-0.05344632
9	0xbd21d2d5	-0.039507706
10	0xbe312244	-0.17298228
11	0x3e6915c1	0.22762205
12	0x3e885e79	0.26634577
13	0x3c2a97e0	0.010412186
14	0xbdf6c9fe	-0.12050246
15	0x3d94abae	0.07259308
16	0x3db3aecb	0.087735735
17	0xbcb11bf5	-0.021619776
18	0x3d355f28	0.0442802
19	0x3cff53f4	0.031167962
20	0x3c765a48	0.015036173
21	0xbdd17ea1	-0.10229231
22	0xbcbe2343	-0.023210173
23	0xbe376592	-0.1790984
24	0xbdf5a1c2	-0.119937435
25	0x3da7587a	0.081711724
26	0x3d6895a5	0.056783337
27	0x3da45683	0.08024313
28	0xbd1f5e12	-0.03890807
29	0xbd3f6d46	-0.04673507
30	0xbd60d575	-0.05489107
31	0xbd34988a	-0.044090785
32	0x3d6ccfb9	0.057815287
33	0xbe03ab6b	-0.1285836
34	0x3d4fc999	0.050729368
35	0x3d5fdf1d	0.054656137
36	0xbdea29e5	-0.11433772

lv_mlp_net.0.weight f4 [18, 37]
0	0xbd4ae065	-0.049530406
1	0xbdf1d93b	-0.118090115
2	0xbe200044	-0.15625101
3	0x3e4f492b	0.20242755
4	0xbdb38ab4	-0.0876669
5	0xbe3a23de	-0.18177745
6	0xbe5c1c4b	-0.21495168
7	0x3e0f58e1	0.13998748
8	0x3d644ed6	0.055739246
9	0x3b753d83	0.0037420697
10	0x3debec9e	0.115197405
11	0xbe82e5a4	-0.25565827
12	0xbda76b92	-0.08174814
13	0x3e0b8d2e	0.13628075
14	0x3dce0c5b	0.1006095
15	0xbe0da8ef	-0.13833974
16	0xbe424844	-0.1897288
17	0x3e253878	0.16134822
18	0xbdf03400	-0.11728668
19	0x3d6135af	0.054982837
20	0xbe158025	-0.14599665
21	0x3eab656d	0.3347582
22	0x3e4e613c	0.2015428
23	0x3e1dbb76	0.15403542
24	0x3d37ee40	0.044904947
25	0xbdc73c27	-0.0972827
26	0xbc23cc72	-0.009997474
27	0xbc7f655f	-0.015588134
28	0xbaa4587d	-0.0012538579
29	0xbdeeed2e	-0.11666332
30	0x3d0394d3	0.03212435
31	0x3e81d0c8	0.253546
32	0x3c6b52a2	0.014362963
33	0xbdc8ddb9	-0.09807915
34	0x3d6c6f98	0.05772361
35	0xbd8775db	-0.06614276
36	0xbd116a8f	-0.035502013
37	0x3d204275	0.03912588
38	0xbe3ce0cb	-0.18445127
39	0xbe5bd4e4	-0.2146793
40	0x3e3a15c9	0.18172373
41	0xbdec06d7	-0.11524742
42	0x3dd5d28d	0.1044055
43	0x3e0d844d	0.1382
44	0x3e16a6b1	0.14712025
45	0x3d81dae9	0.06340582
46	0x3e33e543	0.17567925
47	0x3df2e5c7	0.11860233
48	0xbdfbd137	-0.12295764
49	0xbe37d5cc	-0.17952651
50	0xbe024443	-0.12721352
51	0xbd2261de	-0.039644115
52	0xbd207f93	-0.039184164
53	0x3df70a17	0.12062471
54	0xbd2ee020	-0.04269421
55	0xbd5b4492	-0.05353219
56	0xbdc2de52	-0.095150605
57	0xbd384f5a	-0.04499755
58	0x3daa2138	0.08307117
59	0xbe0182a6	-0.12647495
60	0x3dc0893d	0.09401176
61	0x3e85cfcd	0.26135102
62	0xbd2ddb50	-0.04244548
63	0xbd856b18	-0.06514567
64	0xbe1ebb00	-0.15501022
65	0x3d974cfb	0.0738773
66	0xbd7489da	-0.059701778
67	0x3d7737b7	0.06035587
68	0x3e335401	0.17512514
69	0xbce079cc	-0.027401827
70	0x3d1aeaf0	0.03782171
71	0x3d29375e	0.041312568
72	0xbe8fe9c9	-0.2810805
73	0x3e7fc63c	0.24977964
74	0xbd88f625	-0.06687573
75	0x3e06508e	0.13116667
76	0x3dee9b72	0.116507426
77	0xbd8639df	-0.06554007
78	0xbcb34116	-0.021881621
79	0xbd9994e6	-0.07499103
80	0x3d6e4948	0.058175355
81	0xbe165221	-0.14679767
82	0xbc768a07	-0.015047557
83	0xbd1da50d	-0.038487483
84	0xbde5f559	-0.11228437
85	0xbd120b81	-0.035655502
86	0x3e8862b3	0.26637802
87	0xbc082f5e	-0.0083120745
88	0xbe807833	-0.25091705
89	0xbe2e9dc7	-0.17052375
90	0xbe4e8690	-0.20168519
91	0xbd92da67	-0.07170563
92	0xbe8ee1c9	-0.27906635
93	0xbe42a999	-0.19010009
94	0xbc897254	-0.016778149
95	0xbe5523fa	-0.20814505
96	0xbd1f7807	-0.038932826
97	0x3e3d4cb1	0.18486287
98	0xbda223b9	-0.0791697
99	0xbdfdf10d	-0.123994924
100	0x3e932908	0.28742242
101	0xbe21d7c5	-0.15804966
102	0xbe90598e	-0.28193325
103	0xbc00044f	-0.007813527
104	0x3c982e69	0.018576818
105	0xbe3a4c9d	-0.18193288
106	0xbdb83934	-0.08995286
107	0x3cf3ff43	0.029784804
108	0x3c82e2fb	0.015977373
109	0x3c0e5fd4	0.008689839
110	0xbe1cf168	-0.15326464
111	0xbcb0205b	-0.021499803
112	0x3d894939	0.06703419
113	0xbdff5827	-0.124679856
114	0xbce5bfa6	-0.028045487
115	0x3d4f0a20	0.050546765
116	0xbd383d2c	-0.044980213
117	0xbdf71b69	-0.12065775
118	0x3d5d1ede	0.053984515
119	0x3d8b50b2	0.06802501
120	0xbbfe7e82	-0.0077665458
121	0x3d9e5628	0.07731277
122	0x3da47ff5	0.08032218
123	0xbe2076cb	-0.15670316
124	0xbd66eeaa	-0.05637995
125	0xbd5d244b	-0.05398969
126	0xbd0e0200	-0.034669876
127	0xbcfd9ec9	-0.030959504
128	0xbe8242e6	-0.25441664
129	0x3e8c091e	0.27350706
130	0x3d430f18	0.047621816
131	0xbd9024c7	-0.07038265
132	0xbda8e80b	-0.08247384
133	0xbe1c0c02	-0.15238956
134	0x3eccfe1f	0.4003763
135	0xbd50314e	-0.05082827
136	0xbd02ee06	-0.031965278
137	0xbe0ab5ef	-0.13545965
138	0xbd0ac4a0	-0.033878922
139	0x3d5dbc24	0.054134503
140	0x3e873aa2	0.2641192
141	0x3d3ab9d3	0.045587372
142	0xbe1324f0	-0.1436956
143	0x3d91d311	0.07120336
144	0xbd0fdf4c	-0.035125062
145	0x3d927130	0.07150495
146	0xbdba1cb1	-0.09087504
147	0x3d63c86e	0.055611067
148	0x3c97f933	0.018551445
149	0x3d6f5d86	0.0584388
150	0xbdd34702	-0.10316278
151	0xbc65b350	-0.014019802
152	0xbec063f8	-0.3757627
153	0xbc42eef6	-0.011897793
154	0xbcb6161b	-0.022227338
155	0x3e04e1bb	0.12976734
156	0xbdcce362	-0.10004307
157	0x3c28f824	0.010313068
158	0x371d0720	9.359588e-06
159	0xbd900595	-0.07032315
160	0xbd0d0ca2	-0.034435876
161	0x3d56a79a	0.05240593
162	0x3e116175	0.14197333
163	0xbc314595	-0.010819812
164	0x3e03da1e	0.12876174
165	0x3c9c8501	0.01910639
166	0xbe81ef97	-0.25378105
167	0x3dedc71d	0.116102435
168	0xbe865579	-0.26237085
169	0x3ea9cebb	0.33165535
170	0x3da80972	0.082049266
171	0x3ea6002e	0.32422012
172	0x3d83fedb	0.06445094
173	0x3e58892c	0.21146077
174	0xbcc8fd94	-0.024534978
175	0xbe891215	-0.26771608
176	0xbd25d452	-0.040485688
177	0xbe4e0411	-0.20118739
178	0x3e612383	0.21986203
179	0x3e025ecc	0.12731475
180	0x3d2b0dac	0.041761085
181	0x3e4b46df	0.19851254
182	0xbe1654f4	-0.14680845
183	0x3d7fdf68	0.062468916
184	0xbc933ba2	-0.017972771
185	0x3d3cc573	0.04608674
186	0xbc8f00de	-0.017456468
187	0xbdb772be	-0.08957432
188	0x3d970a2f	0.07374989
189	0xbe41fa6e	-0.18943188
190	0xbe16a585	-0.14711578
191	0x3ccad19c	0.024758153
192	0x3e3760af	0.17907976
193	0x3df21307	0.118200354
194	0x3dbe573b	0.09293982
195	0x3e171af8	0.14756382
196	0xbd108fdb	-0.03529344
197	0xbddb403f	-0.10705613
198	0x3eaedb4f	0.34151694
199	0x3c6ec66e	0.0145736765
200	0xbd343526	-0.043996
201	0xbe8006ab	-0.25005087
202	0x3e048788	0.12942326
203	0xbde4aef1	-0.1116618
204	0x3df42f8f	0.119231336
205	0xbea3ae01	-0.31968692
206	0x3ceb6b8d	0.028737808
207	0x3e135d60	0.14391088
208	0x3de0a9f2	0.109699145
209	0x3d618ebd	0.055067766
210	0xbc8fa556	-0.017534893
211	0x3d8cd647	0.06876808
212	0xbdc62266	-0.0967453
213	0xbda80fc8	-0.08206135
214	0xbd8aa5bb	-0.06769892
215	0x3cc62549	0.0241877
216	0x3e837af6	0.2567975
217	0xbe208c80	-0.15678596
218	0xbced418c	-0.02896192
219	0x3da7c17d	0.08191202
220	0x3db1a36b	0.08673748
221	0x3dc75b28	0.097341835
222	0xbd0a6692	-0.033789225
223	0xbd3e2b70	-0.046428144
224	0x3ca884f6	0.020571213
225	0x3d8cb489	0.06870372
226	0xbd881f03	-0.0664654
227	0xbc2be400	-0.010491371
228	0x3dbe322a	0.09286912
229	0x3d6f6780	0.058448315
230	0x3d007ce6	0.031369112
231	0xbde32b1e	-0.11092208
232	0x3d85c543	0.06531765
233	0x3e5a88f1	0.21341302
234	0x3dc92d1b	0.09823056
235	0xbd3eeba5	-0.046611447
236	0xbe03fc46	-0.12889203
237	0x3d557500	0.052113533
238	0x3d874eec	0.0660685
239	0xbe0664a4	-0.13124329
240	0xbdb459a7	-0.08806162
241	0xbe08bbb0	-0.13352847
242	0xbd418674	-0.047247365
243	0xbe668184	-0.22510344
244	0x3e465e5c	0.19371933
245	0x3dc7842d	0.097420074
246	0xbe90cf0b	-0.2828296
247	0xbdb061f3	-0.08612432
248	0x3def53a0	0.11685872
249	0xbd7e35d7	-0.062063064
250	0x3e295e9a	0.16539994
251	0xbe8e1a5c	-0.27754486
252	0x3d9c471f	0.07630753
253	0xbd15f18b	-0.036607306
254	0x3c8ad831	0.016948791
255	0x3b6ce10f	0.0036144888

lv_mlp_net.0.bias f4 [18]
0	0x3d9d9fcd	0.07696495
1	0x3d87303c	0.06600997
2	0xbc1d1432	-0.0095873345
3	0xbe8739d0	-0.26411295
4	0xbe627878	-0.22116268
5	0x3d31f6b8	0.04344818
6	0x3e4374d4	0.19087535
7	0xbe1de4d1	-0.15419318
8	0x3c99bf62	0.018768016
9	0x3df44a7d	0.1192827
10	0x3cd83704	0.026393421
11	0xbd27efd2	-0.041000195
12	0xbdd1f2ef	-0.10251414
13	0xbdb4f457	-0.088356666
14	0x3ea592ee	0.3233866
15	0x3e0a3e27	0.13500272
16	0x3d405301	0.04695416
17	0x3d0683fe	0.03284072

lv_mlp_net.3.weight f4 [1, 18]
0	0xbe56dff2	-0.20983866
1	0xbe47f262	-0.19526055
2	0x3e57efbb	0.21087544
3	0xbe1d1dfe	-0.15343472
4	0xbe9a3cbc	-0.30124462
5	0xbe5d40ce	-0.21606752
6	0x3e9ef2e2	0.3104468
7	0xbc18ac63	-0.009318444
8	0xbe7907b4	-0.24319345
9	0xbe458f49	-0.1929294
10	0x3e466cc7	0.19377433
11	0xbe8e01a5	-0.2773563
12	0x3e0c72af	0.13715623
13	0xbe48ea6b	-0.19620673
14	0x3e379e09	0.1793138
15	0x3ec303c0	0.380888
16	0x3e85b999	0.26118162
17	0xbe440719	-0.19143333
