model/checkpoints/lepori2025_msm/rdkit/model_000.onnx (onnx, 109980 bytes, 14 tensors)

lv_onnx::MatMul_4 f4 [193, 47]
0	0x00000000	0.0
1	0x00000000	0.0
2	0x00000000	0.0
3	0x00000000	0.0
4	0x00000000	0.0
5	0x00000000	0.0
6	0x00000000	0.0
7	0x00000000	0.0
8	0xbf0b2e5f	-0.5436763
9	0x00000000	0.0
10	0x00000000	0.0
11	0xbf0b2e5f	-0.5436763
12	0x00000000	0.0
13	0x00000000	0.0
14	0x00000000	0.0
15	0x00000000	0.0
16	0x00000000	0.0
17	0x00000000	0.0
18	0x00000000	0.0
19	0x00000000	0.0
20	0x00000000	0.0
21	0x00000000	0.0
22	0x00000000	0.0
23	0x3f0b2e5f	0.5436763
24	0x00000000	0.0
25	0x3f0b2e5f	0.5436763
26	0x00000000	0.0
27	0x00000000	0.0
28	0xbf0b2e5f	-0.5436763
29	0x00000000	0.0
30	0x00000000	0.0
31	0x00000000	0.0
32	0x00000000	0.0
33	0x00000000	0.0
34	0x00000000	0.0
35	0x00000000	0.0
36	0x00000000	0.0
37	0x00000000	0.0
38	0x00000000	0.0
39	0x00000000	0.0
40	0x00000000	0.0
41	0x00000000	0.0
42	0x00000000	0.0
43	0x00000000	0.0
44	0x00000000	0.0
45	0x00000000	0.0
46	0x00000000	0.0
47	0x00000000	0.0
48	0x00000000	0.0
49	0x00000000	0.0
50	0xbf0b2e5f	-0.5436763
51	0x00000000	0.0
52	0x00000000	0.0
53	0x00000000	0.0
54	0x00000000	0.0
55	0x00000000	0.0
56	0x00000000	0.0
57	0x00000000	0.0
58	0x00000000	0.0
59	0x00000000	0.0
60	0x00000000	0.0
61	0x00000000	0.0
62	0x00000000	0.0
63	0x00000000	0.0
64	0x00000000	0.0
65	0xbf0b2e5f	-0.5436763
66	0x00000000	0.0
67	0x00000000	0.0
68	0x00000000	0.0
69	0x00000000	0.0
70	0x00000000	0.0
71	0x00000000	0.0
72	0x00000000	0.0
73	0x00000000	0.0
74	0x00000000	0.0
75	0x00000000	0.0
76	0x00000000	0.0
77	0x00000000	0.0
78	0x00000000	0.0
79	0x00000000	0.0
80	0x00000000	0.0
81	0x00000000	0.0
82	0x00000000	0.0
83	0x00000000	0.0
84	0x00000000	0.0
85	0x00000000	0.0
86	0x00000000	0.0
87	0x00000000	0.0
88	0x00000000	0.0
89	0x00000000	0.0
90	0x00000000	0.0
91	0x00000000	0.0
92	0x00000000	0.0
93	0x00000000	0.0
94	0x00000000	0.0
95	0x00000000	0.0
96	0x00000000	0.0
97	0x00000000	0.0
98	0x00000000	0.0
99	0x00000000	0.0
100	0x3f0b2e5f	0.5436763
101	0x00000000	0.0
102	0x00000000	0.0
103	0x00000000	0.0
104	0x00000000	0.0
105	0x00000000	0.0
106	0x00000000	0.0
107	0x00000000	0.0
108	0x00000000	0.0
109	0x00000000	0.0
110	0xbf0b2e5f	-0.5436763
111	0x00000000	0.0
112	0x00000000	0.0
113	0x00000000	0.0
114	0x00000000	0.0
115	0x00000000	0.0
116	0x00000000	0.0
117	0x00000000	0.0
118	0x00000000	0.0
119	0x00000000	0.0
120	0x00000000	0.0
121	0x00000000	0.0
122	0x00000000	0.0
123	0x00000000	0.0
124	0x00000000	0.0
125	0x00000000	0.0
126	0x00000000	0.0
127	0x00000000	0.0
128	0x00000000	0.0
129	0x00000000	0.0
130	0x00000000	0.0
131	0x00000000	0.0
132	0x00000000	0.0
133	0x00000000	0.0
134	0x00000000	0.0
135	0x00000000	0.0
136	0x00000000	0.0
137	0x00000000	0.0
138	0x00000000	0.0
139	0x3f0b2e5f	0.5436763
140	0x00000000	0.0
141	0x00000000	0.0
142	0x00000000	0.0
143	0x00000000	0.0
144	0x00000000	0.0
145	0x00000000	0.0
146	0x00000000	0.0
147	0x00000000	0.0
148	0x00000000	0.0
149	0x00000000	0.0
150	0x00000000	0.0
151	0x00000000	0.0
152	0x00000000	0.0
153	0x00000000	0.0
154	0x00000000	0.0
155	0x00000000	0.0
156	0x00000000	0.0
157	0x00000000	0.0
158	0x00000000	0.0
159	0x00000000	0.0
160	0x00000000	0.0
161	0x00000000	0.0
162	0x00000000	0.0
163	0x00000000	0.0
164	0x00000000	0.0
165	0x00000000	0.0
166	0x00000000	0.0
167	0x00000000	0.0
168	0x00000000	0.0
169	0x00000000	0.0
170	0x00000000	0.0
171	0x00000000	0.0
172	0x3f0b2e5f	0.5436763
173	0x00000000	0.0
174	0x00000000	0.0
175	0x3f0b2e5f	0.5436763
176	0x3f0b2e5f	0.5436763
177	0x00000000	0.0
178	0x00000000	0.0
179	0x00000000	0.0
180	0x00000000	0.0
181	0x00000000	0.0
182	0x00000000	0.0
183	0x3f0b2e5f	0.5436763
184	0x00000000	0.0
185	0x00000000	0.0
186	0x3f0b2e5f	0.5436763
187	0x00000000	0.0
188	0x00000000	0.0
189	0xbf0b2e5f	-0.5436763
190	0x00000000	0.0
191	0x00000000	0.0
192	0x00000000	0.0
193	0x00000000	0.0
194	0x00000000	0.0
195	0x00000000	0.0
196	0x00000000	0.0
197	0x00000000	0.0
198	0x00000000	0.0
199	0x00000000	0.0
200	0x00000000	0.0
201	0x00000000	0.0
202	0x00000000	0.0
203	0x00000000	0.0
204	0x00000000	0.0
205	0x00000000	0.0
206	0x00000000	0.0
207	0x00000000	0.0
208	0x00000000	0.0
209	0x00000000	0.0
210	0x00000000	0.0
211	0x00000000	0.0
212	0x00000000	0.0
213	0x3f0b2e5f	0.5436763
214	0x00000000	0.0
215	0x00000000	0.0
216	0x00000000	0.0
217	0x00000000	0.0
218	0xbf0b2e5f	-0.5436763
219	0x00000000	0.0
220	0x00000000	0.0
221	0x00000000	0.0
222	0x3f0b2e5f	0.5436763
223	0x00000000	0.0
224	0x00000000	0.0
225	0x00000000	0.0
226	0x00000000	0.0
227	0x00000000	0.0
228	0x00000000	0.0
229	0x00000000	0.0
230	0x00000000	0.0
231	0x00000000	0.0
232	0x00000000	0.0
233	0x00000000	0.0
234	0x00000000	0.0
235	0x00000000	0.0
236	0x00000000	0.0
237	0x00000000	0.0
238	0x00000000	0.0
239	0x00000000	0.0
240	0x00000000	0.0
241	0x00000000	0.0
242	0x00000000	0.0
243	0x00000000	0.0
244	0x00000000	0.0
245	0x00000000	0.0
246	0x00000000	0.0
247	0x00000000	0.0
248	0x00000000	0.0
249	0x00000000	0.0
250	0x00000000	0.0
251	0x00000000	0.0
252	0x00000000	0.0
253	0x00000000	0.0
254	0x00000000	0.0
255	0x00000000	0.0

lr_lr_W f4 [193, 1]
0	0x3dfd8796	0.123793766
1	0x3ded8064	0.11596754
2	0x3c413bc0	0.011794031
3	0xbe0bd927	-0.13657056
4	0x3e297315	0.16547807
5	0x3dd0d832	0.10197486
6	0x3dc51f55	0.09625117
7	0xbe1409bd	-0.1445684
8	0x3addcfbb	0.001692287
9	0xbed2e054	-0.41186774
10	0xbec50201	-0.3847809
11	0x3b3ad3a5	0.0028507498
12	0x3d2dc9da	0.04242883
13	0x3d0bc4b6	0.034123145
14	0xbbdba8b5	-0.006703461
15	0x3d9bb258	0.07602376
16	0x3e0ca0ee	0.13733265
17	0x3e1bf9ab	0.1523196
18	0x3e543017	0.2072147
19	0xbe0b4b49	-0.13602938
20	0xbe211b57	-0.15733086
21	0x3c01d3a9	0.007923999
22	0x3db4158b	0.087931715
23	0xbe62f9ef	-0.22165655
24	0x3e544d63	0.20732646
25	0x3dcce8ea	0.10005362
26	0x3e88682a	0.2664197
27	0xbe0d0414	-0.13771087
28	0xbeb12857	-0.3460109
29	0x3ddc2ae7	0.107503705
30	0x3e21d296	0.15802988
31	0x3dbe7bc2	0.09300949
32	0xbe0158f3	-0.12631588
33	0xbd53c08a	-0.05169729
34	0xbe2a5de0	-0.16637373
35	0xbd0c65a8	-0.034276634
36	0x3e64f2c0	0.22358227
37	0xbe86ddd7	-0.26341125
38	0x3d31edae	0.04343956
39	0x3c6321e2	0.013863059
40	0xbda12f3c	-0.07870337
41	0xbe2374bf	-0.15962504
42	0x3dc7c663	0.09754636
43	0x3d54772d	0.051871467
44	0x3d7f45ee	0.06232255
45	0x3d1818a2	0.037132867
46	0x3e16081d	0.14651532
47	0x3eb99591	0.36246923
48	0x3e16081d	0.14651532
49	0xbe20c237	-0.15699087
50	0xbdb9e6a3	-0.090771936
51	0xbc7203f0	-0.014771447
52	0x3e69954f	0.22810863
53	0xbf00115b	-0.5002648
54	0xbd3aa98c	-0.04557185
55	0x3dafddf1	0.08587254
56	0xbd554a9a	-0.0520731
57	0x3d5a070e	0.053229384
58	0xbd5a49f3	-0.05329318
59	0xbd9fa9f7	-0.0779609
60	0x3ddf6c12	0.10909285
61	0x3c8ff40f	0.01757243
62	0x3d57edbc	0.052716956
63	0xbe4123aa	-0.18861261
64	0x3e010089	0.1259786
65	0xbda945b3	-0.08265247
66	0xbe85e594	-0.26151717
67	0xbda78e97	-0.08181494
68	0x3ce3e43f	0.027818797
69	0x3e147bd5	0.14500363
70	0xbcb47dfc	-0.02203273
71	0x3e390822	0.18069509
72	0x3e70a7dc	0.23501533
73	0xbd7c4e62	-0.06159819
74	0xbeaccad5	-0.337485
75	0xbe9272a4	-0.2860309
76	0x3e7a50eb	0.2444493
77	0x3df171ed	0.11789308
78	0x3d60ff6a	0.05493108
79	0x3e3b2ac1	0.18278028
80	0xbe029280	-0.12751198
81	0x3eb725d5	0.3577105
82	0xbd661389	-0.056170974
83	0xbed760db	-0.42066082
84	0x3e4e56b2	0.20150259
85	0xbe6aff70	-0.22949004
86	0x3e7110e3	0.23541598
87	0x3da910d0	0.0825516
88	0xbdb16397	-0.086615734
89	0xbe54683f	-0.20742892
90	0x3d26d595	0.04073103
91	0x3d2cfbb2	0.042232223
92	0x3e657d5a	0.22411099
93	0x3d2a7def	0.041624006
94	0xbd7a8d44	-0.061169878
95	0xbe43ec84	-0.19133192
96	0xbe36c2f7	-0.1784781
97	0x3da764f0	0.08173549
98	0x3e201636	0.15633473
99	0x3ebfdcd1	0.37473157
100	0x3d0cb3c0	0.03435111
101	0x3e6fbba3	0.23411421
102	0xbd8b30a4	-0.06796387
103	0x3bd23b75	0.0064157792
104	0xbd856e08	-0.065151274
105	0x3e541575	0.2071131
106	0xbebecaed	-0.37264195
107	0xbcb7135f	-0.022348104
108	0x3e023c86	0.127184
109	0x3d4cf7a7	0.050040867
110	0x3e96ef32	0.29479367
111	0xbd67a18e	-0.056550555
112	0xbd85c488	-0.06531626
113	0xbd2e9d36	-0.042630397
114	0xbd77a213	-0.0604573
115	0x3e85378b	0.26018938
116	0xbd8afcac	-0.067864746
117	0xbe3247aa	-0.1741015
118	0x3dee947b	0.11649414
119	0xbe8d1010	-0.27551317
120	0x3e5e2fac	0.21697873
121	0x3e531b52	0.2061589
122	0xbda2c8cc	-0.07948455
123	0x3ead776a	0.33880168
124	0x3e1d4c31	0.15361096
125	0xbe29ce64	-0.16582638
126	0xbe2c2971	-0.16812684
127	0xbef6a393	-0.48171672
128	0x3eab1965	0.33417812
129	0xbe9e4720	-0.3091364
130	0x3d913031	0.0708927
131	0x3d87b7d4	0.06626859
132	0xbe153859	-0.14572276
133	0xbcc1a467	-0.023637963
134	0x3e1a1023	0.15045218
135	0xbeb89572	-0.36051518
136	0xbeb89572	-0.36051518
137	0x3c654347	0.013993091
138	0x3e1b677d	0.15176196
139	0xbe024c74	-0.12724477
140	0xbd9e5dbe	-0.07732724
141	0x3e6bbc51	0.23021056
142	0x3d589efa	0.052885987
143	0xbe81accb	-0.25327143
144	0xbcf2b8d1	-0.029629143
145	0xbe4ebc85	-0.20189102
146	0x3e69d561	0.22835304
147	0xbcc1a467	-0.023637963
148	0x3d95b95c	0.07310745
149	0x3e87741e	0.26455778
150	0x3ebedb36	0.3727662
151	0x3de4a7df	0.11164831
152	0x3d57edbc	0.052716956
153	0xbd9e5dbe	-0.07732724
154	0x3e910c6b	0.28329787
155	0x3caa9a67	0.020825578
156	0xbd2fbd10	-0.042904913
157	0xbe4123aa	-0.18861261
158	0x3eafbac9	0.34322193
159	0xbe51d629	-0.20491852
160	0x3dfc14b3	0.123086356
161	0xbf3fdd37	-0.7494692
162	0xbe29611e	-0.16540954
163	0x3d8d5e08	0.06902701
164	0xbd96f8d8	-0.07371682
165	0xbe105960	-0.14096594
166	0x3d9a658a	0.07538898
167	0x3c456991	0.012049095
168	0xbd94168c	-0.07230863
169	0xbe1cfdb5	-0.15331157
170	0x3e1bbfcd	0.15209885
171	0x3c750aaf	0.01495616
172	0x3d8ec393	0.069708966
173	0x3e4af32b	0.19819324
174	0x3e141e9c	0.14464802
175	0x3eb3d109	0.3512042
176	0x3e2dfc63	0.16990809
177	0xbe4181cb	-0.18897168
178	0x3e0e3a37	0.13889395
179	0x3e0e3a37	0.13889395
180	0xbd64055d	-0.055669177
181	0x3e3fedf7	0.1874312
182	0x3e652e06	0.22380838
183	0xbd0b85a4	-0.034062997
184	0x3dd4c7f1	0.10389698
185	0xbde0de2f	-0.10979878
186	0xbdea5184	-0.11441329
187	0xbe10d927	-0.14145337
188	0x3e1dc432	0.15406874
189	0xbcbb257d	-0.022845024
190	0x3e0a1d38	0.13487709
191	0xbdd114e6	-0.10209064
192	0x3f2bd438	0.67120695

svc_W2_svc f4 [193, 1]
0	0xbe3742ac	-0.17896527
1	0x3fc01d94	1.5009027
2	0xbd86b41e	-0.065773234
3	0xbf512350	-0.8169451
4	0x3f055548	0.52083254
5	0xbe8ed719	-0.2789848
6	0x3d5ffa13	0.05468185
7	0x3f05acbf	0.52216715
8	0x3e056abf	0.13029002
9	0xbf462673	-0.7740242
10	0xbfb661be	-1.4248579
11	0x3f5430e1	0.82887083
12	0x3e89fb3a	0.26949483
13	0x3d3d0941	0.046151403
14	0xbf80e95e	-1.0071218
15	0xbf85e291	-1.0459768
16	0x3f2da6b7	0.6783251
17	0xbfb36649	-1.401559
18	0x3eb9adb0	0.36265326
19	0xbea1fec2	-0.31639677
20	0xbf604f26	-0.8762077
21	0xbf27cb55	-0.65544635
22	0x3ed7fd22	0.42185313
23	0xbe33b12a	-0.17548051
24	0x3f187a5f	0.59561723
25	0x3d39fb43	0.045405637
26	0x3e63e4e7	0.22255288
27	0xbddd1a69	-0.10796053
28	0xbe85dca9	-0.26144913
29	0x3db38d9d	0.08767245
30	0x3d6d3ac7	0.057917383
31	0x3da2841c	0.07935354
32	0x3d8d929d	0.0691273
33	0xbf89c900	-1.0764465
34	0xbf020970	-0.5079565
35	0x3e7ea24c	0.24866599
36	0x3e16fa28	0.14743865
37	0xbf681876	-0.90662324
38	0xbeb4fe0e	-0.35350078
39	0x3e706480	0.23475838
40	0xbf93602e	-1.1513727
41	0x3d4bac07	0.049724605
42	0x40145efe	2.3182979
43	0xbeffab2f	-0.4993529
44	0xbe832806	-0.25616473
45	0x3df502ea	0.119634464
46	0x3e7c39ed	0.24631472
47	0x3df564eb	0.11982139
48	0x3e7c39ed	0.24631472
49	0xbf15b4e6	-0.58479154
50	0xbdfc4af8	-0.12318987
51	0xbe1b06eb	-0.15139358
52	0x3f638977	0.8888163
53	0xbf0cc6d0	-0.54990864
54	0x3f570321	0.8398915
55	0x3ebc5fb4	0.36791766
56	0xbf890744	-1.0705342
57	0x3e353fbb	0.17700092
58	0x3e5c4362	0.2151008
59	0x3e826b56	0.25472516
60	0x3edf1ffd	0.43579093
61	0x3f01c144	0.50685525
62	0xbdec59c7	-0.11540561
63	0x3a4bee0a	0.0007779306
64	0xbd8d515f	-0.06900286
65	0xbd2f4e37	-0.0427992
66	0xbdbfa741	-0.09358073
67	0xbd841591	-0.06449426
68	0xbdbb89ca	-0.091571406
69	0x3f39e951	0.7262164
70	0x3f73bc26	0.95208967
71	0x3e90b94d	0.28266373
72	0xbd77b4ef	-0.060475286
73	0xbe1ede37	-0.15514456
74	0xbed0a022	-0.40747172
75	0xbed0856e	-0.407268
76	0x3e8239c8	0.2543471
77	0x3d8a4d6a	0.06753047
78	0x3ee2af86	0.4427454
79	0x3fb82dc2	1.4388964
80	0xbdf9e807	-0.12202459
81	0x3ea0c734	0.3140198
82	0xbd280c4c	-0.041027352
83	0xbea36bdb	-0.31918225
84	0x3ead8301	0.3388901
85	0x3eacfb05	0.33785263
86	0x3f46e207	0.7768864
87	0x3ec8c630	0.39213705
88	0x3d2c64e5	0.042088408
89	0xbefe73db	-0.49697766
90	0xbe8dad31	-0.27671197
91	0xbd8a92f3	-0.067663096
92	0x3def946d	0.11698232
93	0x3ed33180	0.41248703
94	0x3ebe1f3f	0.37133214
95	0xbffe6af5	-1.9876391
96	0xbedaebe7	-0.42758104
97	0xbce2fbb5	-0.027707914
98	0xbeb77213	-0.3582922
99	0x3f03f3d9	0.51543957
100	0x3f862502	1.0480044
101	0x3f5dacff	0.86592096
102	0xbe69b568	-0.22823107
103	0xbeded73f	-0.43523595
104	0xbe106042	-0.1409922
105	0x3f3cbd63	0.7372648
106	0xbe94325f	-0.2894468
107	0xbc38648c	-0.011254441
108	0x3fa17ceb	1.2616247
109	0xbe9acb87	-0.30233404
110	0x3e6cd9f3	0.23130016
111	0x3e3629fa	0.1778945
112	0xbc553ae4	-0.013014529
113	0xbeb0774e	-0.34466022
114	0x3e4e6692	0.20156315
115	0x3f499b24	0.7875235
116	0x3f8d9d46	1.1063621
117	0x3f99bb43	1.2010273
118	0xbf00515a	-0.5012413
119	0xbf8e6c45	-1.1126791
120	0xbdafe128	-0.08587867
121	0x3f4d4baf	0.8019361
122	0x3e7d8242	0.2475672
123	0x4019e67c	2.4046926
124	0x3f8df86b	1.1091436
125	0x3f039229	0.513949
126	0x3e72d91c	0.23715633
127	0xbebaf7f8	-0.3651731
128	0x3f48e154	0.78468823
129	0xbf593dcf	-0.8485994
130	0x3ddd41c8	0.108035624
131	0x3e240b0c	0.16019839
132	0xbe8d89a9	-0.2764409
133	0x3df7383e	0.12071274
134	0x3dfdcc12	0.12392439
135	0xbe571da5	-0.21007402
136	0xbe571da5	-0.21007402
137	0x3f40b52a	0.75276434
138	0x3f5f6a77	0.8727183
139	0xbe2349ba	-0.15946093
140	0xbd6c851a	-0.057744123
141	0x3ed05d43	0.40696153
142	0xbf5ef1cf	-0.8708772
143	0xbfd203db	-1.6407427
144	0x3b81854e	0.0039526587
145	0xbe1aad17	-0.15105091
146	0x3e07564d	0.13216515
147	0x3df7383e	0.12071274
148	0x3c77b0b3	0.015117812
149	0x3e204a71	0.15653397
150	0x3f7664f8	0.96247816
151	0x3caf2c52	0.021383438
152	0xbdec59c7	-0.11540561
153	0xbd6c851a	-0.057744123
154	0xbd4dfacb	-0.050288003
155	0x3c8da8f2	0.017292473
156	0xbf8981a1	-1.0742685
157	0x3a4bee0a	0.0007779306
158	0x3e95bfe0	0.29247952
159	0xbe0895c9	-0.13338389
160	0x3ddb8f9d	0.107207514
161	0xbfa50cd6	-1.2894542
162	0xbe438143	-0.19092278
163	0x3c5844b9	0.0131999785
164	0xbef2ae09	-0.47398403
165	0xbe5dff7d	-0.21679492
166	0x3df8a86c	0.12141499
167	0x3ecb5eb1	0.3972068
168	0xbe9f45c6	-0.3110792
169	0xbdc5ce75	-0.09658519
170	0x3e5fa5ca	0.21840587
171	0x3cce9868	0.025219157
172	0xbcfc57f4	-0.030803658
173	0x3da47b01	0.08031274
174	0x3d9bedaa	0.0761369
175	0x3e8ec1fc	0.27882373
176	0x3d7708aa	0.060310997
177	0xbe1c24c6	-0.15248403
178	0x3e01a43b	0.12660305
179	0x3e01a43b	0.12660305
180	0xbdacca5d	-0.08437035
181	0x3d9c9d1e	0.07647155
182	0x3e9e8610	0.30961657
183	0x3d551595	0.052022535
184	0xbe35011a	-0.17676201
185	0x3c20ca05	0.00981379
186	0xbca4c1a6	-0.02011187
187	0xbd427254	-0.047472313
188	0xbc8a5983	-0.016888386
189	0xbcf38741	-0.02972758
190	0x3d9559dd	0.07292531
191	0xbde8205d	-0.11334298
192	0x3ede2b5b	0.43392453

fs_lr_fs_lr_W f4 [162, 1]
0	0xbe0a954f	-0.13533519
1	0x3e9fcbd1	0.31210187
2	0x3eda1847	0.42596647
3	0x3dcfc2ad	0.10144553
4	0xbe643921	-0.22287418
5	0xbf0f6599	-0.560144
6	0xbf7c345f	-0.9851741
7	0xbc7543c8	-0.014969774
8	0x3c6bed23	0.0143997995
9	0xbca35274	-0.019936778
10	0xbe0197aa	-0.12655511
11	0x3e08fe7d	0.1337833
12	0x3f1998b2	0.5999862
13	0x3ea1a753	0.3157297
14	0x3f254884	0.64563775
15	0xbe7d7486	-0.24751481
16	0xbe61bb73	-0.22044162
17	0xbdd907fe	-0.105972275
18	0x3e3e44df	0.1858096
19	0xbed27807	-0.411072
20	0x3f1983b2	0.59966576
21	0x3d8dc5f6	0.06922524
22	0x3e3eb5bc	0.18624014
23	0xbe796b33	-0.243573
24	0xbecc29f9	-0.39875773
25	0x3e0efa59	0.13962688
26	0x3e4fae03	0.20281224
27	0x3e1cd17b	0.15314285
28	0xbe20b9d9	-0.15695895
29	0xbeafcb0a	-0.34334594
30	0xbe69080f	-0.2275698
31	0xbd1ef126	-0.038804196
32	0x3e678cb9	0.22612275
33	0xbefad5f1	-0.4899135
34	0x3dcfe69b	0.101514064
35	0xbcbcc200	-0.023041725
36	0xbed539c5	-0.41645637
37	0xbdc90a65	-0.09816436
38	0x3e8d2a2b	0.27571234
39	0xbd809e41	-0.062801845
40	0xbd8e304d	-0.069428064
41	0x3aaeeca4	0.0013345671
42	0x3e88ff58	0.26757312
43	0x3ebfa561	0.37430862
44	0x3e88ff58	0.26757312
45	0xbc929a2a	-0.017895777
46	0xbea7337b	-0.32656464
47	0x3f097f44	0.53709817
48	0xbf32f084	-0.6989825
49	0x3dad8949	0.08473451
50	0x3e7a17bf	0.24423121
51	0xbeb21a2b	-0.3478559
52	0x3e2beaf5	0.16788848
53	0xbeb57033	-0.35437164
54	0x3d618351	0.055056874
55	0x3eab5515	0.3346335
56	0x3e8fc5f0	0.28080702
57	0x3dfe8794	0.12428203
58	0xbe93baea	-0.28853542
59	0xbdaaf94a	-0.08348329
60	0xbe99d1f7	-0.30043003
61	0xbe44a4fd	-0.19203563
62	0xbd851b29	-0.06499321
63	0xbe15fba4	-0.14646775
64	0x3f2d6b94	0.67742276
65	0x3d5b8da2	0.05360187
66	0x3e464b30	0.1936462
67	0x3f159c7e	0.58441913
68	0xbeba119e	-0.36341566
69	0xbf036757	-0.5132956
70	0xbf244ddb	-0.641813
71	0x3e9baadf	0.30403802
72	0x3d896809	0.06709296
73	0x3e68aec8	0.22722924
74	0x3f09fdef	0.53903097
75	0x3e3cd4d6	0.18440565
76	0xbe938dd2	-0.28819138
77	0x3f3aa8c5	0.7291377
78	0x3edc3ae5	0.43013683
79	0xbe888d99	-0.2667053
80	0xbe8aeece	-0.2713532
81	0x3dc0f4c4	0.09421685
82	0x3df401e0	0.1191442
83	0x3ec108a5	0.37701908
84	0xbc71f513	-0.014767903
85	0xbd3f4c7e	-0.046703808
86	0xbf1e32d5	-0.61796314
87	0x3a8d9d49	0.0010804321
88	0x3eb75067	0.3580353
89	0x3ea114fb	0.3146132
90	0xbe2d3409	-0.16914381
91	0xbdad4c7a	-0.08461852
92	0xbd838f18	-0.06423777
93	0x3eb585eb	0.35453734
94	0xbf1925a1	-0.5982304
95	0xbe875e56	-0.2643916
96	0x3ef9e196	0.4880492
97	0xbec715f8	-0.38883948
98	0x3eb7a57f	0.3586845
99	0x3ed0b13a	0.40760213
100	0xbdb2130d	-0.0869504
101	0xbe4e1270	-0.20124221
102	0x3f0f9213	0.56082267
103	0xbe4e5b9f	-0.20152138
104	0xbe8aa5cf	-0.27079627
105	0x3e647deb	0.22313659
106	0xbf4e8a11	-0.8067942
107	0x3f1fcdc8	0.6242337
108	0x3e26056f	0.1621301
109	0xbd1c701a	-0.038192846
110	0x3f80445d	1.0020863
111	0x3ed61fec	0.4182123
112	0xbe8aeb75	-0.27132764
113	0xbe6dff1e	-0.2324185
114	0xbf217ab2	-0.63077843
115	0xbd362c17	-0.04447564
116	0x3e42072f	0.18948053
117	0xbdc1c336	-0.09461062
118	0xbb843bb3	-0.004035437
119	0x3e55d69f	0.20882653
120	0xbed377e7	-0.41302416
121	0xbed377e7	-0.41302416
122	0x3f05533f	0.5208015
123	0xbdc19b56	-0.09453456
124	0x3f466aa1	0.7750645
125	0xbe9be26d	-0.30446187
126	0xbd40969e	-0.04701864
127	0x3e47637f	0.19471548
128	0xbb843bb3	-0.004035437
129	0x3e96b75e	0.29436773
130	0x3f86495a	1.0491135
131	0x3dfe8794	0.12428203
132	0xbdc19b56	-0.09453456
133	0x3eb83492	0.35977608
134	0xbd5eaa88	-0.05436185
135	0xbd1afef2	-0.03784079
136	0xbe93baea	-0.28853542
137	0x3e9824cf	0.29715583
138	0xbe616c10	-0.22013879
139	0x3cc0deb5	0.023543695
140	0x3db65047	0.089020304
141	0xbe6a7453	-0.22895937
142	0xbdbbd8bf	-0.091722004
143	0xbe47b2b2	-0.1950176
144	0x3e9c2135	0.30494085
145	0x3d9ee604	0.07758716
146	0x3e116e9a	0.14202347
147	0x3d74208f	0.059601363
148	0x3f09eb1f	0.5387439
149	0x3ead0a77	0.33797047
150	0xbe6107fb	-0.219757
151	0x3e3aed35	0.1825455
152	0x3e3aed35	0.1825455
153	0xbcbf0712	-0.023318801
154	0x3e443e08	0.19164288
155	0xbd3b7d39	-0.04577372
156	0xbd157aa1	-0.0364939
157	0xbe3e8bb5	-0.18607982
158	0x3e3f97b0	0.18710208
159	0x3d76c553	0.060246777
160	0xbdea838d	-0.114508726
161	0x3f2e8421	0.6817036

fs_svc_W2_fs_svc f4 [162, 1]
0	0xbe99ad7d	-0.30015174
1	0x3f200e86	0.6252216
2	0x3ee9efcc	0.45690763
3	0x3d21068f	0.039312895
4	0x3f0f8fc5	0.5607875
5	0xbf400d40	-0.7502022
6	0xbfc437cd	-1.5329529
7	0x3b0fb049	0.0021925143
8	0xbf4f836a	-0.81059897
9	0xbf6dc53c	-0.9287908
10	0xbff933a4	-1.9468884
11	0xbdac64b0	-0.08417642
12	0x400c2b0f	2.190128
13	0xbe23a6cc	-0.15981597
14	0x3dcdc42f	0.10047185
15	0x3e9d2fe9	0.30700615
16	0xbf757631	-0.9588347
17	0xbf51a341	-0.8188973
18	0x3f2f0732	0.68370354
19	0xbe63b94c	-0.22238654
20	0x3eeb71ee	0.4598536
21	0xbbca51f6	-0.0061743213
22	0x3e14f1de	0.1454539
23	0xbe1bec4d	-0.1522686
24	0xbe892ef3	-0.26793632
25	0x3d8f52f5	0.06998245
26	0x3d184dcf	0.03718358
27	0x3d8d1dec	0.06890473
28	0xbdc98d4b	-0.098414026
29	0xbfa83a28	-1.3142748
30	0xbf03e5f2	-0.51522744
31	0x3e830922	0.25592905
32	0x3defe2c3	0.11713173
33	0xbf02e4fb	-0.51130646
34	0xbee8e7dd	-0.45489398
35	0x3e0b6121	0.1361127
36	0xbfafd1dc	-1.3735919
37	0x3d3d4878	0.04621169
38	0x4057efd6	3.3740134
39	0xbf02abd6	-0.5104345
40	0xbe4e2e11	-0.2013476
41	0xbd728552	-0.059209175
42	0x3e6a3975	0.2287348
43	0xbf18d5f6	-0.5970148
44	0x3e6a3975	0.2287348
45	0xbd8562ed	-0.06513009
46	0xbf12b834	-0.5731232
47	0x3f37a754	0.717397
48	0xbfa152d9	-1.2603408
49	0x3ef3474e	0.4751534
50	0x3f0fcaab	0.5616862
51	0xbfa54047	-1.2910241
52	0xc020a2de	-2.5099406
53	0xbdcf7a28	-0.10130721
54	0x3eaeb55e	0.34122747
55	0x3ec6c70a	0.3882373
56	0x3f0a29e7	0.5397019
57	0xbd9c02ba	-0.076177076
58	0x3ca7a6e2	0.020465318
59	0x3db1aaca	0.086751536
60	0x3d93ebb0	0.07222688
61	0xbab2c71c	-0.0013639661
62	0xbdf291b4	-0.11844197
63	0xbe7fd4b4	-0.24983484
64	0x406fc6f2	3.7465177
65	0x3fe56f46	1.7924583
66	0x3ebb2c0b	0.3655704
67	0x3e71f184	0.23627287
68	0xbe9dca75	-0.30818525
69	0xbec740a6	-0.3891651
70	0xbf02fa9a	-0.5116364
71	0x3e59a204	0.2125321
72	0x3ea8197d	0.32831946
73	0x3f061602	0.5237733
74	0x3ecc17f0	0.39862013
75	0x3e063587	0.13106357
76	0xbe33eca7	-0.17570744
77	0x3f2d83f6	0.6777948
78	0x3eb37778	0.35052085
79	0xbe3be26d	-0.18348093
80	0xbe86f467	-0.2635834
81	0xbbaa6a57	-0.005200665
82	0x3dcf50b7	0.10122817
83	0x3ea49062	0.32141405
84	0x3eaf442d	0.34231701
85	0x3f00bb26	0.50285566
86	0xc00f3c78	-2.2380657
87	0xbe1d4c59	-0.15361156
88	0x3f1e03e0	0.6172466
89	0x3e3d5d05	0.18492515
90	0xbe612194	-0.21985465
91	0xbe38289f	-0.17984246
92	0xbe2e2505	-0.1700631
93	0x3f2200e3	0.63282603
94	0xbf0abbf6	-0.54193056
95	0xbec4d417	-0.38443062
96	0x3e7e3d57	0.24828087
97	0xbf134604	-0.5752871
98	0x3e993be0	0.29928493
99	0x3ed30f3f	0.4122257
100	0xbf00fb45	-0.50383407
101	0xbc8e5538	-0.01737462
102	0x3f0a873c	0.541126
103	0x3f0eedb9	0.55831486
104	0x3fa3578b	1.2761091
105	0x3e4a282d	0.19741888
106	0xbf1d622b	-0.6147792
107	0x3ef1b85f	0.47210976
108	0x3e6fa606	0.23403177
109	0x3e051fb4	0.13000375
110	0x401848b8	2.3794384
111	0x3f870ba3	1.0550426
112	0x3f47bc8d	0.7802208
113	0x3ec57153	0.38563022
114	0xbeae15e7	-0.34001085
115	0xbd3edcea	-0.0465974
116	0x3e375938	0.17905128
117	0xbe871209	-0.26380947
118	0x3dbb21d3	0.09137311
119	0x3e160766	0.1465126
120	0xbe36b20b	-0.17841356
121	0xbe36b20b	-0.17841356
122	0x3fdcc7d3	1.7248482
123	0xbcea7aad	-0.02862295
124	0xbe043baf	-0.12913392
125	0xbfbe1a5e	-1.4851797
126	0x3accc0f8	0.0015621474
127	0x3decee51	0.11568893
128	0x3dbb21d3	0.09137311
129	0x3e079e7f	0.13244055
130	0x3f927010	1.1440449
131	0xbd9c02ba	-0.076177076
132	0xbcea7aad	-0.02862295
133	0x3e91b6cb	0.28459772
134	0xbcfb61b3	-0.030686235
135	0xbe3bd0d7	-0.18341385
136	0x3ca7a6e2	0.020465318
137	0x3e807b93	0.2509428
138	0xbddcc5ba	-0.10779901
139	0xbe5314dc	-0.20613426
140	0x3d0e4f5f	0.034743663
141	0xbe7a8e62	-0.24468377
142	0xbdda7c8b	-0.10668286
143	0xbdacf914	-0.084459454
144	0x3e8c9b31	0.27462152
145	0x3d814ee0	0.06313872
146	0x3dc533fd	0.096290566
147	0x3dcdc7b5	0.10047857
148	0x3e946337	0.28981945
149	0x3e245b78	0.16050518
150	0xbe19a2e0	-0.15003538
151	0x3e17f696	0.14840159
152	0x3e17f696	0.14840159
153	0xbcf97b9a	-0.030454446
154	0x3da61cf6	0.081109926
155	0xbc4f2d20	-0.012645036
156	0xbd0cbe59	-0.034361217
157	0xbdbcc371	-0.09216965
158	0x3dfadb30	0.12248838
159	0xb9b227cc	-0.00033980457
160	0xbd84ac71	-0.06478203
161	0x3eedf6c3	0.46477327

mfs_lr_mfs_lr_W f4 [52, 1]
0	0x3d46c9e9	0.0485324
1	0x3f9b191b	1.2117037
2	0x3d932996	0.07185666
3	0xbf61e5e2	-0.882414
4	0x3f43975f	0.7640285
5	0x3e368bc7	0.17826758
6	0x3df0b651	0.11753524
7	0xbed50a73	-0.41609535
8	0xbea90731	-0.330133
9	0xbf0ccff6	-0.55004823
10	0xc00edc7e	-2.2322078
11	0xbfc6f526	-1.5543563
12	0x3ff8f6b8	1.9450293
13	0x3ea12ce5	0.31479564
14	0x3e6a4b5d	0.22880311
15	0x3f2ce1c4	0.6753199
16	0xbecde810	-0.40216112
17	0x3f2903be	0.66021335
18	0xbf403332	-0.7507812
19	0x3e34311d	0.1759686
20	0xbef70510	-0.4824605
21	0xc0067983	-2.1011665
22	0x3ee185fd	0.44047537
23	0xbe79e47a	-0.24403563
24	0x3e402e52	0.1876767
25	0x3f25c857	0.6475882
26	0x3e402e52	0.1876767
27	0x3daeddbd	0.08538387
28	0xbe96137f	-0.2931175
29	0xbeeefef3	-0.46678886
30	0x3e3e998a	0.18613258
31	0xbe12fa81	-0.14353372
32	0xbf83d579	-1.0299522
33	0x400c66be	2.193771
34	0xbe1a0eaf	-0.15044664
35	0x3ecf13ee	0.40444893
36	0x3f30046b	0.6875674
37	0x3e871744	0.26384938
38	0x3fc9985a	1.5749619
39	0x3edd87dc	0.43267715
40	0xbeebe426	-0.460725
41	0xbf58320a	-0.84451354
42	0xbfb68d06	-1.4261787
43	0xbf75bf77	-0.9599528
44	0x3c828a2b	0.015935024
45	0x3f4022e1	0.7505322
46	0x3f038697	0.5137724
47	0x3d832888	0.06404215
48	0xbe619525	-0.2202955
49	0xbe4b5124	-0.19855171
50	0x3f25116b	0.644797
51	0x3e62d1f1	0.22150399

mfs_svc_W2_mfs_svc f4 [52, 1]
0	0xbd3ab6d0	-0.0455845
1	0x3f8fa7b9	1.122306
2	0x3c6041e6	0.013687586
3	0xbf660c74	-0.8986275
4	0x3f4aae2e	0.7917203
5	0x3ad0302b	0.0015883496
6	0x3d38ac91	0.045086447
7	0xbf296c8c	-0.66181254
8	0xbe5a0901	-0.21292497
9	0xbf3de53d	-0.74177915
10	0xc0365fdf	-2.8496015
11	0xbf0bc54d	-0.5459793
12	0x3fb5d0f9	1.4204398
13	0x3eaf000d	0.34179726
14	0x3e34fe7d	0.17675205
15	0x3e2edb5a	0.17075863
16	0xbee790eb	-0.4522775
17	0x3f3c5548	0.7356763
18	0xbf872c61	-1.0560418
19	0x40478a99	3.1178343
20	0xbec83202	-0.39100653
21	0xc09eecd0	-4.966408
22	0x3e0580be	0.13037392
23	0xc0823a95	-4.069651
24	0x3df77359	0.12082548
25	0x3edf9ab1	0.43672708
26	0x3df77359	0.12082548
27	0xbd75911d	-0.059952844
28	0xbe5c226f	-0.2149751
29	0xbe93fa30	-0.28901815
30	0x3e4ca565	0.19984968
31	0xbe6f6fce	-0.23382494
32	0xbf6e201c	-0.93017745
33	0x408783a5	4.23482
34	0xbeccc17d	-0.3999137
35	0x3ec7c20f	0.39015242
36	0x3efee269	0.49782112
37	0x3e44b18d	0.19208355
38	0x4089e6cb	4.309423
39	0x3e9259bc	0.28584087
40	0xbedc23ed	-0.4299616
41	0xbf2d6fac	-0.6774852
42	0xbfa5b213	-1.2944969
43	0xbf10a353	-0.56499213
44	0x3c54a9df	0.012979954
45	0x3f077eb7	0.52927727
46	0x3eb85f75	0.36010328
47	0x3d25909e	0.04042112
48	0xbe5f5977	-0.21811472
49	0xbe819373	-0.25307807
50	0x3f15397a	0.5829083
51	0x3e33a794	0.17544395

lv_lr_lv_lr_W f4 [47, 1]
0	0x3c61704b	0.013759683
1	0xbd045f3d	-0.03231739
2	0x3e471ae5	0.19443853
3	0x3d1d44a3	0.038395535
4	0xbd9eabb6	-0.07747595
5	0xbde8e972	-0.11372651
6	0xbe1a3d41	-0.15062429
7	0xbe9d93d1	-0.30776837
8	0xbd7bd233	-0.06147976
9	0x3df32e7d	0.11874101
10	0x3d945ff0	0.07244861
11	0x3d8a6bda	0.06758852
12	0xbea868f6	-0.3289258
13	0xbe89a9fb	-0.26887497
14	0xbdd4d632	-0.10392417
15	0xbe910a3d	-0.28328124
16	0xbe6e0424	-0.23243767
17	0xbe455bd6	-0.19273314
18	0x3bc5e0e4	0.006038772
19	0xbe7ef1ab	-0.24896877
20	0xbd3b5a3a	-0.045740344
21	0xbe306b1a	-0.17228356
22	0x3ddd9220	0.10818887
23	0xbcb9cd81	-0.022681
24	0x3e379f49	0.17931856
25	0x3eaae662	0.33378893
26	0x3d2feabc	0.04294847
27	0xbeddd62c	-0.43327463
28	0xbe074bcd	-0.1321251
29	0x3b053d58	0.0020330753
30	0x3e5bbe1f	0.21459244
31	0xbe02366e	-0.12716076
32	0xbe05afee	-0.13055393
33	0x3d88f581	0.06687451
34	0x3b071758	0.002061328
35	0x3e6d915b	0.2319998
36	0xbdc36210	-0.09540188
37	0xbec362d0	-0.38161325
38	0x3e3a2947	0.18179809
39	0xbdaa636d	-0.08319745
40	0x3dfbafb3	0.12289371
41	0x3d810e51	0.06301559
42	0x3d736749	0.059424672
43	0xbe2ac824	-0.1667791
44	0x3d8200c0	0.06347799
45	0xbe2a69d4	-0.16641933
46	0x3ebb1a87	0.36543676

lv_svc_W2_lv_svc f4 [47, 1]
0	0x3ca72d50	0.020407349
1	0xbd1e407c	-0.038635716
2	0x3e22a280	0.15882301
3	0x3d08faf8	0.033442467
4	0xbd5ddc40	-0.054165125
5	0xbdd61b3a	-0.10454412
6	0xbe02149d	-0.12703176
7	0xbe824597	-0.25443718
8	0xbd550c2b	-0.052013557
9	0x3dbb99e8	0.09160215
10	0x3d5e1ddf	0.054227706
11	0x3d8a1374	0.06741992
12	0xbe861d1c	-0.26194084
13	0xbe4786c6	-0.19485006
14	0xbda880b9	-0.08227677
15	0xbe5bf050	-0.2147839
16	0xbe47246b	-0.19447486
17	0xbe252219	-0.16126288
18	0x3ba74b7e	0.005105435
19	0xbe68d385	-0.22736938
20	0xbd56953d	-0.05238842
21	0xbe1251aa	-0.14288965
22	0x3da8093b	0.082048856
23	0xbcf6c68b	-0.03012397
24	0x3e1cca45	0.15311535
25	0x3e8aa033	0.27075347
26	0x3d060eea	0.032729067
27	0xbea9193f	-0.33027074
28	0xbdfa4509	-0.12220199
29	0x3a6dc1cb	0.000906971
30	0x3e34d43e	0.17659089
31	0xbdcca5c3	-0.09992554
32	0xbdef651a	-0.116892055
33	0x3d8ae110	0.067812085
34	0x3bffd8c1	0.0078078215
35	0x3e43caa1	0.19120266
36	0xbdc8eb64	-0.09810522
37	0xbea49087	-0.32141516
38	0x3e2c5873	0.16830616
39	0xbd4aa5fa	-0.049474694
40	0x3de825d2	0.11335339
41	0x3d4b725d	0.049669612
42	0x3d737bf3	0.05944438
43	0xbe0eeb53	-0.13956957
44	0x3d9a9670	0.07548225
45	0xbe10a0e4	-0.14123875
46	0x3e903b2d	0.28170148

lv_mlp_net.0.weight f4 [10, 47]
0	0xbd9d4292	-0.07678713
1	0xbe17dc0b	-0.14830033
2	0x3ef568b1	0.47931436
3	0xbd9cba96	-0.07652776
4	0x3ede4503	0.43412027
5	0x3e949e22	0.29026896
6	0x3db6dbad	0.089286186
7	0x3e4ad860	0.19809103
8	0xbec83f79	-0.39110926
9	0xbe1459d0	-0.14487386
10	0x3f28f28a	0.65995085
11	0x3c8740af	0.016510336
12	0xbc97dea4	-0.01853878
13	0xbf0f6956	-0.56020105
14	0x3ce3535d	0.027749712
15	0xbf245b1f	-0.6420154
16	0xbebf5eca	-0.37377006
17	0x3f1bd3fd	0.60870343
18	0xbe0631df	-0.13104962
19	0xbe36b6eb	-0.17843215
20	0xbd594928	-0.053048283
21	0xbe551942	-0.20810416
22	0x3e003684	0.12520796
23	0x3d3caede	0.046065204
24	0x3e995628	0.29948545
25	0xbee82a5c	-0.45344818
26	0xbeaeab5a	-0.34115106
27	0xbe6601bb	-0.22461598
28	0x3e862310	0.26198626
29	0x3ddb2d27	0.107019715
30	0xbe0413ee	-0.12898228
31	0xbeaae365	-0.33376613
32	0xbefc7a23	-0.49311933
33	0x3dd10e45	0.102078
34	0xbf04f4c6	-0.51935995
35	0xbd80cf81	-0.06289578
36	0x3f416903	0.7555086
37	0xbe62bdf1	-0.2214277
38	0x3ea5cde2	0.3238364
39	0x3ecbaad9	0.39778784
40	0xbf58550a	-0.8450476
41	0xbdb51605	-0.088420905
42	0x3eb3a8a6	0.35089606
43	0xbf54651f	-0.829668
44	0xbe052c0e	-0.13005087
45	0x3dd1b444	0.10239461
46	0xbe41650a	-0.188862
47	0x3e03e9f8	0.12882221
48	0x3daa9a99	0.083302684
49	0x3c8bc18a	0.01706006
50	0x3e363963	0.17795329
51	0xbf0210b0	-0.50806713
52	0xbd407dc9	-0.046994958
53	0xbe11618b	-0.14197366
54	0xbeb8af5f	-0.36071298
55	0xbe4c07ed	-0.19924898
56	0x3ee54dde	0.4478597
57	0xbe624868	-0.22097933
58	0x3cac80ed	0.02105757
59	0xbee61110	-0.44934893
60	0x3daefec9	0.0854469
61	0x3e168c66	0.14701995
62	0xbe722305	-0.23646171
63	0xbeb865fc	-0.36015308
64	0xbf39afe4	-0.7253401
65	0xbe24a730	-0.16079402
66	0x3cff6aa3	0.031178778
67	0xbee36efb	-0.4442061
68	0x3dd2aa34	0.1028637
69	0xbd93a416	-0.07209031
70	0xbdaa906d	-0.08328328
71	0xbe5033b6	-0.20332226
72	0x3eef125e	0.466937
73	0x3d91dc6c	0.0712212
74	0xbee3fbc7	-0.44528028
75	0x3ef6610a	0.4812091
76	0xbcee8d90	-0.029120237
77	0x3f04b426	0.51837385
78	0xbea60a9e	-0.32429975
79	0x3e50c1d1	0.20386435
80	0x3f02ffbf	0.5117149
81	0xbd8c2480	-0.06842899
82	0x3df1a18c	0.11798391
83	0xbf5b075b	-0.855581
84	0xbd08dd01	-0.03341389
85	0xbe026826	-0.12735042
86	0xbf218040	-0.6308632
87	0x3f06b831	0.52624804
88	0x3eaa1e40	0.33226204
89	0x3eb363ff	0.35037228
90	0xbe7b3f2f	-0.24535821
91	0xbf0df8cf	-0.55457777
92	0x3cedde45	0.02903665
93	0x3e623530	0.22090602
94	0x3d882d60	0.066492796
95	0xbf40973b	-0.7523076
96	0xbe608e65	-0.21929319
97	0x3e617fc0	0.22021389
98	0xbec5da05	-0.38642898
99	0xbee71122	-0.4513026
100	0xbe6e5528	-0.23274672
101	0x3dda5904	0.1066151
102	0x3dcd2521	0.100168474
103	0xbf08a784	-0.5338061
104	0x3d5385c2	0.051641233
105	0xb88a52e0	-6.5957895e-05
106	0x3ef39817	0.47576973
107	0x3ebdbca5	0.37057987
108	0x3e60a2dc	0.21937126
109	0xbce4f662	-0.027949516
110	0x3ec95abd	0.3932704
111	0xbcdac3a9	-0.026704626
112	0x3df850ef	0.12124812
113	0x3ede8097	0.4345748
114	0xbe5581ec	-0.20850343
115	0xbe8eae17	-0.27867195
116	0xbeb5a939	-0.3548067
117	0x3df7eb4b	0.121054254
118	0xbe5aa53a	-0.21352091
119	0xbf64e5ae	-0.89412963
120	0xbf31c6da	-0.6944405
121	0x3f7abb46	0.97942007
122	0x3c2ec5f3	0.010667312
123	0x3eecc589	0.46244457
124	0xbf0712da	-0.5276314
125	0x3e9d90c2	0.30774504
126	0x3e0a2dd7	0.13494049
127	0x3e8df600	0.27726746
128	0x3ebed7ab	0.37273917
129	0xbd0735d1	-0.033010308
130	0xbe23d9f1	-0.16001107
131	0x3f489471	0.78351504
132	0x3ec072ed	0.3758768
133	0x3dfe1426	0.12406187
134	0xbc3248c1	-0.010881604
135	0xbe8298d0	-0.25507212
136	0xbe2d0c08	-0.16899121
137	0xbf2d178c	-0.67614055
138	0xbe5d6f99	-0.21624602
139	0x3efb1034	0.490358
140	0x3d5bb7b7	0.053642
141	0x3e4a4fcd	0.19757004
142	0xbec3be4c	-0.38231122
143	0x3ddab3db	0.10678836
144	0x3f18f1c2	0.59743893
145	0xbea2732e	-0.317285
146	0xbea992b7	-0.33119747
147	0xbd8a5a70	-0.06755531
148	0xbf02d6be	-0.5110892
149	0xbdf69ac0	-0.12041235
150	0x3dd29080	0.102814674
151	0x3e8d039d	0.2754182
152	0x3dfc27ae	0.12312256
153	0xbf8035ad	-1.001638
154	0xbe0f372a	-0.13985887
155	0x3eeb8d17	0.4600608
156	0xbe973360	-0.29531384
157	0x3f0c3f32	0.5478393
158	0xbec7c2cb	-0.39015803
159	0xbefd3dad	-0.49461117
160	0xbf12ad86	-0.57296026
161	0xbe5bf8d6	-0.21481642
162	0x3f190df2	0.59786904
163	0xbdd74238	-0.10510677
164	0xbe9b5b01	-0.30342868
165	0x3eac782a	0.33685428
166	0x3dc3f239	0.09567685
167	0x3f540ed9	0.82835156
168	0xbeb44f21	-0.3521662
169	0x3cb0d455	0.021585623
170	0x3c8eb927	0.017422272
171	0xbe27e558	-0.16396081
172	0xbe40c258	-0.18824136
173	0x3f026dc9	0.5094877
174	0x3e20c46b	0.15699928
175	0x3e192e78	0.14959133
176	0x3d8a01e0	0.06738639
177	0xbdfb3bff	-0.12267303
178	0xbea5d607	-0.32389852
179	0xbeb3d8f3	-0.35126457
180	0xbeba8bf2	-0.36434895
181	0x3e871880	0.2638588
182	0x3f230c93	0.6369106
183	0x3e525eb0	0.20543933
184	0xbe6c38ec	-0.23068589
185	0xbebe92e3	-0.3722144
186	0xbda0db98	-0.07854384
187	0x3f0598c1	0.5218621
188	0x3e364ef5	0.17803557
189	0xbec476e6	-0.38371962
190	0xbefe07bb	-0.49615273
191	0x3e36f751	0.17867781
192	0x3e051792	0.12997273
193	0x3abbc615	0.0014326001
194	0x3eb642e6	0.35597914
195	0xbda90a2b	-0.082538925
196	0xbe2419ef	-0.16025518
197	0x3ca52809	0.020160692
198	0xbe8a529b	-0.27016148
199	0x3f390fd6	0.7228979
200	0xbc291660	-0.010320276
201	0x3e1341ae	0.14380524
202	0xbf0dad9c	-0.5534303
203	0x3eaa2f93	0.3323942
204	0x3f1bf391	0.6091853
205	0x3f08f5cf	0.53500074
206	0x3a715d2a	0.0009207303
207	0x3e02d064	0.12774807
208	0xbdccede3	-0.10006311
209	0xbd6f0a28	-0.058359295
210	0x3ea632fb	0.3246077
211	0x3ea36373	0.3191181
212	0x3ea55e8e	0.32298702
213	0xbf465941	-0.7747994
214	0xbf4ae339	-0.79252964
215	0x3e512c52	0.20427063
216	0x3e7c056e	0.24611446
217	0xbe06ff1b	-0.13183253
218	0xbdad7d8e	-0.08471213
219	0xbe6bfc4c	-0.23045462
220	0x3e358029	0.1772467
221	0x3f2e98b9	0.68201786
222	0xbed170e6	-0.40906447
223	0xbc135f98	-0.008994959
224	0x3efaa336	0.48952645
225	0x3fbf07a5	1.4924208
226	0xbf44398a	-0.766503
227	0xbd448943	-0.047982465
228	0x3e58d7da	0.21176091
229	0xbe8b95d1	-0.27262738
230	0xbc00dd86	-0.007865315
231	0x3f1d802b	0.61523694
232	0x3e445202	0.19171908
233	0x3e93adb9	0.28843477
234	0xbef74f90	-0.4830289
235	0x3eba540f	0.36392257
236	0x3eecced8	0.4625156
237	0xbe9a5a96	-0.30147237
238	0xbda7ea3c	-0.081989735
239	0xbe90dcbf	-0.28293416
240	0x3f2f00aa	0.6836039
241	0x3f026dc4	0.5094874
242	0xbe5601a7	-0.20899068
243	0xbf04b5c6	-0.51839864
244	0x3bc18148	0.005905304
245	0xbe0e95ce	-0.13924333
246	0xbc614cf2	-0.013751255
247	0x3f0b9cff	0.5453643
248	0x3ee53f9c	0.44775093
249	0xbee7a0c5	-0.45239845
250	0x3eece9c0	0.46272087
251	0x3eb21c92	0.34787422
252	0x3ebb9d97	0.3664367
253	0xbf15799d	-0.5838869
254	0x3ddf984f	0.109177224
255	0x3f848731	1.0353757

lv_mlp_net.0.bias f4 [10]
0	0xbf19e148	-0.60109377
1	0xbf0e2a5c	-0.55533385
2	0xbf8436cc	-1.0329223
3	0xbef936c0	-0.48674583
4	0xbfa132fe	-1.2593687
5	0xbf917361	-1.1363336
6	0xbf8fd898	-1.1237974
7	0xbf0cb8b3	-0.5496933
8	0xbf2fb12a	-0.68629706
9	0xbf0c2c9e	-0.5475558

lv_mlp_net.3.weight f4 [2, 10]
0	0x3ea645b1	0.32475045
1	0x3eb46b34	0.3523804
2	0xbf19d8a9	-0.6009622
3	0x3eca47ad	0.3950781
4	0xbf04b27a	-0.51834834
5	0xbed16d96	-0.4090392
6	0x3e8e514d	0.27796403
7	0xbf70da44	-0.94083047
8	0x3f174202	0.59085095
9	0x3e9c33a0	0.30508137
10	0x3db61820	0.0889132
11	0x3e72a030	0.23693919
12	0xbf123e93	-0.5712673
13	0x3ea49090	0.32141542
14	0xbe871809	-0.26385525
15	0xbf443912	-0.7664958
16	0x3e33567c	0.1751346
17	0xbf0e043d	-0.5547522
18	0x3eeb9be4	0.46017373
19	0x3e297bc8	0.16551125

lv_mlp_net.3.bias f4 [2]
0	0x3f2b4f16	0.6691755
1	0x3f983954	1.1892495

lv_mlp_net.6.weight f4 [1, 2]
0	0x3eeca24f	0.46217582
1	0x3f3ab485	0.729317
